results/Run2/config/config-0.pt (torch, 551439 bytes, 10 tensors)

network_body._body_endoder.seq_layers.0.weight f4 [256, 6]
-0.41136312 0.7790042 -0.1528328 0.41161257 0.48931125 -0.09421895 0.020765603 0.40489653
-0.19644713 -0.13840742 0.046480227 -0.2262227 0.06016106 -0.31631726 0.04147001 -0.21295704
0.55521816 -0.28542748 -0.08662476 0.22486442 0.26300764 -0.78473806 -0.083866626 0.63097495
0.8814251 -0.30408916 -0.19085029 0.06296085 0.4302068 0.2381296 0.20697626 0.3284181
-0.38520765 -0.33055133 -0.46946043 0.18553068 0.26984406 -0.42834038 0.19252136 0.2661336
-0.21046074 -0.24179715 -0.33586955 0.17334189 -0.35569283 0.29865262 0.0386285 0.018461786
-0.18014248 -0.10981789 -0.009321497 0.70843077 -0.30206272 0.13923194 0.044520706 0.09069039
-0.37048036 -0.41567189 0.16503473 -0.5097691 0.30957577 0.7955886 -0.040227845 0.49608618
-0.18787777 -0.7295683 0.17790163 -0.14869697 0.33586776 0.31234187 0.24732815 -0.24546437
-0.22209623 -0.33441702 0.15565889 0.07331584 0.62117 -0.07759099 0.1838653 0.08115411
0.46127546 1.2769868 -0.1729251 0.77662635 -0.23516187 0.061250925 -0.40565348 -0.21610533
0.38495547 -0.42818975 0.31489727 -0.080577165 0.25831375 0.11473877 0.41613868 0.4889475
-0.002194958 0.30599254 -0.5070355 0.58725554 0.6266687 0.009072298 -0.24652919 0.40470025
0.058224555 0.3380003 0.18449947 0.32789838 0.59407073 0.42393285 0.08945449 -0.20019576
-0.3105242 0.18628317 0.92483246 0.30868444 -0.94116265 0.010975836 -0.35290986 0.16146785
-1.0111501 0.41723305 -0.43534726 0.030058406 1.142808 0.23829336 0.13453574 0.3959085
0.11348971 -0.43069702 0.3236131 0.17505588 -0.28257078 0.51167524 -0.25761455 -0.11521462
-0.19024095 -0.2490791 0.33794788 -0.23829451 0.2684615 0.28875723 -0.07259847 0.123294264
0.24770948 0.29598135 -0.20287417 -0.16091079 -0.39149916 -0.47647268 -0.35320225 0.47845376
0.76285213 -0.055032805 0.056412682 -0.13044466 -0.4504402 -0.4419011 0.040802274 -0.4439543
-0.4321469 -0.05536142 0.51456803 -0.13350245 0.2798055 -0.05167126 -0.3582978 0.031487033
0.06644192 0.41473955 -0.2621486 -0.111979194 0.13635232 0.072177514 0.46295783 -0.5858277
-0.21297604 0.38482735 0.3453765 0.39786404 0.7692276 -0.003643977 0.68230456 0.0022010885
0.45611653 0.770028 0.31091607 -0.39134175 0.10817712 -0.21100108 -0.39842173 0.43929848
-0.1855472 0.007430821 0.2611368 0.09502082 0.13144453 0.059303842 -0.05476821 -0.3090581
-0.4103093 0.2143623 -0.34806496 -0.0384635 0.33887598 0.11005277 0.06569076 -0.3652588
0.36707565 -0.091509156 0.4041717 0.046874594 0.13223311 -0.26562446 0.3604439 -0.010848858
-0.54450893 0.24400799 -0.69901174 -0.3909635 0.056404926 0.09138817 0.48714685 -0.73743016
-0.62056655 0.6698434 0.19591355 -0.40972003 0.15449849 0.102278486 -0.87721443 0.230599
-0.09993941 0.12708014 -0.21508811 0.47089878 -0.6061688 -0.038883496 0.40279847 0.16570574
-0.76087713 0.030600674 -0.34051678 -0.025221191 0.107115485 -0.23544954 0.55176497 0.55097675
0.3995943 -0.61806804 -0.20067893 -0.4275037 -0.4145804 -0.4279053 -0.19771738 0.06109528
00000000: 309e d2be d26c 473f 3480 1cbe e2be d23e
00000010: 0187 fa3e ddf5 c0bd a01c aa3c 994e cf3e
00000020: 7029 49be adba 0dbe 0d62 3e3d eca6 67be
00000030: 726b 763d 56f4 a1be 75dc 293d 6911 5abe
00000040: c722 0e3f 8d23 92be 5268 b1bd dc42 663e
00000050: f0a8 863e 98e4 48bf 44c2 abbd 9387 213f
00000060: 13a5 613f 93b1 9bbe 426e 43be 9ef1 803d
00000070: 1144 dc3e 3fd8 733e 96f1 533e 6b26 a83e
00000080: f039 c5be 063e a9be 1e5d f0be c1fb 3d3e
00000090: 0029 8a3e 6e4f dbbe 5224 453e aa42 883e
000000a0: 0583 57be ac99 77be 18f7 abbe 8980 313e
000000b0: 5f1d b6be ffe8 983e eb38 1e3d 2c3d 973c
000000c0: 4577 38be 34e8 e0bd 31b9 18bc b85b 353f
000000d0: f7a7 9abe d192 0e3e 585b 363d e2bb b93d
000000e0: 9aaf bdbe f2d2 d4be ddfe 283e 3a80 02bf
000000f0: b780 9e3e b2ab 4b3f f4c5 24bd 02ff fd3e
00000100: 0863 40be fdc4 3abf d82b 363e 0544 18be
00000110: dcf6 ab3e 46eb 9f3e 9743 7d3e 035b 7bbe
00000120: 326d 63be b538 abbe 0b65 1f3e 9d26 963d
00000130: ff04 1f3f 06e8 9ebd 2f47 3c3e 2034 a63d
00000140: 4c2c ec3e 4e74 a33f 4713 31be fcd0 463f
00000150: 46ce 70be 40e2 7a3d d0b1 cfbe b74a 5dbe
00000160: e218 c53e b03b dbbe 373a a13e a405 a5bd
00000170: b341 843e 29fc ea3d 2110 d53e 5457 fa3e
00000180: 49d9 0fbb 0eab 9c3e 14cd 01bf 6156 163f
00000190: 5c6d 203f faa3 143c 2672 7cbe df34 cf3e
000001a0: df7c 6e3d 600e ad3e 6eed 3c3e 4ce2 a73e
000001b0: 0515 183f ba0d d93e ea33 b73d 1e00 4dbe
000001c0: 07fd 9ebe 04c1 3e3e d2c1 6c3f e30b 9e3e
000001d0: 09f0 70bf fed3 333c 9ab0 b4be d457 253e
000001e0: 5e6d 81bf 929f d53e d6e5 debe 0c3d f63c
000001f0: 8847 923f 2d03 743e bdc3 093e 85b4 ca3e
00000200: 4b6d e83d 5284 dcbe 9eb0 a53e d941 333e
00000210: 1ead 90be 26fd 023f 0ee6 83be a5f5 ebbd
00000220: 86ce 42be 970e 7fbe 8107 ad3e 7a03 74be
00000230: c973 893e fdd7 933e 82ae 94bd b481 fc3d
00000240: 8ea7 7d3e de8a 973e 3fbe 4fbe ccc5 24be
00000250: 9472 c8be 3af4 f3be edd6 b4be e4f7 f43e
00000260: 474a 433f 146a 61bd fc10 673d 4993 05be
00000270: 19a0 e6be dc40 e2be 4920 273d fa4d e3be
00000280: 5c42 ddbe a8c2 62bd bbba 033f deb4 08be
00000290: ab42 8f3e 3ea5 53bd cf72 b7be 8cf8 003d
000002a0: b412 883d be58 d43e 5738 86be 5955 e5bd
000002b0: f19f 0b3e ced1 933d cf08 ed3e cef8 15bf
000002c0: 6416 5abe 1708 c53e 30d5 b03e d6b4 cb3e
000002d0: 1aec 443f cacf 6ebb 83ab 2e3f 2340 103b
000002e0: 1b88 e93e 8e20 453f 6430 9f3e f25d c8be
000002f0: f78b dd3d ab10 58be effd cbbe bbeb e03e
00000300: 1600 3ebe 3f7e f33b b9b3 853e 479a c23d
00000310: 6599 063e 96e8 723d a154 60bd dd3c 9ebe
00000320: 1014 d2be ca81 5b3e 9235 b2be e78b 1dbd
00000330: 2781 ad3e 5963 e13d e188 863d 3403 bbbe
00000340: 57f1 bb3e 2769 bbbd 98ef ce3e 93ff 3f3d
00000350: 1e68 073e eeff 87be 1a8c b83e 69bf 31bc
00000360: f064 0bbf 3bdd 793e 6ff2 32bf 5e2c c8be
00000370: da08 673d b929 bb3d 506b f93e 39c8 3cbf
00000380: 73dd 1ebf db7a 2b3f 909d 483e d3c6 d1be
00000390: da34 1e3e 6277 d13d 2091 60bf 2522 6c3e
000003a0: 09ad ccbd 4c21 023e 0f40 5cbe a519 f13e
000003b0: e12d 1bbf 4d44 1fbd 9a3b ce3e c4ae 293e
000003c0: d8c8 42bf 44ae fa3c 3758 aebe ac9c cebc
000003d0: 5d5f db3d af19 71be 7840 0d3f d00c 0d3f
000003e0: a097 cc3e b539 1ebf c77e 4dbe c4e1 dabe
000003f0: e243 d4be 6716 dbbe 6d76 4abe 0b3f 7a3d

network_body._body_endoder.seq_layers.0.bias f4 [256]
0.0 0.0 0.0 0.0 0.0 0.0 0.0 0.0
0.0 0.0 0.0 0.0 0.0 0.0 0.0 0.0
0.0 0.0 0.0 0.0 0.0 0.0 0.0 0.0
0.0 0.0 0.0 0.0 0.0 0.0 0.0 0.0
0.0 0.0 0.0 0.0 0.0 0.0 0.0 0.0
0.0 0.0 0.0 0.0 0.0 0.0 0.0 0.0
0.0 0.0 0.0 0.0 0.0 0.0 0.0 0.0
0.0 0.0 0.0 0.0 0.0 0.0 0.0 0.0
0.0 0.0 0.0 0.0 0.0 0.0 0.0 0.0
0.0 0.0 0.0 0.0 0.0 0.0 0.0 0.0
0.0 0.0 0.0 0.0 0.0 0.0 0.0 0.0
0.0 0.0 0.0 0.0 0.0 0.0 0.0 0.0
0.0 0.0 0.0 0.0 0.0 0.0 0.0 0.0
0.0 0.0 0.0 0.0 0.0 0.0 0.0 0.0
0.0 0.0 0.0 0.0 0.0 0.0 0.0 0.0
0.0 0.0 0.0 0.0 0.0 0.0 0.0 0.0
0.0 0.0 0.0 0.0 0.0 0.0 0.0 0.0
0.0 0.0 0.0 0.0 0.0 0.0 0.0 0.0
0.0 0.0 0.0 0.0 0.0 0.0 0.0 0.0
0.0 0.0 0.0 0.0 0.0 0.0 0.0 0.0
0.0 0.0 0.0 0.0 0.0 0.0 0.0 0.0
0.0 0.0 0.0 0.0 0.0 0.0 0.0 0.0
0.0 0.0 0.0 0.0 0.0 0.0 0.0 0.0
0.0 0.0 0.0 0.0 0.0 0.0 0.0 0.0
0.0 0.0 0.0 0.0 0.0 0.0 0.0 0.0
0.0 0.0 0.0 0.0 0.0 0.0 0.0 0.0
0.0 0.0 0.0 0.0 0.0 0.0 0.0 0.0
0.0 0.0 0.0 0.0 0.0 0.0 0.0 0.0
0.0 0.0 0.0 0.0 0.0 0.0 0.0 0.0
0.0 0.0 0.0 0.0 0.0 0.0 0.0 0.0
0.0 0.0 0.0 0.0 0.0 0.0 0.0 0.0
0.0 0.0 0.0 0.0 0.0 0.0 0.0 0.0
00000000: 0000 0000 0000 0000 0000 0000 0000 0000
00000010: 0000 0000 0000 0000 0000 0000 0000 0000
00000020: 0000 0000 0000 0000 0000 0000 0000 0000
00000030: 0000 0000 0000 0000 0000 0000 0000 0000
00000040: 0000 0000 0000 0000 0000 0000 0000 0000
00000050: 0000 0000 0000 0000 0000 0000 0000 0000
00000060: 0000 0000 0000 0000 0000 0000 0000 0000
00000070: 0000 0000 0000 0000 0000 0000 0000 0000
00000080: 0000 0000 0000 0000 0000 0000 0000 0000
00000090: 0000 0000 0000 0000 0000 0000 0000 0000
000000a0: 0000 0000 0000 0000 0000 0000 0000 0000
000000b0: 0000 0000 0000 0000 0000 0000 0000 0000
000000c0: 0000 0000 0000 0000 0000 0000 0000 0000
000000d0: 0000 0000 0000 0000 0000 0000 0000 0000
000000e0: 0000 0000 0000 0000 0000 0000 0000 0000
000000f0: 0000 0000 0000 0000 0000 0000 0000 0000
00000100: 0000 0000 0000 0000 0000 0000 0000 0000
00000110: 0000 0000 0000 0000 0000 0000 0000 0000
00000120: 0000 0000 0000 0000 0000 0000 0000 0000
00000130: 0000 0000 0000 0000 0000 0000 0000 0000
00000140: 0000 0000 0000 0000 0000 0000 0000 0000
00000150: 0000 0000 0000 0000 0000 0000 0000 0000
00000160: 0000 0000 0000 0000 0000 0000 0000 0000
00000170: 0000 0000 0000 0000 0000 0000 0000 0000
00000180: 0000 0000 0000 0000 0000 0000 0000 0000
00000190: 0000 0000 0000 0000 0000 0000 0000 0000
000001a0: 0000 0000 0000 0000 0000 0000 0000 0000
000001b0: 0000 0000 0000 0000 0000 0000 0000 0000
000001c0: 0000 0000 0000 0000 0000 0000 0000 0000
000001d0: 0000 0000 0000 0000 0000 0000 0000 0000
000001e0: 0000 0000 0000 0000 0000 0000 0000 0000
000001f0: 0000 0000 0000 0000 0000 0000 0000 0000
00000200: 0000 0000 0000 0000 0000 0000 0000 0000
00000210: 0000 0000 0000 0000 0000 0000 0000 0000
00000220: 0000 0000 0000 0000 0000 0000 0000 0000
00000230: 0000 0000 0000 0000 0000 0000 0000 0000
00000240: 0000 0000 0000 0000 0000 0000 0000 0000
00000250: 0000 0000 0000 0000 0000 0000 0000 0000
00000260: 0000 0000 0000 0000 0000 0000 0000 0000
00000270: 0000 0000 0000 0000 0000 0000 0000 0000
00000280: 0000 0000 0000 0000 0000 0000 0000 0000
00000290: 0000 0000 0000 0000 0000 0000 0000 0000
000002a0: 0000 0000 0000 0000 0000 0000 0000 0000
000002b0: 0000 0000 0000 0000 0000 0000 0000 0000
000002c0: 0000 0000 0000 0000 0000 0000 0000 0000
000002d0: 0000 0000 0000 0000 0000 0000 0000 0000
000002e0: 0000 0000 0000 0000 0000 0000 0000 0000
000002f0: 0000 0000 0000 0000 0000 0000 0000 0000
00000300: 0000 0000 0000 0000 0000 0000 0000 0000
00000310: 0000 0000 0000 0000 0000 0000 0000 0000
00000320: 0000 0000 0000 0000 0000 0000 0000 0000
00000330: 0000 0000 0000 0000 0000 0000 0000 0000
00000340: 0000 0000 0000 0000 0000 0000 0000 0000
00000350: 0000 0000 0000 0000 0000 0000 0000 0000
00000360: 0000 0000 0000 0000 0000 0000 0000 0000
00000370: 0000 0000 0000 0000 0000 0000 0000 0000
00000380: 0000 0000 0000 0000 0000 0000 0000 0000
00000390: 0000 0000 0000 0000 0000 0000 0000 0000
000003a0: 0000 0000 0000 0000 0000 0000 0000 0000
000003b0: 0000 0000 0000 0000 0000 0000 0000 0000
000003c0: 0000 0000 0000 0000 0000 0000 0000 0000
000003d0: 0000 0000 0000 0000 0000 0000 0000 0000
000003e0: 0000 0000 0000 0000 0000 0000 0000 0000
000003f0: 0000 0000 0000 0000 0000 0000 0000 0000

network_body._body_endoder.seq_layers.2.weight f4 [256, 256]
0.10796714 -0.0037223678 -0.06155747 -0.010446116 0.018697035 -0.01089443 0.068510816 0.060107496
0.08866488 0.010959145 -0.092716366 -0.061655603 -0.010340491 0.03255902 -0.065418646 -0.09330867
-0.073834315 0.045338716 -0.030344833 0.053714674 0.009329348 0.030310163 -0.005867963 -0.08636367
0.028653739 -0.04681423 0.035564438 -0.06772448 0.054988485 -0.018029513 -0.02564002 -0.030807408
0.0083391145 -0.06711921 -0.16987327 -0.011743435 -0.03030179 -0.080039 0.0069944244 -0.23078945
-0.053942688 0.016716393 -0.028835148 -0.027892692 -0.021467084 -0.08041055 0.02493286 -0.01112418
-0.16531451 0.00617342 -0.05448297 -0.0070143854 -0.033355966 0.04766896 0.0059302812 -0.040871706
-0.10009405 -0.14910161 -0.069774345 0.05905018 0.09070771 -0.023715412 0.038419925 -0.012167018
0.016665125 -0.045051046 0.013152617 0.12049528 -0.0019876545 0.010566162 0.047789503 -0.064082205
0.06536999 0.02429883 -0.020763354 -0.0147438245 0.091330506 -0.017173776 0.017232643 0.016400915
0.082208134 -0.18373385 0.057817787 -0.07338878 0.018445512 0.12129817 -0.02383699 0.005773592
0.06283677 -0.08899514 0.056787 0.062082477 -0.040805757 0.1264597 0.030322917 0.025551125
0.12962116 0.0013345188 0.009285037 -0.04956104 0.09486003 0.016769873 0.08075701 -0.0058677495
-0.05142455 -0.12877338 0.018708792 0.012908939 0.08006437 0.10706433 -0.06425684 -0.059156418
-0.073116705 -0.12436411 0.023224453 -0.005386453 -0.004238729 -0.023778567 -0.026449014 0.14580718
-0.0017615913 0.050683808 -0.029926492 0.016085785 0.017125769 -0.06657637 0.017355315 -0.07021555
0.005301825 0.06066281 -0.021472108 0.052715033 0.0059336848 0.045910392 -0.17962734 -0.015630726
0.0038362816 0.061735198 -0.030542519 0.04693873 -0.0031442898 -0.07186177 0.019786974 0.004362072
-0.05270222 0.04556542 0.03173408 -0.062498946 -0.06571657 0.06585391 -0.04069493 0.035060495
-0.081592344 -0.029080473 0.028613377 0.013038227 -0.09304467 -0.08935082 0.081391476 0.03950001
-0.0012170847 -0.043012366 -0.064667836 -0.0003598217 0.0838564 -0.05114707 -0.08710963 -0.074732244
0.02536153 0.06775378 0.022685824 0.009687901 0.037227593 0.053236306 0.10329285 0.052120376
0.0508802 -0.01314388 -0.02986257 0.02532648 0.078170694 0.015884627 0.038504902 0.14594308
-0.04407929 -0.03429927 0.04721495 0.004108998 0.07109049 0.028461432 -0.046714857 -0.02032622
0.04398153 0.09159583 -0.077692814 0.061416745 -0.01728687 0.01353077 -0.009049491 0.029426463
-0.12537062 0.10309744 -0.05598077 -0.030646648 -0.04155583 -0.023976265 0.009471355 0.09791597
-0.07165667 -0.10258761 -0.0074972375 -0.05950684 0.006135392 0.008975437 0.008421001 -0.12399702
0.023482438 0.10966235 0.031755675 -0.04630754 0.036689974 0.054225557 0.048508048 0.038252663
0.020641938 -0.0053350218 0.13895315 -0.14377095 -0.09806901 -0.060985684 0.117343225 -0.06406118
0.00987389 0.0067529255 -0.07274726 0.072072834 -0.03236087 -0.023191324 0.05733325 -0.09469735
0.024970679 0.030862896 0.019171081 -0.07771658 -0.013084498 -0.009341571 -0.0143715395 -0.06888692
0.008460087 -0.03884142 0.04783085 -0.021336926 0.07622794 -0.043204244 0.072376326 0.09404643
00000000: e01d dd3d f8f2 73bb b023 7cbd 3026 2bbc
00000010: 862a 993c 8d7e 32bc 664f 8c3d 4733 763d
00000020: ef95 b53d fc8d 333c 14e2 bdbd 968a 7cbd
00000030: 2a6b 29bc 9b5c 053d 36fa 85bd 9e18 bfbd
00000040: 7236 97bd 17b5 393d ba95 f8bc eb03 5c3d
00000050: 1fda 183c 054d f83c 0b48 c0bb 70df b0bd
00000060: 3fbb ea3c 47c0 3fbd 04ac 113d 22b3 8abd
00000070: 9b3b 613d a1b2 93bc 050b d2bc d15f fcbc
00000080: c8a0 083c cc75 89bd 42f3 2dbe 8967 40bc
00000090: 763b f8bc 7deb a3bd 7c31 e53b 1254 6cbe
000000a0: 02f3 5cbd d1f0 883c b037 ecbc 377f e4bc
000000b0: bddb afbc 49ae a4bd ff3f cc3c 3142 36bc
000000c0: 3548 29be 674a ca3b 8929 5fbd eed8 e5bb
000000d0: 44a0 08bd 8740 433d ce52 c23b 1769 27bd
000000e0: 1cfe ccbd 18ae 18be dae5 8ebd 9ade 713d
000000f0: f7c4 b93d d346 c2bc 365e 1d3d 2c58 47bc
00000100: 4d85 883c 7287 38bd 137e 573c 3bc6 f63d
00000110: 4f43 02bb b21d 2d3c edbe 433d 883d 83bd
00000120: b4e0 853d 570e c73c e917 aabc 1590 71bc
00000130: 7d0b bb3d 05b0 8cbc 792b 8d3c 365b 863c
00000140: bd5c a83d ba24 3cbe 58d2 6c3d db4c 96bd
00000150: 0b1b 973c 2d6b f83d cb45 c3bc 6630 bd3b
00000160: 91b0 803d 1543 b6bd 7c99 683d 324a 7e3d
00000170: f023 27bd a77e 013e c467 f83c 9850 d13c
00000180: 69bb 043e 05eb ae3a 4520 183c 8400 4bbd
00000190: fa45 c23d f960 893c ee63 a53d 4046 c0bb
000001a0: 8da2 52bd 2bdd 03be 2e43 993c 0480 533c
000001b0: caf8 a33d 8b44 db3d 1799 83bd 004e 72bd
000001c0: 36be 95bd 9cb2 febd 3541 be3c d880 b0bb
000001d0: 09e5 8abb 45cb c2bc 9aab d8bc 7a4e 153e
000001e0: 32e5 e6ba d399 4f3d 6728 f5bc 56c6 833c
000001f0: 574b 8c3c 3159 88bd bc2c 8e3c 2ccd 8fbd
00000200: eeba ad3b 9179 783d 46e6 afbc b8eb 573d
00000210: 5b6f c23b 890c 3c3d 3bf0 37be 020c 80bc
00000220: 206a 7b3b 0cde 7c3d 4e34 fabc d342 403d
00000230: 6e10 4ebb 432c 93bd 4b18 a23c b6ef 8e3b
00000240: 48de 57bd cea2 3a3d 98fb 013d e5fe 7fbd
00000250: 6996 86bd 6ade 863d baaf 26bd 989b 0f3d
00000260: e319 a7bd 2c3a eebc 9a66 ea3c 4a9e 553c
00000270: 348e bebd 90fd b6bd 93b0 a63d c3ca 213d
00000280: 9686 9fba bc2d 30bd 9270 84bd 73a6 bcb9
00000290: e7bc ab3d 977f 51bd 8966 b2bd 380d 99bd
000002a0: fcc2 cf3c 7ec2 8a3d 9fd7 b93c 00ba 1e3c
000002b0: f67b 183d 500e 5a3d 348b d33d 2d7c 553d
000002c0: c267 503d 6e59 57bc 59a2 f4bc 7a79 cf3c
000002d0: f517 a03d 7a20 823c 51b7 1d3d 1a72 153e
000002e0: 7c8c 34bd 647d 0cbd 7764 413d c6a4 863b
000002f0: e497 913d f327 e93c 1458 3fbd 2c83 a6bc
00000300: fa25 343d 9896 bb3d 691d 9fbd 2090 7b3d
00000310: 329d 8dbc 2ab0 5d3c 5144 14bc c40f f13c
00000320: 2861 00be c024 d33d 184c 65bd ae0e fbbc
00000330: 7236 2abd df69 c4bc be2d 1b3c 2b88 c83d
00000340: bbc0 92bd 7419 d2bd 63ab f5bb 72bd 73bd
00000350: 660b c93b b60d 133c 3df8 093c 26f2 fdbd
00000360: 3e5e c03c a796 e03d 3d12 023d faac 3dbd
00000370: 3a48 163d 9e1b 5e3d 60b0 463d d3ae 1c3d
00000380: 4819 a93c 68d1 aebb bc49 0e3e b138 13be
00000390: 68d8 c8bd 20cc 79bd a551 f03d 8232 83bd
000003a0: 19c6 213c a547 dd3b 84fc 94bd ec9a 933d
000003b0: d58c 04bd bbfb bdbc 45d6 6a3d aff0 c1bd
000003c0: 4f8f cc3c 2fd4 fc3c ac0c 9d3c df29 9fbd
000003d0: 5d60 56bc 630d 19bc 9b76 6bbc 9614 8dbd
000003e0: 2d9c 0a3c 2e18 1fbd 48ea 433d c7ca aebc
000003f0: 651d 9c3d eff6 30bd 0a3a 943d 6a9b c03d

network_body._body_endoder.seq_layers.2.bias f4 [256]
0.0 0.0 0.0 0.0 0.0 0.0 0.0 0.0
0.0 0.0 0.0 0.0 0.0 0.0 0.0 0.0
0.0 0.0 0.0 0.0 0.0 0.0 0.0 0.0
0.0 0.0 0.0 0.0 0.0 0.0 0.0 0.0
0.0 0.0 0.0 0.0 0.0 0.0 0.0 0.0
0.0 0.0 0.0 0.0 0.0 0.0 0.0 0.0
0.0 0.0 0.0 0.0 0.0 0.0 0.0 0.0
0.0 0.0 0.0 0.0 0.0 0.0 0.0 0.0
0.0 0.0 0.0 0.0 0.0 0.0 0.0 0.0
0.0 0.0 0.0 0.0 0.0 0.0 0.0 0.0
0.0 0.0 0.0 0.0 0.0 0.0 0.0 0.0
0.0 0.0 0.0 0.0 0.0 0.0 0.0 0.0
0.0 0.0 0.0 0.0 0.0 0.0 0.0 0.0
0.0 0.0 0.0 0.0 0.0 0.0 0.0 0.0
0.0 0.0 0.0 0.0 0.0 0.0 0.0 0.0
0.0 0.0 0.0 0.0 0.0 0.0 0.0 0.0
0.0 0.0 0.0 0.0 0.0 0.0 0.0 0.0
0.0 0.0 0.0 0.0 0.0 0.0 0.0 0.0
0.0 0.0 0.0 0.0 0.0 0.0 0.0 0.0
0.0 0.0 0.0 0.0 0.0 0.0 0.0 0.0
0.0 0.0 0.0 0.0 0.0 0.0 0.0 0.0
0.0 0.0 0.0 0.0 0.0 0.0 0.0 0.0
0.0 0.0 0.0 0.0 0.0 0.0 0.0 0.0
0.0 0.0 0.0 0.0 0.0 0.0 0.0 0.0
0.0 0.0 0.0 0.0 0.0 0.0 0.0 0.0
0.0 0.0 0.0 0.0 0.0 0.0 0.0 0.0
0.0 0.0 0.0 0.0 0.0 0.0 0.0 0.0
0.0 0.0 0.0 0.0 0.0 0.0 0.0 0.0
0.0 0.0 0.0 0.0 0.0 0.0 0.0 0.0
0.0 0.0 0.0 0.0 0.0 0.0 0.0 0.0
0.0 0.0 0.0 0.0 0.0 0.0 0.0 0.0
0.0 0.0 0.0 0.0 0.0 0.0 0.0 0.0
00000000: 0000 0000 0000 0000 0000 0000 0000 0000
00000010: 0000 0000 0000 0000 0000 0000 0000 0000
00000020: 0000 0000 0000 0000 0000 0000 0000 0000
00000030: 0000 0000 0000 0000 0000 0000 0000 0000
00000040: 0000 0000 0000 0000 0000 0000 0000 0000
00000050: 0000 0000 0000 0000 0000 0000 0000 0000
00000060: 0000 0000 0000 0000 0000 0000 0000 0000
00000070: 0000 0000 0000 0000 0000 0000 0000 0000
00000080: 0000 0000 0000 0000 0000 0000 0000 0000
00000090: 0000 0000 0000 0000 0000 0000 0000 0000
000000a0: 0000 0000 0000 0000 0000 0000 0000 0000
000000b0: 0000 0000 0000 0000 0000 0000 0000 0000
000000c0: 0000 0000 0000 0000 0000 0000 0000 0000
000000d0: 0000 0000 0000 0000 0000 0000 0000 0000
000000e0: 0000 0000 0000 0000 0000 0000 0000 0000
000000f0: 0000 0000 0000 0000 0000 0000 0000 0000
00000100: 0000 0000 0000 0000 0000 0000 0000 0000
00000110: 0000 0000 0000 0000 0000 0000 0000 0000
00000120: 0000 0000 0000 0000 0000 0000 0000 0000
00000130: 0000 0000 0000 0000 0000 0000 0000 0000
00000140: 0000 0000 0000 0000 0000 0000 0000 0000
00000150: 0000 0000 0000 0000 0000 0000 0000 0000
00000160: 0000 0000 0000 0000 0000 0000 0000 0000
00000170: 0000 0000 0000 0000 0000 0000 0000 0000
00000180: 0000 0000 0000 0000 0000 0000 0000 0000
00000190: 0000 0000 0000 0000 0000 0000 0000 0000
000001a0: 0000 0000 0000 0000 0000 0000 0000 0000
000001b0: 0000 0000 0000 0000 0000 0000 0000 0000
000001c0: 0000 0000 0000 0000 0000 0000 0000 0000
000001d0: 0000 0000 0000 0000 0000 0000 0000 0000
000001e0: 0000 0000 0000 0000 0000 0000 0000 0000
000001f0: 0000 0000 0000 0000 0000 0000 0000 0000
00000200: 0000 0000 0000 0000 0000 0000 0000 0000
00000210: 0000 0000 0000 0000 0000 0000 0000 0000
00000220: 0000 0000 0000 0000 0000 0000 0000 0000
00000230: 0000 0000 0000 0000 0000 0000 0000 0000
00000240: 0000 0000 0000 0000 0000 0000 0000 0000
00000250: 0000 0000 0000 0000 0000 0000 0000 0000
00000260: 0000 0000 0000 0000 0000 0000 0000 0000
00000270: 0000 0000 0000 0000 0000 0000 0000 0000
00000280: 0000 0000 0000 0000 0000 0000 0000 0000
00000290: 0000 0000 0000 0000 0000 0000 0000 0000
000002a0: 0000 0000 0000 0000 0000 0000 0000 0000
000002b0: 0000 0000 0000 0000 0000 0000 0000 0000
000002c0: 0000 0000 0000 0000 0000 0000 0000 0000
000002d0: 0000 0000 0000 0000 0000 0000 0000 0000
000002e0: 0000 0000 0000 0000 0000 0000 0000 0000
000002f0: 0000 0000 0000 0000 0000 0000 0000 0000
00000300: 0000 0000 0000 0000 0000 0000 0000 0000
00000310: 0000 0000 0000 0000 0000 0000 0000 0000
00000320: 0000 0000 0000 0000 0000 0000 0000 0000
00000330: 0000 0000 0000 0000 0000 0000 0000 0000
00000340: 0000 0000 0000 0000 0000 0000 0000 0000
00000350: 0000 0000 0000 0000 0000 0000 0000 0000
00000360: 0000 0000 0000 0000 0000 0000 0000 0000
00000370: 0000 0000 0000 0000 0000 0000 0000 0000
00000380: 0000 0000 0000 0000 0000 0000 0000 0000
00000390: 0000 0000 0000 0000 0000 0000 0000 0000
000003a0: 0000 0000 0000 0000 0000 0000 0000 0000
000003b0: 0000 0000 0000 0000 0000 0000 0000 0000
000003c0: 0000 0000 0000 0000 0000 0000 0000 0000
000003d0: 0000 0000 0000 0000 0000 0000 0000 0000
000003e0: 0000 0000 0000 0000 0000 0000 0000 0000
000003f0: 0000 0000 0000 0000 0000 0000 0000 0000

action_model._continuous_distribution.mu.weight f4 [1, 256]
-0.010112441 0.0045934725 0.0010256111 -0.011535439 -0.001778288 -0.012698255 -0.014441903 -0.003039287
0.0011252918 -0.0025560132 -0.009627509 0.010392274 0.008981419 -0.012801224 -0.01432428 -0.0077784196
0.0027631049 0.0019313591 0.00859053 -0.015164015 -0.0047646533 -0.028725652 -0.008134111 -0.0048337374
-0.0023273972 0.0053600003 0.025971273 0.006183565 0.018928973 -0.007270664 -0.028609795 -0.013833038
0.001994048 -0.0003002211 0.021239415 0.0007632974 -0.017879326 0.0019954748 0.01991007 0.0019113476
0.026977573 -0.00866717 0.017598582 0.002761459 0.01214614 0.010165729 0.005581843 0.004461575
0.024995666 0.0045488323 -0.009556377 -0.0064932816 0.031395894 0.009902682 0.008245914 -0.0025875985
-0.00028312035 0.013549514 0.030682085 0.007976193 -0.000450757 -0.008415085 0.003170034 -0.0060844137
0.02067802 -0.010176975 -0.03142449 0.0010591273 -0.016150152 -0.009501531 0.02302275 -0.003742423
0.015406437 0.01686223 0.001623462 -0.02415328 0.0027475941 -0.01914042 -0.034173924 0.020192996
-0.0067755817 -0.0020484661 0.011271414 0.019808842 -0.005950092 -0.028335854 -0.0009013982 0.005848016
-0.00048487927 -0.010445235 -0.00033844716 -0.020332923 -0.0041091186 -0.0135344 -0.015361768 0.0023962483
-0.020920334 -0.014217756 -0.003630713 0.001898424 0.030976385 0.017260732 -0.0209208 -0.013020764
-0.012294493 -0.010172638 -0.0010889762 -0.018247686 0.007829803 -0.0033841569 -0.014967109 -0.0004262876
0.002083569 0.020670054 0.0034765739 0.010922718 0.012319724 0.028558774 0.025436793 0.0011665816
-0.015837193 0.0045296433 -0.00013893674 0.0065005436 -0.010948094 -0.02071813 0.0032735995 0.016980533
0.035710882 -0.0045243055 0.012597633 -0.008123348 -0.01757451 -0.0047357283 -0.0119266175 -0.0074810884
-0.022392776 -0.008475398 0.0027041628 0.0061893216 -0.0037374035 -0.018286912 -0.011843274 -0.015951289
-0.0016161569 0.004538068 0.0057647554 -0.0029189128 -0.016429162 -0.018273665 0.0040702354 -0.0036669378
0.033535276 0.0023275602 0.009006748 -0.0022796858 0.002949133 0.022498542 -0.004044643 0.01689917
0.020833118 0.005361347 -0.00071987143 0.019742405 0.015326182 -0.0024675024 0.018894115 0.006179942
0.031536933 0.017022314 0.021900399 0.009437834 -0.003572621 -0.02360615 -0.005743463 -0.018287541
0.009608521 0.0044295443 -0.0049313437 0.009823759 -0.0046757204 0.008418779 -0.00442131 -0.0061672847
0.012927676 0.0055473587 0.013258191 -0.0020763725 0.0049375985 -0.009703038 -0.040572826 0.005641861
-0.010542936 0.0055347383 -0.015852641 0.022353029 -0.005020096 -0.010586839 0.01902479 -0.017342784
0.007715132 -0.013215817 -0.007036378 -0.013246168 0.010958811 0.022066748 -0.020621633 0.015512194
-0.0030789578 -0.025225585 0.0032523877 0.004802588 0.024192447 0.009156181 0.011137752 -0.019975424
-0.0025629564 0.00435104 0.0066766716 -0.008401639 -0.008667719 -0.005321752 0.016500114 0.02178536
-0.0022225564 0.013972756 -0.015235849 -0.0068385447 0.016135072 0.0028057424 0.0038172738 0.003726776
-0.009447489 -0.0016743338 -0.009059863 -0.0012125947 -0.00029930533 0.0031772517 0.01784516 -0.018683644
-0.00012336655 0.002486855 -0.007938894 0.01782481 -0.011911101 -0.006698582 -0.027547186 -0.0017639811
0.002812509 0.032622654 0.025877926 0.0040390366 0.0047179786 0.00016969819 0.0063483724 -0.0009043352
00000000: a7ae 25bc d784 963b cc6d 863a 23ff 3cbc
00000010: 7215 e9ba 570c 50bc bb9d 6cbc c62e 47bb
00000020: 877e 933a c982 27bb b3bc 1dbc 5b44 2a3c
00000030: cd26 133c 3abc 51bc 63b0 6abc 1de2 febb
00000040: 3515 353b a825 fd3a 4bbf 0c3c 7d72 78bc
00000050: cf20 9cbb 0f52 ebbc ef44 05bc 5464 9ebb
00000060: 3f87 18bb f1a2 af3b b5c1 d43c 819f ca3b
00000070: ef10 9b3c c03e eebb 175f eabc f7a3 62bc
00000080: 93ae 023b fe66 9db9 48fe ad3c 0518 483a
00000090: aa77 92bc 83c6 023b 711a a33c 2f86 fa3a
000000a0: 1200 dd3c bf00 0ebc e72a 903c 98f9 343b
000000b0: 9b00 473c 288e 263c e5e7 b63b 6732 923b
000000c0: b6c3 cc3c 5f0e 953b 5a92 1cbc 98c5 d4bb
000000d0: fb98 003d dc3e 223c df19 073c b394 29bb
000000e0: c56f 94b9 c8fe 5d3c ff58 fb3c 94ae 023c
000000f0: 9553 ecb9 6ddf 09bc 58c0 4f3b c35f c7bb
00000100: f364 a93c 54bd 26bc f7b6 00bd 6ad2 8a3a
00000110: 534d 84bc 4fac 1bbc 359a bc3c 7043 75bb
00000120: 486b 7c3c a922 8a3c 58ca d43a 19dd c5bc
00000130: fb10 343b 5fcc 9cbc f5f9 0bbd c86b a53c
00000140: b305 debb 8f3f 06bb bdab 383c 2746 a23c
00000150: fdf8 c2bb 9820 e8bc cf4b 6cba b7a0 bf3b
00000160: 6537 feb9 7e22 2bbc 9c71 b1b9 3b91 a6bc
00000170: c9a5 86bb 63bf 5dbc edaf 7bbc 600a 1d3b
00000180: 1f61 abbc 97f1 68bc 42f1 6dbb 8ad4 f83a
00000190: 30c2 fd3c 6166 8d3c 1962 abbc 0b55 55bc
000001a0: d76e 49bc 23ab 26bc fabb 8eba 2c7c 95bc
000001b0: 9348 003c bbc8 5dbb 9b38 75bc 5a7f dfb9
000001c0: 7d8c 083b 3f54 a93c 3bd7 633b 33f5 323c
000001d0: abd8 493c 17f4 e93c d260 d03c fce7 983a
000001e0: 00bd 81bc 676d 943b 8caf 11b9 8302 d53b
000001f0: a25f 33bc 11b9 a9bc e389 563b c21a 8b3c
00000200: 9345 123d a040 94bb 4d66 4e3c ca17 05bc
00000210: 6bf8 8fbc 2b2e 9bbb dc67 43bc eb23 f5bb
00000220: 0e71 b7bc 65dc 0abc 5338 313b cbcf ca3b
00000230: 3aef 74bb 6fce 95bc 4b0a 42bc 47ac 82bc
00000240: 3ad5 d3ba 13b4 943b 46e6 bc3b 3b4b 3fbb
00000250: 7396 86bc a7b2 95bc 9c5f 853b 0251 70bb
00000260: 495c 093d fb89 183b 0a91 133c c866 15bb
00000270: 3e46 413b dd4e b83c ed88 84bb 2170 8a3c
00000280: 37aa aa3c 3dae af3b c1b5 3cba d3ba a13c
00000290: ab1a 7b3c d2b5 21bb d5c7 9a3c 1c81 ca3b
000002a0: df2c 013d 6172 8b3c 7768 b33c 25a1 1a3c
000002b0: a222 6abb af61 c1bc a933 bcbb c1cf 95bc
000002c0: 0f6d 1d3c b625 913b 1c97 a1bb d5f3 203c
000002d0: c936 99bb ebee 093c a3e0 90bb ef16 cabb
000002e0: 9ace 533c 9ec6 b53b e238 593c c013 08bb
000002f0: 94cb a13b 7ef9 1ebc b12f 26bd 5cdf b83b
00000300: 47bc 2cbc c05c b53b 66dd 81bc b31d b73c
00000310: 9e7f a4bb 6c74 2dbc e0d9 9b3c 7412 8ebc
00000320: 38cf fc3b 2787 58bc 6b91 e6bb 7506 59bc
00000330: 968c 333c 53c5 b43c b3ee a8bc db26 7e3c
00000340: 57c8 49bb e3a5 cebc 0326 553b 075f 9d3b
00000350: 3d2f c63c ce03 163c 1e7b 363c 80a3 a3bc
00000360: 46f7 27bb 2b93 8e3b fbc7 da3b 07a7 09bc
00000370: 0c03 0ebc 1762 aebb 3f2b 873c 3677 b23c
00000380: 4fa8 11bb fded 643c c89f 79bc df15 e0bb
00000390: b32d 843c 8ce0 373b 3a2b 7a3b ed3c 743b
000003a0: a4c9 1abc 5275 dbba d26f 14bc edef 9eba
000003b0: 15ec 9cb9 7039 503b 0330 923c 710e 99bc
000003c0: f55b 01b9 81fa 223b 2312 02bc 5605 923c
000003d0: c726 43bc c77f dbbb a3aa e1bc 6235 e7ba
000003e0: 1252 383b 559f 053d f2fd d33c e559 843b
000003f0: 4699 9a3b 03f1 3139 0206 d03b e810 6dba

network_body._body_endoder.seq_layers.0.weight f4 [256, 6]
-0.61141384 0.4393463 0.52964014 -0.3476806 -0.15240519 -0.0013661364 0.24562211 -0.31378117
-0.27752075 -0.047162395 0.54270536 -0.7049594 0.31941557 -0.3524039 -0.18282363 -0.7739825
-0.33248827 0.44827324 -0.6289191 -0.09804091 0.29950634 0.39922926 -0.18217611 -0.24393564
-0.010811212 0.7585644 -0.02101519 -0.3679144 0.14101262 0.10596324 0.13217442 0.39821905
-0.046158772 0.2719673 -0.4977217 -0.2736378 0.12686993 0.31404415 -0.29815847 -0.0069816145
0.62464756 0.99089605 0.1942049 0.32427543 0.2502897 -0.029372375 0.41011167 -0.39061365
-0.014529314 0.70304215 0.30433258 0.023567135 0.82352304 0.13000463 1.3223994 0.30365452
0.18622485 -0.35228294 -0.2835556 0.15909535 0.22930743 -0.669816 0.293008 -0.20908098
0.8388549 0.059075125 0.26936346 0.10081408 0.07657713 0.80614007 0.108139716 0.018201953
0.506898 0.06836988 -0.009981765 -0.18502599 -0.4224343 -0.6929377 0.2042788 0.19001491
-0.009085556 0.5674832 0.17344269 -0.26842782 -0.07843722 0.3996989 1.0145798 -0.66078335
-0.35309994 -0.25513008 0.21521269 0.0054982915 0.002844991 0.036228545 0.6256368 0.16991901
-0.25556222 -0.32669374 0.5775596 0.2405777 -0.4449514 -0.43833798 0.027566744 0.8587989
-0.24026743 -0.014723857 0.1380428 0.40609768 -0.045245077 -0.097251855 -0.112031 0.042196974
-0.43373692 0.34127814 0.24224219 -0.065229215 -0.5112203 0.56341153 -0.17428742 -0.41830757
-0.51168144 0.116837755 0.24514687 -0.43219963 1.0702614 -0.19928765 -0.25981233 0.39893046
0.0741693 0.22569147 0.4690713 0.8250396 0.36122406 0.35095733 -0.077299565 0.58226025
0.021593224 0.085468315 0.6626105 0.11056308 -0.038128134 0.003923634 -0.011515048 -0.26812842
-0.03262297 -0.3827915 0.07396528 0.15726659 0.25148875 -0.680943 0.35471648 0.10746668
0.18223456 -0.24052477 -0.70720464 0.12072981 0.59601814 0.28206664 -0.12117403 -0.060370963
0.1862298 0.7156834 0.11503896 0.31949574 -0.5035881 -0.79291713 0.041495338 0.0038560294
-0.48007825 0.9468759 0.30302075 0.29377595 -1.0517162 -0.53253585 0.027635856 0.610915
-0.2973808 -0.19520435 0.20487453 -0.034971517 -0.25123948 0.46885818 0.43331406 -0.4235435
-0.3145099 -0.038588837 0.62527376 0.17053302 -0.21194121 -0.14347208 -0.2698088 -0.32726413
-0.17209478 0.27348495 -0.25052136 -0.30395758 0.019640027 -0.5479144 0.31599703 -0.209355
0.46859962 -0.7265838 -0.15723984 -0.2516604 -0.93068486 -0.11436946 -0.22244105 -0.72610265
-0.1729744 -0.5227209 -0.18598229 -0.21469173 -0.029527947 -0.11171623 0.08166561 -1.2600008
0.32340205 0.51441175 0.29172826 0.083462626 -0.32055208 0.14630343 0.3797701 -0.085391074
0.036122125 -0.024505982 0.08153802 0.12032131 0.39516428 0.2972169 0.53319114 0.63183194
0.30810556 0.18703625 0.30364993 -0.718671 0.27637807 0.06934552 -0.17781113 -0.3115003
-0.25884643 -0.11932701 0.39519796 0.43021342 -0.084494255 -0.2828822 0.123413645 -0.42099094
0.22836547 0.26589942 -0.16221085 0.23708871 0.43006212 0.57019895 -0.30432323 0.43079442
00000000: 9e85 1cbf 00f2 e03e 7f96 073f 3103 b2be
00000010: 1b10 1cbe ee0f b3ba 5d84 7b3e eda7 a0be
00000020: 3317 8ebe 5b2d 41bd bdee 0a3f 3878 34bf
00000030: 708a a33e 496e b4be 1e36 3bbe b823 46bf
00000040: e73b aabe 1284 e53e d800 21bf acc9 c8bd
00000050: e558 993e c767 cc3e 608c 3abe 44ca 79be
00000060: 8221 31bc 4731 423f 0c28 acbc 475f bcbe
00000070: 9d65 103e 4103 d93d bb58 073e 5ee3 cb3e
00000080: fb10 3dbd 4c3f 8b3e 61d5 febe 411a 8cbe
00000090: 31ea 013e 65ca a03e 3aa8 98be 07c6 e4bb
000000a0: e7e8 1f3f 5dab 7d3f a6dd 463e 6e07 a63e
000000b0: f925 803e 569e f0bc 28fa d13e 83fe c7be
000000c0: 5c0c 6ebc 92fa 333f 7bd1 9b3e dd0f c13c
000000d0: 68d2 523f ef1f 053e 6244 a93f 9b78 9b3e
000000e0: bab1 3e3e 6e5e b4be 332e 91be e4e9 223e
000000f0: 91cf 6a3e 1079 2bbf 2505 963e 5319 56be
00000100: 32bf 563f c2f8 713d 02ea 893e 9d77 ce3d
00000110: 78d4 9c3d 325f 4e3f 5b78 dd3d 431c 953c
00000120: 11c4 013f 8205 8c3d 8f8a 23bc 7477 3dbe
00000130: 4f49 d8be 5d64 31bf 762e 513e 4593 423e
00000140: 95db 14bc 9446 113f f69a 313e 5f6f 89be
00000150: b1a3 a0bd 56a5 cc3e c0dd 813f 1929 29bf
00000160: 84c9 b4be 69a0 82be b760 5c3e 032b b43b
00000170: 0773 3a3b 6264 143d bc29 203f 40ff 2d3e
00000180: 0dd9 82be 6744 a7be f2da 133f 005a 763e
00000190: abd0 e3be d66d e0be a7d3 e13c 3fda 5b3f
000001a0: aa08 76be 553c 71bc 175b 0d3e 09ec cf3e
000001b0: e752 39bd fb2b c7bd 8270 e5bd bcd6 2c3d
000001c0: c412 debe 02bc ae3e 560e 783e e596 85bd
000001d0: 55df 02bf bd3b 103f 6778 32be 692c d6be
000001e0: 8efd 02bf a248 ef3d c807 7b3e 4549 ddbe
000001f0: 53fe 883f 1012 4cbe 1f06 85be 9d40 cc3e
00000200: 13e6 973d aa1b 673e 1d2a f03e cc35 533f
00000210: 5cf2 b83e aeb0 b33e 3c4f 9ebd 020f 153f
00000220: 46e4 b03c 030a af3d d7a0 293f e56e e23d
00000230: 3f2c 1cbd d491 803b 9da9 3cbc 2148 89be
00000240: aa9f 05bd 3ffd c3be 1c7b 973d 7e0a 213e
00000250: 22c3 803e 4852 2ebf 669d b53e 7e17 dc3d
00000260: b29b 3a3e 204c 76be 5d0b 35bf 3141 f73d
00000270: a594 183f 0a6b 903e 172a f8bd 8b47 77bd
00000280: 06b3 3e3e 0737 373f 8c99 eb3d f294 a33e
00000290: 26eb 00bf 9efc 4abf 04f7 293d 70b5 7c3b
000002a0: d1cc f5be 7566 723f 8925 9b3e cd69 963e
000002b0: a39e 86bf 4554 08bf 9764 e23c ed64 1c3f
000002c0: 4c42 98be a6e3 47be a1ca 513e 4b3e 0fbd
000002d0: 76a2 80be 2e0e f03e 57db dd3e b2da d8be
000002e0: 7107 a1be 540f 1ebd f111 203f 35a0 2e3e
000002f0: 1e07 59be 58ea 12be 6124 8abe 2a8f a7be
00000300: 9d39 30be 3806 8c3e 5644 80be 54a0 9bbe
00000310: 1fe4 a03c 1e44 0cbf 5dca a13e 2861 56be
00000320: 4aec ef3e 6501 3abf 7b03 21be a2d9 80be
00000330: 5d41 6ebf 893a eabd 96c7 63be dde1 39bf
00000340: 3320 31be 09d1 05bf 2472 3ebe 26d8 5bbe
00000350: 98e4 f1bc 7bcb e4bd 4d40 a73d b547 a1bf
00000360: f494 a53e 7db0 033f 685d 953e 74ee aa3d
00000370: 671f a4be 91d0 153e 3a71 c23e 84e1 aebd
00000380: cbf4 133d c5c0 c8bc 68fd a63d 056b f63d
00000390: f952 ca3e d02c 983e 377f 083f bdbf 213f
000003a0: 03c0 9d3e 6e86 3f3e 0178 9b3e d3fa 37bf
000003b0: 6d81 8d3e 0605 8e3d 1f14 36be f87c 9fbe
000003c0: 8587 84be b861 f4bd 6357 ca3e ef44 dc3e
000003d0: 530b adbd f0d5 90be 4bc0 fc3d 208c d7be
000003e0: a3d8 693e f823 883e 9a1a 26be 62c7 723e
000003f0: 1a31 dc3e 8ff8 113f 41d0 9bbe 1691 dc3e

network_body._body_endoder.seq_layers.0.bias f4 [256]
0.0 0.0 0.0 0.0 0.0 0.0 0.0 0.0
0.0 0.0 0.0 0.0 0.0 0.0 0.0 0.0
0.0 0.0 0.0 0.0 0.0 0.0 0.0 0.0
0.0 0.0 0.0 0.0 0.0 0.0 0.0 0.0
0.0 0.0 0.0 0.0 0.0 0.0 0.0 0.0
0.0 0.0 0.0 0.0 0.0 0.0 0.0 0.0
0.0 0.0 0.0 0.0 0.0 0.0 0.0 0.0
0.0 0.0 0.0 0.0 0.0 0.0 0.0 0.0
0.0 0.0 0.0 0.0 0.0 0.0 0.0 0.0
0.0 0.0 0.0 0.0 0.0 0.0 0.0 0.0
0.0 0.0 0.0 0.0 0.0 0.0 0.0 0.0
0.0 0.0 0.0 0.0 0.0 0.0 0.0 0.0
0.0 0.0 0.0 0.0 0.0 0.0 0.0 0.0
0.0 0.0 0.0 0.0 0.0 0.0 0.0 0.0
0.0 0.0 0.0 0.0 0.0 0.0 0.0 0.0
0.0 0.0 0.0 0.0 0.0 0.0 0.0 0.0
0.0 0.0 0.0 0.0 0.0 0.0 0.0 0.0
0.0 0.0 0.0 0.0 0.0 0.0 0.0 0.0
0.0 0.0 0.0 0.0 0.0 0.0 0.0 0.0
0.0 0.0 0.0 0.0 0.0 0.0 0.0 0.0
0.0 0.0 0.0 0.0 0.0 0.0 0.0 0.0
0.0 0.0 0.0 0.0 0.0 0.0 0.0 0.0
0.0 0.0 0.0 0.0 0.0 0.0 0.0 0.0
0.0 0.0 0.0 0.0 0.0 0.0 0.0 0.0
0.0 0.0 0.0 0.0 0.0 0.0 0.0 0.0
0.0 0.0 0.0 0.0 0.0 0.0 0.0 0.0
0.0 0.0 0.0 0.0 0.0 0.0 0.0 0.0
0.0 0.0 0.0 0.0 0.0 0.0 0.0 0.0
0.0 0.0 0.0 0.0 0.0 0.0 0.0 0.0
0.0 0.0 0.0 0.0 0.0 0.0 0.0 0.0
0.0 0.0 0.0 0.0 0.0 0.0 0.0 0.0
0.0 0.0 0.0 0.0 0.0 0.0 0.0 0.0
00000000: 0000 0000 0000 0000 0000 0000 0000 0000
00000010: 0000 0000 0000 0000 0000 0000 0000 0000
00000020: 0000 0000 0000 0000 0000 0000 0000 0000
00000030: 0000 0000 0000 0000 0000 0000 0000 0000
00000040: 0000 0000 0000 0000 0000 0000 0000 0000
00000050: 0000 0000 0000 0000 0000 0000 0000 0000
00000060: 0000 0000 0000 0000 0000 0000 0000 0000
00000070: 0000 0000 0000 0000 0000 0000 0000 0000
00000080: 0000 0000 0000 0000 0000 0000 0000 0000
00000090: 0000 0000 0000 0000 0000 0000 0000 0000
000000a0: 0000 0000 0000 0000 0000 0000 0000 0000
000000b0: 0000 0000 0000 0000 0000 0000 0000 0000
000000c0: 0000 0000 0000 0000 0000 0000 0000 0000
000000d0: 0000 0000 0000 0000 0000 0000 0000 0000
000000e0: 0000 0000 0000 0000 0000 0000 0000 0000
000000f0: 0000 0000 0000 0000 0000 0000 0000 0000
00000100: 0000 0000 0000 0000 0000 0000 0000 0000
00000110: 0000 0000 0000 0000 0000 0000 0000 0000
00000120: 0000 0000 0000 0000 0000 0000 0000 0000
00000130: 0000 0000 0000 0000 0000 0000 0000 0000
00000140: 0000 0000 0000 0000 0000 0000 0000 0000
00000150: 0000 0000 0000 0000 0000 0000 0000 0000
00000160: 0000 0000 0000 0000 0000 0000 0000 0000
00000170: 0000 0000 0000 0000 0000 0000 0000 0000
00000180: 0000 0000 0000 0000 0000 0000 0000 0000
00000190: 0000 0000 0000 0000 0000 0000 0000 0000
000001a0: 0000 0000 0000 0000 0000 0000 0000 0000
000001b0: 0000 0000 0000 0000 0000 0000 0000 0000
000001c0: 0000 0000 0000 0000 0000 0000 0000 0000
000001d0: 0000 0000 0000 0000 0000 0000 0000 0000
000001e0: 0000 0000 0000 0000 0000 0000 0000 0000
000001f0: 0000 0000 0000 0000 0000 0000 0000 0000
00000200: 0000 0000 0000 0000 0000 0000 0000 0000
00000210: 0000 0000 0000 0000 0000 0000 0000 0000
00000220: 0000 0000 0000 0000 0000 0000 0000 0000
00000230: 0000 0000 0000 0000 0000 0000 0000 0000
00000240: 0000 0000 0000 0000 0000 0000 0000 0000
00000250: 0000 0000 0000 0000 0000 0000 0000 0000
00000260: 0000 0000 0000 0000 0000 0000 0000 0000
00000270: 0000 0000 0000 0000 0000 0000 0000 0000
00000280: 0000 0000 0000 0000 0000 0000 0000 0000
00000290: 0000 0000 0000 0000 0000 0000 0000 0000
000002a0: 0000 0000 0000 0000 0000 0000 0000 0000
000002b0: 0000 0000 0000 0000 0000 0000 0000 0000
000002c0: 0000 0000 0000 0000 0000 0000 0000 0000
000002d0: 0000 0000 0000 0000 0000 0000 0000 0000
000002e0: 0000 0000 0000 0000 0000 0000 0000 0000
000002f0: 0000 0000 0000 0000 0000 0000 0000 0000
00000300: 0000 0000 0000 0000 0000 0000 0000 0000
00000310: 0000 0000 0000 0000 0000 0000 0000 0000
00000320: 0000 0000 0000 0000 0000 0000 0000 0000
00000330: 0000 0000 0000 0000 0000 0000 0000 0000
00000340: 0000 0000 0000 0000 0000 0000 0000 0000
00000350: 0000 0000 0000 0000 0000 0000 0000 0000
00000360: 0000 0000 0000 0000 0000 0000 0000 0000
00000370: 0000 0000 0000 0000 0000 0000 0000 0000
00000380: 0000 0000 0000 0000 0000 0000 0000 0000
00000390: 0000 0000 0000 0000 0000 0000 0000 0000
000003a0: 0000 0000 0000 0000 0000 0000 0000 0000
000003b0: 0000 0000 0000 0000 0000 0000 0000 0000
000003c0: 0000 0000 0000 0000 0000 0000 0000 0000
000003d0: 0000 0000 0000 0000 0000 0000 0000 0000
000003e0: 0000 0000 0000 0000 0000 0000 0000 0000
000003f0: 0000 0000 0000 0000 0000 0000 0000 0000

network_body._body_endoder.seq_layers.2.weight f4 [256, 256]
0.097759075 -0.008410196 0.033004485 -0.023046114 0.0023126889 -0.014508404 0.04003981 0.033424165
0.054226846 0.042474728 -0.03666856 -0.0410404 0.05128348 -0.056138232 0.0027598666 -0.058801815
0.034277048 -0.010284704 -0.018595764 -0.033026658 -0.04221958 -0.00010288606 -0.010066805 0.067161374
0.061408803 0.041059047 -0.075735435 -0.023719596 0.14376743 0.0039848257 0.001991168 -0.058616873
0.053245135 0.009682553 0.025371067 -0.0033544067 -0.13166645 -0.043911546 0.010472162 0.006415387
0.117558844 -0.017738193 -0.009804827 -0.012215706 -0.039396778 -0.08999427 0.0043411776 -0.08891388
0.10025315 -0.048489608 -0.03332956 0.054465573 0.048119232 -0.037617348 -0.002890001 0.0805709
-0.035057757 -0.073124476 -0.056435637 0.016750189 -0.04977287 -0.019635566 -0.06296731 -0.08167982
-0.004954899 0.03491299 -0.09006364 0.033284876 0.026067887 0.044472728 -0.07038191 -0.02586644
-0.038293358 -0.0015676928 -0.03975479 0.04862968 0.016712546 0.040622357 0.10598325 0.027780933
0.061427444 -0.040743493 0.043019902 -0.030153064 -0.036972143 -0.07882647 -0.0116948215 0.1184939
0.11767272 0.027697843 0.00096158526 -0.04332705 0.029276254 0.040318467 0.07420357 -0.02507064
0.045646258 0.08352031 -0.025281927 0.08212472 -0.051349193 -0.022687308 -0.03815974 -0.078192204
-0.062221237 0.0022043507 0.03010881 0.07818099 -0.15604044 0.02833616 0.06640768 -0.11328488
-0.10652869 -0.07106492 0.06658863 -0.06684682 0.09113199 -0.08363089 0.053624336 0.04143435
-0.011372123 0.008954323 -0.03029287 -0.026357522 0.10747064 0.039884355 -0.00919567 0.08657065
-0.06389246 0.054125845 -0.027272562 0.043453287 0.085683465 0.06294389 -0.016893126 0.01352514
-0.017838497 -0.0067259367 -0.0028693355 0.072955616 0.05035552 0.07007585 -0.041164864 0.0385907
-0.027866771 0.028999006 -0.0845812 -0.0039912057 -0.08336835 0.11974839 -0.007965145 -0.08843929
0.046327114 -0.016516043 0.014093753 -0.00339502 -0.04569799 -0.12960157 0.014394074 -0.04086024
0.008184976 -0.04089093 0.09063384 -0.028427942 -0.022781277 0.07339589 -0.08208971 0.075257555
0.011301284 0.03930432 -0.033747826 -0.14830758 -0.16084032 -0.02059085 0.013859308 -0.025609087
-0.07972807 -0.06238354 -0.014377312 0.03669554 0.043245416 0.024063615 -0.021670932 0.13742322
-0.03633474 -0.07749063 0.11057247 0.054631274 -0.016517842 0.062733725 -0.052680403 -0.062727846
-0.010113231 -0.07613031 -0.0931579 -0.0025952552 -0.048586372 0.03857133 -0.007424229 -0.1177711
0.07572145 0.033416763 -0.017231904 0.06723181 0.0012823901 -0.036039926 -0.08471724 -0.010996164
0.027037151 -0.010516341 0.038296934 -0.07042581 0.008891545 0.009725599 -0.043941703 -0.08808295
-0.011541815 0.047535397 0.0077984342 -0.010920105 0.07260562 -0.012309026 0.012475017 0.08664676
-0.04659383 0.07138589 0.012091124 -0.04171412 0.017429467 -0.029255375 -0.038540892 0.12616442
0.06882775 -0.08692756 0.004224599 0.06706575 0.024307432 0.1546941 0.062506385 0.04264829
-0.040375657 -0.021435577 0.030478844 0.042986766 0.058652632 -0.0400283 -0.014582824 -0.08781751
-0.052375577 0.09773587 0.041569717 0.029813912 0.025605217 -0.11145432 0.0163365 -0.0605761
00000000: e935 c83d ebca 09bc b62f 073d 34cb bcbc
00000010: 7b90 173b a8b4 6dbc c900 243d c7e7 083d
00000020: f81c 5e3d fbf9 2d3d c631 16bd fa19 28bd
00000030: a00e 523d 34f1 65bd e1de 343b 2cda 70bd
00000040: 1766 0c3d 2d81 28bc 2556 98bc f646 07bd
00000050: 70ee 2cbd 88c4 d7b8 3eef 24bc e78b 893d
00000060: cc87 7b3d 882d 283d 2e1b 9bbd 994f c2bc
00000070: c537 133e 2493 823b 417e 023b 3f18 70bd
00000080: 9217 5a3d 92a3 1e3c fcd6 cf3c 9bd5 5bbb
00000090: 92d3 06be 98dc 33bd 6e93 2b3c 2b38 d23b
000000a0: b1c2 f03d b04f 91bc 6da4 20bc 6224 48bc
000000b0: 845e 21bd ea4e b8bd 7040 8e3b 7b18 b6bd
000000c0: 8651 cd3d 0a9d 46bd 9484 08bd 4b17 5f3d
000000d0: ac18 453d a614 1abd 2c66 3dbb 5b02 a53d
000000e0: b998 0fbd 49c2 95bd 0e29 67bd b137 893c
000000f0: a3de 4bbd c4da a0bc 01f5 80bd c047 a7bd
00000100: b55c a2bb ec00 0f3d 4973 b8bd b955 083d
00000110: 528c d53c 0929 363d 6424 90bd dbe5 d3bc
00000120: 7fd9 1cbd 0b7b cdba ebd5 22bd ea2f 473d
00000130: c0e8 883c a163 263d bf0d d93d d794 e33c
00000140: 589b 7b3d a6e2 26bd a335 303d 8f03 f7bc
00000150: 1a70 17bd c66f a1bd a39b 3fbc eeac f23d
00000160: 65fe f03d 96e6 e23c e512 7c3a b477 31bd
00000170: c1d4 ef3c fa24 253d 0bf8 973d f160 cdbc
00000180: 92f7 3a3d b20c ab3d 0b1c cfbc 0131 a83d
00000190: 8853 52bd bcda b9bc 634d 1cbd 3c23 a0bd
000001a0: b2db 7ebd de76 103b c0a6 f63c 5b1d a03d
000001b0: 11c9 1fbe 3c21 e83c c000 883d e701 e8bd
000001c0: b72b dabd 7c8a 91bd 9f5f 883d fce6 88bd
000001d0: 69a3 ba3d ac46 abbd 31a5 5b3d 11b7 293d
000001e0: 2452 3abc 27b5 123c c128 f8bc bbeb d7bc
000001f0: 9119 dc3d c75d 233d 6fa9 16bc f44b b13d
00000200: 0dda 82bd 10b3 5d3d b56a dfbc 13fc 313d
00000210: d07a af3d bae8 803d 7463 8abc 8c98 5d3c
00000220: 0a22 92bc 3f65 dcbb 760b 3cbb c169 953d
00000230: 9741 4e3d ed83 8f3d 7d9c 28bd 4811 1e3d
00000240: db48 e4bc 538f ed3c e838 adbd a9c8 82bb
00000250: 07bd aabd a53e f53d 3d80 02bc a91f b5bd
00000260: 80c1 3d3d a74c 87bc 7ce9 663c fc7e 5ebb
00000270: d12d 3bbd 46b6 04be 1fd5 6b3c 115d 27bd
00000280: 471a 063c 3f7d 27bd 3c9e b93d b7e1 e8bc
00000290: cd9f babc 9650 963d a61e a8bd a220 9a3d
000002a0: 0529 393c 91fd 203d 293b 0abd f1dd 17be
000002b0: 53b3 24be 24ae a8bc 2712 633c 26ca d1bc
000002c0: 7848 a3bd e285 7fbd d18e 6bbc 104e 163d
000002d0: 1b22 313d 0f21 c53c 3d87 b1bc acb8 0c3e
000002e0: bdd3 14bd 68b3 9ebd d273 e23d 0bc5 5f3d
000002f0: 6d50 87bc 8a7a 803d 68c7 57bd 7577 80bd
00000300: f7b1 25bc 35ea 9bbd 92c9 bebd 2815 2abb
00000310: 8102 47bd f9fc 1d3d f246 f3bb f931 f1bd
00000320: d913 9b3d 04e0 083d ec29 8dbc d5b0 893d
00000330: df15 a83a 9a9e 13bd 3b80 adbd 4129 34bc
00000340: 047d dd3c bb4c 2cbc 3fdd 1c3d 683b 90bd
00000350: d8ad 113c 1e58 1f3c 37fc 33bd d564 b4bd
00000360: e119 3dbc 7ab4 423d 028a ff3b 3dea 32bc
00000370: 41b2 943d ccab 49bc 0464 4c3c db73 b13d
00000380: 2cd9 3ebd c432 923d da19 463c 6ddc 2abd
00000390: 3ec8 8e3c f8a8 efbc 0edd 1dbd 3f31 013e
000003a0: 90f5 8c3d 1407 b2bd 816e 8a3b c559 893d
000003b0: 6120 c73c 2168 1e3e 5903 803d f9af 2e3d
000003c0: f260 25bd aa99 afbc c5ae f93c e412 303d
000003d0: be3d 703d b7f4 23bd ccec 6ebc abd9 b3bd
000003e0: c687 56bd be29 c83d 0245 2a3d 4e3c f43c
000003f0: 08c2 d13c 2a42 e4bd 20d4 853c a51e 78bd

network_body._body_endoder.seq_layers.2.bias f4 [256]
0.0 0.0 0.0 0.0 0.0 0.0 0.0 0.0
0.0 0.0 0.0 0.0 0.0 0.0 0.0 0.0
0.0 0.0 0.0 0.0 0.0 0.0 0.0 0.0
0.0 0.0 0.0 0.0 0.0 0.0 0.0 0.0
0.0 0.0 0.0 0.0 0.0 0.0 0.0 0.0
0.0 0.0 0.0 0.0 0.0 0.0 0.0 0.0
0.0 0.0 0.0 0.0 0.0 0.0 0.0 0.0
0.0 0.0 0.0 0.0 0.0 0.0 0.0 0.0
0.0 0.0 0.0 0.0 0.0 0.0 0.0 0.0
0.0 0.0 0.0 0.0 0.0 0.0 0.0 0.0
0.0 0.0 0.0 0.0 0.0 0.0 0.0 0.0
0.0 0.0 0.0 0.0 0.0 0.0 0.0 0.0
0.0 0.0 0.0 0.0 0.0 0.0 0.0 0.0
0.0 0.0 0.0 0.0 0.0 0.0 0.0 0.0
0.0 0.0 0.0 0.0 0.0 0.0 0.0 0.0
0.0 0.0 0.0 0.0 0.0 0.0 0.0 0.0
0.0 0.0 0.0 0.0 0.0 0.0 0.0 0.0
0.0 0.0 0.0 0.0 0.0 0.0 0.0 0.0
0.0 0.0 0.0 0.0 0.0 0.0 0.0 0.0
0.0 0.0 0.0 0.0 0.0 0.0 0.0 0.0
0.0 0.0 0.0 0.0 0.0 0.0 0.0 0.0
0.0 0.0 0.0 0.0 0.0 0.0 0.0 0.0
0.0 0.0 0.0 0.0 0.0 0.0 0.0 0.0
0.0 0.0 0.0 0.0 0.0 0.0 0.0 0.0
0.0 0.0 0.0 0.0 0.0 0.0 0.0 0.0
0.0 0.0 0.0 0.0 0.0 0.0 0.0 0.0
0.0 0.0 0.0 0.0 0.0 0.0 0.0 0.0
0.0 0.0 0.0 0.0 0.0 0.0 0.0 0.0
0.0 0.0 0.0 0.0 0.0 0.0 0.0 0.0
0.0 0.0 0.0 0.0 0.0 0.0 0.0 0.0
0.0 0.0 0.0 0.0 0.0 0.0 0.0 0.0
0.0 0.0 0.0 0.0 0.0 0.0 0.0 0.0
00000000: 0000 0000 0000 0000 0000 0000 0000 0000
00000010: 0000 0000 0000 0000 0000 0000 0000 0000
00000020: 0000 0000 0000 0000 0000 0000 0000 0000
00000030: 0000 0000 0000 0000 0000 0000 0000 0000
00000040: 0000 0000 0000 0000 0000 0000 0000 0000
00000050: 0000 0000 0000 0000 0000 0000 0000 0000
00000060: 0000 0000 0000 0000 0000 0000 0000 0000
00000070: 0000 0000 0000 0000 0000 0000 0000 0000
00000080: 0000 0000 0000 0000 0000 0000 0000 0000
00000090: 0000 0000 0000 0000 0000 0000 0000 0000
000000a0: 0000 0000 0000 0000 0000 0000 0000 0000
000000b0: 0000 0000 0000 0000 0000 0000 0000 0000
000000c0: 0000 0000 0000 0000 0000 0000 0000 0000
000000d0: 0000 0000 0000 0000 0000 0000 0000 0000
000000e0: 0000 0000 0000 0000 0000 0000 0000 0000
000000f0: 0000 0000 0000 0000 0000 0000 0000 0000
00000100: 0000 0000 0000 0000 0000 0000 0000 0000
00000110: 0000 0000 0000 0000 0000 0000 0000 0000
00000120: 0000 0000 0000 0000 0000 0000 0000 0000
00000130: 0000 0000 0000 0000 0000 0000 0000 0000
00000140: 0000 0000 0000 0000 0000 0000 0000 0000
00000150: 0000 0000 0000 0000 0000 0000 0000 0000
00000160: 0000 0000 0000 0000 0000 0000 0000 0000
00000170: 0000 0000 0000 0000 0000 0000 0000 0000
00000180: 0000 0000 0000 0000 0000 0000 0000 0000
00000190: 0000 0000 0000 0000 0000 0000 0000 0000
000001a0: 0000 0000 0000 0000 0000 0000 0000 0000
000001b0: 0000 0000 0000 0000 0000 0000 0000 0000
000001c0: 0000 0000 0000 0000 0000 0000 0000 0000
000001d0: 0000 0000 0000 0000 0000 0000 0000 0000
000001e0: 0000 0000 0000 0000 0000 0000 0000 0000
000001f0: 0000 0000 0000 0000 0000 0000 0000 0000
00000200: 0000 0000 0000 0000 0000 0000 0000 0000
00000210: 0000 0000 0000 0000 0000 0000 0000 0000
00000220: 0000 0000 0000 0000 0000 0000 0000 0000
00000230: 0000 0000 0000 0000 0000 0000 0000 0000
00000240: 0000 0000 0000 0000 0000 0000 0000 0000
00000250: 0000 0000 0000 0000 0000 0000 0000 0000
00000260: 0000 0000 0000 0000 0000 0000 0000 0000
00000270: 0000 0000 0000 0000 0000 0000 0000 0000
00000280: 0000 0000 0000 0000 0000 0000 0000 0000
00000290: 0000 0000 0000 0000 0000 0000 0000 0000
000002a0: 0000 0000 0000 0000 0000 0000 0000 0000
000002b0: 0000 0000 0000 0000 0000 0000 0000 0000
000002c0: 0000 0000 0000 0000 0000 0000 0000 0000
000002d0: 0000 0000 0000 0000 0000 0000 0000 0000
000002e0: 0000 0000 0000 0000 0000 0000 0000 0000
000002f0: 0000 0000 0000 0000 0000 0000 0000 0000
00000300: 0000 0000 0000 0000 0000 0000 0000 0000
00000310: 0000 0000 0000 0000 0000 0000 0000 0000
00000320: 0000 0000 0000 0000 0000 0000 0000 0000
00000330: 0000 0000 0000 0000 0000 0000 0000 0000
00000340: 0000 0000 0000 0000 0000 0000 0000 0000
00000350: 0000 0000 0000 0000 0000 0000 0000 0000
00000360: 0000 0000 0000 0000 0000 0000 0000 0000
00000370: 0000 0000 0000 0000 0000 0000 0000 0000
00000380: 0000 0000 0000 0000 0000 0000 0000 0000
00000390: 0000 0000 0000 0000 0000 0000 0000 0000
000003a0: 0000 0000 0000 0000 0000 0000 0000 0000
000003b0: 0000 0000 0000 0000 0000 0000 0000 0000
000003c0: 0000 0000 0000 0000 0000 0000 0000 0000
000003d0: 0000 0000 0000 0000 0000 0000 0000 0000
000003e0: 0000 0000 0000 0000 0000 0000 0000 0000
000003f0: 0000 0000 0000 0000 0000 0000 0000 0000
