results/Run2/config/config-145911.onnx (onnx, 273335 bytes, 5 tensors)

action_model._continuous_distribution.mu.weight f4 [1, 256]
000000 dd d2 1c 3a 6b 50 40 3c 09 33 c1 ba 9a 5f 01 b9
       0.0005982349 0.011737923 -0.0014739941 -0.00012338013
000010 49 c4 12 3a 29 23 35 bb be da 38 bc 9f d9 94 3c
       0.0005598707 -0.0027639365 -0.011282621 0.018170176
000020 55 6c 01 bc 8f d9 ff bb 8a c9 10 bc 66 f4 ce 3a
       -0.0078993635 -0.0078079174 -0.008837113 0.0015789389
000030 16 86 17 3a 2c 24 97 bc 24 1c ef 3b db 6e fc 3b
       0.0005780173 -0.018449865 0.007297056 0.0077036447
000040 64 03 f6 3a 56 b7 1b 3b b2 21 08 3c dc ce e9 3a
       0.0018769321 0.00237604 0.008308815 0.0017838138
000050 9a 94 8b 3c e6 c9 93 b8 52 27 c6 3b 49 17 61 39
       0.017038632 -7.047113e-05 0.006047168 0.00021466347
000060 8e 08 6a bc ba d6 09 ba c0 65 17 3b 20 85 55 3c
       -0.014284266 -0.0005258132 0.002310142 0.013032228
000070 5b c4 d2 3b 5b bf 09 bc 49 cf 98 3c 11 c2 65 bb
       0.006432099 -0.008407439 0.018653529 -0.00350583
000080 a9 46 b0 bb d3 0b 16 bc 42 16 10 3b d2 e9 13 bc
       -0.005379517 -0.009158093 0.0021985923 -0.009027915
000090 f4 c6 5e bd 74 e9 c6 3b a1 e5 22 bc 96 92 d7 b9
       -0.054388955 0.0060703102 -0.009942443 -0.0004111721
0000a0 a7 65 d8 3a 41 1b 4a 3b 62 95 47 bc ac 7b a6 bb
       0.0016509787 0.0030838999 -0.012181612 -0.005080661
0000b0 29 cd 42 bc a0 89 c4 3b 3d de cd b9 c7 14 a9 3c
       -0.011889734 0.0059978515 -0.00039266227 0.02063979
0000c0 db f9 18 ba 5b b2 87 bb fd f0 fa 3b 13 6c 52 3c
       -0.0005835571 -0.0041411347 0.0076581226 0.01284315
0000d0 a7 2a d3 ba 44 2a 16 3c e3 29 8d 3a 42 f9 97 bb
       -0.0016110734 0.00916535 0.001076993 -0.004637868
0000e0 8e bc 43 3d b0 34 8d bc 51 4d 16 3a 02 e4 c3 bb
       0.04778724 -0.017237037 0.0005733567 -0.0059781084
0000f0 3d 8b f7 bb 72 45 a2 ba f9 c8 b2 37 7c 24 75 3b
       -0.0075544403 -0.0012380315 2.1312839e-05 0.003740578
000100 71 c9 4a bb 0e ce 61 3c 1b b8 29 3b c5 cc fa 38
       -0.0030942822 0.013782037 0.002589709 0.0001195907
000110 da ce 59 bc c9 13 ac 39 a8 be d4 ba e3 66 48 3a
       -0.013293946 0.00032821138 -0.0016231136 0.0007644726
000120 6b f9 c5 3c 86 ef 17 3b 9c a8 a0 3b 19 57 d1 3b
       0.024166783 0.0023183539 0.0049029123 0.0063885567
000130 10 74 a8 3a a8 23 a5 bb 97 ee 67 bc c3 2f 6e bc
       0.0012851972 -0.005039651 -0.014156005 -0.0145377545
000140 06 25 8a bc d8 3d d7 3a b2 36 f1 b9 48 23 a9 3c
       -0.016863357 0.0016421629 -0.00046007853 0.020646706
000150 a1 07 af 3b b2 82 22 3c d5 02 5d 3c b0 c0 6f 3a
       0.0053414856 0.0099188555 0.013489445 0.0009145839
000160 c4 db 43 3c 03 80 d9 3c f5 d4 0d 3b e7 3b 0e bb
       0.011954252 0.026550299 0.0021641825 -0.0021703185
000170 a0 81 2e bc 4b 73 ae 3b 4d e9 bd 3c 30 73 83 bb
       -0.010651022 0.0053238026 0.023182536 -0.004011534
000180 c1 f7 a0 bc 3d 86 98 3b d1 09 a5 3a a9 0a 34 ba
       -0.019649388 0.0046546743 0.0012591426 -0.00068680436
000190 41 a3 56 3b 73 32 20 3c 11 5f b2 ba 01 89 af bb
       0.0032751116 0.009777653 -0.0013608654 -0.0053569083
0001a0 9e f0 ea 39 4f 7d 89 ba 2e d4 a6 3c 34 56 7e 39
       0.00044811232 -0.0010489615 0.020364847 0.00024255441
0001b0 f6 ad 65 b9 8e 9b 26 3b ec 32 25 3b 21 26 95 bc
       -0.00021903947 0.0025422308 0.0025207354 -0.018206658
0001c0 e0 10 3d bc ad 52 f2 3c c9 c1 71 bb 6b 5e 62 bc
       -0.011539668 0.029580439 -0.0036889187 -0.013816456
0001d0 e8 c5 83 ba 15 4e ac ba ef 21 8b bc f9 51 d3 3c
       -0.0010053487 -0.0013145829 -0.016983954 0.025795924
0001e0 0f 40 f0 3b 45 ee 92 3b 05 9d 41 3b 4a a3 95 3b
       0.007331855 0.0044839703 0.0029543054 0.0045665847
0001f0 96 2a 93 3b 08 d2 93 ba 53 48 bf 3a f4 3f 80 3a
       0.0044911606 -0.0011277804 0.0014593698 0.0009784685
000200 8e 36 78 3a 6c 6e 01 3c 98 0f 82 b9 8e 20 b4 3c
       0.00094685785 0.007899862 -0.0002480715 0.02198818
000210 59 00 9d 3c 79 cf 6d bc a5 30 74 3c e7 7d bf 3b
       0.019165205 -0.014514797 0.014904176 0.005843866
000220 99 02 b7 bb 46 96 3c bc 38 d1 1d 3b a8 68 f5 bc
       -0.0055850265 -0.011510437 0.0024081003 -0.02995713
000230 0d 51 db b7 15 f9 94 ba 59 eb 3d bc 3d 0c 0c 3c
       -2.6144577e-05 -0.0011365736 -0.011591756 0.00854784
000240 9e 19 f7 3a 77 30 3f bc de 2c e3 3b cd 34 0d 3c
       0.0018852239 -0.01166927 0.006932839 0.008618546
000250 14 53 01 3c fd 35 d0 3a 1f 5c f8 ba 81 05 14 ba
       0.0078933425 0.001588523 -0.0018948353 -0.0005646572
000260 18 38 85 3b db a0 ec bb 37 49 a5 b9 ad 48 48 3b
       0.004065525 -0.007221324 -0.00031525802 0.0030560896
000270 06 7f 22 bc ee a1 c7 39 31 8a 61 3b 35 94 c8 3b
       -0.00991798 0.00038076885 0.0034414644 0.0061211833
000280 7a 69 56 bb 7b 85 90 3b ad c0 2c 3b d9 40 81 3b
       -0.0032716678 0.0044104434 0.002635996 0.003944498
000290 bf 85 7d 3b 23 09 4d 3b c6 b1 ab ba b6 ca ea ba
       0.0038684455 0.0031285963 -0.0013099245 -0.0017913196
0002a0 0e 2e 37 bd a9 f8 59 39 4b 9e 5c 3c 07 a7 9e 3a
       -0.044721656 0.00020787366 0.013465474 0.0012104221
0002b0 c7 52 e8 3c f4 d7 05 3a 1a 47 19 bc 49 ac c5 3b
       0.028359784 0.0005105727 -0.009355331 0.006032501
0002c0 87 88 3b bb 44 dd ce b9 ac 15 ca 3a 05 3d f6 bb
       -0.0028615312 -0.00039456238 0.0015417836 -0.0075145983
0002d0 bb f6 b6 39 66 6a 08 bc 86 2a ba bb 90 db 62 3c
       0.00034897574 -0.008326149 -0.0056813387 0.013846293
0002e0 c0 c2 0d ba c5 ac 0c bd 31 1c e4 3b a1 af 69 3b
       -0.0005407743 -0.034344453 0.0069613685 0.0035657662
0002f0 18 6a 85 bc a2 3d cb 3b d2 dc 78 3a 30 9e f1 3a
       -0.016285941 0.0062024156 0.0009493354 0.0018433984
000300 d2 df 37 3b 5a 5f a5 ba 30 54 13 bb 29 d4 12 3a
       0.0028056991 -0.0012616918 -0.00224806 0.00056010723
000310 46 c1 4a bb 43 42 98 3c 16 2f d8 b9 e2 d2 f7 b9
       -0.0030937954 0.018586284 -0.00041233812 -0.0004726863
000320 f0 65 86 3a f5 9f 00 bd 51 03 d8 3b db 2d c1 bc
       0.0010253768 -0.031402547 0.006592192 -0.023581436
000330 c3 b9 75 3b 29 8d 95 3b e4 bd 7c ba 42 47 29 3c
       0.0037494756 0.0045639467 -0.0009641333 0.010331931
000340 9d d2 a8 bc 87 6a 35 b8 4b bc 76 3b 2b d4 c9 39
       -0.02060824 -4.3252974e-05 0.0037648852 0.00038495785
000350 76 60 60 3c 3a eb 1d 3d aa 48 81 3b 2a e6 ad 3c
       0.013694873 0.038554408 0.00394543 0.021227915
000360 c2 90 06 3d 73 7f 9b ba 1a d4 a3 3a bc 8c 74 3d
       0.032852896 -0.0011863544 0.0012499124 0.059704527
000370 df 6b 07 3a 96 a8 b5 3a 46 dc 24 3a d7 9b e4 3c
       0.00051659154 0.0013859447 0.0006288927 0.027906341
000380 9a 17 7d 3b 6b 09 78 b9 b9 02 31 3a 6b 38 70 3c
       0.0038618804 -0.00023654632 0.000675242 0.014661889
000390 42 dd 03 3c 72 b6 73 3c c5 f3 80 3a cf 56 d5 b9
       0.008048357 0.014875041 0.0009838274 -0.00040691203
0003a0 c9 37 a0 bc a7 21 31 bc 8e ad 52 bc 27 29 84 bc
       -0.01955785 -0.010811246 -0.0128587615 -0.016132904
0003b0 da 23 9a bb e5 bc 0a ba 70 a4 f0 3a 24 d4 8b bc
       -0.004703981 -0.00052924297 0.0018359553 -0.01706893
0003c0 80 72 ac 3a bc bb c0 3a 37 e6 31 bb 1f 6e ad 3c
       0.0013156682 0.0014704387 -0.0027145275 0.021170674
0003d0 4c a7 fc 39 52 e3 be 3b 1f d6 32 bc 41 7f 4e 3a
       0.0004818983 0.0058254385 -0.010915308 0.00078772387
0003e0 33 57 2b 3b c5 8b be bc 5d 5a 3b 3c 12 df 90 3b
       0.0026144504 -0.023260007 0.0114351185 0.0044211233
0003f0 fb 7b 9d 3a be 02 6a 3c 90 95 b7 ba 91 e7 b0 3a
       0.0012015098 0.01428288 -0.0014006365 0.0013496747

network_body._body_endoder.seq_layers.0.bias f4 [256]
000000 0f 04 de 3b af 00 b7 ba 15 8e 88 bc eb f0 04 bb
       0.006775386 -0.0013961996 -0.016669312 -0.00202852
000010 f5 e8 85 bc cb fe de bc 77 03 0a bd 61 ec a9 bb
       -0.016346434 -0.027221104 -0.03369471 -0.0051856493
000020 02 48 f3 bc 0b 8a b9 bb 6d 87 86 bb 11 13 0d bd
       -0.029697422 -0.005662208 -0.0041054995 -0.03444201
000030 34 ba 31 3c 5d 75 4a bc 01 8e c0 3c 12 cc 0f bd
       0.010847617 -0.012357083 0.023505213 -0.035106726
000040 52 5c 8e bc f1 97 8c 3b 4b 00 41 bc 67 bb 0c bc
       -0.017378006 0.0042905738 -0.011779855 -0.008589602
000050 ef 9d be 3b e4 c1 2b bd d6 25 78 bc d1 50 e6 bb
       0.005817167 -0.041932955 -0.01514574 -0.007028677
000060 a8 e2 21 3a 13 fa 0f bc 39 5f 77 3c 84 a0 5a bc
       0.0006175437 -0.00878765 0.015098386 -0.013343934
000070 1c 3e 2f bd 5e a0 0d bd 31 16 f5 bb db 64 21 bc
       -0.04278384 -0.034576766 -0.007479452 -0.009850706
000080 18 6c 90 bc 85 4b cc bb 5e 36 e8 bc a5 68 aa bc
       -0.017629668 -0.0062345886 -0.028346237 -0.020801852
000090 c5 99 05 3c 93 29 64 bc b7 1b 87 ba 8f ab 5d bc
       0.008154337 -0.013925928 -0.0010307942 -0.013529672
0000a0 36 86 80 bc 9e ed 8e bc 5e 9c 05 bd 75 27 58 bc
       -0.015688997 -0.01744729 -0.032619826 -0.013193001
0000b0 8c 54 22 bb 4d 05 8a bc 0c 60 63 3c 67 aa 89 bc
       -0.0024769632 -0.01684823 0.01387788 -0.016804887
0000c0 ee 67 19 3c e1 73 b4 bc 08 05 4b bc 90 7f 8e 3a
       0.009363158 -0.022027912 -0.012391336 0.0010871757
0000d0 74 2a 4b bc 53 49 3c bc 54 9d 75 bb 99 ca dc bb
       -0.012400258 -0.011492091 -0.0037477808 -0.0067380187
0000e0 f0 ce a4 bc 4f 70 8f bc 03 ad 57 bc 29 c3 05 bc
       -0.020118207 -0.017509608 -0.013163808 -0.008164206
0000f0 cc 0a de 3d 1e f8 96 bc ce 38 3d bc aa 3e 38 3b
       0.10841903 -0.018428858 -0.011549188 0.0028113523
000100 19 73 54 3b 33 88 68 bb ae d2 9d 3c 13 e3 88 bc
       0.0032417236 -0.0035481572 0.019265499 -0.01670984
000110 58 54 80 bc 6f 2b d4 bc 80 0f 61 bc 61 ac 72 bc
       -0.015665218 -0.025899617 -0.013736606 -0.014811606
000120 70 e3 b8 ba 43 71 06 bc 37 8d 8c 3c 72 d8 f1 bc
       -0.0014105868 -0.008205715 0.01715718 -0.029522154
000130 ca 98 7a bc 5f bc 0c 3d ee 63 b0 bb 95 db 94 3b
       -0.015295217 0.034359332 -0.0053830063 0.004542778
000140 9b 17 66 bb 2e c7 c7 3c e7 d7 d9 3a 68 58 9c bc
       -0.0035109285 0.024386968 0.001662013 -0.019085124
000150 ba d7 d9 bb b6 89 39 bc 52 04 ee bc 69 4a b2 bc
       -0.006648031 -0.011324337 -0.029054794 -0.021763997
000160 98 43 81 bc 51 68 a2 bc 4a c8 77 bc 3b bf bf b9
       -0.015779302 -0.019825133 -0.015123436 -0.00036572837
000170 36 fe 6a 3a 77 84 43 ba cc fb 3c 39 1f e5 fc bb
       0.0008964272 -0.00074583985 0.00018022879 -0.007717743
000180 03 f4 bd bc 52 16 a6 bb a6 05 6d bc d7 b7 9b bc
       -0.023187643 -0.0050685788 -0.014466679 -0.01900856
000190 2b 17 88 3c d6 ab 21 bc a4 3f 28 3c 75 a7 32 bc
       0.01661261 -0.009867629 0.010269079 -0.010904183
0001a0 eb 42 e3 3b f9 98 66 bc 91 e0 6a bc d5 f9 03 bc
       0.0069354675 -0.014074557 -0.014335767 -0.00805517
0001b0 ce 4f af 3c ee 1e ce ba 0e fd 15 bc 3e 7d a0 bc
       0.021400359 -0.001572577 -0.009154571 -0.01959097
0001c0 ed d2 34 3b ff 6a 04 bd a0 6b a3 bb e8 b1 b3 3b
       0.0027591542 -0.032328602 -0.004987195 0.0054838546
0001d0 1a b3 0f bc c6 ca 56 bc 5e f4 7f bc 03 57 9a bb
       -0.0087707285 -0.013109868 -0.0156222265 -0.0047100796
0001e0 69 86 d9 bc ef ce 78 bc b9 71 6c b9 11 cf d2 bc
       -0.02655335 -0.015186056 -0.00022549079 -0.025733503
0001f0 e1 ca df 3a f9 03 90 bc c3 5f 53 b9 8c 5c 07 bc
       0.0017074012 -0.01758002 -0.00020158202 -0.008261811
000200 62 34 35 bb f0 c0 38 bc 0e bb f4 bb 9d e2 13 bc
       -0.002764963 -0.011276469 -0.0074685877 -0.009026197
000210 ef ee c6 3b b5 87 3f bc 8f 58 da 3b 42 5e c2 bc
       0.0060709636 -0.01169007 0.006663389 -0.023726586
000220 4f b4 9a bc 7c 17 4b bc d2 c1 da bb 90 a7 a2 3b
       -0.018884806 -0.012395736 -0.006675937 0.0049638227
000230 49 c8 8e bc 90 6d 12 3d 3d 8d 10 bd 4f f4 01 3c
       -0.017429488 0.03574902 -0.035290945 0.007931783
000240 e2 9f fa bc 60 c5 29 bc ae 20 3c bb 61 d0 3e bd
       -0.030593816 -0.010361999 -0.0028706002 -0.046585444
000250 06 12 90 bc 82 8e 41 3d 1a 33 4e bc a5 db 3a bc
       -0.01758672 0.047255047 -0.012585426 -0.011404906
000260 49 60 11 bc a2 f7 7b 3c 34 75 74 3b 65 e1 0b 3c
       -0.008873054 0.0153788645 0.0037301304 0.008537625
000270 fb ae 18 ba a2 d1 65 bc 21 2b 34 bc a3 b1 47 bc
       -0.0005824414 -0.014027031 -0.010996611 -0.012188348
000280 4b 8b 0f bc d1 c0 97 bc d6 ab 9f bc 8b 80 77 bb
       -0.008761237 -0.01852456 -0.019491117 -0.0037765827
000290 8e 0e 13 bb 38 f7 01 3b 0d 00 80 bc 3f 07 93 bc
       -0.0022439095 0.0019831192 -0.015625024 -0.017947791
0002a0 a9 84 fa bb 0c 0a 41 bc bb b6 16 bc a6 7e 39 bd
       -0.007645209 -0.0117821805 -0.00919884 -0.045286797
0002b0 2d c0 97 bc 76 c4 86 3c ae 03 b2 bc 38 9d d0 3a
       -0.018524254 0.016451102 -0.02173027 0.0015915995
0002c0 90 6a 08 3b 4a 00 e8 3c e4 63 84 ba 7b 6f 67 bc
       0.002081547 0.02832045 -0.001010057 -0.0141257
0002d0 5f 47 da bb 0a b4 82 bb d5 dd 29 bc 70 3f ae bc
       -0.00666134 -0.0039887475 -0.01036783 -0.021270484
0002e0 e4 db 43 bd 53 ea aa 3c fb 54 f9 bc 8d 75 48 3b
       -0.047817126 0.020863688 -0.03043603 0.0030587644
0002f0 7d ae 81 bc d9 d4 24 bb 1e a6 b9 bb 7f 31 64 bb
       -0.015830273 -0.002515128 -0.0056655547 -0.003481954
000300 48 9c 2a bc de ff b8 b9 94 09 c8 bb d7 f3 e2 bc
       -0.010413237 -0.0003528585 -0.0061046574 -0.027704163
000310 6d 9f 5a ba 9f d0 d5 39 2e 4b 91 3a 39 a1 98 3c
       -0.00083397963 0.0004078196 0.0011085027 0.018631564
000320 01 2d ab 3a 35 3c c0 bb 31 66 5d 3b 80 b9 7c 3c
       0.0013059677 -0.0058665522 0.0033782835 0.015425086
000330 01 22 ac 3c f9 09 c7 bc 4c 2f 82 bb f7 f0 9e bc
       0.021012308 -0.024296748 -0.0039729234 -0.01940201
000340 de 8a 5a bb b1 b3 8c bc b5 6d af bc ef 8a 07 bc
       -0.0033346931 -0.017175527 -0.021414617 -0.00827287
000350 cd 11 00 3c 33 12 34 3c 9c d2 5e 3c f9 84 6b bc
       0.007816744 0.010990667 0.013600018 -0.014374965
000360 96 09 c6 bc 50 66 ae 3c fe 96 4c 3c 99 4c 6d 3c
       -0.024174493 0.02128902 0.012487171 0.014483594
000370 db d8 34 bd ab 00 78 bc c1 86 51 bc 73 5d da bb
       -0.044152122 -0.015136878 -0.0127884755 -0.006663972
000380 c6 03 75 bc 6c 5c f4 bc d9 5c 0a bd 09 a5 32 ba
       -0.014954513 -0.029829226 -0.033779953 -0.0006814753
000390 c1 7e 45 bc ac 6a b9 3b d3 f2 93 3b 19 2c 41 bc
       -0.012054146 0.005658468 0.004515031 -0.011790299
0003a0 d1 09 4a 3d 2d a4 3e bb 1f 6e 66 bc 7f f3 32 bd
       0.049325768 -0.0029089556 -0.014064341 -0.043689247
0003b0 c5 ab 0f bd f8 27 54 bc c2 7b 47 3c 0e ea cc bb
       -0.03507592 -0.012948982 0.012175502 -0.0062534874
0003c0 8c 1a 1c 3c f5 d9 54 3d 87 71 35 bc db ec ae b9
       0.009527814 0.051965673 -0.01107443 -0.00033364337
0003d0 ee 70 c6 bc 03 93 14 bc 02 9e 95 bc a0 04 41 bc
       -0.024223771 -0.009068253 -0.01826382 -0.011780888
0003e0 62 e3 31 bc 69 9c cc bc 2c 74 55 3c 69 04 a7 bb
       -0.010857435 -0.024976926 0.013028186 -0.0050969613
0003f0 10 f2 66 bc 10 14 89 bb 8d 8a e8 bc 85 c3 54 3b
       -0.014095798 -0.0041833 -0.028386379 0.0032465172

network_body._body_endoder.seq_layers.0.weight f4 [256, 6]
000000 ac 14 f6 be da 74 ca be 7d 92 0d bf 32 38 11 bf
       -0.48062646 -0.39542276 -0.5530165 -0.5672637
000010 2f 35 96 3e be c3 ff 3e 54 0d 96 be 85 1a 1f 3e
       0.2933745 0.49954027 -0.29307044 0.1553746
000020 ee 47 81 3e 6c 60 a7 3e fa a7 0c 3d 6f aa c4 be
       0.2525019 0.32690752 0.034339882 -0.3841128
000030 6a 94 e7 be 1d d0 6f be 90 ee ac be a6 8c da 3e
       -0.45230418 -0.23419233 -0.3377576 0.4268543
000040 6a 60 b1 bd ea 5b b1 3e 04 af 54 3d 67 c1 ac 3e
       -0.08660968 0.34640437 0.05192472 0.33741304
000050 a6 8b 4e 3f 46 86 8b 3e 77 7a 17 bf ea 8e 3b be
       0.80681837 0.2725088 -0.5917124 -0.18316236
000060 f5 2c d7 be f3 b1 eb be be 97 07 3f 3e a2 26 be
       -0.42026487 -0.46034202 0.52965915 -0.16272828
000070 b7 a6 29 bf 15 09 9a be 5c 0a 12 3f b4 d0 03 bf
       -0.6627001 -0.30085054 0.5704706 -0.5149033
000080 c0 e9 34 bf c4 ad ab be 3e e7 c3 3d 26 96 1d bf
       -0.70669174 -0.3353101 0.0956559 -0.61557233
000090 9f 52 9a be a2 66 a3 be c1 52 51 3f ea 75 70 3d
       -0.3014116 -0.3191424 0.817669 0.0587062
0000a0 ed ed 1d be ce 54 e1 be 35 4c 8d 3d 4c 2a d6 be
       -0.15422793 -0.44010013 0.06899301 -0.41829145
0000b0 2e e8 f8 bd b8 ea bd be 7b 8a 9e 3d 38 95 bc bd
       -0.1215366 -0.3709314 0.07741257 -0.09208149
0000c0 48 62 c0 bd 9d c8 91 be bc f8 0d be 4c f3 69 3e
       -0.09393746 -0.28473368 -0.13864416 0.22846717
0000d0 5e 0c 23 be c2 ba b7 be 33 d9 47 bf b3 a4 d4 bd
       -0.15922686 -0.35884672 -0.78065795 -0.103829764
0000e0 20 4b 88 be 5b f9 31 3f fa 98 d5 be 5c 61 0c bf
       -0.26619816 0.6952111 -0.41718274 -0.5483606
0000f0 7e 8b 89 be 96 27 4a bf c6 80 46 bf 78 46 9b bf
       -0.26864237 -0.78966653 -0.7754024 -1.213088
000100 af a5 42 bc 6d 25 42 be 46 cb 0e bf 1b 1d b1 3c
       -0.011880322 -0.1895959 -0.5577892 0.021620324
000110 e4 42 c4 bc 8b 4a bc 3b 38 1a 80 be c5 d2 c5 be
       -0.023957677 0.005746191 -0.25020003 -0.38637367
000120 c6 4b dd bd e0 ef 4c 3c 77 2f 23 3f 7f 79 b8 3d
       -0.10805468 0.0125083625 0.637443 0.090075485
000130 03 e4 52 3f 50 98 39 be a5 1e ae be ca 62 8e be
       0.8237917 -0.18124509 -0.34007755 -0.27809745
000140 62 b4 bf 3b bb a5 90 bd b1 3b 2f bf fc ba 80 3d
       0.0058503607 -0.070628606 -0.68450457 0.062856644
000150 de 7f 80 3a 46 a7 bb 3d 6d 1f 86 bf 0e 1a 12 be
       0.0009803732 0.09162764 -1.047834 -0.14267752
000160 c2 1a 7f be a6 f4 3c 3e 1e 55 2c 3d 3c 63 82 be
       -0.24912551 0.18452701 0.04207336 -0.25466335
000170 15 cb 0a bf 64 f3 87 3f c2 6c 1a bd b2 8c f5 3e
       -0.5421613 1.0621152 -0.037701376 0.47958905
000180 ab 26 91 3f 70 99 df 3e d0 a3 f7 be 72 86 77 be
       1.1339926 0.4367175 -0.48367167 -0.2417238
000190 87 90 39 3e 97 e5 78 bf f7 c9 1a 3d ae 72 8d 3e
       0.18121539 -0.97225326 0.037790265 0.27626556
0001a0 11 fb 32 bf 25 4a 2c be 23 c8 0a be 7e 57 e2 3d
       -0.69914347 -0.16825159 -0.13552909 0.11051844
0001b0 35 d1 82 bf 95 61 89 3e c9 00 98 3f 8d 94 4a 3d
       -1.0220095 0.26832262 1.187524 0.049458075
0001c0 2c d9 d0 be c7 55 2b 3f 7e 93 c7 3e cb 2e cb 3e
       -0.4079069 0.6692776 0.38979715 0.39684138
0001d0 73 47 6d 3f 11 e8 2b 3e 08 0c 71 3e 15 e7 2d 3d
       0.9268715 0.16787745 0.23539746 0.042456705
0001e0 d2 8f b9 bd d8 a9 0c 3f e8 fa 2f be e0 47 f1 3e
       -0.09060635 0.5494666 -0.17185557 0.4712515
0001f0 fb 3e 34 3f 12 2b f8 bd f0 31 c4 3b e8 76 0b bf
       0.704086 -0.1211759 0.0059873983 -0.5447831
000200 34 00 0b 3f f1 79 9a 3e 27 89 9f be 86 aa 3d 3f
       0.54297185 0.3017116 -0.31159326 0.74088323
000210 8a 23 15 bf 18 9c 91 3e 96 03 f2 bd e4 5f 1f bf
       -0.58257353 0.28439403 -0.1181709 -0.6225569
000220 c6 92 13 bf 86 16 5e 3e c1 88 0a bf 47 a6 a2 3e
       -0.57645833 0.2168828 -0.5411492 0.31767485
000230 98 9e 83 3d 64 2b 83 3e fc de 52 3e 50 08 be be
       0.06426734 0.25619042 0.20592874 -0.37115717
000240 c5 2d 4c be b5 1b 44 3e b1 2d df 3e e7 5c c2 bc
       -0.19939335 0.19151194 0.43589547 -0.02372594
000250 4d d0 dc 3e d3 0b c1 3e 53 90 1b 3e 05 4e 39 bf
       0.4312767 0.37704334 0.15191774 -0.72384673
000260 41 87 07 3e e1 b7 a9 3b 3f 70 be 3e 3f f6 f5 bd
       0.13235189 0.005179391 0.37195012 -0.12009858
000270 f1 de ce 3e 24 60 d9 be 3e c4 ed 3d 10 7e 53 bf
       0.40404466 -0.42456162 0.11609696 -0.8261423
000280 84 db b3 3b ee 08 d2 bd 11 4b 8b 3e 5a 52 9e 3e
       0.005488815 -0.102556095 0.2720571 0.30922204
000290 f4 fe 9b bf 9b e1 86 3e e7 4d 25 3f 96 64 25 bf
       -1.218718 0.26343998 0.64571995 -0.64606607
0002a0 1d d6 00 3f e3 73 e4 bd 17 ba 8c be e1 28 76 be
       0.5032671 -0.11154916 -0.27485725 -0.24039032
0002b0 e4 e3 9e be b4 39 f4 bd 8f 22 35 bf 8c 61 29 3e
       -0.31033242 -0.119250685 -0.7075586 0.16541117
0002c0 d9 f8 04 bf 90 45 4c bf e7 87 c9 be f2 d2 c0 3d
       -0.5194221 -0.79793644 -0.39361498 0.094152346
0002d0 3c 73 8f be 01 2d fd be e0 a6 67 3d bb c8 b3 bd
       -0.28017604 -0.49448398 0.05655563 -0.08778521
0002e0 83 a2 82 3e 6a f0 95 3e 8e 57 d3 3d 9f 54 33 be
       0.25514612 0.29284984 0.10319434 -0.17512749
0002f0 3e 80 ea be 09 52 46 3f f8 45 b5 3e f4 fd 24 3e
       -0.45800966 0.77468926 0.35404944 0.161125
000300 22 fc bd bd ab 58 9b 3c 73 c9 ea 3d 35 83 97 3c
       -0.09276606 0.018963179 0.11464205 0.018495182
000310 55 9b 28 be 82 68 ef be 7e 18 a0 bb 6f 70 9f be
       -0.16465504 -0.4675942 -0.004885732 -0.31140468
000320 73 20 88 be eb ad 91 be 96 20 4d bd 7e f1 11 bf
       -0.26587257 -0.28453 -0.050079904 -0.5700911
000330 4b d6 d1 3e ab ed 92 3e 60 9c 40 be f8 79 55 3f
       0.40983805 0.2869695 -0.18809652 0.83389235
000340 94 8d 91 3e 8b b9 3e 3e 90 1a 9c 3b 1b 0e 2a be
       0.28428328 0.18625467 0.0047639087 -0.16606943
000350 b0 d1 85 be 5b 23 64 3e 0b 3f ee 3d ba 82 9f bc
       -0.2613654 0.22279112 0.11633118 -0.019471515
000360 4e c6 b0 be 5b e5 bf 3e 8d 0b de 3d 36 5b b9 3e
       -0.34526294 0.37479672 0.10842047 0.362024
000370 f3 60 13 3f 9a 7a b8 bd 41 83 d0 be 42 3d 92 3e
       0.5756981 -0.090077594 -0.4072514 0.2856236
000380 87 14 1f bf ee 4f 2b bd ae c8 62 be 06 54 9e be
       -0.621407 -0.041824274 -0.22146866 -0.3092348
000390 3f 5f e2 3e 1e f2 9d 3e 77 80 16 3e 59 16 2b 3f
       0.44213292 0.30848783 0.14697443 0.66830975
0003a0 60 93 0e be 7d 84 38 be 09 b3 8e be 16 49 dd 3c
       -0.13923407 -0.1801929 -0.27870968 0.02701239
0003b0 4b ed 12 3d cd d3 b0 be 51 05 c6 3e be 21 73 3e
       0.03587083 -0.3453659 0.3867593 0.2374334
0003c0 0b cb 06 3f fc 0d 10 be d8 7a 06 3d ce 34 88 be
       0.5265357 -0.14067835 0.032831997 -0.26602787
0003d0 b5 2c b4 3e cf b7 f1 3e ad 34 1b bf 20 16 3f 3e
       0.3519036 0.47210547 -0.6062725 0.18660784
0003e0 85 42 32 3e 8e 4b 0c bf bc 05 13 bf 80 4a a2 be
       0.17408188 -0.5480279 -0.57430625 -0.31697464
0003f0 70 ed 35 be db 42 4f bd f5 24 00 bf bc d9 ff 3c
       -0.17766356 -0.050600868 -0.5005639 0.031231754

network_body._body_endoder.seq_layers.2.bias f4 [256]
000000 53 73 20 bc 7f eb 48 bc 85 ad 42 bc 08 a0 56 bc
       -0.00979312 -0.012263178 -0.011882191 -0.013099678
000010 8c 0a 43 bc 14 0c bf bc ef 09 19 bc 9a e9 4e bc
       -0.01190437 -0.023321189 -0.009340747 -0.012628937
000020 72 4d 50 3b 4b ac 6c bb 39 40 83 ba 0a be 84 bc
       0.0031784442 -0.0036113437 -0.0010013647 -0.016203899
000030 be 71 ae bb 32 bd a4 3b d1 aa 68 bc d2 9b 59 bc
       -0.0053236177 0.0050274367 -0.014200882 -0.013281779
000040 0d 7e b1 bc 9c 72 50 bc ad e4 64 bc 62 7b d7 bb
       -0.021666551 -0.0127226375 -0.013970536 -0.0065759877
000050 2c 5f 53 bc 16 9b 74 bc 26 54 22 bc 7f 08 11 bc
       -0.012901109 -0.0149295535 -0.009907758 -0.008852123
000060 0e 6d 0a 3a 89 70 49 bc 3a 14 89 bc 8d e2 1a bc
       0.00052805326 -0.012294897 -0.016733278 -0.009453428
000070 49 54 17 bc 74 e8 c6 ba 4e f5 2b bc 8a 7c b5 bc
       -0.009236404 -0.0015175478 -0.010495497 -0.022154111
000080 8c 90 30 bc fc 0a e9 ba 6f 02 8c bc cc 73 da bb
       -0.01077665 -0.0017779763 -0.017091004 -0.006666636
000090 9d ce 7f bb 80 74 77 bc 95 a8 48 ba 55 6d 5e bc
       -0.0039033063 -0.015103459 -0.0007654515 -0.0135758715
0000a0 00 54 6d bc b9 16 eb bb 3c 7b cd bb f5 0d 30 bc
       -0.014485359 -0.0071743396 -0.006270794 -0.010745515
0000b0 e2 67 c4 bb 2f b6 03 bc cc f8 60 bc e2 2a 8d bb
       -0.005993829 -0.008039041 -0.013731193 -0.0043080905
0000c0 42 44 4c bb 47 f4 66 bb 5b 09 04 bc 54 96 3a bc
       -0.0031168615 -0.0035240815 -0.008058871 -0.01138838
0000d0 5f ad 63 bc 08 59 55 bc 30 cc 7f bc ab 35 02 bc
       -0.013896315 -0.013021715 -0.015612647 -0.007947366
0000e0 f5 97 a7 bb 29 81 ee 3a 11 fe ce bc b5 93 ec 39
       -0.0051145502 0.0018196452 -0.025267633 0.00045123478
0000f0 6c e9 a8 bb a8 58 04 bb b4 a1 22 bc 6b 6b 95 bb
       -0.005154779 -0.0020194445 -0.009926248 -0.0045599244
000100 c8 85 b2 bb 8b 19 f4 bb df 57 60 bc fc 89 4e bc
       -0.005448077 -0.007449334 -0.013692825 -0.01260614
000110 17 ce 4e bb 98 5c 42 bc fa a5 bc bb 9c 97 9f bc
       -0.0031555945 -0.011862896 -0.0057570906 -0.019481473
000120 2a d2 75 bc 01 8f 5a bc 9c e6 d9 bb 17 fd 2a bc
       -0.01500372 -0.013339759 -0.0066498052 -0.010436318
000130 db f1 dd bc 54 8a c5 bb f0 cb 33 ba 27 44 45 bb
       -0.027092865 -0.006028453 -0.0006858697 -0.0030100436
000140 d9 24 b7 3a ba 97 2a bc 46 5e 98 ba d5 88 3b bc
       0.0013972773 -0.010412151 -0.0011624775 -0.0114461975
000150 7f c7 6c bc 87 3f 4f bc ee 1b af bb ec b8 79 bc
       -0.01445186 -0.012649423 -0.0053439057 -0.015241843
000160 21 1c ec bb 4d b0 41 bc 93 74 04 bc be 0e 54 bc
       -0.0072055017 -0.011821819 -0.008084434 -0.012942968
000170 a2 f4 ce bb 1c f7 45 bc 70 ce b1 bb 3b e9 2d bc
       -0.0063157836 -0.012082841 -0.0054262206 -0.0106146885
000180 84 c2 a6 3b 5c 64 32 bc 25 9d 46 bc dc 26 7a bc
       0.005089106 -0.010888185 -0.012122427 -0.015268054
000190 aa ff a7 bc f5 4c 37 bc ea 5b 07 bc 1a b9 69 bc
       -0.020507652 -0.011187782 -0.00826166 -0.014265323
0001a0 5b 6d 30 bc 50 07 4c bc 7f 4d ab bb e3 e7 00 bc
       -0.01076826 -0.012452915 -0.005227744 -0.007867786
0001b0 08 ea a0 bc 83 b1 23 bc db ea 0e bc 71 1d d2 3b
       -0.019642845 -0.009991053 -0.008722986 0.006412201
0001c0 b3 7e af ba 0f 17 e9 bb af 91 5c bc 6b 8c 9f 39
       -0.00133892 -0.0071133445 -0.013462468 0.00030431463
0001d0 74 a8 a2 bb 1f eb 15 bc 90 fa 9d 3a a5 3e 6a bc
       -0.004963929 -0.0091502955 0.0012052823 -0.014297162
0001e0 78 9e 09 bc a9 61 88 bc 1b fa b0 bc 4d 5c 0b bc
       -0.008399598 -0.01664813 -0.021603635 -0.008505893
0001f0 9e 6b 30 bb 77 a1 71 bc 0d 97 a4 bc 5a b3 80 bc
       -0.0026919614 -0.014747969 -0.020091558 -0.015710521
000200 d1 01 58 bc 05 1d 49 bc 56 fe 01 bc e3 c1 65 bb
       -0.013184027 -0.012274985 -0.007934174 -0.0035058192
000210 53 aa 1f bc 2c 13 da bb 0f 21 15 bc 82 c1 e0 bb
       -0.009745198 -0.0066551175 -0.00910212 -0.0068590054
000220 22 fa 10 bc 19 29 97 ba d5 80 5e bc e0 4e a1 39
       -0.008848699 -0.0011532634 -0.013580521 0.0003076708
000230 16 7f 24 bc 47 f4 b4 bb 02 1e e6 bb a4 ce 59 bc
       -0.010040065 -0.005522284 -0.00702262 -0.013293896
000240 53 c7 45 bc 53 f9 b5 ba 24 53 89 bb 2f db 75 bc
       -0.012071448 -0.0013883509 -0.0041908193 -0.015005871
000250 d8 95 1a bc 8f 16 e1 bc 87 e1 29 bc 07 5f 59 bc
       -0.00943514 -0.027476577 -0.010368711 -0.013267285
000260 79 ea 2b bc 38 24 25 bc 0e 21 bb bb b5 d8 b0 bc
       -0.010492914 -0.010079436 -0.0057107275 -0.021587709
000270 8e ea 1f ba 93 10 2e bc f0 6a 37 bc e3 a4 71 bc
       -0.000610032 -0.010624069 -0.0111949295 -0.014748785
000280 96 aa 7a bb 05 49 b5 bb e3 20 1e bc d5 68 9b bc
       -0.003824865 -0.0055323862 -0.0096513955 -0.018970886
000290 49 5f b0 bc 70 80 14 bc 5b e7 70 bc 41 ff e1 bb
       -0.02152981 -0.009063825 -0.014703597 -0.0068968837
0002a0 cc 0a 5f ba 36 c9 15 bc 54 3d 34 bc 49 c1 88 bc
       -0.0008508384 -0.009142211 -0.01100095 -0.016693728
0002b0 b8 59 30 bc 7f a0 8a bb 8d 26 31 bb e6 d9 4b bc
       -0.010763578 -0.0042305584 -0.0027031035 -0.012442088
0002c0 f3 7c 1a bc 22 16 d3 bc c4 49 09 bc 23 f4 c2 bb
       -0.009429204 -0.02576739 -0.0083794035 -0.0059495135
0002d0 62 b7 90 bc 67 e7 4b b8 a4 4d 8e bb 47 dc 02 bc
       -0.017665569 -4.861448e-05 -0.0043427516 -0.0079870885
0002e0 43 88 76 bc 58 42 34 3b 58 ea dd bb 3e af 1f bc
       -0.015047136 0.0027505364 -0.0067723207 -0.009746371
0002f0 9b c5 5e 3a 75 09 ed bb 7b 64 b3 bc 22 ff 2a bc
       0.00084980734 -0.0072337934 -0.021898499 -0.010436805
000300 6e af 70 bc 85 40 9c ba af db 5b bc 76 2b 08 bd
       -0.014690263 -0.0011921084 -0.013419076 -0.033244573
000310 aa f2 b3 bb e4 99 44 bc 72 cc e1 bb e6 0f 75 bc
       -0.0054915743 -0.011999581 -0.006890827 -0.014957404
000320 3e b7 03 bc f1 28 b7 3a a6 f1 97 bc a7 4f 7f bc
       -0.008039294 0.0013973993 -0.018547844 -0.015582955
000330 d5 0b 43 bc 2b 4c 3e bc 9c c4 34 bc 43 e2 4d bb
       -0.011904676 -0.01161484 -0.011033203 -0.003141538
000340 5e d1 27 3b 27 df 86 bb 40 a2 0d bc 86 f5 cb bb
       0.002560697 -0.0041159573 -0.00864464 -0.006224337
000350 ae 2a 1f bc dd 6d 09 bc ab cd e4 bb ac 7b 28 3b
       -0.0097147655 -0.00838801 -0.0069825253 0.002570848
000360 2c 91 4e bb 55 65 75 bc 0a fd 90 bc 49 bb 10 bb
       -0.0031519635 -0.014977773 -0.017698783 -0.0022084287
000370 ed 54 d6 bc 34 5d 8d bc 85 d1 3c bc 8f 8d 4e bc
       -0.026163543 -0.017256357 -0.011524563 -0.012606992
000380 97 71 7c bc 5b 4a 46 bc 00 e9 90 bc 85 3b 16 bc
       -0.015407941 -0.012102689 -0.017689228 -0.009169464
000390 9f 1a ef bb 8e b8 0d bb e8 e9 74 bc 5f a9 65 bc
       -0.0072968747 -0.0021624896 -0.014948346 -0.014017432
0003a0 26 a8 03 ba ec 75 cc b9 9a f2 e5 ba 1c 9d 44 3a
       -0.00050223095 -0.0003899777 -0.0017543614 0.0007500218
0003b0 d1 f1 5f bb f5 6d 4e bc e4 75 03 bc 73 88 21 bc
       -0.0034171233 -0.012599458 -0.008023713 -0.009859192
0003c0 60 bb 30 bc df f9 09 bc 3a 05 0b bb a9 1e 02 bc
       -0.010786861 -0.00842139 -0.0021212832 -0.00794188
0003d0 5b df c3 bc 61 d3 00 bc 43 16 77 3b 1a 70 42 bc
       -0.023910215 -0.007862897 0.0037702478 -0.011867547
0003e0 4f c1 15 bc b5 41 6d bb f9 a4 62 bc db aa 89 bc
       -0.009140327 -0.0036202495 -0.013833278 -0.016805103
0003f0 72 49 27 bc c5 22 5e bc ee bf 0d bc 67 d9 b8 bc
       -0.010210382 -0.013558094 -0.008651717 -0.022564603

network_body._body_endoder.seq_layers.2.weight f4 [256, 256]
000000 9d 47 c6 bd db ec 16 3d 6d 4e c1 bb 26 6d 88 3d
       -0.09681628 0.036846977 -0.0058992417 0.066614434
000010 30 33 bd bd 5f a5 95 3d 05 87 c4 bc f2 6c b6 3d
       -0.09238279 0.07306933 -0.023990164 0.089074984
000020 dc 4b 2e bd 28 87 fe 3c 37 99 48 bd dc e4 0f 3d
       -0.042552814 0.031070307 -0.048974242 0.035130367
000030 dc b1 be bd 1d 2c 34 3c 56 fb af bc 76 84 74 3d
       -0.09311268 0.010996846 -0.021482151 0.059696637
000040 87 3e 53 bd dc 39 e0 3c 23 49 e9 bc e4 60 87 bd
       -0.051573303 0.02737134 -0.028477257 -0.06610277
000050 09 73 32 bd b5 2d 82 bd d0 45 ad 3d 8e 50 94 3d
       -0.043566737 -0.06356374 0.08460581 0.07241927
000060 88 98 1f 3d a2 5c 67 bc 3b 8c 12 bc d7 4e 29 bd
       0.038963825 -0.0141212065 -0.008944566 -0.041334953
000070 5c d3 3a bd 2a 0c a5 bc 63 48 9d bd eb e5 22 bb
       -0.045611724 -0.020147402 -0.07679822 -0.002485628
000080 60 c4 b4 bd 55 14 0c bd 00 5f 57 bd 70 87 70 3d
       -0.08826518 -0.034199078 -0.052580833 0.058722913
000090 87 f1 b0 3c 92 ea 42 bd 07 3b 17 3a 8a 1c 3a 3d
       0.021599544 -0.047586985 0.00057689886 0.045437373
0000a0 04 61 61 bd 09 5c 94 bd 76 68 48 3c 81 4f 39 3d
       -0.055024162 -0.07244117 0.012231937 0.045241836
0000b0 cd 1e d1 3d 63 83 42 bb a4 ad c5 3d b5 93 1a 3c
       0.10210953 -0.0029680363 0.0965226 0.00943463
0000c0 c9 be df 3c ff e4 c6 3a 97 93 d0 bd 04 d1 63 3d
       0.027312653 0.0015174447 -0.101844005 0.055619255
0000d0 43 5e 05 3e 19 68 c7 3d 01 bc a5 3c 7f 9c 2f 3d
       0.13024239 0.09736652 0.020231249 0.042873856
0000e0 a2 ee 28 bc b0 ae 1e be d8 b4 2d bd cd 28 a8 bd
       -0.010310801 -0.15496325 -0.042408794 -0.08210907
0000f0 99 3f ba bd a3 45 c4 3c ca 45 92 bd fa 7d 18 3b
       -0.090941615 0.023958987 -0.071422175 0.0023268447
000100 12 15 7d bd 03 77 be 3c f0 86 99 3d 4d 49 fa 3d
       -0.061787672 0.023250109 0.074964404 0.12221012
000110 4c 6d 15 3d 3e 2b d6 bd 12 89 49 bd e7 74 e9 3d
       0.036481187 -0.104574665 -0.049202986 0.113992505
000120 5d 61 e0 3c 32 b1 f8 3c b2 e8 1d bd 1a 29 0b bd
       0.027390176 0.03035793 -0.038551994 -0.033974744
000130 ec de d2 bd d2 3f 0e be 0e 62 f1 bc 88 2e 05 3d
       -0.10296425 -0.13891533 -0.029465701 0.03251508
000140 11 a9 16 bc 83 cf b1 3c e7 30 d6 ba 47 6d 84 3d
       -0.009195582 0.021705395 -0.0016341478 0.064661555
000150 52 1b f3 bc 6b 6a 84 bd be 3c b6 bc 8c 9e 4c bd
       -0.029676113 -0.0646561 -0.022245761 -0.04995589
000160 f8 1b cf 3d a7 b5 46 3d b6 b2 b1 bc d9 f6 0c bc
       0.101127565 0.04851308 -0.021691661 -0.008603775
000170 4f 45 0e 3d c8 be a6 3d ed c3 85 3b 27 64 75 bd
       0.034734067 0.081418574 0.004082194 -0.059909966
000180 b7 bf dc bd 97 45 d1 3b 85 a1 d2 bc 56 bf e2 3d
       -0.10778754 0.0063864696 -0.025711784 0.11071651
000190 65 dd cf bd 51 de 0f 3d c5 51 dc 3c fb 1c d8 b9
       -0.101496495 0.035124127 0.02689446 -0.00041220323
0001a0 85 f2 01 3d ee 69 1e bd bf 83 0b 3e 8c 0e 79 bc
       0.031725425 -0.03867524 0.13624476 -0.015201222
0001b0 08 c8 0a bd 67 45 81 bc fa b9 4f bd de 89 aa bc
       -0.03388217 -0.015780164 -0.05071447 -0.020817693
0001c0 85 5c 05 3e 2c 87 63 bd 10 ad ca bd f7 88 ee bc
       0.13023575 -0.05554883 -0.0989629 -0.029118044
0001d0 97 63 a1 3b ba 9e da 3d 76 60 ad bc 4e b0 c5 ba
       0.004925202 0.10674806 -0.02116416 -0.001508245
0001e0 7e d5 55 bd bd dd 58 bb bb 24 db bd 0a 5f 00 bd
       -0.052205555 -0.003309115 -0.10700365 -0.031340636
0001f0 8e e7 2a be e1 87 0f 3e 61 ff 6d bb f5 45 5c bb
       -0.16689894 0.14016677 -0.0036315548 -0.0033611034
000200 2f aa a3 3b 92 9b eb bc 80 c2 07 3d 3e 0c 1e bd
       0.0049946527 -0.028760705 0.033144474 -0.038585894
000210 0b 03 5a bb 5f a9 d6 bd 63 b6 a4 bd 15 60 2a 3d
       -0.0033265974 -0.10481524 -0.080426 0.041595537
000220 b0 74 8d 3c 25 ee fb 3a e6 11 e3 3d 39 e5 90 bd
       0.017267555 0.0019220753 0.11087398 -0.07074971
000230 4d 8b 02 3d 30 8c 03 bd e4 69 bc bd f0 c2 50 3b
       0.03187113 -0.032116115 -0.091998845 0.0031854473
000240 3c e7 a8 bd 13 28 ba bc e4 1b 68 3d 37 34 94 3c
       -0.082472295 -0.022724187 0.056667224 0.018091304
000250 ed fd ad 3d a1 64 ac 3d f3 64 d6 3d 31 a4 d4 3d
       0.08495698 0.08417631 0.10468473 0.103828795
000260 7d 5d ab 3c c5 7f 39 bc c7 27 69 bd e9 16 08 bd
       0.020918602 -0.011321967 -0.0569227 -0.033224974
000270 61 0a 0a bd 5a 79 0d bc aa 27 89 3d 2f 55 16 bd
       -0.033701304 -0.0086348895 0.066970184 -0.03670233
000280 9b 5c 13 bc 86 7d 5b bc 82 8a 00 3d 7a 28 54 bd
       -0.008994247 -0.013396626 0.03138209 -0.051796414
000290 25 b6 5f 3d 04 31 04 bd 4a 94 2c 3c 00 9f cf 3d
       0.054617066 -0.032273307 0.010533402 0.10137749
0002a0 1a 51 8d bd e5 23 4d bd a0 f5 9c 3c 9a cd 00 3d
       -0.069002345 -0.05008306 0.019160092 0.031446077
0002b0 8a 5b a8 bc a3 c8 6b 3d e9 fd 54 3c dd 79 2b 3a
       -0.020551462 0.05756439 0.01299999 0.00065412914
0002c0 e9 70 a4 bd 3d 28 e3 bd 6c 5e 22 3d c8 d5 91 3c
       -0.080293484 -0.11091659 0.03964083 0.017802134
0002d0 e4 5c 9b ba 41 c7 99 3c ac 45 5e 3d 09 04 d2 3c
       -0.0011853245 0.01877177 0.054265663 0.02563669
0002e0 0d 82 47 3d 4a 6b 08 3c d3 24 46 3c 94 ad 09 3e
       0.04870801 0.008326361 0.0120937405 0.13445121
0002f0 f6 d6 db bd 31 f4 62 bd 3b ef c9 3c d6 46 3d 3c
       -0.1073436 -0.05540866 0.024650207 0.011552533
000300 ac 28 9b bd ab 12 98 3b 01 16 87 3d 77 49 f8 bc
       -0.07576117 0.0046408973 0.06595994 -0.030308468
000310 4d 37 39 bd 98 0e 41 3c 5e 64 ca 3c 9f 85 fd bd
       -0.045218755 0.011783265 0.024706062 -0.12379002
000320 a8 67 0e bd 8f 5a 5c 3d fd 82 4a 3d bd 9a b7 bd
       -0.034766823 0.0537973 0.049441326 -0.08965061
000330 26 03 12 3e 23 0e a9 3c ec fb a4 3c fd 06 e4 3d
       0.14259014 0.020636624 0.020139657 0.111341454
000340 3a 86 e4 bc c4 52 59 3b 0d 21 cd 3c dd 2b 5b 3d
       -0.027896035 0.0033160904 0.025040174 0.05350863
000350 b8 ec 78 3d 50 67 ba bd 79 6d 86 bd 7d 85 c6 bd
       0.060772628 -0.091017365 -0.06563849 -0.096934296
000360 21 78 ae bd 9f 2a 19 3d a3 55 cb bd 14 9d a7 3c
       -0.085190065 0.037394162 -0.09928443 0.020460643
000370 d7 22 e3 3c e8 72 7c bd 20 33 92 bd e0 9f 16 be
       0.027726574 -0.06163302 -0.071386576 -0.14709425
000380 b0 ab fb bc 4d bc 31 bc 42 bb 6a bd 70 e8 b9 bc
       -0.030721515 -0.010848117 -0.05730749 -0.022693843
000390 03 9f 42 3d 4d 1a 0c bd bc 4c 6d bd 54 26 0a 3d
       0.047514927 -0.03420477 -0.057934508 0.03372796
0003a0 5e e9 26 3e d9 45 03 bd 5c 5d 9f 3d c0 5a b3 3c
       0.1629996 -0.032049034 0.07781479 0.021893859
0003b0 26 f4 36 3d 24 40 12 3e 65 76 a5 bd 6a fb ec ba
       0.04466643 0.1428228 -0.080792226 -0.0018080298
0003c0 f2 67 0f 3d 60 e1 02 bd bd 44 67 bd fc 88 d0 bd
       0.03501124 -0.031953216 -0.05646204 -0.10182378
0003d0 de 3a 42 bc b3 ec b1 3d b2 07 8a 3b 71 3a 25 3c
       -0.011854855 0.08687725 0.004212343 0.010084734
0003e0 be 55 28 3d 8d a8 0e 3d 81 60 39 3c e5 1d eb 3d
       0.041097395 0.03482871 0.011314512 0.11480311
0003f0 95 27 70 3c 8b 5e 41 bd cb c8 79 bc 1c 15 78 3d
       0.014657875 -0.047209304 -0.015245627 0.060567006
