results/Run1/MoveThePlayer/checkpoint.pt (torch, 437663 bytes, 30 tensors)

network_body._body_endoder.seq_layers.0.weight f4 [128, 6]
-0.46953112 -0.26477253 -0.8804808 0.35759756 0.1783931 0.8563566 0.13708219 -0.9709892
0.22712378 -0.45986727 -0.095217764 -0.52366644 -0.050648328 -0.3853121 -0.21027148 0.42093652
0.45512533 -0.086204514 -0.15638417 0.40375158 -0.29982552 0.54941994 0.9654842 0.8744603
-0.3463629 -1.0376763 0.47411376 0.04096736 0.25778803 -0.34480858 -0.16240665 0.261093
0.24331826 -0.68811876 -0.054020666 -0.39245138 -0.13779092 -0.36257854 0.18113105 0.14918827
-0.08874644 0.13252476 0.31678426 0.40313056 0.16781113 -0.6889348 0.02385024 0.07024768
-0.65498346 0.34960136 -0.5223598 -0.19694541 0.20985495 -0.22521871 0.24886264 -0.9264888
-0.30152184 0.21469027 -0.06004377 -0.020765506 -0.031821102 -0.63705856 -0.32681876 -0.19944261
0.15727542 0.5666888 0.21585314 0.6515434 0.26431412 0.074266374 0.40638113 -0.29492593
0.7085437 0.43807593 -0.4513083 0.064218536 -0.36719424 0.11162195 -0.13750167 -0.2509553
0.00052202423 0.521941 0.54225457 0.24437895 -0.5746255 -0.15654056 -0.21722624 0.5280287
0.5643161 -0.20201458 0.2882012 -0.03577596 0.07755285 -0.29186985 0.15057804 -0.53012514
-0.025266632 -0.021946976 -0.28569236 0.1085838 -0.6694873 0.2468187 -0.23317598 -0.10081479
-0.22789842 -0.09107873 -0.27361974 -0.24934639 -0.16707613 -0.11571356 0.6231095 -0.18448947
0.5671751 0.32440808 0.24095802 0.20046015 -0.10294985 0.0017532315 0.3177655 -0.007888397
0.47284997 0.18875946 0.13432398 -0.24108092 0.11020065 -0.46278682 0.73501426 -0.24394234
0.29998448 -0.13577464 -0.024019841 0.7255249 0.76524746 0.27309078 -0.26170468 -0.35347083
-0.014578268 -0.091012746 -0.24609151 -0.60855585 0.14062817 0.3928517 0.26412693 -0.22065696
-0.23931143 0.97419024 -0.64330643 0.15055776 -0.056676753 -0.36141405 0.9095631 -0.09345157
-0.2883889 0.14328681 0.5994329 -0.85395706 0.08343174 0.29653952 0.3474637 -0.77200073
-0.38658655 0.101377435 -0.0652187 -0.12941359 0.34221247 -0.31612384 -0.21032971 -0.20381606
-0.058772888 0.09110022 0.053397354 0.4128769 0.06921607 -0.11460196 -0.2786848 0.09248648
-0.15942223 -0.033983804 -0.41296616 -0.29830387 0.26008195 -0.54778636 0.36959133 -0.11848265
-0.2675192 0.23266111 0.3745343 0.2407287 0.3970124 0.53391767 0.6206517 0.2246269
-0.16407542 0.42018142 0.12652369 0.4575242 0.29207745 0.5982151 0.69102716 0.11804432
0.24805136 -0.2098283 0.13035057 -0.32107043 -0.6218107 -0.40925428 -0.16251995 0.15288539
-0.08038813 0.026020372 0.59964657 -0.6149385 -0.11588246 0.3738349 0.09168586 -0.11317225
0.2655934 -0.27211872 0.4813929 -0.060447052 -0.43107522 -0.46649623 -0.47038373 0.58247674
-0.4060488 0.4303123 0.22635032 0.7035395 0.32181317 -0.18332644 0.20439471 0.26461872
-0.08467479 -0.05417984 0.11058333 0.35207245 0.32426473 -0.017595213 -0.6378877 0.3714058
0.3007368 0.08553084 0.3399592 0.21805498 -0.61854255 0.10017466 -0.14775416 0.64334
-0.19544223 0.3307572 -0.2315528 0.49201795 -0.57631826 0.17967217 0.17407127 0.1148985
00000000: 6266 f0be 4490 87be 3167 61bf 0717 b73e
00000010: aeac 363e 303a 5b3f 465f 0c3e c092 78bf
00000020: 2393 683e b973 ebbe 8801 c3bd 010f 06bf
00000030: 9f74 4fbd a147 c5be 6851 57be fe84 d73e
00000040: 3006 e93e fe8b b0bd 2c23 20be 87b8 ce3e
00000050: bb82 99be c9a6 0c3f f929 773f a1dc 5f3f
00000060: 7a56 b1be 94d2 84bf 0abf f23e 64cd 273d
00000070: cbfc 833e c08a b0be ee4d 26be fbad 853e
00000080: 6c28 793e 8d28 30bf c644 5dbd 63ef c8be
00000090: 1019 0dbe e5a3 b9be 6b7a 393e cfc4 183e
000000a0: b2c0 b5bd 92b4 073e 8c31 a23e 2167 ce3e
000000b0: aed6 2b3e 085e 30bf 9461 c33c 04de 8f3d
000000c0: ffac 27bf f3fe b23e 5fb9 05bf 0fac 49be
000000d0: 37e4 563e bc9f 66be d9d5 7e3e 5f2e 6dbf
000000e0: 1261 9abe c4d7 5b3e 75f0 75bd 6c1c aabc
000000f0: d856 02bd 4516 23bf ca54 a7be af3a 4cbe
00000100: cf0c 213e 8412 113f 9b08 5d3e 8ccb 263f
00000110: 2e54 873e f818 983d 3011 d03e 8800 97be
00000120: 1f63 353f 7d4b e03e e211 e7be 0285 833d
00000130: e200 bcbe 0d9a e43d 3dcd 0cbe 377d 80be
00000140: 74d8 083a ed9d 053f 32d1 0a3f 7a3e 7a3e
00000150: a81a 13bf 2b4c 20be 8e70 5ebe e42c 073f
00000160: 0577 103f e9dc 4ebe 1c8f 933e d089 12bd
00000170: 07d4 9e3d f76f 95be 2131 1a3e 48b6 07bf
00000180: f8fb cebc 25ca b3bc 4546 92be 2f61 de3d
00000190: 8563 2bbf 0bbe 7c3e afc5 6ebe fc77 cebd
000001a0: 345e 69be 7c87 babd e317 8cbe a954 7fbe
000001b0: 0116 2bbe 3bfb ecbd 1b84 1f3f cfea 3cbe
000001c0: 6332 113f d118 a63e b3bd 763e 6d45 4d3e
000001d0: 5fd7 d2bd b0cc e53a 29b2 a23e 563e 01bc
000001e0: 6419 f23e 294a 413e 3a8c 093e ebdd 76be
000001f0: e1b0 e13d 65f2 ecbe e529 3c3f 05cc 79be
00000200: 9197 993e 8208 0bbe 42c5 c4bc 00bc 393f
00000210: 42e7 433f 8ed2 8b3e 28fe 85be 21fa b4be
00000220: b0d9 6ebc e464 babd 6aff 7bbe 51ca 1bbf
00000230: d500 103e dc23 c93e a53b 873e e6f3 61be
00000240: 0e0e 75be 8864 793f bbaf 24bf d02b 1a3e
00000250: e225 68bd 430b b9be 21d9 683f 8963 bfbd
00000260: b6a7 93be c7b9 123e 6f74 193f ee9c 5abf
00000270: 43de aa3d 07d4 973e c3e6 b13e d7a1 45bf
00000280: acee c5be f99e cf3d 6291 85bd ff84 04be
00000290: 7936 af3e fcda a1be ac60 57be 28b5 50be
000002a0: d7bb 70bd c192 ba3d 2fb7 5a3d 9a64 d33e
000002b0: 28c1 8d3d 6fb4 eabd c6af 8ebe 8d69 bd3d
000002c0: 953f 23be 9a32 0bbd 4d70 d3be 49bb 98be
000002d0: 7629 853e ba3b 0cbf 133b bd3e 08a7 f2bd
000002e0: 47f8 88be b73e 6e3e f6c2 bf3e 9681 763e
000002f0: 3645 cb3e d4ae 083f 08e3 1e3f 9804 663e
00000300: 6303 28be 0522 d73e 6d8f 013e 9d40 ea3e
00000310: 2d8b 953e a024 193f 28e7 303f 38c1 f13d
00000320: 2d01 7e3e 3bdd 56be 9f7a 053e 5863 a4be
00000330: fc2e 1fbf c789 d1be a16b 26be fd8d 1c3e
00000340: 88a2 a4bd ad28 d53c 7082 193f 9c6c 1dbf
00000350: c853 edbd 4a67 bf3e ccc5 bb3d dac6 e7bd
00000360: dcfb 873e 2553 8bbe 2179 f63e 5497 77bd
00000370: e4b5 dcbe 98d8 eebe 23d6 f0be 321d 153f
00000380: a1e5 cfbe e551 dc3e 61c8 673e 2a1b 343f
00000390: b2c4 a43e edb9 3bbe d94c 513e 1b7c 873e
000003a0: fa69 adbd aeeb 5dbd 8379 e23d d742 b43e
000003b0: 0706 a63e d623 90bc 9c4c 23bf e728 be3e
000003c0: 2dfa 993e cb2a af3d 220f ae3e ce49 5f3e
000003d0: ce58 1ebf 5f28 cd3d de4c 17be eeb1 243f
000003e0: 0222 48be 0259 a93e 2d1c 6dbe c7e9 fb3e
000003f0: 9889 13bf fbfb 373e bd3f 323e e84f eb3d

network_body._body_endoder.seq_layers.0.bias f4 [128]
0.0091699185 -0.0015537189 -0.008048068 -0.036098294 0.03635824 -0.008003611 0.00030359006 -0.0065721353
-0.014242589 -0.024645517 0.022474661 0.02300441 0.0044325376 0.04355397 0.05778758 -0.0050546112
0.019779101 -0.00589902 0.0023003935 0.00052436546 0.007530034 0.006751313 -0.016830705 0.01688522
-0.007175795 -0.0054324786 -0.014915792 -0.016972672 0.006878899 -0.024236573 -0.0026897162 0.016940448
0.011385702 -0.028695373 -0.002045065 -0.002553998 0.026484117 -0.009611671 0.02967196 0.012961489
0.012411248 0.0024372903 -0.010638684 -0.006571631 0.0036237591 -0.01469411 -0.010110256 0.0060433517
-0.009665009 0.0023421554 0.0028039743 0.03136385 0.002270546 -0.022692025 -0.022436991 0.032490905
0.009701893 -0.011563046 0.045962445 0.005867065 -0.008528947 0.003799911 0.041441295 0.018708715
0.002306416 0.032839876 -0.0027472696 -0.0073149 0.017285137 -0.017909177 0.008015576 -0.0075570745
0.034184933 0.0299859 0.019343803 -0.020850057 -0.0057066157 -0.019748291 0.016186975 -0.009486132
0.006287176 0.021760764 -0.054023873 -0.013745637 -0.012775218 -0.0069403737 0.0948047 -0.013841397
-0.0120163495 -0.0030976534 -0.0014220432 -0.02308243 -0.016536314 0.0384907 0.02396776 0.008658939
-0.0127512235 0.049069796 0.003219024 -0.017989414 -0.022191456 -0.0022241839 0.051206615 -0.004950591
-0.028164148 0.0051676873 0.021261783 0.0044486853 0.0226085 0.0054987115 0.04036793 0.018138727
0.021905378 -4.943248e-05 0.002750399 0.017436592 -0.018337788 0.01660862 0.022790777 0.04089861
0.038159393 0.00029760908 0.0006512306 -0.017722275 -0.005825731 -0.0034618252 -0.010173869 -0.0029984696
00000000: 6d3d 163c 28a6 cbba 0bdc 03bc cedb 13bd
00000010: 61ec 143d 9421 03bc 2b2b 9f39 115b d7bb
00000020: bf59 69bc 65e5 c9bc c81c b83c bf73 bc3c
00000030: d23e 913b a665 323d abb2 6c3d 27a1 a5bb
00000040: c807 a23c 914c c1bb 33c2 163b 9275 093a
00000050: 81be f63b 1e3a dd3b 8ce0 89bc df52 8a3c
00000060: ee22 ebbb ef02 b2bb 5e61 74bc 460a 8bbc
00000070: 6368 e13b c78b c6bc f345 30bb b2c6 8a3c
00000080: 188b 3a3c 8f12 ebbc 7f06 06bb fa60 27bb
00000090: 38f5 d83c 457a 1dbc 9c12 f33c 6d5c 543c
000000a0: 8c58 4b3c f2ba 1f3b e04d 2ebc d656 d7bb
000000b0: 977c 6d3b 90bf 70bc 7da5 25bc 4f07 c63b
000000c0: fc59 1ebc d97e 193b e2c2 373b 6177 003d
000000d0: 71cd 143b a0e4 b9bc c8cd b7bc 2f15 053d
000000e0: b0f4 1e3c ee72 3dbc 1e43 3c3d 8240 c03b
000000f0: ffbc 0bbc ed07 793b 59be 293d 0543 993c
00000100: 3d27 173b 1b83 063d 890b 34bb d4b1 efbb
00000110: 8f99 8d3c 44b6 92bc c353 033c 56a1 f7bb
00000120: 8005 0c3d fda4 f53c e576 9e3c bdcd aabc
00000130: 90fe babb 2bc7 a1bc 8c9a 843c b96b 1bbc
00000140: a804 ce3b a143 b23c 2348 5dbd 6135 61bc
00000150: 264f 51bc 136c e3bb f728 c23d 07c7 62bc
00000160: 39e0 44bc 0002 4bbb da63 baba 5d17 bdbc
00000170: 2a77 87bc 6da8 1d3d 0958 c43c 39de 0d3c
00000180: 82ea 50bc 69fd 483d 43f6 523b 895e 93bc
00000190: dbca b5bc 9dc3 11bb 07be 513d 9138 a2bb
000001a0: 80b8 e6bc b455 a93b 312d ae3c 47c6 913b
000001b0: 7635 b93c 892e b43b d858 253d ab97 943c
000001c0: e872 b33c b955 4fb8 0a40 343b 2fd7 8e3c
000001d0: 2139 96bc cd0e 883c b9b3 ba3c 4d85 273d
000001e0: 064d 1c3d 6a08 9c39 59b7 2a3a 4e2e 91bc
000001f0: c6e5 bebb cadf 62bb 4db0 26bc f981 44bb

network_body._body_endoder.seq_layers.2.weight f4 [128, 128]
-0.06961216 -0.039808977 -0.05679506 0.07501328 -0.037615415 0.043919317 -0.022880955 -0.027792541
-0.007197079 0.06924027 -0.082632646 -0.089403056 0.029551407 0.021531804 0.04712204 0.034590643
0.022381067 0.18666382 0.033088252 0.10458167 -0.12030934 -0.027258191 -0.06857465 0.016047003
0.14116797 0.102920204 -0.088499196 0.012430265 0.0018894209 -0.1541332 0.013275384 0.11807657
0.12637626 -0.016004365 0.1121647 0.041298084 0.07084723 0.074040376 -0.09603463 0.06589688
0.103417486 -0.17076217 -0.14664593 -0.14984034 0.10366406 -0.011579747 0.025237923 0.09350015
0.03134936 -0.012044501 0.09291088 -0.11590142 -0.13184202 0.070869796 -0.057015393 -0.07131899
0.005062014 -0.052734707 0.028251918 -0.06670738 0.0163237 -0.049555305 0.048127066 0.008369789
-0.11526059 0.022037199 -0.08217684 -0.011484094 0.056686886 0.09909267 0.022975445 -0.06347911
0.12324114 0.12365498 0.058330163 -0.08436446 0.07752201 -0.026048254 -0.008134124 -0.06661665
0.043110315 0.04306598 0.07375529 -0.07030347 0.019330753 0.068333834 0.09828567 0.11622867
0.06711783 0.1176947 -0.14189054 -0.023888666 0.041751947 -0.075550236 -0.04387366 0.2193527
0.017743723 0.054320067 0.14578426 -0.0060469653 -0.1610841 -0.08753018 -0.029099982 0.098538734
0.122505344 0.095599025 0.008431582 0.108013496 0.044478107 0.052783124 -0.1451761 0.051974274
-0.08993448 -0.10467349 -0.026187262 0.047626667 0.0056569288 0.14091775 0.021733668 0.0071381684
0.13680704 0.13668029 0.043330587 -0.16227567 -0.09246218 0.14548557 0.014888762 -0.022909798
0.0018459694 -0.028661737 -0.027935823 0.034505583 0.07594011 0.06489928 -0.11176369 0.022895852
-0.09538824 0.022189412 0.0026379758 0.02203766 0.05226575 0.11037071 0.07433063 0.0018216181
-0.2692164 -0.084921956 0.06464466 -0.008913556 0.0038003083 -0.08903824 -0.1349753 0.07553855
0.053554334 -0.0038271635 0.11364495 0.014604362 0.002382742 0.04918689 -0.051060405 0.10244214
-0.023646206 0.0669746 -0.042304132 -0.09231584 0.053223208 -0.05740081 0.12860647 -0.210612
0.19332004 -0.06441287 0.07477144 0.074052826 0.041696563 -0.09106445 0.07451777 0.049249746
-0.07783697 -0.08870488 0.051158145 -0.19869518 -0.19812492 -0.06941992 0.08920352 0.023713442
0.1226733 0.041586604 -0.18304326 -0.065705195 0.08687318 0.14847441 -0.14437483 -0.039985906
0.035515916 -0.025079153 -0.05300752 -0.0011497035 0.01130735 -0.08155268 -0.0064012995 0.13984609
0.02952599 0.025018457 0.11733393 -0.04436258 0.029820435 0.045886576 0.04515965 -0.12781815
-0.07886409 0.010212962 0.11041834 0.019995632 -0.17621851 -0.10033382 -0.043523822 0.016151914
0.046573278 0.082189485 -0.055466056 0.08550811 -0.0039428 -0.04818349 -0.07093807 -0.021931643
-0.055810656 -0.060361955 -0.09388745 0.095606714 0.11294582 -0.07785543 0.028125985 0.00097562675
-0.114675626 -0.08064714 -0.025363691 -0.07537958 -0.093721256 0.10217235 0.22199589 -0.03329638
-0.112311095 -0.053742606 -0.08088216 0.1193231 -0.038023293 0.0885664 0.061776124 0.12339525
-0.1489528 0.009950441 -0.01616449 0.023336083 0.108405426 0.06704153 0.06491842 -0.02873388
00000000: d290 8ebd bd0e 23bd f0a1 68bd 90a0 993d
00000010: 9f12 1abd bee4 333d d770 bbbc 2fad e3bc
00000020: 79d5 ebbb d8cd 8d3d 4e3b a9bd f318 b7bd
00000030: cb15 f23c 7763 b03c 0a03 413d ebae 0d3d
00000040: 8058 b73c cd24 3f3e 8c87 073d ea2e d63d
00000050: be64 f6bd 924c dfbc de70 8cbd 0175 833c
00000060: 568e 103e d4c7 d23d 113f b5bd 4fa8 4b3c
00000070: 72a6 f73a 18d5 1dbe ff80 593c 21d2 f13d
00000080: c768 013e 961b 83bc 9bb6 e53d 2e28 293d
00000090: 5a18 913d 7ba2 973d cead c4bd f2f4 863d
000000a0: 8ccc d33d 47dc 2ebe 5a2a 16be bf6f 19be
000000b0: d34d d43d fbb8 3dbc c3bf ce3c 027d bf3d
000000c0: 3068 003d 4c56 45bc 0f48 be3d b95d edbd
000000d0: 9801 07be 2f24 913d f988 69bd b10f 92bd
000000e0: 40df a53b 5900 58bd 9170 e73c e19d 88bd
000000f0: 48b9 853c 81fa 4abd e320 453d 7121 093c
00000100: bf0d ecbd 5b87 b43c 554c a8bd c827 3cbc
00000110: 8230 683d 19f1 ca3d 0037 bc3c 5601 82bd
00000120: da65 fc3d d23e fd3d 9ceb 6e3d 46c7 acbd
00000130: dcc3 9e3d 2663 d5bc fd44 05bc 4f6e 88bd
00000140: 7194 303d f465 303d 030d 973d 44fb 8fbd
00000150: 875b 9e3c 9cf2 8b3d ff49 c93d 4c09 ee3d
00000160: 1375 893d eb09 f13d c14b 11be 2ab2 c3bc
00000170: 1704 2b3d 15ba 9abd deb4 33bd ff9d 603e
00000180: 495b 913c b87e 5e3d 7848 153e 9f25 c6bb
00000190: 3bf3 24be 0643 b3bd 1663 eebc adce c93d
000001a0: 15e4 fa3d 6cc9 c33d 9e24 0a3c 2e36 dd3d
000001b0: ad2e 363d 1e33 583d 0ba9 14be fae2 543d
000001c0: 922f b8bd 0e5f d6bd ab86 d6bc 2e14 433d
000001d0: c25d b93b be4c 103e ce0a b23c 4ce7 e93b
000001e0: 2517 0c3e ebf5 0b3e 6a7b 313d 982b 26be
000001f0: d05c bdbd 2bfa 143e feef 733c 54ad bbbc
00000200: 74f4 f13a 05cc eabc abd9 e4bc ba55 0d3d
00000210: 7d86 9b3d eae9 843d 5de4 e4bd 1590 bb3c
00000220: e95a c3bd 92c6 b53c e4e1 2c3b 5388 b43c
00000230: 9c14 563d 0a0a e23d a83a 983d 5cc3 ee3a
00000240: bbd6 89be 90eb adbd 6b64 843d 2a0a 12bc
00000250: 980e 793b ae59 b6bd f736 0abe f5b3 9a3d
00000260: ca5b 5b3d 26d1 7abb afbe e83d 2247 6f3c
00000270: c727 1c3b 3178 493d b724 51bd 2fcd d13d
00000280: b0b5 c1bc fb29 893d 1947 2dbd 1610 bdbd
00000290: 9400 5a3d 1d1d 6bbd 6ab1 033e acaa 57be
000002a0: b0f5 453e e5ea 83bd c521 993d 02a9 973d
000002b0: 04ca 2a3d 0080 babd c69c 983d 1aba 493d
000002c0: fd68 9fbd e7aa b5bd 348b 513d c076 4bbe
000002d0: 42e1 4abe 082c 8ebd 56b0 b63d b142 c23c
000002e0: 243c fb3d b756 2a3d b16f 3bbe 7290 86bd
000002f0: 91ea b13d ad09 183e ffd6 13be 43c8 23bd
00000300: 2379 113d cc72 cdbc 6a1e 59bd a6b1 96ba
00000310: 7742 393c 1705 a7bd fec1 d1bb d033 0f3e
00000320: 7de0 f13c 82f3 cc3c c64c f03d 89b5 35bd
00000330: fc49 f43c 90f3 3b3d 53f9 383d c3e2 02be
00000340: 7f83 a1bd 4454 273c 0323 e23d e1cd a33c
00000350: a072 34be d17b cdbd 0946 32bd 0551 843c
00000360: 9fc3 3e3d f652 a83d 6030 63bd e01e af3d
00000370: 9b32 81bb 0d5c 45bd fb47 91bd fda9 b3bc
00000380: b799 64bd 193e 77bd 1048 c0bd 74cd c33d
00000390: 2350 e73d ab72 9fbd 7768 e63c 34c1 7f3a
000003a0: 0edb eabd 542a a5bd 84c7 cfbc 9c60 9abd
000003b0: eef0 bfbd bd3f d13d e452 633e c961 08bd
000003c0: 5c03 e6bd 3521 5cbd 8ca5 a5bd ab5f f43d
000003d0: 50be 1bbd 4d62 b53d f608 7d3d a6b6 fc3d
000003e0: 1587 18be 2d07 233c 646b 84bc 502b bf3c
000003f0: aa03 de3d 124d 893d f3f3 843d 5063 ebbc

network_body._body_endoder.seq_layers.2.bias f4 [128]
-0.0061385757 0.023134947 0.010102204 0.01251192 0.0041382345 0.011385949 -0.011780705 0.010780316
-0.020678416 -0.00024770692 -0.008750718 -0.0072980416 0.00039338955 -0.004201505 0.0019826915 0.00195598
-0.0041054683 -0.004825663 0.008007711 -0.008110682 0.0034522195 0.0055637797 -0.001850051 -0.0068954946
-0.0041528465 -0.01986009 -0.0022250658 -0.0008852015 0.0076616737 -0.009649395 0.01616719 0.0008645119
-0.019233424 -0.00028743185 0.003458349 0.00033639572 0.002988271 0.008711934 0.008852926 0.001911457
-0.0031273342 0.0031908532 -9.349761e-05 0.015004429 0.0023666194 0.008114117 -0.0036100706 -0.012117003
-0.0010106859 0.006529987 -0.008180793 0.0069774687 -0.009128607 0.011885169 -0.015091047 0.0090692425
-0.0058952626 -0.010758277 -0.003746784 -0.0084388135 -0.00428763 -0.00020098039 -0.011629922 0.0016405457
0.0038356076 0.009725097 -0.01567893 -0.0050109476 -0.0008050482 -0.002743627 0.0056982306 0.0044177556
0.003342324 -0.011898753 -0.019021928 -0.0031853637 0.0044537922 -0.011427381 -0.007926414 -0.004931899
0.007018195 -0.017015768 0.0065354146 -0.025838153 -0.0025044112 -0.0043335888 0.0007767713 0.0043106875
-0.008808388 0.012666409 -0.009143298 0.012372682 -0.024695585 -0.0022376378 -0.0009030843 0.002312925
0.015465347 -0.002246833 0.006162325 0.018387528 -0.0017761996 -0.008778508 -0.0062038694 -0.0076821684
-0.0025222525 -0.0009127624 -0.010676523 0.0016596661 -0.01046978 0.0021731728 -0.004549972 -0.006549049
0.0040350957 -0.0042236126 -0.006132546 0.012835757 0.0037624852 -0.005614441 0.014538913 0.008192991
-0.015706869 -0.0010593804 -0.015805773 -0.004948629 0.01559286 -0.009583403 0.00011207278 -0.009502215
00000000: 1b26 c9bb 8085 bd3c b783 253c ccfe 4c3c
00000010: 079a 873b 228c 3a3c dc03 41bc ec9f 303c
00000020: c865 a9bc a9de 81b9 2c5f 0fbc 6924 efbb
00000030: da3f ce39 c7ac 89bb 0bf0 013b e62f 003b
00000040: 2a87 86bb 9820 9ebb c632 033c aae2 04bc
00000050: a23e 623b 5e50 b63b 697d f2ba 9af3 e1bb
00000060: 9a14 88bb a1b1 a2bc 69d2 11bb de0c 68ba
00000070: c70e fb3b 7f18 1ebc 0e71 843c 69a0 623a
00000080: 6a8f 9dbc 73b2 96b9 78a5 623b 455e b039
00000090: ded6 433b 80bc 0e3c dd0b 113c db89 fa3a
000000a0: f6f3 4cbb a21d 513b 2614 c4b8 23d5 753c
000000b0: 4919 1b3b 13f1 043c ef96 6cbb 6586 46bc
000000c0: fe78 84ba 80f9 d53b bc08 06bc 40a3 e43b
000000d0: 2790 15bc 03ba 423c 7040 77bc 2997 143c
000000e0: 0c2d c1bb 7c43 30bc 9b8c 75bb f342 0abc
000000f0: 3f7f 8cbb 43be 52b9 6e8b 3ebc 9407 d73a
00000100: d15e 7b3b 0356 1f3c 1971 80bc e032 a4bb
00000110: df09 53ba 6cce 33bb 39b8 ba3b d2c2 903b
00000120: e40a 5b3b fdf2 42bc e0d3 9bbc 89c1 50bb
00000130: 1ef1 913b e939 3bbc cadd 01bc c49b a1bb
00000140: e3f8 e53b a764 8bbc 0827 d63b 89aa d3bc
00000150: 0c21 24bb c700 8ebb 3da0 4b3a ab40 8d3b
00000160: 0f51 10bc c586 4f3c c5cd 15bc cab6 4a3c
00000170: 654e cabc 55a5 12bb f6bc 6cba 7194 173b
00000180: 5e62 7d3c 9a3f 13bb 54ed c93b 71a1 963c
00000190: 5ecf e8ba bbd3 0fbc d449 cbbb b3ba fbbb
000001a0: 604c 25bb 7346 6fba 95ec 2ebc 2789 d93a
000001b0: 7189 2bbc ca6b 0e3b ee17 95bb 6899 d6bb
000001c0: d638 843b 3b66 8abb 86f3 c8bb 114d 523c
000001d0: 0794 763b 58f9 b7bb 9f34 6e3c e53b 063c
000001e0: b1ab 80bc e8da 8aba 1c7b 81bc 1c28 a2bb
000001f0: 3279 7f3c b503 1dbc 9e08 eb38 2eaf 1bbc

action_model._continuous_distribution.mu.weight f4 [1, 128]
0.0168031 0.047970667 0.038111567 -0.061158687 0.032354884 -0.052453022 -0.0056548174 0.030549785
-0.0033352382 0.009285421 -0.032121208 -0.0137823885 -0.015805122 -0.020797478 0.018421665 -0.05423221
-0.020322345 0.017562255 0.03052709 -0.023989549 0.03214266 0.043606296 -0.0146190515 -0.017766472
-0.03273999 -0.021952592 0.025086073 -0.045926526 -0.014894533 0.038035218 -0.035755247 -0.030389076
-0.0014855007 0.029796721 -0.046826642 -0.030618625 0.052687805 0.033513956 0.052954137 0.021465378
-0.016302781 -0.0656433 0.025865419 0.06684961 0.03392478 -0.06125936 -0.042868894 -0.02175941
0.02369117 -0.039225668 -0.0016449617 0.022317009 -0.009470794 0.033529565 -0.0112092905 0.025052857
0.029031908 -0.008366296 0.011716554 0.02554564 -0.040045135 0.0445454 -0.019216597 -0.036787733
0.025727306 0.09230839 0.004537225 -0.043441974 -0.007617241 -0.034228668 -0.026251877 0.016881553
0.03563968 -0.0040689516 -0.06767096 0.023224225 0.048255544 -0.014698834 0.029859088 -0.026506333
0.049295682 -0.005935319 -0.0483664 0.0018447336 -0.10074542 -0.039420128 0.015966583 0.018570589
-0.016356725 0.02912702 0.0037455724 -0.06587022 -0.0058985157 0.043511808 -0.04902128 -0.048121482
-0.04652471 0.0003859118 -0.03467166 0.08105409 -0.028382279 0.0041422676 -0.06425641 -0.025802704
-0.018644232 -0.018361846 -0.038414534 0.016496621 -0.01633986 0.024193116 -0.017718986 -0.026479876
-0.08432002 -0.041925028 0.031737253 0.020832833 -0.08017615 -0.026677566 -0.044458132 -0.051500004
0.033467855 0.014679996 -0.06293904 -0.016277488 0.08093909 -0.008246741 -0.048803512 -0.025509363
00000000: a8a6 893c e47c 443d e01a 1c3d 8881 7abd
00000010: 8e86 043d fbd8 56bd 0c4c b9bb 8b43 fa3c
00000020: 0394 5abb e121 183c 8791 03bd 87cf 61bc
00000030: be79 81bc 795f aabc 08e9 963c 9822 5ebd
00000040: 0c7b a6bc b8de 8f3c f313 fa3c bb85 c4bc
00000050: 06a8 033d 849c 323d bf84 6fbc fe8a 91bc
00000060: 5e1a 06bd ecd5 b3bc 4f81 cd3c 741d 3cbd
00000070: 3308 74bc d1ca 1b3d 1874 12bd 83f2 f8bc
00000080: 22b5 c2ba 4118 f43c 4bcd 3fbd e9d3 fabc
00000090: 2bcf 573d ee45 093d 70e6 583d 29d8 af3c
000000a0: 698d 85bc ff6f 86bd b7e3 d33c 73e8 883d
000000b0: b6f4 0a3d 18eb 7abd 4b97 2fbd ca40 b2bc
000000c0: fc13 c23c 18ab 20bd c19b d7ba 29d2 b63c
000000d0: 642b 1bbc 4c56 093d 2ca7 37bc a63b cd3c
000000e0: 53d4 ed3c ca12 09bc caf6 3f3c 1745 d13c
000000f0: 5e06 24bd 3d75 363d 206c 9dbc bcae 16bd
00000100: 12c2 d23c 2e0c bd3d 00ad 943b 36f0 31bd
00000110: 0c9a f9bb 5c33 0cbd 2d0e d7bc 2f4b 8a3c
00000120: eafa 113d d754 85bb 1397 8abd bb40 be3c
00000130: 9ba7 453d 61d3 70bc 0c9b f43c cf23 d9bc
00000140: 45ea 493d 107d c2bb d91b 46bd fdca f13a
00000150: 9d53 cebd 0077 21bd 5acc 823c 5921 983c
00000160: 8afe 85bc ca9b ee3c 4778 753b f7e6 86bd
00000170: 5648 c1bb 7039 323d 8aca 48bd 081b 45bd
00000180: b290 3ebd 3454 ca39 df03 0ebd b0ff a53d
00000190: f481 e8bc dcbb 873b dd98 83bd 3160 d3bc
000001a0: cabb 98bc 956b 96bc 8f58 1dbd ec23 873c
000001b0: 2cdb 85bc a430 c63c 6827 91bc 53ec d8bc
000001c0: faaf acbd 94b9 2bbd ecfe 013d 9ea9 aa3c
000001d0: 6533 a4bd e98a dabc bb19 36bd abf1 52bd
000001e0: 9715 093d 5e84 703c 2fe6 80bd 5e58 85bc
000001f0: 65c3 a53d 571d 07bc 31e6 47bd 03f9 d0bc

exp_avg f4 [128, 6]
-0.00031650957 0.00016843379 0.0 5.099905e-06 -0.00023925152 0.0 -0.0034337633 -0.0013094045
0.0 0.002765558 0.0009010992 0.0 -0.00018930265 -0.00019729126 0.0 -0.0010503939
-7.120743e-05 0.0 -0.0011605343 2.8711866e-05 0.0 -0.0019162672 0.0001858605 0.0
0.00054039387 7.7314966e-05 0.0 -3.4056397e-05 0.00027112055 0.0 -0.0017924863 -0.0007300366
0.0 0.0019971188 0.00064948155 0.0 -0.00048964744 -0.00010649741 0.0 8.206936e-05
5.1223316e-05 0.0 -0.0010433162 -0.000733497 0.0 0.0017862556 0.0005419585 0.0
9.044818e-05 0.00013700375 0.0 -0.00037962984 0.0003764101 0.0 -0.0008629869 -3.9272207e-05
0.0 -0.00097168674 0.00026026214 0.0 -0.00067946943 8.980643e-05 0.0 -0.00013142597
0.00038071442 0.0 0.002619397 0.00045515108 0.0 -4.5367295e-05 -0.00081884314 0.0
0.0026172171 0.0008177922 0.0 -0.0021356202 -0.00057631277 0.0 -0.00028650754 -0.000111009365
0.0 -0.0009835068 4.5211968e-05 0.0 -0.0008254978 -6.164309e-05 0.0 -0.00040522055
-0.00021593766 0.0 -0.0016948725 -0.000576076 0.0 0.0010204552 0.00031372908 0.0
-0.00027188985 -5.485506e-05 0.0 0.00040893818 0.00015712921 0.0 -0.0009013881 -9.592608e-05
0.0 0.00093663385 0.00016775285 0.0 0.00043441576 -9.6183685e-05 0.0 -0.00012139012
-0.00027096138 0.0 0.0019225288 0.00047023126 0.0 -0.0008688544 -0.0005800414 0.0
-0.00054894184 -8.230451e-05 0.0 -0.0011083891 0.00028285937 0.0 0.0013256611 0.00047182568
0.0 -0.0015597627 -0.00038445843 0.0 -0.0015894166 -0.0004752668 0.0 0.00079862995
0.0004956474 0.0 -0.0008244095 -4.2084226e-05 0.0 0.0001659823 -0.00039850496 0.0
0.0006983119 1.293869e-05 0.0 0.00025731474 -7.592319e-06 0.0 -0.00030614942 -3.9857874e-05
0.0 -2.4235775e-05 2.5161222e-05 0.0 -0.0023124954 -0.0012071287 0.0 0.002879086
0.0010093296 0.0 -0.0020650898 -0.0008453486 0.0 0.00196333 0.0006239882 0.0
0.0007143683 0.00032620737 0.0 0.0013578369 -0.0005209182 0.0 -0.0006347895 -0.0002085599
0.0 0.00087117765 0.00015078486 0.0 -4.6230747e-05 0.00038366034 0.0 -0.0031605721
0.00042945246 0.0 0.0010478758 4.3563083e-05 0.0 0.00037207862 -0.00050458935 0.0
0.00023941875 1.4473748e-05 0.0 0.00018008868 -0.00022937104 0.0 0.0012957056 0.00048879004
0.0 -0.0019413835 -0.0005897969 0.0 0.000120985576 0.00017177014 0.0 -0.000582161
0.00050898397 0.0 0.0012525864 0.0004941947 0.0 -0.0015153263 -0.00034530993 0.0
0.00081837736 0.00031960531 0.0 -0.0014375709 7.747832e-05 0.0 0.00042625412 -8.286666e-05
0.0 -0.0006060477 -0.00014729743 0.0 0.0009229756 0.00024863248 0.0 -0.0004987372
-4.7653382e-05 0.0 0.00077950524 1.3352962e-05 0.0 -0.00048173257 0.00076165306 0.0
0.00083515776 0.0004004292 0.0 0.000113594324 -0.0005153071 0.0 0.002394245 0.0005674646
0.0 0.0025040521 -0.0006190666 0.0 -0.0004113513 -0.00011473512 0.0 0.00020334154
00000000: 32f1 a5b9 9a9d 3039 0000 0000 da1f ab36
00000010: 97df 7ab9 0000 0000 fd08 61bb 53a0 abba
00000020: 0000 0000 5d3e 353b be37 6c3a 0000 0000
00000030: 8b7f 46b9 f8df 4eb9 0000 0000 5fad 89ba
00000040: 3355 95b8 0000 0000 121d 98ba 43da f037
00000050: 0000 0000 422b fbba 8ce3 4239 0000 0000
00000060: 38a9 0d3a 2824 a238 0000 0000 c7d7 0eb8
00000070: 2f25 8e39 0000 0000 dcf1 eaba ed5f 3fba
00000080: 0000 0000 18e2 023b f841 2a3a 0000 0000
00000090: af5b 00ba 5d57 dfb8 0000 0000 a71c ac38
000000a0: 9ed8 5638 0000 0000 e2bf 88ba 2748 40ba
000000b0: 0000 0000 cb20 ea3a 3812 0e3a 0000 0000
000000c0: ffae bd38 aaa8 0f39 0000 0000 0e09 c7b9
000000d0: e958 c539 0000 0000 123a 62ba 36b8 24b8
000000e0: 0000 0000 cbb8 7eba cb73 8839 0000 0000
000000f0: 6c1e 32ba 7656 bc38 0000 0000 64cf 09b9
00000100: a09a c739 0000 0000 30aa 2b3b 58a1 ee39
00000110: 0000 0000 c348 3eb8 a2a7 56ba 0000 0000
00000120: 9e85 2b3b 1b61 563a 0000 0000 c3f5 0bbb
00000130: b213 17ba 0000 0000 6436 96b9 b3cd e8b8
00000140: 0000 0000 03e9 80ba fba1 3d38 0000 0000
00000150: 3866 58ba 6246 81b8 0000 0000 c873 d4b9
00000160: 536d 62b9 0000 0000 7c26 deba ce03 17ba
00000170: 0000 0000 cbc0 853a 017c a439 0000 0000
00000180: 708c 8eb9 2c14 66b8 0000 0000 c166 d639
00000190: 0dc3 2439 0000 0000 224b 6cba ec2b c9b8
000001a0: 0000 0000 6f88 753a d0e6 2f39 0000 0000
000001b0: 4cc2 e339 39b6 c9b8 0000 0000 d392 feb8
000001c0: d20f 8eb9 0000 0000 5dfd fb3a 5f89 f639
000001d0: 0000 0000 d5c3 63ba eb0d 18ba 0000 0000
000001e0: dde6 0fba e69a acb8 0000 0000 5e47 91ba
000001f0: be4c 9439 0000 0000 cec1 ad3a 5f5f f739
00000200: 0000 0000 f470 ccba 2391 c9b9 0000 0000
00000210: f953 d0ba 3b2d f9b9 0000 0000 265b 513a
00000220: 55ee 013a 0000 0000 2f1d 58ba 9883 30b8
00000230: 0000 0000 890b 2e39 6eee d0b9 0000 0000
00000240: eb0e 373a 4013 5937 0000 0000 33e8 8639
00000250: 86c1 feb6 0000 0000 ae82 a0b9 112d 27b8
00000260: 0000 0000 ee4d cbb7 5011 d337 0000 0000
00000270: 3c8d 17bb 8538 9eba 0000 0000 0caf 3c3b
00000280: 7b4b 843a 0000 0000 7556 07bb 629a 5dba
00000290: 0000 0000 36ab 003b 2493 233a 0000 0000
000002a0: 7244 3b3a d006 ab39 0000 0000 72f9 b13a
000002b0: 3b8e 08ba 0000 0000 0168 26ba dfb0 5ab9
000002c0: 0000 0000 be5f 643a 011c 1e39 0000 0000
000002d0: e3e7 41b8 0526 c939 0000 0000 9a21 4fbb
000002e0: 2228 e139 0000 0000 e158 893a 81b7 3638
000002f0: 0000 0000 8c13 c339 6b46 04ba 0000 0000
00000300: 7b0c 7b39 46d4 7237 0000 0000 30d6 3c39
00000310: 5283 70b9 0000 0000 aad4 a93a 2522 003a
00000320: 0000 0000 0576 feba 9a9c 1aba 0000 0000
00000330: a3b9 fd38 321d 3439 0000 0000 2a9c 18ba
00000340: 566d 053a 0000 0000 d32d a43a d88c 013a
00000350: 0000 0000 ea9d c6ba b70a b5b9 0000 0000
00000360: 6088 563a b390 a739 0000 0000 e06c bcba
00000370: db7b a238 0000 0000 dc7a df39 b3c8 adb8
00000380: 0000 0000 2cdf 1eba da73 1ab9 0000 0000
00000390: d8f3 713a e35a 8239 0000 0000 b0bd 02ba
000003a0: 6edf 47b8 0000 0000 b657 4c3a 8906 6037
000003b0: 0000 0000 0d91 fcb9 aca9 473a 0000 0000
000003c0: 7dee 5a3a b3f0 d139 0000 0000 7d39 ee38
000003d0: ad15 07ba 0000 0000 c4e8 1c3b e8c1 143a
000003e0: 0000 0000 061b 243b db48 22ba 0000 0000
000003f0: a3aa d7b9 f39d f0b8 0000 0000 1438 5539

exp_avg_sq f4 [128, 6]
4.9148925e-06 2.4249664e-07 0.0 1.9940571e-06 4.2469333e-07 0.0 3.7269914e-05 3.9472984e-06
0.0 2.237107e-05 3.6706124e-06 0.0 2.7042857e-05 3.0011338e-06 0.0 1.4971712e-05
3.2324256e-06 0.0 4.021731e-05 3.935084e-06 0.0 2.0819718e-05 3.3557162e-06 0.0
1.2392465e-05 2.9480304e-07 0.0 4.989664e-06 8.572712e-07 0.0 2.474302e-05 3.316922e-06
0.0 1.1175416e-05 3.1400634e-06 0.0 1.6148771e-05 8.0129706e-07 0.0 3.4108489e-06
1.1883241e-06 0.0 2.3403623e-05 3.1228433e-06 0.0 9.086412e-06 2.2203474e-06 0.0
1.1103969e-05 5.4878114e-07 0.0 3.112373e-06 1.3247443e-06 0.0 6.419214e-06 2.707666e-07
0.0 2.6368568e-06 7.708182e-07 0.0 8.500739e-06 5.4057e-07 0.0 2.897811e-06
9.79915e-07 0.0 1.5840298e-05 1.8303715e-06 0.0 8.40001e-06 1.7541101e-06 0.0
4.372766e-05 5.5864084e-06 0.0 1.7607144e-05 3.5741766e-06 0.0 1.1003062e-05 9.585435e-07
0.0 6.048685e-06 1.2170542e-06 0.0 1.7705772e-05 1.3482266e-06 0.0 6.298904e-06
1.8082029e-06 0.0 1.4480408e-05 1.8448819e-06 0.0 8.2828665e-06 1.187405e-06 0.0
6.56311e-06 6.1317246e-07 0.0 1.8864926e-06 7.608062e-07 0.0 5.2736e-05 2.0956052e-06
0.0 1.1399118e-05 2.9000219e-06 0.0 8.046608e-06 8.807824e-07 0.0 2.8496038e-06
9.018024e-07 0.0 1.713505e-05 2.2656754e-06 0.0 7.044375e-06 1.5886054e-06 0.0
3.8793096e-05 3.698809e-06 0.0 9.973941e-06 2.549155e-06 0.0 2.4659765e-05 3.1633654e-06
0.0 8.279613e-06 2.004603e-06 0.0 1.086038e-05 1.4351384e-06 0.0 5.9023096e-06
1.2164904e-06 0.0 2.9440593e-05 8.098894e-07 0.0 3.756544e-06 2.3023808e-06 0.0
6.866937e-05 4.7516533e-06 0.0 1.3882119e-05 4.862524e-06 0.0 3.7496534e-06 3.9743816e-07
0.0 1.0698924e-06 7.5099786e-07 0.0 0.00011712783 1.2033882e-05 0.0 5.167559e-05
1.1009365e-05 0.0 2.1919213e-05 2.6848963e-06 0.0 1.1965607e-05 2.530323e-06 0.0
2.9211404e-05 2.2081688e-06 0.0 9.9957115e-06 2.2059146e-06 0.0 1.4513486e-05 5.333851e-07
0.0 4.2763077e-06 8.993176e-07 0.0 0.00011475051 1.1076122e-05 0.0 2.8431914e-05
1.1891723e-05 0.0 1.1469791e-05 8.7714415e-07 0.0 2.9770315e-06 1.1193715e-06 0.0
8.493853e-06 5.0606934e-07 0.0 2.0126586e-06 5.28971e-07 0.0 3.3137112e-05 4.552977e-06
0.0 1.259452e-05 2.7796043e-06 0.0 1.6521828e-05 1.2379587e-06 0.0 3.8972166e-06
1.9146544e-06 0.0 1.5388263e-05 2.0206448e-06 0.0 6.8052673e-06 1.7567055e-06 0.0
1.9780986e-05 2.1474407e-06 0.0 4.4575427e-06 2.1152612e-06 0.0 3.2852324e-05 1.445426e-06
0.0 6.9174707e-06 2.0101088e-06 0.0 6.4277415e-06 7.545809e-07 0.0 1.8758362e-06
5.2078826e-07 0.0 1.9134666e-05 1.632893e-06 0.0 4.665801e-06 2.1322485e-06 0.0
1.5285374e-05 1.6610029e-06 0.0 7.585489e-06 1.5715575e-06 0.0 0.00016203543 1.6430444e-05
0.0 5.0723585e-05 1.25528095e-05 0.0 1.8997966e-05 1.0972134e-06 0.0 6.241185e-06
00000000: 9bea a436 7c30 8234 0000 0000 a4d1 0536
00000010: 6801 e434 0000 0000 4452 1c38 0973 8436
00000020: 0000 0000 82a9 bb37 a454 7636 0000 0000
00000030: 18da e237 1667 4936 0000 0000 032f 7b37
00000040: a6ec 5836 0000 0000 02af 2838 1d0a 8436
00000050: 0000 0000 01a6 ae37 c432 6136 0000 0000
00000060: 3be9 4f37 6c45 9e34 0000 0000 e36c a736
00000070: 3a1f 6635 0000 0000 3b8f cf37 4998 5e36
00000080: 0000 0000 0c7e 3b37 e1b9 5236 0000 0000
00000090: 3977 8737 b718 5735 0000 0000 f0e5 6436
000000a0: 817e 9f35 0000 0000 e652 c437 0a92 5136
000000b0: 0000 0000 d871 1837 4701 1536 0000 0000
000000c0: 2f4b 3a37 f44f 1335 0000 0000 29de 5036
000000d0: decd b135 0000 0000 a164 d736 e15d 9134
000000e0: 0000 0000 dbf4 3036 39ea 4e35 0000 0000
000000f0: 659e 0e37 b01b 1135 0000 0000 0478 4236
00000100: 9f85 8335 0000 0000 c8e0 8437 16ab f535
00000110: 0000 0000 c5ed 0c37 c46e eb35 0000 0000
00000120: 3868 3738 e272 bb36 0000 0000 0eb3 9337
00000130: e3db 6f36 0000 0000 cb99 3837 4ea7 8035
00000140: 0000 0000 cff5 ca36 aa59 a335 0000 0000
00000150: db86 9437 b7f4 b435 0000 0000 2c5b d336
00000160: 61b1 f235 0000 0000 e1f0 7237 a99d f735
00000170: 0000 0000 a4f6 0a37 ed5e 9f35 0000 0000
00000180: b038 dc36 e498 2435 0000 0000 6433 fd35
00000190: 343a 4c35 0000 0000 d930 5d38 39a2 0c36
000001a0: 0000 0000 d73e 3f37 ff9d 4236 0000 0000
000001b0: ebff 0637 e86e 6c35 0000 0000 d23b 3f36
000001c0: 6413 7235 0000 0000 3dbd 8f37 020c 1836
000001d0: 0000 0000 b85e ec36 1138 d535 0000 0000
000001e0: c5b5 2238 0e39 7836 0000 0000 c055 2737
000001f0: 2612 2b36 0000 0000 71dc ce37 344a 5436
00000200: 0000 0000 abe8 0a37 d186 0636 0000 0000
00000210: fa34 3637 fb9e c035 0000 0000 740c c636
00000220: 4b46 a335 0000 0000 31f7 f637 2d67 5935
00000230: 0000 0000 ef18 7c36 9a82 1a36 0000 0000
00000240: 9602 9038 6470 9f36 0000 0000 3fe7 6837
00000250: c328 a336 0000 0000 8ea2 7b36 7c5f d534
00000260: 0000 0000 3999 8f35 2e98 4935 0000 0000
00000270: 86a2 f538 21e5 4937 0000 0000 3ebe 5838
00000280: ddb4 3837 0000 0000 27df b737 2b2e 3436
00000290: 0000 0000 e4bf 4837 9ece 2936 0000 0000
000002a0: 030b f537 0d30 1436 0000 0000 41b3 2737
000002b0: 5309 1436 0000 0000 f37e 7337 f22d 0f35
000002c0: 0000 0000 347d 8f36 a368 7135 0000 0000
000002d0: 36a6 f038 95d3 3937 0000 0000 1281 ee37
000002e0: 9082 4737 0000 0000 616e 4037 e374 6b35
000002f0: 0000 0000 03c9 4736 503d 9635 0000 0000
00000300: d280 0e37 d2d8 0735 0000 0000 3611 0736
00000310: 9cfe 0d35 0000 0000 b4fc 0a38 c6c5 9836
00000320: 0000 0000 0d4d 5337 3d89 3a36 0000 0000
00000330: 5b98 8a37 f027 a635 0000 0000 d6c4 8236
00000340: 837d 0036 0000 0000 0b16 8137 6a9a 0736
00000350: 0000 0000 cd58 e436 f1c7 eb35 0000 0000
00000360: 58ef a537 c01c 1036 0000 0000 0092 9536
00000370: e9f3 0d36 0000 0000 eaca 0938 7600 c235
00000380: 0000 0000 9f1c e836 68e5 0636 0000 0000
00000390: e1ad d736 688e 4a35 0000 0000 3ec5 fb35
000003a0: 4ccc 0b35 0000 0000 6283 a037 c729 db35
000003b0: 0000 0000 ed8e 9c36 c017 0f36 0000 0000
000003c0: 1739 8037 a0ef de35 0000 0000 db86 fe36
000003d0: 4eee d235 0000 0000 0ee8 2939 1cd4 8937
000003e0: 0000 0000 09c0 5438 e899 5237 0000 0000
000003f0: d25d 9f37 f743 9335 0000 0000 5f6b d136

exp_avg f4 [128]
3.501514e-05 -0.000426456 -0.00011755931 -7.507424e-05 -5.9451504e-05 -0.0002554088 -2.229325e-05 -0.00027589497
1.4114152e-05 -0.00015368855 -6.714371e-05 0.00023931004 0.0003109693 -7.397119e-05 2.7875065e-05 -0.00023871184
-2.6035972e-05 5.6785146e-05 -7.2900315e-05 0.00020002451 -6.745201e-05 0.00016033524 -0.00019281429 0.00012417728
-4.6279205e-05 -3.7006026e-05 -0.000357999 -0.00023500671 0.00017485378 -9.3620696e-07 -8.105684e-05 2.879528e-05
4.247726e-05 0.00015567873 -9.1637585e-06 0.00015845857 6.583731e-06 -8.3443534e-05 0.00012439648 -0.00015554801
0.00025282166 0.00039444616 5.1186802e-05 -0.00062491867 5.5485318e-05 2.1154749e-07 -4.8945734e-05 -9.501362e-08
0.0002633105 -5.059936e-05 6.653152e-05 -0.00021712283 -0.0002766803 0.0002323915 -0.00017089452 -0.00029023227
0.00010855268 2.541339e-05 -0.0001033185 -0.00026916096 0.00023750514 9.064882e-05 -0.000104519946 0.00040110067
5.990479e-06 -0.00016136123 0.00013683562 0.0001125887 -0.00050567806 -0.00044569199 -0.000103855906 0.00019021859
-0.00023300239 0.000419957 -0.00035955367 -3.3300872e-05 4.7499558e-05 -4.127006e-05 -1.34021675e-05 0.00020220452
0.00016988347 -2.1203597e-05 -3.3861754e-05 -0.00028183675 -0.00011000101 0.00033722195 -7.239341e-05 -0.00034419168
2.2890188e-05 -4.582049e-05 9.087588e-05 8.568588e-05 7.8658704e-05 -4.7986297e-05 -0.00029023064 0.00027360252
3.494631e-05 -2.7401637e-05 3.1738968e-05 -0.00040332507 8.801885e-05 -1.1043595e-05 4.1864918e-05 -9.3834824e-05
1.9890005e-05 0.00014917974 0.00012332013 9.421598e-06 5.3665426e-06 0.00015814534 8.2512226e-05 6.852633e-05
0.0002601437 -0.0001950141 0.00017725251 -3.8381873e-05 3.0380206e-05 -0.00010443952 0.00014672447 -8.3850246e-05
-0.00022601814 -0.00023937738 9.6419535e-05 0.00035337073 0.00014279639 0.00014377157 4.249981e-05 0.00010885223
00000000: 38dd 1238 f595 dfb9 2d8a f6b8 2d71 9db8
00000010: 915b 79b8 64e8 85b9 6402 bbb7 ffa5 90b9
00000020: d2cb 6c37 7527 21b9 81cf 8cb8 4def 7a39
00000030: 9809 a339 fb20 9bb8 3fd5 e937 b94e 7ab9
00000040: d367 dab7 962c 6e38 0fe2 98b8 acbd 5139
00000050: 0675 8db8 aa1f 2839 312e 4ab9 9635 0239
00000060: eb1b 42b8 eb36 1bb8 d0b1 bbb9 226c 76b9
00000070: f458 3739 a74f 7bb5 0ffd a9b8 658d f137
00000080: 9c29 3238 b13d 2339 0bbe 19b7 e627 2639
00000090: d2e9 dc36 68fe aeb8 6d70 0239 9a1a 23b9
000000a0: 268d 8439 abcd ce39 69b1 5638 95d1 23ba
000000b0: e8b8 6838 bb25 6334 154b 4db8 4a0a ccb3
000000c0: f00c 8a39 a63a 54b8 d686 8b38 77ab 63b9
000000d0: 670f 91b9 1eae 7339 2632 33b9 512a 98b9
000000e0: c7a6 e338 d72e d537 b3ac d8b8 2c1e 8db9
000000f0: cd0a 7939 b71a be38 b831 dbb8 d24a d239
00000100: d301 c936 1333 29b9 887b 0f39 991d ec38
00000110: 7b8f 04ba c4ab e9b9 37cd d9b8 6a75 4739
00000120: 1a52 74b9 ad2d dc39 7a82 bcb9 8aac 0bb8
00000130: 433a 4738 6419 2db8 dfd9 60b7 dd06 5439
00000140: bf22 3239 61de b1b7 c806 0eb8 7dc3 93b9
00000150: 58b0 e6b8 2acd b039 ebd1 97b8 a074 b4b9
00000160: 4e04 c037 602f 40b8 9e94 be38 42b2 b338
00000170: 92f5 a438 e544 49b8 192a 98b9 4f72 8f39
00000180: 5193 1238 91dc e5b7 751f 0538 6075 d3b9
00000190: c396 b838 e147 39b7 1d98 2f38 30c9 c4b8
000001a0: 76d9 a637 226d 1c39 7f4f 0139 7511 1e37
000001b0: 4012 b436 d1d3 2539 6a0a ad38 cbb5 8f38
000001c0: e563 8839 b37c 4cb9 dcdc 3939 39fc 20b8
000001d0: ffd8 fe37 8a06 dbb8 0dda 1939 c2d8 afb8
000001e0: 48ff 6cb9 6001 7bb9 d834 ca38 9e44 b939
000001f0: 9dbb 1539 63c1 1639 d341 3238 9947 e438

exp_avg_sq f4 [128]
7.085128e-08 5.5384766e-07 4.2379634e-07 6.6322167e-07 1.7892894e-07 3.8413765e-07 2.3924056e-07 3.7328542e-07
1.6365297e-07 9.917592e-08 1.2770788e-07 2.3583324e-07 6.345077e-07 1.7616625e-07 2.6043836e-07 2.094376e-07
9.7534965e-08 7.6055244e-07 1.1994929e-07 2.4979153e-07 5.653996e-07 3.5816274e-07 1.5784958e-07 4.2820918e-07
9.493756e-07 5.444387e-08 1.90476e-06 3.41306e-07 4.495738e-07 2.1006761e-07 1.6975946e-06 1.6128249e-07
1.1519777e-07 4.773275e-07 2.3854454e-07 2.2252512e-07 2.9758291e-07 4.8092716e-07 9.207052e-08 2.668291e-07
2.3391983e-07 2.3920752e-06 2.745935e-07 1.7144919e-06 2.9273806e-07 8.663074e-08 4.1574685e-07 5.0559652e-08
8.002097e-07 1.811434e-06 6.5796075e-07 6.0952533e-07 5.2771804e-07 3.9178343e-07 8.622111e-08 5.9363134e-07
6.8187305e-08 1.0725089e-07 7.6013146e-07 6.872041e-07 4.08122e-07 2.7599623e-07 3.080713e-06 2.0846203e-06
3.306897e-07 3.2483683e-07 6.05823e-07 9.748694e-08 1.2541113e-06 9.919045e-07 4.787709e-07 8.989001e-07
8.296217e-07 1.8407435e-06 5.403086e-07 2.4212998e-08 2.619415e-07 2.5381868e-07 2.498399e-07 2.271821e-07
6.4871546e-07 7.76443e-08 4.6621344e-07 3.6596907e-07 9.4578375e-08 8.8542714e-07 9.9123376e-08 4.5793493e-07
3.4896008e-08 4.7401468e-07 4.7735007e-08 3.9384287e-07 8.031094e-08 7.079599e-08 4.4304662e-07 9.354981e-07
1.2936994e-07 2.1332721e-07 1.8727637e-07 1.2962249e-06 8.528325e-08 7.308032e-08 7.5937965e-07 2.434655e-07
7.976249e-08 1.7023363e-07 4.6634037e-07 2.586449e-07 2.960614e-07 1.2661951e-07 8.329902e-07 1.5168065e-07
1.3273119e-06 7.732356e-07 2.6119193e-07 1.3589463e-06 1.3631528e-07 1.4011525e-07 4.0653924e-07 4.183057e-07
3.3188536e-07 2.4504757e-07 7.904276e-07 3.6201823e-07 2.7642008e-07 3.4145808e-07 4.843694e-07 2.0656742e-07
00000000: e726 9833 1fac 1435 2086 e334 3f08 3235
00000010: 9d1f 4034 7a3b ce34 f970 8034 f567 c834
00000020: 96b8 2f34 8afa d433 1320 0934 5939 7d34
00000030: 0a53 2a35 3628 3d34 60d2 8b34 c5e1 6034
00000040: 6a74 d133 c428 4c35 69cb 0034 161b 8634
00000050: f7c5 1735 8349 c034 5d7d 2934 9fe4 e534
00000060: 98d8 7e35 abd5 6933 0ea7 ff35 bd3c b734
00000070: f45c f134 f28e 6134 e8d8 e335 fe2c 2d34
00000080: a562 f733 b221 0035 5011 8034 3def 6e34
00000090: 7cc3 9f34 1019 0135 4eb8 c533 b640 8f34
000000a0: 652b 7b34 8a87 2036 d86b 9334 7e1d e635
000000b0: 9d29 9d34 c109 ba33 d033 df34 ed26 5933
000000c0: fecd 5635 6620 f335 b89e 3035 439e 2335
000000d0: 82a8 0d35 4e56 d234 8e28 b933 095a 1f35
000000e0: 5e6e 9233 cd51 e633 d60b 4c35 4e78 3835
000000f0: dc1b db34 a22c 9434 3fbe 4e36 81e5 0b36
00000100: a589 b134 3c65 ae34 d79f 2235 035a d133
00000110: f052 a835 9421 8535 e384 0035 f24b 7135
00000120: 2bb3 5e35 770f f735 b909 1135 f2fc cf32
00000130: f7a0 8c34 9344 8834 bc21 8634 57ef 7334
00000140: 6323 2e35 68bd a633 e34b fa34 687a c434
00000150: 031b cb33 17ae 6d35 a7dd d433 19da f534
00000160: 91e0 1533 157c fe34 3205 4d33 5a71 d334
00000170: 6877 ac33 8208 9833 dddb ed34 f11e 7b35
00000180: f0e8 0a34 f00e 6534 2316 4934 f3f9 ad35
00000190: f624 b733 55f0 9c33 2cd8 4b35 a5b5 8234
000001a0: e549 ab33 77c9 3634 555d fa34 e2db 8a34
000001b0: 5ef2 9e34 e8f4 0734 a79a 5f35 a9dd 2234
000001c0: 1726 b235 5990 4f35 f239 8c34 0a65 b635
000001d0: 0f5e 1234 9672 1634 5442 da34 7f93 e034
000001e0: fa2d b234 158f 8334 c52d 5435 685b c234
000001f0: e366 9434 a451 b734 9d05 0235 d2cc 5d34

exp_avg f4 [128, 128]
-0.0001585148 -2.6535226e-05 -0.00012435573 -0.00021025623 -9.692375e-05 9.621961e-06 -6.777671e-05 0.000116845855
-0.00012277816 -0.000100680176 -1.3629896e-05 -4.477642e-05 -0.00028695122 -0.00016164461 -0.00020267362 6.0457674e-05
-0.00023259492 -4.7826074e-05 -1.4823929e-05 -1.44616015e-05 -7.0068304e-06 -0.00012706754 -6.6181696e-05 -0.00010396858
-0.00012305856 -0.00020512032 4.6026402e-05 -5.3656123e-07 -0.00020234002 -7.658757e-05 -4.8835365e-05 -0.00022404199
-0.00020164912 -7.626955e-05 -0.00019368553 -0.00026577196 -0.00010300609 -0.00018961886 -0.00019219636 -0.00018325765
-0.00027009076 -0.00023544586 -0.0001763296 -2.0544774e-05 -4.5567223e-05 -0.00011626623 -0.00014734335 -7.512826e-05
-1.5527941e-05 4.2160704e-05 -0.00018087737 -0.0002956402 -9.459193e-05 -0.00046047693 -2.0271527e-05 -0.00010475511
-0.00038463427 -0.00016899659 -0.00042213377 -3.533384e-05 -0.00065931183 2.8804647e-05 -8.288439e-05 -0.0004920672
-0.00022715385 5.7494944e-05 -0.00015655857 -0.0003126289 -5.5738543e-05 -2.45068e-05 -9.217308e-05 -0.00021458534
-0.00054884097 -1.8785386e-05 -2.2296996e-05 -0.0002582698 -0.00010219119 -0.00018040303 -0.00020628424 -0.0003267551
-8.23157e-05 -6.7846566e-05 -0.00044018048 9.821817e-06 -0.00029569367 -6.8984984e-05 -7.3580806e-05 -3.871281e-06
-4.5953482e-05 -0.00022816047 -0.00021794917 -0.000378835 -0.00010153577 -9.108315e-05 -2.1161664e-05 -0.00022805083
-0.000219444 -0.0001024683 -0.0002312618 1.792361e-05 -0.00011687198 -3.551651e-05 -3.8539438e-05 -0.00014130361
-0.00014954642 -0.00029200964 -2.001461e-05 -0.00019258182 -0.0002780281 -0.00045440538 9.721508e-05 -3.2543532e-05
-0.00022014235 7.418017e-05 -0.00025157628 -2.8981813e-06 -0.00013303732 6.0483813e-05 -1.0500552e-05 -4.1701198e-05
-0.00012432017 -6.02088e-06 -0.00020914314 -0.00042428583 -0.00037245319 -1.0845641e-05 -0.00014928327 6.5412787e-06
3.9403414e-05 -4.8846017e-05 -0.0003122019 -0.0005977339 -3.5933626e-05 -0.00017388759 1.1612965e-05 8.900613e-05
1.0752515e-05 -3.5492347e-05 -3.474979e-05 -1.8772347e-05 -4.3250053e-05 -0.00039418726 -0.00012679335 0.00011510221
2.921623e-05 0.0001312678 -0.00012720498 1.4679873e-05 0.00011012111 9.3616334e-05 0.00014807185 -0.00011300821
-2.999773e-05 3.090336e-05 -0.00017156494 -2.8740573e-05 -0.00022255129 0.00019007268 -2.0498102e-05 -0.00012275908
-0.00027142072 0.00011002239 0.00013487008 -6.179732e-05 -1.9605002e-05 -8.514287e-05 -8.946813e-05 -2.994571e-05
-7.6634504e-05 -1.3368306e-05 0.0002501564 -7.011899e-05 -2.0121404e-07 0.00015506051 8.7702414e-05 -0.0002167211
0.00010488132 0.00024285188 -9.230702e-05 9.686516e-05 -0.00011628754 -0.00029627228 -0.00017434517 6.483289e-05
-6.1694715e-05 2.9416284e-05 0.000101468126 0.00017580931 -0.00024391466 2.954163e-05 -9.3067385e-05 0.00018485458
0.00030453058 0.000111956564 5.2608437e-05 -7.407801e-05 0.00020544026 3.4548557e-05 -0.00018505598 -0.00024188768
-0.00037099444 -9.3079085e-05 8.8398076e-05 -4.8359234e-05 1.8598701e-05 0.00020349059 0.0002386178 -1.2087371e-05
-5.084942e-05 -9.627851e-05 -0.0005882396 -3.6902547e-05 -5.253061e-05 5.412552e-05 -5.5691003e-06 -0.00024599335
-4.391046e-06 -8.437084e-05 8.812974e-06 0.00015234863 3.637459e-05 -8.7872424e-05 -0.000109568624 -0.00022159114
-7.3464784e-05 5.8182162e-05 4.149113e-05 -0.00016544091 0.00024973764 0.00015551805 -0.00014515164 8.355754e-05
0.00021183612 -6.4098276e-05 1.2620272e-05 1.25229735e-05 -2.7487094e-05 -0.00032475707 0.00015441087 -4.7086236e-05
-0.00013374587 -5.5615998e-05 -8.4221196e-05 5.605559e-05 -3.0698768e-06 -1.074999e-05 -0.00010610406 -0.00015962106
0.00011228956 -0.00015701282 -4.766795e-05 -0.00020684683 -0.00019407521 -8.198748e-05 7.401601e-05 -5.809828e-05
00000000: fe36 26b9 f797 deb7 7d65 02b9 3a78 5cb9
00000010: 8b43 cbb8 026e 2137 5823 8eb8 240b f538
00000020: 03be 00b9 4224 d3b8 f5ab 64b7 51ce 3bb8
00000030: f171 96b9 257f 29b9 c984 54b9 ef93 7d38
00000040: b9e4 73b9 db98 48b8 4ab4 78b7 1ba0 72b7
00000050: 371c ebb6 6f3d 05b9 07cb 8ab8 b509 dab8
00000060: 4809 01b9 9115 57b9 790c 4138 3508 10b5
00000070: 3c2b 54b9 a39d a0b8 93d4 4cb8 d0ec 6ab9
00000080: c671 53b9 e7f2 9fb8 1018 4bb9 4f57 8bb9
00000090: f904 d8b8 6dd4 46b9 5188 49b9 da28 40b9
000000a0: f89a 8db9 04e2 76b9 1ee5 38b9 9157 acb7
000000b0: 6f1f 3fb8 f5d3 f3b8 2e80 1ab9 2d8e 9db8
000000c0: 0042 82b7 b6d5 3038 e6a9 3db9 2800 9bb9
000000d0: a85f c6b8 2b6c f1b9 c60c aab7 f9af dbb8
000000e0: bda8 c9b9 ad34 31b9 d651 ddb9 6c33 14b8
000000f0: abd5 2cba 82a1 f137 38d2 adb8 12fe 00ba
00000100: 2630 6eb9 ba26 7138 df29 24b9 57e8 a3b9
00000110: cec8 69b8 f493 cdb7 0c4d c1b8 5002 61b9
00000120: 18e0 0fba 4f95 9db7 6f0a bbb7 6368 87b9
00000130: 7a4f d6b8 922a 3db9 014e 58b9 5450 abb9
00000140: e8a0 acb8 d948 8eb8 06c8 e6b9 62c8 2437
00000150: 5507 9bb9 08ac 90b8 654f 9ab8 0de6 81b6
00000160: 2dbe 40b8 5c3e 6fb9 4989 64b9 5f9e c6b9
00000170: 9aef d4b8 e503 bfb8 5484 b1b7 ee20 6fb9
00000180: 8d1a 66b9 40e4 d6b8 de7e 72b9 a95a 9637
00000190: 2b19 f5b8 90f7 14b8 68a5 21b8 e62a 14b9
000001a0: 90cf 1cb9 df18 99b9 0ce5 a7b7 caef 49b9
000001b0: 4dc4 91b9 423d eeb9 f3df cb38 5a7f 08b8
000001c0: 03d6 66b9 2d91 9b38 ffe5 83b9 607e 42b6
000001d0: ef7f 0bb9 00b0 7d38 872b 30b7 52e8 2eb8
000001e0: f15b 02b9 f706 cab6 6f4d 5bb9 ae72 deb9
000001f0: d245 c3b9 acf5 35b7 ec88 1cb9 287d db36
00000200: 1845 2538 03e0 4cb8 08af a3b9 3eb1 1cba
00000210: 70b7 16b8 9855 36b9 4ed5 4237 cda8 ba38
00000220: b365 3437 9edd 14b8 4ec0 11b8 4f79 9db7
00000230: 6467 35b8 ebaa ceb9 d5f3 04b9 0763 f138
00000240: 6015 f537 efa4 0939 5462 05b9 9349 7637
00000250: d2f0 e638 e353 c438 bc43 1b39 d2fe ecb8
00000260: a2a3 fbb7 3b9e 0138 1de6 33b9 e917 f1b7
00000270: a85c 69b9 3f4e 4739 57f3 abb7 e4b8 00b9
00000280: 794d 8eb9 d2bb e638 e96b 0d39 2f99 81b8
00000290: 6c75 a4b7 bb8e b2b8 d6a0 bbb8 ec33 fbb7
000002a0: d6b6 a0b8 7048 60b7 6c27 8339 d90c 93b8
000002b0: 4b0d 58b4 bd97 2239 e0ec b738 a13f 63b9
000002c0: bbf3 db38 0ea6 7e39 f494 c1b8 1624 cb38
000002d0: 66df f3b8 fe54 9bb9 6dd0 36b9 e5f6 8738
000002e0: 1962 81b8 fdc2 f637 49cb d438 7459 3839
000002f0: 58c3 7fb9 2bd0 f737 2c2d c3b8 86d5 4139
00000300: 67a9 9f39 39ca ea38 e1a7 5c38 545a 9bb8
00000310: 736b 5739 3be8 1038 960b 42b9 3ba3 7db9
00000320: 0882 c2b9 7433 c3b8 5b62 b938 55d5 4ab8
00000330: 6804 9c37 1760 5539 7a35 7a39 ddca 4ab7
00000340: 2647 55b8 22e9 c9b8 1734 1aba cfc7 1ab8
00000350: 5054 5cb8 d604 6338 35de bab6 abf8 80b9
00000360: cc56 93b6 40f0 b0b8 6fdb 1337 c6bf 1f39
00000370: eb90 1838 2648 b8b8 35c8 e5b8 eb5a 68b9
00000380: 1b11 9ab8 9f08 7438 c306 2e38 357a 2db9
00000390: 38ef 8239 8f12 2339 d933 18b9 9d3b af38
000003a0: 5320 5e39 806c 86b8 a8bb 5337 c319 5237
000003b0: 1694 e6b7 2844 aab9 5ae9 2139 767e 45b8
000003c0: 223e 0cb9 3945 69b8 e99f b0b8 3b1d 6b38
000003d0: 1504 4eb6 db5a 34b7 2f84 deb8 f45f 27b9
000003e0: 007d eb38 cfa3 24b9 12ef 47b8 06e5 58b9
000003f0: ab80 4bb9 b1f0 abb8 0b39 9b38 8eae 73b8
