results/Run1/MoveThePlayer/MoveThePlayer-1990.pt (torch, 149007 bytes, 10 tensors)

network_body._body_endoder.seq_layers.0.weight f4 [128, 6]
-0.21747966 -0.2880577 0.06737472 -0.3264971 0.4361863 0.08877758 0.0048781335 0.0867402
-0.45814452 0.45799837 0.36989808 0.19108942 -0.5482774 0.36733267 0.5023671 0.31036863
0.09107853 0.14010684 -0.45764422 0.5571285 0.18576095 -0.50771165 -0.2541804 0.014526712
-0.50355095 0.1543539 -0.016036667 0.25339258 -0.31483567 -0.21122506 -0.091988906 -0.3179075
0.020686077 0.53977656 -0.025634954 -0.17755078 -0.29184282 0.39070213 0.7515918 0.21829447
-0.22855966 -0.40174076 -0.52636904 -0.2355446 -0.09572244 -1.1073742 0.2591531 -0.63198036
-0.60050756 0.23709548 0.14637618 -0.034027155 -0.14531612 0.3732355 -0.5544443 -0.19425015
0.30791503 -0.2470941 0.33483568 0.9963474 0.15368359 0.12535453 -0.99163187 0.13341026
0.36717916 -0.32223192 -0.16423586 0.27168015 0.29091904 0.22977448 0.2908263 0.03931413
-0.7458507 0.305021 -0.040005982 0.19461726 -0.24611335 -0.2805191 -0.16489646 -0.0076928833
-0.7534678 -0.14663345 0.08254572 -0.35635847 0.33905342 0.15783273 -0.559057 0.4770235
0.3199533 -0.16423345 0.8249354 0.2879641 0.7342928 -0.5973527 0.27895755 -0.30989885
-0.8369861 0.77773094 -0.8137675 0.063146286 -0.7505457 -1.0901016 0.42931736 0.11650614
0.31117636 -0.19987686 -0.80751187 0.15980548 -0.22007084 0.26014498 0.093785375 0.56429255
0.31624496 -0.032499768 0.38253933 0.46300995 -0.21450433 -1.1713752 -0.09078475 0.4457722
-0.046156194 -0.69819623 -0.23141532 -0.5386332 -0.3180116 0.0737763 0.51526254 -0.71900606
0.6084023 0.4973479 0.11377017 0.5054889 0.62738854 -0.08422043 -0.44760796 0.31952006
-0.22470455 -0.3345172 -0.44082716 -0.35063383 -0.8375816 0.098296516 0.25995374 0.44372347
-0.2231367 0.18332441 -0.35472158 -0.65175205 -0.63909686 0.0073253913 -0.37727115 0.11916265
0.24310844 -0.19913165 0.09941971 -0.004920376 -0.030050294 0.36518577 0.3807095 0.8187762
-0.027532933 0.30925483 -0.5036187 -0.26095343 -0.46324 0.18504466 -0.80292094 0.37863854
0.1897418 0.4666387 0.5547344 -0.094937615 -0.04938887 -0.77504855 0.13153604 0.58657354
-0.10092758 0.55981517 -0.42221797 -0.03048516 -0.0121425195 0.028448557 -0.80405354 -0.2742523
0.49503186 0.44806278 0.06364758 -0.31399727 0.11597201 -0.18080309 0.16295792 -0.24005085
0.33437178 -0.10672699 0.35211793 0.26786074 -0.055088766 -0.4157594 -0.564082 0.19805442
0.3178683 -0.16579512 0.02754846 -0.10799182 -0.6528293 -0.27381817 0.39869803 -0.85304093
0.26607752 0.29375666 -0.3864794 -0.11154563 -0.460034 0.9064049 -0.7092471 -0.48711628
0.11001264 0.079400435 -0.041561283 0.9612413 0.011513448 -0.7998728 -0.016312726 -0.52138096
0.53042656 -0.45629016 -0.12046141 -0.74851835 -0.26579988 0.1691342 -0.717208 0.12138807
0.5571494 -0.3116893 0.43166113 -0.09694755 0.17768267 0.4051226 0.00255561 -0.34420565
0.24496484 0.3477673 0.08774425 0.46977282 -0.12640722 -0.40098014 -0.28180277 -0.050374135
0.14764485 0.090103164 -0.6252502 0.27778003 0.16194314 -0.15496518 0.23646086 0.37459192
00000000: fdb2 5ebe 4d7c 93be c2fb 893d a12a a7be
00000010: d053 df3e 05d1 b53d c0d8 9f3b d9a4 b13d
00000020: eb91 eabe c37e ea3e 4863 bd3e f2ac 433e
00000030: e85b 0cbf 0713 bc3e 219b 003f a3e8 9e3e
00000040: 6187 ba3d 2b78 0f3e 5850 eabe f99f 0e3f
00000050: 1e38 3e3e 64f9 01bf ef23 82be 7201 6e3c
00000060: b7e8 00bf f30e 1e3e 545f 83bc acbc 813e
00000070: 2432 a1be 624b 58be ae64 bcbd c6c4 a2be
00000080: d975 a93c cc2e 0a3f 6500 d2bc dfcf 35be
00000090: 6c6c 95be 1c0a c83e 5268 403f 9688 5f3e
000000a0: 8b0b 6abe f7b0 cdbe 1fc0 06bf 9b32 71be
000000b0: 200a c4bd 70be 8dbf b7af 843e 77c9 21bf
000000c0: ddba 19bf 28c9 723e a3e3 153e 0f60 0bbd
000000d0: c0cd 14be b918 bf3e 10f0 0dbf 83e9 46be
000000e0: 0aa7 9d3e 3c06 7dbe 956f ab3e a010 7f3f
000000f0: 3b5f 1d3e f05c 003e 96db 7dbf b39c 083e
00000100: e8fe bb3e 95fb a4be 722d 28be a919 8b3e
00000110: 57f3 943e 004a 6b3e 2fe7 943e da07 213d
00000120: 12f0 3ebf b62b 9c3e 50dd 23bd bf49 473e
00000130: 2305 7cbe 33a0 8fbe 9eda 28be 9514 fcbb
00000140: 44e3 40bf 1427 16be bb0d a93d 9e74 b6be
00000150: 6998 ad3e e79e 213e 5c1e 0fbf 6d3c f43e
00000160: ebd0 a33e d02c 28be f72e 533f 0870 933e
00000170: 9dfa 3b3f 1bec 18bf 86d3 8e3e 10ab 9ebe
00000180: b944 56bf 6019 473f 1153 50bf d752 813d
00000190: c323 40bf 7388 8bbf 7ccf db3e c59a ee3d
000001a0: 8252 9f3e 85ac 4cbe 19b9 4ebf 0ca4 233e
000001b0: 405a 61be b931 853e 8c12 c03d 7a75 103f
000001c0: dcea a13e 7a1e 05bd 32dc c33e a40f ed3e
000001d0: 06a7 5bbe 9fef 95bf 5bed b9bd 413c e43e
000001e0: 470e 3dbd fdbc 32bf 23f8 6cbe dee3 09bf
000001f0: 6bd2 a2be 0718 973d 3fe8 033f c810 38bf
00000200: 41c0 1b3f 62a4 fe3e 5600 e93d b867 013f
00000210: 899c 203f c37b acbd df2c e5be 2298 a33e
00000220: f318 66be d745 abbe 19b4 e1be 4786 b3be
00000230: bf6b 56bf af4f c93d a818 853e b92f e33e
00000240: f27d 64be 65b9 3b3e 119e b5be 39d9 26bf
00000250: da9b 23bf d609 f03b af29 c1be 8c0b f43d
00000260: 6bf1 783e 2be9 4bbe 909c cb3d 1b3b a1bb
00000270: 092c f6bc a1f9 ba3e 5bec c23e 519b 513f
00000280: bf8c e1bc a656 9e3e 28ed 00bf b09b 85be
00000290: cb2d edbe 597c 3d3e 3a8c 4dbf e9dc c13e
000002a0: ad4b 423e 45eb ee3e 1303 0e3f a76e c2bd
000002b0: fc4b 4abd 9569 46bf 62b1 063e af29 163f
000002c0: 1eb3 cebd 0c50 0f3f f42c d8be 04bc f9bc
000002d0: 6bf1 46bc f30c e93c 74d6 4dbf cc6a 8cbe
000002e0: d174 fd3e 7c68 e53e aa59 823d 40c4 a0be
000002f0: bc82 ed3d 7224 39be 71de 263e e4cf 75be
00000300: c732 ab3e ae93 dabd cd48 b43e 0b25 893e
00000310: c2a4 61bd 6bde d4be ae67 10bf c7ce 4a3e
00000320: a2bf a23e 32c6 29be 4fad e13c d12a ddbd
00000330: d21f 27bf e531 8cbe 2622 cc3e e460 5abf
00000340: 503b 883e 4667 963e a1e0 c5be 0972 e4bd
00000350: 9489 ebbe 270a 683f 3891 35bf 4e67 f9be
00000360: 4f4e e13d b29c a23d 2a3c 2abd e913 763f
00000370: e7a2 3c3c 77c4 4cbf 44a2 85bc 3979 05bf
00000380: 09ca 073f dd9e e9be 79b4 f6bd e69e 3fbf
00000390: ec16 88be 8431 2d3e f29a 37bf 4f9a f83d
000003a0: 58a1 0e3f bd95 9fbe b002 dd3e 708c c6bd
000003b0: 72f2 353e 3b6c cf3e 057c 273b b93b b0be
000003c0: 10d8 7a3e 8e0e b23e 42b3 b33d 1086 f03e
000003d0: e570 01be 454d cdbe 7448 90be 1c55 4ebd
000003e0: 3630 173e 0288 b83d 6610 20bf 2f39 8e3e
000003f0: 6cd4 253e 31af 1ebe cc22 723e 83ca bf3e

network_body._body_endoder.seq_layers.0.bias f4 [128]
0.0 0.0 0.0 0.0 0.0 0.0 0.0 0.0
0.0 0.0 0.0 0.0 0.0 0.0 0.0 0.0
0.0 0.0 0.0 0.0 0.0 0.0 0.0 0.0
0.0 0.0 0.0 0.0 0.0 0.0 0.0 0.0
0.0 0.0 0.0 0.0 0.0 0.0 0.0 0.0
0.0 0.0 0.0 0.0 0.0 0.0 0.0 0.0
0.0 0.0 0.0 0.0 0.0 0.0 0.0 0.0
0.0 0.0 0.0 0.0 0.0 0.0 0.0 0.0
0.0 0.0 0.0 0.0 0.0 0.0 0.0 0.0
0.0 0.0 0.0 0.0 0.0 0.0 0.0 0.0
0.0 0.0 0.0 0.0 0.0 0.0 0.0 0.0
0.0 0.0 0.0 0.0 0.0 0.0 0.0 0.0
0.0 0.0 0.0 0.0 0.0 0.0 0.0 0.0
0.0 0.0 0.0 0.0 0.0 0.0 0.0 0.0
0.0 0.0 0.0 0.0 0.0 0.0 0.0 0.0
0.0 0.0 0.0 0.0 0.0 0.0 0.0 0.0
00000000: 0000 0000 0000 0000 0000 0000 0000 0000
00000010: 0000 0000 0000 0000 0000 0000 0000 0000
00000020: 0000 0000 0000 0000 0000 0000 0000 0000
00000030: 0000 0000 0000 0000 0000 0000 0000 0000
00000040: 0000 0000 0000 0000 0000 0000 0000 0000
00000050: 0000 0000 0000 0000 0000 0000 0000 0000
00000060: 0000 0000 0000 0000 0000 0000 0000 0000
00000070: 0000 0000 0000 0000 0000 0000 0000 0000
00000080: 0000 0000 0000 0000 0000 0000 0000 0000
00000090: 0000 0000 0000 0000 0000 0000 0000 0000
000000a0: 0000 0000 0000 0000 0000 0000 0000 0000
000000b0: 0000 0000 0000 0000 0000 0000 0000 0000
000000c0: 0000 0000 0000 0000 0000 0000 0000 0000
000000d0: 0000 0000 0000 0000 0000 0000 0000 0000
000000e0: 0000 0000 0000 0000 0000 0000 0000 0000
000000f0: 0000 0000 0000 0000 0000 0000 0000 0000
00000100: 0000 0000 0000 0000 0000 0000 0000 0000
00000110: 0000 0000 0000 0000 0000 0000 0000 0000
00000120: 0000 0000 0000 0000 0000 0000 0000 0000
00000130: 0000 0000 0000 0000 0000 0000 0000 0000
00000140: 0000 0000 0000 0000 0000 0000 0000 0000
00000150: 0000 0000 0000 0000 0000 0000 0000 0000
00000160: 0000 0000 0000 0000 0000 0000 0000 0000
00000170: 0000 0000 0000 0000 0000 0000 0000 0000
00000180: 0000 0000 0000 0000 0000 0000 0000 0000
00000190: 0000 0000 0000 0000 0000 0000 0000 0000
000001a0: 0000 0000 0000 0000 0000 0000 0000 0000
000001b0: 0000 0000 0000 0000 0000 0000 0000 0000
000001c0: 0000 0000 0000 0000 0000 0000 0000 0000
000001d0: 0000 0000 0000 0000 0000 0000 0000 0000
000001e0: 0000 0000 0000 0000 0000 0000 0000 0000
000001f0: 0000 0000 0000 0000 0000 0000 0000 0000

network_body._body_endoder.seq_layers.2.weight f4 [128, 128]
0.0043229605 -0.019137954 -0.10609118 -0.19793709 0.029041205 0.03798837 -0.07912654 -0.07095084
0.170218 0.23650402 -0.02168262 0.09629279 0.019553153 0.036338147 0.1048462 -0.06897601
0.0635136 0.03330431 0.120147206 0.095071025 0.056844544 -0.16520165 -0.19340853 0.04938954
0.088247396 -0.014844562 -0.09448727 -0.11059693 0.011070372 0.048944913 -0.17911753 0.1670784
0.009577896 -0.061734963 0.13330533 0.03943054 -0.12147995 0.034047626 0.21715485 -0.067655
-0.018166432 -0.15095635 -0.16815254 0.05760422 -0.1366114 0.0804592 -0.021126013 0.05690129
0.07737703 -0.10815937 0.10936091 -0.09242318 -0.0845441 0.038080525 -0.008717802 -0.15176632
-0.07091379 -0.06308804 0.022457339 -0.014297497 -0.03142014 0.01188266 -0.124806836 -0.005705032
0.06399295 -0.13862687 -0.0072032777 -0.10258803 -0.066327065 -0.09810152 -0.03387681 -0.003952259
0.07492924 0.041654002 -0.033997737 0.15910697 -0.0026908035 0.07367958 0.04858292 0.0023826761
0.13743182 -0.048354648 -0.23761615 0.020612184 -0.07618214 0.08463284 0.079329304 0.05742314
-0.123305924 0.045665577 -0.1129954 0.06847959 0.15444624 -0.033779778 -0.1846729 -0.17831539
-0.049452677 -0.0052736616 -0.068519235 -0.013837058 -0.18673319 0.025593976 0.103262275 -0.14334218
-0.02177173 -0.081160955 -0.013187392 -0.20894895 -0.0040495284 0.006501952 0.010683501 0.005930233
-0.09742605 -0.0044633755 -0.01837571 -0.11763585 0.0008527837 -0.0052624936 0.0287028 7.8792094e-05
0.028616898 0.098239794 0.039045885 0.031197399 0.12754248 0.07621412 0.08233254 0.030853292
0.044529147 -0.008857085 -0.07172527 -0.056390982 -0.04195516 -0.14788361 0.066853225 -0.05662382
-0.13021785 -0.11756536 -0.11784989 0.067116424 0.09074947 -0.034750596 0.08537306 0.13415977
0.06456827 -0.035982255 0.035793103 0.08030585 -0.049793966 -0.0126559585 0.040521525 0.049708236
0.128335 0.12314876 0.037602868 -0.019655172 -0.03594652 -0.05952604 0.029790776 0.111383654
-0.07897958 0.0041293027 0.09485563 0.020705631 -0.05110201 -0.05693962 -0.041267347 -0.11547965
0.006709665 -0.06939777 0.03332437 -0.04956939 0.011328521 0.073288284 -0.10105985 -0.06832453
-0.06464464 -0.003972568 -0.16098252 -0.07861118 0.05920675 0.13115817 0.029411454 0.011103965
-0.11028358 -0.13505241 0.05209594 -0.017026102 0.06552386 -0.08310165 0.060953215 0.0026780923
0.02472473 0.025106387 0.1064382 0.09371379 -0.15013415 0.0842754 0.07169999 0.05123343
0.12547787 -0.010553995 -0.036219195 0.048832644 0.002264093 0.034092072 -0.08378725 -0.07199349
0.03964582 0.03261826 0.09444701 0.015226839 -0.1365984 -0.118343435 0.011096147 -0.017971244
0.051922567 0.101810634 -0.07567515 -0.059450153 -0.062872685 -0.027522802 0.14837365 0.037033014
0.11956534 0.10054399 0.0028708214 0.04981858 -0.049780212 0.07456949 -0.030725423 -0.010326251
-0.058797788 0.030190552 -0.09145224 -0.16153309 0.035128266 -0.078927085 0.032758694 0.08764433
-0.010860484 0.021057868 -0.03358258 0.01824538 -0.02393299 0.024271518 -0.03296219 -0.090090364
0.042424493 -0.01641338 -0.00406083 0.039812464 -0.05524323 -0.0744897 0.04149623 -0.029512187
00000000: 9fa7 8d3b 33c7 9cbc 5546 d9bd 05b0 4abe
00000010: d2e7 ed3c b199 1b3d 180d a2bd ad4e 91bd
00000020: a14d 2e3e 1c2e 723e c09f b1bc 2735 c53d
00000030: ef2d a03c 4fd7 143d 9bb9 d63d 4b43 8dbd
00000040: 6b13 823d 1a6a 083d bd0f f63d 99b4 c23d
00000050: d3d5 683d 9f2a 29be e30c 46be b04c 4a3d
00000060: 0dbb b43d 9b36 73bc 8b82 c1bd a580 e2bd
00000070: 8160 353c 767a 483d 966a 37be 9a16 2b3e
00000080: 9cec 1c3c cddd 7cbd 3181 083e eb81 213d
00000090: 7bca f8bd 8675 0b3d d75d 5e3e b48e 8abd
000000a0: c5d1 94bc 4d94 1abe 2e30 2cbe 67f2 6b3d
000000b0: dce3 0bbe cbc7 a43d 7610 adbc 5411 693d
000000c0: d977 9e3d a982 ddbd 9df8 df3d 5d48 bdbd
000000d0: 7525 adbd 53fa 1b3d 1dd5 0ebc a168 1bbe
000000e0: 403b 91bd 4d34 81bd 74f8 b73c 0d40 6abc
000000f0: 68b2 00bd 7daf 423c ba9a ffbd 47f1 babb
00000100: bc0e 833d 34f4 0dbe 7909 ecbb ac19 d2bd
00000110: 7cd6 87bd 73e9 c8bd 69c2 0abd f481 81bb
00000120: 8074 993d 639d 2a3d 3641 0bbd f0ec 223e
00000130: 3158 30bb 52e5 963d e2fe 463d ac26 1c3b
00000140: edba 0c3e 860f 46bd a651 73be e2da a83c
00000150: 6205 9cbd fb53 ad3d 6777 a23d 8734 6b3d
00000160: d187 fcbd d40b 3b3d 226a e7bd 073f 8c3d
00000170: 2827 1e3e aa5c 0abd e51a 3dbe 4f98 36be
00000180: e48e 4abd aece acbb d053 8cbd d4b4 62bc
00000190: fc36 3fbe 75aa d13c 2c7b d33d 4bc8 12be
000001a0: a15a b2bc b737 a6bd ee0f 58bc b7f6 55be
000001b0: e8b1 84bb 540e d53b da09 2f3c 6652 c23b
000001c0: 4f87 c7bd 8241 92bb a888 96bc 11eb f0bd
000001d0: 588d 5f3a ff70 acbb 2222 eb3c 2f3d a538
000001e0: fc6d ea3c f231 c93d 94ee 1f3d b091 ff3c
000001f0: 7f9a 023e 2616 9c3d f69d a83d 0bc0 fc3c
00000200: 3264 363d 4f1d 11bc b3e4 92bd 3bfa 66bd
00000210: 2dd9 2bbd cd6e 17be 58ea 883d 61ee 67bd
00000220: d457 05be 1cc6 f0bd 485b f1bd 5674 893d
00000230: dcda b93d a456 0ebd 12d8 ae3d 2e61 093e
00000240: 5f3c 843d 2162 13bd ca9b 123d 6577 a43d
00000250: c2f4 4bbd f05a 4fbc e6f9 253d dd9a 4b3d
00000260: 406a 033e 6b35 fc3d 7705 1a3d e203 a1bc
00000270: a83c 13bd 94d1 73bd c90b f43c 1d1d e43d
00000280: 0cc0 a1bd 1a4f 873b ab43 c23d db9e a93c
00000290: 5750 51bd 8539 69bd f307 29bd 9880 ecbd
000002a0: c0dc db3b 6b20 8ebd 227f 083d 4609 4bbd
000002b0: 439b 393c 2b18 963d 77f8 cebd bbed 8bbd
000002c0: 6964 84bd 512c 82bb 9ad8 24be e6fe a0bd
000002d0: c782 723d 544e 063e 4af0 f03c 68ed 353c
000002e0: 5cdc e1bd 2e4b 0abe 8d62 553d 537a 8bbc
000002f0: 6031 863d 3331 aabd 14aa 793d ef82 2f3b
00000300: 848b ca3c e9ab cd3c 45fc d93d 04ed bf3d
00000310: c4bc 19be 9598 ac3d 72d7 923d 25da 513d
00000320: 457d 003e aaea 2cbc 945a 14bd bd04 483d
00000330: 2d61 143b 21a4 0b3d a698 abbd 5371 93bd
00000340: a863 223d b99a 053d 6f6d c13d fe79 793c
00000350: 73e0 0bbe 0b5e f2bd 9dcc 353c 6e38 93bc
00000360: c2ac 543d 1882 d03d 93fb 9abd 0182 73bd
00000370: 65c3 80bd 8077 e1bc 43ef 173e eeaf 173d
00000380: acde f43d 02ea cd3d 6424 3c3b 910e 4c3d
00000390: 56e6 4bbd e4b7 983d e2b3 fbbc 702f 29bc
000003a0: f3d5 70bd 2d52 f73c 504b bbbd ee68 25be
000003b0: a8e2 0f3d 86a4 a1bd fb2d 063d df7e b33d
000003c0: 2cf0 31bc 8d81 ac3c e38d 09bd 5677 953c
000003d0: 1e0f c4bc 10d5 c63c 5d03 07bd 4c81 b8bd
000003e0: 4ec5 2d3d 5a75 86bc b610 85bb 6512 233d
000003f0: ba46 62bd 0e8e 98bd f3f7 293d 8bc3 f1bc

network_body._body_endoder.seq_layers.2.bias f4 [128]
0.0 0.0 0.0 0.0 0.0 0.0 0.0 0.0
0.0 0.0 0.0 0.0 0.0 0.0 0.0 0.0
0.0 0.0 0.0 0.0 0.0 0.0 0.0 0.0
0.0 0.0 0.0 0.0 0.0 0.0 0.0 0.0
0.0 0.0 0.0 0.0 0.0 0.0 0.0 0.0
0.0 0.0 0.0 0.0 0.0 0.0 0.0 0.0
0.0 0.0 0.0 0.0 0.0 0.0 0.0 0.0
0.0 0.0 0.0 0.0 0.0 0.0 0.0 0.0
0.0 0.0 0.0 0.0 0.0 0.0 0.0 0.0
0.0 0.0 0.0 0.0 0.0 0.0 0.0 0.0
0.0 0.0 0.0 0.0 0.0 0.0 0.0 0.0
0.0 0.0 0.0 0.0 0.0 0.0 0.0 0.0
0.0 0.0 0.0 0.0 0.0 0.0 0.0 0.0
0.0 0.0 0.0 0.0 0.0 0.0 0.0 0.0
0.0 0.0 0.0 0.0 0.0 0.0 0.0 0.0
0.0 0.0 0.0 0.0 0.0 0.0 0.0 0.0
00000000: 0000 0000 0000 0000 0000 0000 0000 0000
00000010: 0000 0000 0000 0000 0000 0000 0000 0000
00000020: 0000 0000 0000 0000 0000 0000 0000 0000
00000030: 0000 0000 0000 0000 0000 0000 0000 0000
00000040: 0000 0000 0000 0000 0000 0000 0000 0000
00000050: 0000 0000 0000 0000 0000 0000 0000 0000
00000060: 0000 0000 0000 0000 0000 0000 0000 0000
00000070: 0000 0000 0000 0000 0000 0000 0000 0000
00000080: 0000 0000 0000 0000 0000 0000 0000 0000
00000090: 0000 0000 0000 0000 0000 0000 0000 0000
000000a0: 0000 0000 0000 0000 0000 0000 0000 0000
000000b0: 0000 0000 0000 0000 0000 0000 0000 0000
000000c0: 0000 0000 0000 0000 0000 0000 0000 0000
000000d0: 0000 0000 0000 0000 0000 0000 0000 0000
000000e0: 0000 0000 0000 0000 0000 0000 0000 0000
000000f0: 0000 0000 0000 0000 0000 0000 0000 0000
00000100: 0000 0000 0000 0000 0000 0000 0000 0000
00000110: 0000 0000 0000 0000 0000 0000 0000 0000
00000120: 0000 0000 0000 0000 0000 0000 0000 0000
00000130: 0000 0000 0000 0000 0000 0000 0000 0000
00000140: 0000 0000 0000 0000 0000 0000 0000 0000
00000150: 0000 0000 0000 0000 0000 0000 0000 0000
00000160: 0000 0000 0000 0000 0000 0000 0000 0000
00000170: 0000 0000 0000 0000 0000 0000 0000 0000
00000180: 0000 0000 0000 0000 0000 0000 0000 0000
00000190: 0000 0000 0000 0000 0000 0000 0000 0000
000001a0: 0000 0000 0000 0000 0000 0000 0000 0000
000001b0: 0000 0000 0000 0000 0000 0000 0000 0000
000001c0: 0000 0000 0000 0000 0000 0000 0000 0000
000001d0: 0000 0000 0000 0000 0000 0000 0000 0000
000001e0: 0000 0000 0000 0000 0000 0000 0000 0000
000001f0: 0000 0000 0000 0000 0000 0000 0000 0000

action_model._continuous_distribution.mu.weight f4 [1, 128]
0.00042605834 -0.028820649 0.0057630073 0.0057340227 0.021862006 0.005989448 0.022305109 -0.004151445
-0.0010859262 0.028136749 0.0073478646 -0.012472625 -0.01922005 -0.011342873 -0.0008400129 -0.010406423
-0.0057487707 0.013033206 -0.013705964 0.00225819 0.018920599 0.047590755 0.03200912 0.006040039
0.027610058 -0.0028070407 -0.0011453931 0.02368028 -0.001248604 0.03552051 0.02312599 -0.018176455
-0.012192486 -0.014778559 -0.010940313 -0.008653901 -0.013501053 -0.015816893 0.008209744 0.01596973
0.0039633596 -0.00027864982 -0.030634467 0.011062578 -0.014598218 0.021445736 0.01578291 -0.026858417
0.012638326 0.00998312 -0.010437212 -0.009645634 -0.0051493137 -0.02159471 0.015747806 0.025492057
-0.015254571 -0.0066277855 0.0073988847 0.017056333 0.021449415 -0.00746511 -0.03878801 -0.018665375
-0.00078613806 0.016663592 0.009672064 0.011444322 -0.022308087 0.01267414 -0.02611253 -0.0072728167
0.002856885 0.017397169 -0.04357834 -0.028077578 -0.010339945 -0.007060411 -0.01342533 0.004806071
0.0013913129 -0.003171916 -0.0030923623 0.0052071637 -0.009014917 -0.046998724 0.01119574 -0.022884924
-0.0073383735 0.013857937 -0.010941542 0.003691864 -0.024437396 0.029430846 -0.019223286 0.0019079171
-0.0057560313 -0.018371833 -0.010116397 -0.01471494 -0.020795187 0.039631143 -0.0044596484 0.0060310964
0.003313856 0.009634319 -0.0010143601 -0.011488838 -0.013851397 -0.011497664 -0.0040229256 0.02093853
0.004636616 -0.012311268 0.009079325 -0.0118085025 -0.013537507 -0.0046267705 -0.0019639302 0.0020964134
-0.027395004 0.0081651425 0.017887162 -0.001567514 0.016880374 -0.01089118 0.02061728 0.0011122578
00000000: 9560 df39 4819 ecbc 9cd7 bc3b 78e4 bb3b
00000010: f317 b33c 2243 c43b 34b9 b63c d808 88bb
00000020: a355 8eba 0a7f e63c 5bc6 f03b fb59 4cbc
00000030: 5e73 9dbc 75d7 39bc 5034 5cba b47f 2abc
00000040: 2f60 bcbb 3a89 553c fb8e 60bc 24fe 133b
00000050: 5fff 9a3c 86ee 423d ff1b 033d 85eb c53b
00000060: 7d2e e23c 54f6 37bb 0421 96ba 26fd c13c
00000070: 33a8 a3ba f47d 113d b772 bd3c cae6 94bc
00000080: fec2 47bc c521 72bc 003f 33bc 17c9 0dbc
00000090: 8533 5dbc 6e92 81bc 2982 063c f4d2 823c
000000a0: 12df 813b bf17 92b9 22f5 fabc d13f 353c
000000b0: 5d2d 6fbc f8ae af3c 294b 813c 2f06 dcbc
000000c0: fb10 4f3c 3d90 233c d700 2bbc b908 1ebc
000000d0: 93bb a8bb 64e7 b0bc 8b01 813c b8d4 d03c
000000e0: 4fee 79bc e52d d9bb 5872 f23b b9b9 8b3c
000000f0: afb6 af3c e29d f4bb 2de0 1ebd 21e8 98bc
00000100: d514 4eba 1682 883c 9477 1e3c f780 3b3c
00000110: 73bf b6bc 32a7 4f3c f2e9 d5bc cf50 eebb
00000120: 943a 3b3b 8284 8e3c 347f 32bd f302 e6bc
00000130: df68 29bc 055b e7bb eaf5 5bbc 3f7c 9d3b
00000140: b75c b63a ebdf 4fbb 3ba9 4abb dba0 aa3b
00000150: 4db3 13bc bc81 40bd 566e 373c 2a79 bbbc
00000160: bd76 f0bb 670c 633c 2744 33bc 33f3 713b
00000170: ef30 c8bc f518 f13c 277a 9dbc 1313 fa3a
00000180: 179d bcbb 8780 96bc 3fbf 25bc ef16 71bc
00000190: ab5a aabc 4454 223d 3e22 92bb 81a0 c53b
000001a0: 472d 593b 43d9 1d3c 47f4 84ba ae3b 3cbc
000001b0: f8f0 62bc b360 3cbc bfd2 83bb 4887 ab3c
000001c0: c1ee 973b 33b5 49bc 73c1 143c 7378 41bc
000001d0: 6bcc 5dbc 2a9c 97bb 48b5 00bb fb63 093b
000001e0: 7d6b e0bc 17c7 053c 1988 923c 0b75 cdba
000001f0: b648 8a3c eb70 32bc 92e5 a83c 2ec9 913a

network_body._body_endoder.seq_layers.0.weight f4 [128, 6]
-0.09908937 0.6612711 0.5421375 0.14363326 0.9476864 -0.24444172 0.27978554 -0.18756689
0.13412106 0.15628737 -0.059414834 0.5606651 -0.39264905 0.50882506 0.067090526 -0.7332987
0.42275783 0.8468605 -0.1186477 -0.3191373 -0.8660034 0.26236686 0.22457935 0.7473341
0.48590514 0.37372613 -0.32987168 0.34555122 0.354486 0.03563404 -0.27843174 -0.44894388
-0.051672623 -0.41937348 0.08790365 0.5354033 -0.04435373 0.013560272 0.4770794 -0.17281282
0.06461094 0.079792865 -0.4457782 -0.37552628 0.49321994 0.60061884 -0.2543256 -0.8836098
-0.123612754 -0.8935575 0.27224442 0.10285998 0.31980494 0.4281451 -0.8862428 0.36812973
0.15525563 0.64248323 -0.09913665 0.17567554 -0.32211846 -0.30021957 -0.6626697 -0.15807554
-0.7670406 -0.3826185 -0.29265177 -0.5691307 0.42782024 0.9341859 -0.080135405 0.32505932
0.85518533 -0.5333378 -0.07732299 0.08248822 -0.13141654 0.2807367 -0.10810146 0.015843391
-0.493114 -0.03266281 -0.044456217 0.27417916 0.020645816 0.08337984 0.4924631 -0.1867833
0.12952136 0.7472841 0.07110399 0.25266853 -0.1451284 0.2702415 0.2406838 0.14715408
-0.19406019 -0.19993359 -0.035696562 -0.08405521 -0.013982467 0.23143809 -0.70958364 0.5800756
0.33714125 0.07163885 0.35448617 0.7460003 0.58297163 0.41268012 0.11441832 -0.15696454
0.36582032 0.19287373 -0.5305626 0.2811062 -0.010062146 -0.43235734 0.18223797 0.5832699
0.37352124 -0.75305 0.015408252 0.11194621 0.0491094 -0.6695617 0.029719843 0.41363448
-0.72162795 0.09736179 -0.1846322 -0.045518577 -0.006439684 -0.24527407 0.17582077 0.082598254
-0.09701863 -0.22527441 0.28370285 0.6177347 -0.4311638 -0.21013366 -0.43395427 0.6817405
-0.3098544 -0.6760705 0.14034012 -0.057269435 -0.005281761 -0.59601927 0.2617034 -0.5017611
0.27962697 -0.32771727 -0.5804484 -0.18559496 0.39341724 -0.63019025 -0.16314347 0.11418177
-0.0076084374 0.5321462 -0.054997414 0.2815004 0.26451355 0.12531668 0.1509638 0.3066939
-0.42931026 -0.25952888 -0.39276487 0.09447101 -0.3317536 0.080788836 0.56656396 -0.59274256
0.48739558 0.30421323 -0.34095412 0.15539016 1.3214037 -0.24747792 0.49803412 -1.1976264
-0.9593494 0.59375954 -0.36604825 0.47632292 0.68103504 -0.5176298 -0.41809988 0.28384122
-0.46164027 -0.59169054 0.73240864 -0.08539124 0.46405956 0.073532335 0.36518192 0.06524865
0.036168132 -0.26229095 -0.08239841 0.10658223 0.010010024 -0.35792512 -0.07900431 -0.55007774
0.29630548 -0.034928147 0.25317407 -0.028795881 0.50391406 0.049278826 -0.5142737 0.26786378
-0.121057846 -0.9424241 -0.016183112 0.25976005 0.6163524 0.072210036 0.5296356 0.4574425
0.2576287 0.37517616 -0.1442228 0.58632267 -0.46611965 -0.46471432 -0.2958459 -0.23176853
0.8860404 0.46154556 0.38950625 0.26948676 0.027544323 0.07862863 -0.028619321 -0.09088609
0.178929 0.498698 -0.08082402 0.0885159 -0.4781546 -0.07613846 -0.34935135 -0.35490406
-0.59971213 -0.12492939 0.037020378 -0.71976894 -0.21805999 0.026914421 0.019600749 -0.09333389
00000000: 5eef cabd 1049 293f 86c9 0a3f 9914 133e
00000010: 939b 723f ee4e 7abe 0d40 8f3e 8911 40be
00000020: 0857 093e cc09 203e f85c 73bd bf87 0f3f
00000030: 4c09 c9be 5c42 023f c266 893d 77b9 3bbf
00000040: b773 d83e dacb 583f 91fd f2bd f765 a3be
00000050: 66b2 5dbf f354 863e 21f8 653e 4a51 3f3f
00000060: 8fc8 f83e 0859 bf3e f1e4 a8be 17ec b03e
00000070: 307f b53e 00f5 113d 9b8e 8ebe f9db e5be
00000080: aca6 53bd 1fb8 d6be d406 b43d 3110 093f
00000090: 42ac 35bd e72b 5e3c c043 f43e d8f5 30be
000000a0: be52 843d 716a a33d 0a3d e4be fb44 c0be
000000b0: 5387 fc3e 28c2 193f f736 82be 4034 62bf
000000c0: af28 fdbd 2fc0 64bf 9f63 8b3e 41a8 d23d
000000d0: 79bd a33e d635 db3e cfe0 62bf 807b bc3e
000000e0: 55fb 1e3e c879 243f 2808 cbbd 4ae4 333e
000000f0: b6ec a4be 61b6 99be b9a4 29bf 8ede 21be
00000100: c65c 44bf 92e6 c3be 74d6 95be 8db2 11bf
00000110: 410b db3e cf26 6f3f 081e a4bd 2d6e a63e
00000120: 6ded 5a3f d388 08bf 845b 9ebd 95ef a83d
00000130: 0f92 06be b9bc 8f3e 4c64 ddbd 00ca 813c
00000140: 7079 fcbe 70c9 05bd b917 36bd 3661 8c3e
00000150: 6a21 a93c 0dc3 aa3d 2024 fc3e 1f44 3fbe
00000160: 3fa1 043e 034e 3f3f f89e 913d c55d 813e
00000170: 8a9c 14be 185d 8a3e d075 763e 8faf 163e
00000180: b7b7 46be 64bb 4cbe 8f36 12bd 2325 acbd
00000190: b816 65bc 1bfe 6c3e 46a7 35bf d67f 143f
000001a0: c79d ac3e 64b7 923d 367f b53e e0f9 3e3f
000001b0: a13d 153f cf4a d33e 2754 ea3d 50bb 20be
000001c0: cd4c bb3e b180 453e f3d2 07bf 27ed 8f3e
000001d0: b3db 24bc f15d ddbe 979c 3a3e 2d51 153f
000001e0: 2d3e bf3e e3c7 40bf e572 7c3c 0e44 e53d
000001f0: f026 493d 6568 2bbf 0777 f33c e6c7 d33e
00000200: 9cbc 38bf 9e65 c73d 3910 3dbe b071 3abd
00000210: fc03 d3bb 2029 7bbe 5c0a 343e 4629 a93d
00000220: b4b1 c6bd 56ae 66be 8041 913e dc23 1e3f
00000230: 80c1 dcbe 472d 57be 412f debe 8c86 2e3f
00000240: 3ca5 9ebe f512 2dbf 52b5 0f3e 5b93 6abd
00000250: 9f12 adbb b894 18bf fdfd 853e 6a73 00bf
00000260: 442b 8f3e 8fca a7be 4498 14bf 9b0c 3ebe
00000270: fc6d c93e 2654 21bf 150f 27be 22d8 e93d
00000280: 3350 f9bb bc3a 083f f844 61bd d220 903e
00000290: 526e 873e 0453 003e 4196 1a3e fc06 9d3e
000002a0: 8ece dbbe f8e0 84be 7a18 c9be 047a c13d
000002b0: 9cdb a9be 9e74 a53d 560a 113f fabd 17bf
000002c0: ea8b f93e d6c1 9b3e 8a91 aebe 991e 1f3e
000002d0: c223 a93f da6a 7dbe 54fe fe3e d24b 99bf
000002e0: ec97 75bf a000 183f ad6a bbbe 99e0 f33e
000002f0: 5058 2e3f 6383 04bf 3011 d6be a353 913e
00000300: 1d5c ecbe 0879 17bf 227f 3b3f 9ae1 aebd
00000310: 3799 ed3e 1f98 963d 20f9 ba3e 16a1 853d
00000320: 0925 143d 004b 86be 7fc0 a8bd c947 da3d
00000330: 1501 243c f641 b7be 03cd a1bd e5d1 0cbf
00000340: 5ab5 973e d110 0fbd 08a0 813e 57e5 ebbc
00000350: 8300 013f 98d8 493d 71a7 03bf 7125 893e
00000360: 2ded f7bd b542 71bf 7292 84bc 45ff 843e
00000370: 45c9 1d3f dbe2 933d 3396 073f e735 ea3e
00000380: e9e7 833e 1717 c03e 24af 13be 3e19 163f
00000390: 3ca7 eebe 09ef edbe 1d79 97be bb54 6dbe
000003a0: 8bd3 623f b34f ec3e 5d6d c73e 2bfa 893e
000003b0: a2a4 e13c 0c08 a13d 1173 eabc 7d22 babd
000003c0: 2a39 373e 5855 ff3e 1087 a5bd d347 b53d
000003d0: aed0 f4be 7bee 9bbd 2ede b2be fcb5 b5be
000003e0: bc86 19bf fbda ffbd aea2 173d c742 38bf
000003f0: 1e4b 5fbe a27b dc3c c091 a03c d725 bfbd

network_body._body_endoder.seq_layers.0.bias f4 [128]
0.0 0.0 0.0 0.0 0.0 0.0 0.0 0.0
0.0 0.0 0.0 0.0 0.0 0.0 0.0 0.0
0.0 0.0 0.0 0.0 0.0 0.0 0.0 0.0
0.0 0.0 0.0 0.0 0.0 0.0 0.0 0.0
0.0 0.0 0.0 0.0 0.0 0.0 0.0 0.0
0.0 0.0 0.0 0.0 0.0 0.0 0.0 0.0
0.0 0.0 0.0 0.0 0.0 0.0 0.0 0.0
0.0 0.0 0.0 0.0 0.0 0.0 0.0 0.0
0.0 0.0 0.0 0.0 0.0 0.0 0.0 0.0
0.0 0.0 0.0 0.0 0.0 0.0 0.0 0.0
0.0 0.0 0.0 0.0 0.0 0.0 0.0 0.0
0.0 0.0 0.0 0.0 0.0 0.0 0.0 0.0
0.0 0.0 0.0 0.0 0.0 0.0 0.0 0.0
0.0 0.0 0.0 0.0 0.0 0.0 0.0 0.0
0.0 0.0 0.0 0.0 0.0 0.0 0.0 0.0
0.0 0.0 0.0 0.0 0.0 0.0 0.0 0.0
00000000: 0000 0000 0000 0000 0000 0000 0000 0000
00000010: 0000 0000 0000 0000 0000 0000 0000 0000
00000020: 0000 0000 0000 0000 0000 0000 0000 0000
00000030: 0000 0000 0000 0000 0000 0000 0000 0000
00000040: 0000 0000 0000 0000 0000 0000 0000 0000
00000050: 0000 0000 0000 0000 0000 0000 0000 0000
00000060: 0000 0000 0000 0000 0000 0000 0000 0000
00000070: 0000 0000 0000 0000 0000 0000 0000 0000
00000080: 0000 0000 0000 0000 0000 0000 0000 0000
00000090: 0000 0000 0000 0000 0000 0000 0000 0000
000000a0: 0000 0000 0000 0000 0000 0000 0000 0000
000000b0: 0000 0000 0000 0000 0000 0000 0000 0000
000000c0: 0000 0000 0000 0000 0000 0000 0000 0000
000000d0: 0000 0000 0000 0000 0000 0000 0000 0000
000000e0: 0000 0000 0000 0000 0000 0000 0000 0000
000000f0: 0000 0000 0000 0000 0000 0000 0000 0000
00000100: 0000 0000 0000 0000 0000 0000 0000 0000
00000110: 0000 0000 0000 0000 0000 0000 0000 0000
00000120: 0000 0000 0000 0000 0000 0000 0000 0000
00000130: 0000 0000 0000 0000 0000 0000 0000 0000
00000140: 0000 0000 0000 0000 0000 0000 0000 0000
00000150: 0000 0000 0000 0000 0000 0000 0000 0000
00000160: 0000 0000 0000 0000 0000 0000 0000 0000
00000170: 0000 0000 0000 0000 0000 0000 0000 0000
00000180: 0000 0000 0000 0000 0000 0000 0000 0000
00000190: 0000 0000 0000 0000 0000 0000 0000 0000
000001a0: 0000 0000 0000 0000 0000 0000 0000 0000
000001b0: 0000 0000 0000 0000 0000 0000 0000 0000
000001c0: 0000 0000 0000 0000 0000 0000 0000 0000
000001d0: 0000 0000 0000 0000 0000 0000 0000 0000
000001e0: 0000 0000 0000 0000 0000 0000 0000 0000
000001f0: 0000 0000 0000 0000 0000 0000 0000 0000

network_body._body_endoder.seq_layers.2.weight f4 [128, 128]
0.13237801 -0.0010165783 -0.015626969 0.11836818 0.0033884975 -0.16543016 -0.13553968 0.22438364
0.13784309 -0.17373675 0.023656918 -0.047747716 -0.014736307 0.10102306 -0.122260764 0.00930967
0.08871594 -0.002916371 0.31949848 -0.036375903 0.036631774 0.115861684 -0.121024884 -0.040956922
-0.052006286 0.024688538 0.016389046 0.04010463 0.0719064 -0.0010279465 0.011173396 -0.04530475
0.047191057 0.097323425 -0.0749265 -0.106380284 0.12737253 0.017524324 -0.051292345 -0.0010841374
0.051230006 -0.015074336 0.0143728 -0.0032903582 0.15552205 0.051257372 0.012014046 -0.035541262
-0.04301878 0.074303955 -0.108076274 -0.10030843 0.036521427 -0.03153944 0.05478807 -0.05930619
-0.07700418 -0.019647552 -0.036799755 0.061868824 -0.18412355 -0.0014313762 -0.036772665 -0.009149025
0.013669715 0.06276019 -0.033298597 0.0739358 -0.05431911 0.15152405 -0.13255891 -0.0746825
-0.07216583 -0.012311105 0.14151648 0.0122641185 -0.004635748 -0.07919315 0.07620766 -0.15329322
0.040794715 -0.0798248 -0.097668596 0.101163045 0.02071517 0.0803619 -0.047763936 -0.004112263
-0.02810377 -0.09814016 0.0016266463 -0.04185706 -0.18324926 0.039672926 0.08123828 0.05222407
-0.018051922 -0.092003696 -0.029691424 0.053903878 0.065869 -0.038305208 0.069828615 -0.19204831
0.06301986 -0.07088724 -0.058143664 -0.072586864 -0.10391987 -0.018453268 0.11413125 -0.0703082
-0.03760334 0.05845397 -0.19384347 -0.016007487 -0.022884948 0.116050914 0.03510027 0.1731223
0.02913048 0.031430803 -0.009201854 -0.14154789 -0.06934379 0.08212185 0.0031072076 -0.056781758
-0.15937084 -0.11400218 -0.0043839784 -0.047284313 0.058962766 0.08245341 0.077299625 -0.04958264
0.027374795 -0.069800235 -0.029011093 0.0974119 -0.07596436 -0.07549922 0.10663488 -0.08900291
0.16851677 -0.031845506 0.018314993 0.10160936 0.20300114 -0.07598631 0.16580553 0.048241958
0.026582139 0.105933025 0.06442286 0.11102701 0.022082917 0.057971124 -0.050102364 0.10695763
-0.072007984 -0.13159375 0.015586816 0.000628788 -0.010541711 -0.030458944 -0.046211373 0.066277884
-0.11119396 -0.11632013 0.016914774 -0.045670737 0.03744294 0.11344841 -0.05458955 -0.05980353
0.16764365 -0.0044942545 -0.009537864 0.07081456 -0.03645188 0.009662651 0.03710965 -0.15576197
0.010209514 0.12952146 0.024324689 -0.10205644 0.109380476 -0.06474812 -0.064550474 0.094757855
0.15010664 0.21328393 -0.115614854 0.10529527 -0.1449491 -0.07488374 0.09244218 0.08158326
-0.0630067 -0.20342016 0.083691366 0.13825698 0.06220204 0.04792086 0.09484339 -0.026167927
-0.06718626 0.16331354 0.0093255695 0.06396095 -0.03966082 -0.14362313 -0.11879813 -0.14025103
0.10292331 0.003419143 -0.08053902 -0.02515264 0.013459559 0.035368256 -0.040106315 -0.055919625
0.0019470466 -0.028665235 -0.074228905 0.04763246 -0.010324826 0.1443102 -0.2007898 -0.12514786
0.08549925 0.0072618625 -0.043532208 -0.009401679 0.07787325 -0.040383846 0.030095033 0.034243546
-0.031309746 -0.035160486 -0.016891593 0.119913094 0.028694686 0.011523045 0.017327923 -0.037235063
-0.12593843 -0.025916437 0.039303884 -0.114535995 0.04684578 -0.009488498 0.112945564 -0.08543087
00000000: 1a8e 073e b53e 85ba 2104 80bc 046b f23d
00000010: 8e11 5e3b 8666 29be eaca 0abe d3c4 653e
00000020: bd26 0d3e 0ce8 31be 27cc c13c 1c93 43bd
00000030: 8d70 71bc 2ee5 ce3d da63 fabd 9687 183c
00000040: b4b0 b53d 9620 3fbb 4e95 a33e e6fe 14bd
00000050: 330b 163d e448 ed3d e5db f7bd 72c2 27bd
00000060: 8b04 55bd 9e3f ca3c 5242 863c c144 243d
00000070: aa43 933d 29bc 86ba 9f10 373c 7991 39bd
00000080: 694b 413d 8151 c73d 1173 99bd e8dd d9bd
00000090: f26d 023e 2c8f 8f3c ec17 52bd 9d19 8eba
000000a0: 8ed6 513d 59fa 76bc e47b 6b3c 0da3 57bb
000000b0: 2c41 1f3e 40f3 513d 90d6 443c b793 11bd
000000c0: 7634 30bd ac2c 983d 1857 ddbd 826e cdbd
000000d0: 7e97 153d 802f 01bd 7569 603d 0ceb 72bd
000000e0: 5eb4 9dbd e7f3 a0bc 57bb 16bd 2a6a 7d3d
000000f0: e28a 3cbe 049d bbba ef9e 16bd cbe5 15bc
00000100: f1f6 5f3c 6a88 803d 1c64 08bd a76b 973d
00000110: b77d 5ebd 1f29 1b3e 86bd 07be 23f3 98bd
00000120: aecb 93bd 84b4 49bc b2e9 103e 71ef 483c
00000130: 79e7 97bb 0530 a2bd c312 9c3d e6f8 1cbe
00000140: 5c18 273d 2f7b a3bd 7906 c8bd 922e cf3d
00000150: dcb2 a93c c894 a43d 1ea4 43bd 2ac0 86bb
00000160: e139 e6bc b5fd c8bd 3135 d53a 4f72 2bbd
00000170: b2a5 3bbe 1480 223d 4160 a63d e8e8 553d
00000180: a0e1 93bc 6f6c bcbd 6e3b f3bc 50ca 5c3d
00000190: 54e6 863d ece5 1cbd 4e02 8f3d 50a8 44be
000001a0: 8e10 813d 542d 91bd 0d28 6ebd 6ca8 94bd
000001b0: f1d3 d4bd 4f2b 97bc a5bd e93d bffd 8fbd
000001c0: f605 1abd 6e6d 6f3d e77e 46be 2222 83bc
000001d0: 3779 bbbc 1aac ed3d 4dc5 0f3d f946 313e
000001e0: 0ba3 ee3c 96bd 003d 5fc3 16bc eef1 10be
000001f0: 1e04 8ebd 802f a83d 4ba2 4b3b fd93 68bd
00000200: 1c32 23be fa79 e9bd 7aa7 8fbb 32ad 41bd
00000210: f182 713d 55dd a83d 444f 9e3d 2b17 4bbd
00000220: 1b41 e03c 6df3 8ebd aca8 edbc e47f c73d
00000230: 3493 9bbd 569f 9abd 6363 da3d 2847 b6bd
00000240: a98f 2c3e 6f70 02bd 5309 963c 9118 d03d
00000250: 88df 4f3e b69e 9bbd edc8 293e 5c99 453d
00000260: c9c2 d93c 6af3 d83d 22f0 833d 2162 e33d
00000270: 3ce7 b43c 2173 6d3d 2338 4dbd 9a0c db3d
00000280: ec78 93bd 83c0 06be d85f 7f3c 40d5 243a
00000290: 24b7 2cbc 0985 f9bc 2348 3dbd b3bc 873d
000002a0: a9b9 e3bd 4039 eebd da90 8a3c 3d11 3bbd
000002b0: c55d 193d a457 e83d 4b99 5fbd 8cf4 74bd
000002c0: c7aa 2b3e 8a44 93bb b344 1cbc 3907 913d
000002d0: 914e 15bd 1950 1e3c 4a00 183d 1180 1fbe
000002e0: ce45 273c 46a1 043e 9244 c73c f802 d1bd
000002f0: df02 e03d aa9a 84bd 0a33 84bd 6810 c23d
00000300: 8eb5 193e 1a67 5a3e 7bc7 ecbd 0ca5 d73d
00000310: 896d 14be a55c 99bd 5352 bd3d 2015 a73d
00000320: a809 81bd 604d 50be 6166 ab3d 3d93 0d3e
00000330: 91c7 7e3d aa48 443d 403d c23d 1f5e d6bc
00000340: f398 89bd aa3b 273e 46ca 183c f5fd 823d
00000350: 6273 22bd f111 13be 6f4c f3bd f79d 0fbe
00000360: 75c9 d23d b313 603b a4f1 a4bd e90c cebc
00000370: 7b85 5c3c 4ede 103d 8546 24bd fa0b 65bd
00000380: 0b34 ff3a 5bd3 eabc 5305 98bd 411a 433d
00000390: 7629 29bc 0ec6 133e d79b 4dbe c326 00be
000003a0: 3b1a af3d ebf4 ed3b d44e 32bd 8009 1abc
000003b0: 037c 9f3d 8869 25bd dc89 f63c f642 0c3d
000003c0: a63e 00bd 7104 10bd 3d60 8abc ff94 f53d
000003d0: 1e11 eb3c 27cb 3c3c 4af3 8d3c cb83 18bd
000003e0: 01f6 00be b54e d4bc 1cfd 203d d991 eabd
000003f0: 5ce1 3f3d a575 1bbc 0150 e73d 61f6 aebd

network_body._body_endoder.seq_layers.2.bias f4 [128]
0.0 0.0 0.0 0.0 0.0 0.0 0.0 0.0
0.0 0.0 0.0 0.0 0.0 0.0 0.0 0.0
0.0 0.0 0.0 0.0 0.0 0.0 0.0 0.0
0.0 0.0 0.0 0.0 0.0 0.0 0.0 0.0
0.0 0.0 0.0 0.0 0.0 0.0 0.0 0.0
0.0 0.0 0.0 0.0 0.0 0.0 0.0 0.0
0.0 0.0 0.0 0.0 0.0 0.0 0.0 0.0
0.0 0.0 0.0 0.0 0.0 0.0 0.0 0.0
0.0 0.0 0.0 0.0 0.0 0.0 0.0 0.0
0.0 0.0 0.0 0.0 0.0 0.0 0.0 0.0
0.0 0.0 0.0 0.0 0.0 0.0 0.0 0.0
0.0 0.0 0.0 0.0 0.0 0.0 0.0 0.0
0.0 0.0 0.0 0.0 0.0 0.0 0.0 0.0
0.0 0.0 0.0 0.0 0.0 0.0 0.0 0.0
0.0 0.0 0.0 0.0 0.0 0.0 0.0 0.0
0.0 0.0 0.0 0.0 0.0 0.0 0.0 0.0
00000000: 0000 0000 0000 0000 0000 0000 0000 0000
00000010: 0000 0000 0000 0000 0000 0000 0000 0000
00000020: 0000 0000 0000 0000 0000 0000 0000 0000
00000030: 0000 0000 0000 0000 0000 0000 0000 0000
00000040: 0000 0000 0000 0000 0000 0000 0000 0000
00000050: 0000 0000 0000 0000 0000 0000 0000 0000
00000060: 0000 0000 0000 0000 0000 0000 0000 0000
00000070: 0000 0000 0000 0000 0000 0000 0000 0000
00000080: 0000 0000 0000 0000 0000 0000 0000 0000
00000090: 0000 0000 0000 0000 0000 0000 0000 0000
000000a0: 0000 0000 0000 0000 0000 0000 0000 0000
000000b0: 0000 0000 0000 0000 0000 0000 0000 0000
000000c0: 0000 0000 0000 0000 0000 0000 0000 0000
000000d0: 0000 0000 0000 0000 0000 0000 0000 0000
000000e0: 0000 0000 0000 0000 0000 0000 0000 0000
000000f0: 0000 0000 0000 0000 0000 0000 0000 0000
00000100: 0000 0000 0000 0000 0000 0000 0000 0000
00000110: 0000 0000 0000 0000 0000 0000 0000 0000
00000120: 0000 0000 0000 0000 0000 0000 0000 0000
00000130: 0000 0000 0000 0000 0000 0000 0000 0000
00000140: 0000 0000 0000 0000 0000 0000 0000 0000
00000150: 0000 0000 0000 0000 0000 0000 0000 0000
00000160: 0000 0000 0000 0000 0000 0000 0000 0000
00000170: 0000 0000 0000 0000 0000 0000 0000 0000
00000180: 0000 0000 0000 0000 0000 0000 0000 0000
00000190: 0000 0000 0000 0000 0000 0000 0000 0000
000001a0: 0000 0000 0000 0000 0000 0000 0000 0000
000001b0: 0000 0000 0000 0000 0000 0000 0000 0000
000001c0: 0000 0000 0000 0000 0000 0000 0000 0000
000001d0: 0000 0000 0000 0000 0000 0000 0000 0000
000001e0: 0000 0000 0000 0000 0000 0000 0000 0000
000001f0: 0000 0000 0000 0000 0000 0000 0000 0000

value_heads.value_heads.extrinsic.weight f4 [1, 128]
0.06494801 0.04706084 0.120546736 0.117974415 -0.012211883 0.10756426 -0.09598856 -0.1215688
0.024139678 -0.06912928 0.120034605 -0.14522424 0.12411152 0.058431 -0.100593835 -0.19012053
0.07076217 -0.15506953 0.18837342 0.09953385 0.050099477 -0.09116009 0.00029892247 -0.016536888
0.16306224 0.17392017 -0.07587064 0.15984425 0.09074357 -0.15219237 0.13964728 0.116459906
0.17437267 0.0897878 0.07036481 -0.20118001 0.100963265 0.1994611 0.041587807 0.07188963
0.10006629 0.19467722 0.04316266 -0.10468825 0.15276329 0.03248704 -0.17541996 -0.035975717
-0.09129281 0.21366675 -0.016624069 0.09190265 -0.16190012 -0.022047298 0.02712641 -0.0018068907
-0.21275239 -0.12106498 0.12440365 -0.0118223615 0.0901684 -0.07352721 -0.09996978 -0.18865387
0.1276496 -0.019643605 0.104575194 0.1874405 0.1789197 0.017546853 0.06419148 -0.16971709
0.022533 0.0182689 -0.06380249 -0.10547825 -0.15525892 0.09126701 -0.16865727 0.028467435
0.008900521 0.00070718676 0.058864973 0.0952632 -0.046048712 -0.16260299 -0.19119132 0.001685607
0.07359691 0.044437073 0.21236005 0.043047227 0.13926928 -0.12750962 0.046120007 0.12128279
-0.035203356 0.10849397 0.18915239 -0.10524307 -0.020178165 0.14392112 0.14105603 0.014960571
-0.03085159 -0.1697919 0.13404386 0.093162924 -0.14417702 0.021547124 0.12155519 0.18966025
-0.025379922 -0.14266215 0.10363493 -0.16563481 0.16718018 -0.1404993 0.052348554 -0.16846341
0.12751256 0.20596243 -0.16219114 0.14837606 -0.106504016 -0.1763402 0.0077643227 0.17435221
00000000: 7603 853d dec2 403d 35e1 f63d 929c f13d
00000010: 5a14 48bc a74a dc3d a695 c4bd 10f9 f8bd
00000020: 93c0 c53c a793 8dbd b4d4 f53d aab5 14be
00000030: 2e2e fe3d 5855 6f3d 2404 cebd f5ae 42be
00000040: c2eb 903d 8cca 1ebe f6e4 403e 67d8 cb3d
00000050: 1c35 4d3d 24b2 babd b2b8 9c39 5e78 87bc
00000060: caf9 263e 2118 323e 1162 9bbd 36ae 233e
00000070: c4d7 b93d 51d8 1bbe b2ff 0e3e 8882 ee3d
00000080: c08e 323e abe2 b73d 6d1b 903d 2202 4ebe
00000090: d4c5 ce3d 883f 4c3e fa57 2a3d df3a 933d
000000a0: 8eef cc3d 7759 473e 54cb 303d cb66 d6bd
000000b0: fb6d 1c3e 2111 053d 4aa1 33be 465b 13bd
000000c0: baf7 babd 75cb 5a3e 332f 88bc 7537 bc3d
000000d0: 25c9 25be 899c b4bc 3438 de3c 31d5 ecba
000000e0: c3db 59be ebf0 f7bd 57c7 fe3d 94b2 41bc
000000f0: 36aa b83d 6f95 96bd f5bc ccbd 7b2e 41be
00000100: 94b6 023e a0eb a0bc 852b d63d 67f0 3f3e
00000110: ba36 373e 6bbe 8f3c d376 833d 51ca 2dbe
00000120: 2097 b83c a9a8 953c e1aa 82bd fb04 d8bd
00000130: 32fc 1ebe 33ea ba3d 7eb4 2cbe 8a34 e93c
00000140: 7ed3 113c 8062 393a 661c 713d 5a19 c33d
00000150: 939d 3cbd 6681 26be a8c7 43be 96ef dc3a
00000160: fab9 963d a603 363d ea74 593e 4a52 303d
00000170: 9b9c 0e3e e291 02be 55e8 3c3d 1d63 f83d
00000180: 6531 10bd 1632 de3d 2ab1 413e ae89 d7bd
00000190: ae4c a5bc 0f60 133e fe70 103e 2f1d 753c
000001a0: 79bc fcbc eedd 2dbe cb42 093e 34cc be3d
000001b0: 24a3 13be 9883 b03c edf1 f83d 4c36 423e
000001c0: 8ee9 cfbc 0716 12be 8d3e d43d 2c9c 29be
000001d0: 4831 2b3e 0cdf 0fbe 706b 563d ac81 2cbe
000001e0: a792 023e d1e7 523e 6f15 26be e5ef 173e
000001f0: c71e dabd 8692 34be dc6b fe3b 6389 323e
