results/Run1/MoveThePlayer/MoveThePlayer-2999982.onnx (onnx, 72119 bytes, 5 tensors)

action_model._continuous_distribution.mu.weight f4 [1, 128]
0	0x3c8d4062	0.017242614
1	0x3d359fbe	0.044341795
2	0x3d04a16e	0.032380514
3	0xbd591223	-0.052995812
4	0x3d08c7b7	0.033393588
5	0xbd4e9356	-0.05043348
6	0xbb23838b	-0.0024950232
7	0x3cbcd6c5	0.023051629
8	0xbb54676d	-0.003241028
9	0x3c32cf07	0.010913617
10	0xbccaebf6	-0.024770718
11	0xbc61eac3	-0.013788882
12	0xbc8e28d8	-0.01735346
13	0xbca53638	-0.020167455
14	0x3bef3086	0.0072994856
15	0xbd3c288e	-0.045937113
16	0xbca3ace8	-0.019979909
17	0x3c89a5da	0.016802717
18	0x3cbfaf36	0.023398977
19	0xbcae5fc4	-0.021285899
20	0x3d040745	0.032233495
21	0x3d30145e	0.042988174
22	0xbc8f15c0	-0.017466426
23	0xbc835831	-0.016033264
24	0xbd043a15	-0.032281954
25	0xbca6af05	-0.020347128
26	0x3c93ef11	0.018058332
27	0xbd15412c	-0.036439106
28	0xbc77bcfd	-0.015120742
29	0x3d1d526e	0.03840869
30	0xbd0bb617	-0.0341092
31	0xbcc6f779	-0.024287926
32	0xbbd36f21	-0.0064524566
33	0x3ce2aa15	0.027668992
34	0xbd2d8a23	-0.042368066
35	0xbce6940a	-0.028146762
36	0x3d1d6147	0.03842285
37	0x3d043f16	0.032286726
38	0x3d5433b0	0.051807106
39	0x3caee9a4	0.021351643
40	0xbc750610	-0.014955059
41	0xbd45f005	-0.048324604
42	0x3cd11fe7	0.025527908
43	0x3d81a72d	0.063307144
44	0x3d035c60	0.032070518
45	0xbd647250	-0.05577308
46	0xbd2418b7	-0.040062632
47	0xbc988abe	-0.018620845
48	0x3ca96e18	0.02068238
49	0xbd2a7585	-0.04161598
50	0x3afa66bf	0.0019104107
51	0x3cae27c6	0.0212592
52	0xbc0ce52c	-0.008599561
53	0x3d0a6fae	0.033797912
54	0xbc186719	-0.009301924
55	0x3cc0b79b	0.02352505
56	0x3cfef6f9	0.031123625
57	0xbbdfa35e	-0.006824895
58	0x3c4cfec7	0.0125119155
59	0x3ca3334b	0.01992192
60	0xbd245bcd	-0.04012661
61	0x3d3e2f79	0.046431992
62	0xbc9a89c0	-0.018864512
63	0xbcfeed4e	-0.031119015
64	0x3cd457bd	0.025920743
65	0x3dbfa45c	0.09357521
66	0x3b2ee57c	0.0026687076
67	0xbd2deb62	-0.042460807
68	0xbbc04d03	-0.0058685555
69	0xbd01b71e	-0.031668775
70	0xbc4784d0	-0.012177661
71	0x3c831fc1	0.016006352
72	0x3d0c218c	0.03421168
73	0xbb7a0099	-0.003814733
74	0xbd34c763	-0.044135462
75	0x3cd285df	0.0256986
76	0x3d4e5021	0.050369386
77	0xbc1b82f4	-0.009491671
78	0x3cd5ceaa	0.026099522
79	0xbcbb27de	-0.022846159
80	0x3d3fd8a5	0.046837468
81	0xbb9310bf	-0.0044880803
82	0xbd2d4886	-0.042305492
83	0x3b08643a	0.0020811693
84	0xbdc6370a	-0.096784666
85	0xbd2079a0	-0.03917849
86	0x3c82f92a	0.015987951
87	0x3c5bf376	0.013424745
88	0xbc48ed04	-0.01226354
89	0x3ce976e7	0.02849908
90	0x3a8475e4	0.0010105935
91	0xbd753964	-0.059869185
92	0xbad14e4f	-0.0015968772
93	0x3d1a5aeb	0.037684362
94	0xbd2da2e0	-0.042391658
95	0xbd474090	-0.048645556
96	0xbd280000	-0.041015625
97	0x3adb356b	0.0016724294
98	0xbd0be210	-0.034151137
99	0x3d6c2790	0.057654917
100	0xbcd3d147	-0.025856627
101	0x3b83a6f9	0.0040177074
102	0xbd780a77	-0.060556855
103	0xbcd72159	-0.026261019
104	0xbc951fa8	-0.018203571
105	0xbc8525c8	-0.016253367
106	0xbd1c8da1	-0.038221005
107	0x3c896faf	0.016776888
108	0xbc7dd097	-0.015491626
109	0x3cadfd6e	0.021239009
110	0xbb46b048	-0.0030317474
111	0xbccfb51b	-0.025354913
112	0xbd9cd32e	-0.07657467
113	0xbd1cb25f	-0.038256045
114	0x3d053521	0.03252137
115	0x3cb007f9	0.021488177
116	0xbd91155c	-0.07084152
117	0xbce433a6	-0.02785666
118	0xbd267059	-0.040634487
119	0xbd45aa8c	-0.04825835
120	0x3d07143d	0.032978285
121	0x3c5ac8ee	0.013353569
122	0xbd6bf70c	-0.05760865
123	0xbc8cc7e8	-0.017185166
124	0x3d808c27	0.06276732
125	0xbc329a2e	-0.010901017
126	0xbd441d64	-0.04787959
127	0xbccf1060	-0.025276363

network_body._body_endoder.seq_layers.0.bias f4 [128]
0	0x3b94d99b	0.004542542
1	0xba0b67a0	-0.00053178705
2	0xbc4215d6	-0.011846026
3	0xbd01d7a7	-0.031699803
4	0x3c7d8007	0.015472419
5	0x3a69ba4f	0.0008916007
6	0xbac6c028	-0.0015163468
7	0xbc3213a0	-0.010868937
8	0xbc5f9bff	-0.013648032
9	0xbc918abb	-0.017766347
10	0x3c2c9240	0.010532916
11	0x3cb2e5b3	0.021838045
12	0x3b755c50	0.0037439056
13	0x3cfe345c	0.031030826
14	0x3d09f2a9	0.033678684
15	0xbb9fcf8c	-0.0048770364
16	0x3c12431a	0.008927131
17	0xbba6a462	-0.005085514
18	0x3c468175	0.012115826
19	0xba8376d9	-0.0010029926
20	0x3c0621c4	0.008186761
21	0x3bd12228	0.0063822456
22	0xbc6f98e7	-0.014623857
23	0x3c05aae8	0.008158423
24	0xbbccf846	-0.0062551824
25	0xbc0fcd56	-0.008776983
26	0xbc088b75	-0.00833403
27	0xbc3f8ab9	-0.011690789
28	0x3b8db970	0.0043250844
29	0xbcaeb2b3	-0.021325445
30	0xbb2cc3e1	-0.002636187
31	0x3babe29b	0.0052455193
32	0x3c4a0c5d	0.012332049
33	0xbcdce7e6	-0.026966047
34	0xbb8918df	-0.004183873
35	0xbbcfa187	-0.006336394
36	0x3cd18aff	0.025578974
37	0xbb968002	-0.0045928964
38	0x3ce9e28a	0.028550405
39	0x3bcb0428	0.006195564
40	0x3bd4c585	0.0064932727
41	0x3b92989c	0.004473759
42	0xbc4bea5f	-0.012446015
43	0xbb021b54	-0.0019852715
44	0x39d822f6	0.00041224778
45	0xbc8000ca	-0.015625376
46	0xbbda8637	-0.0066688317
47	0xbb966a48	-0.0045903064
48	0xbc1be22c	-0.009514373
49	0x3b3026b5	0.002687854
50	0xb78114f5	-1.5387757e-05
51	0x3ceeca13	0.02914909
52	0xbc982bda	-0.018575598
53	0xbcc657f6	-0.024211865
54	0xbcc096d7	-0.023509426
55	0x3cd67d46	0.026182782
56	0x3c59c6fd	0.013292071
57	0xbc33af46	-0.010967081
58	0x3d2beec9	0.04197577
59	0x3bc7aae3	0.0060933693
60	0xbbfe444c	-0.0077596065
61	0x3be2e722	0.006924526
62	0x3d2ce2b2	0.04220838
63	0x3c9b3432	0.018945787
64	0xba8c8baf	-0.0010722781
65	0x3d113761	0.035453204
66	0xbae2d585	-0.0017306065
67	0xbbfd0f85	-0.0077227973
68	0x3c9d952d	0.019236172
69	0xbc72af80	-0.01481235
70	0x3c0a1814	0.008428592
71	0xbc0c9aac	-0.0085817985
72	0x3cd980f1	0.026550742
73	0x3cdb47fa	0.02676772
74	0x3ca909d0	0.020634562
75	0xbcbcc704	-0.023044117
76	0xbc5164dc	-0.012780394
77	0xbc9bb609	-0.0190077
78	0x3c667895	0.014066835
79	0xbbbe32e9	-0.005804409
80	0x3c29bd8c	0.010360133
81	0x3c9c48bf	0.019077657
82	0xbd2f09cc	-0.042733952
83	0xbbd8a285	-0.0066111707
84	0xbc2ec14a	-0.010666201
85	0xbbadcb60	-0.005303785
86	0x3db07b9f	0.08617329
87	0xbafa52d8	-0.0019098176
88	0xbc46bac6	-0.012129491
89	0xbb7fdce1	-0.0039041566
90	0xbb7c04f5	-0.0038455103
91	0xbc9ed7aa	-0.019389946
92	0xbc760b0c	-0.015017282
93	0x3cfa8bf0	0.030584306
94	0x3cb3cb2d	0.021947468
95	0x3b80640d	0.003918177
96	0xbc51af58	-0.012798153
97	0x3d16f518	0.036854833
98	0xba0ddab7	-0.0005411314
99	0xbc5bb79e	-0.013410477
100	0xbca13db0	-0.019682735
101	0x3931aacb	0.00016943661
102	0x3d3148a8	0.04328218
103	0xbb83b08d	-0.004018849
104	0xbc4ec461	-0.012620063
105	0x3bd21a58	0.006411832
106	0x3cb5781c	0.022152
107	0x3b044f58	0.0020188894
108	0x3cbe4fc6	0.023231398
109	0x3a1e9e15	0.0006050778
110	0x3d29b8e6	0.0414361
111	0x3c4892d8	0.0122420415
112	0x3cbead7c	0.023276083
113	0x3c0717ae	0.008245392
114	0x3b23e9f5	0.0025011275
115	0x3c8ea85e	0.017414268
116	0xbc842817	-0.016132398
117	0x3cbb3fb7	0.02285753
118	0x3ce73df1	0.028227778
119	0x3d353b51	0.04424602
120	0x3ceb6751	0.028735789
121	0xbc05161d	-0.008122948
122	0x3993eff6	0.0002821681
123	0xbcb7e4fb	-0.022448054
124	0xbbbd83fb	-0.0057835556
125	0xbc01b71e	-0.007917194
126	0xbc1144b9	-0.008866482
127	0x3b897fde	0.004196151

network_body._body_endoder.seq_layers.0.weight f4 [128, 6]
0	0xbeede0e3	-0.46460637
1	0xbe88fb28	-0.26754117
2	0xbf616731	-0.8804808
3	0x3eaffe82	0.34373862
4	0x3e31893e	0.1733751
5	0x3f5b3a30	0.8563566
6	0x3e0e8e1c	0.13921398
7	0xbf78aa0b	-0.97134465
8	0x3e689323	0.22712378
9	0xbee90a34	-0.45515597
10	0xbdcd725d	-0.10031579
11	0xbf060f01	-0.52366644
12	0xbd4bbb69	-0.049739275
13	0xbec5dbc2	-0.38644224
14	0xbe575168	-0.21027148
15	0x3ed5d063	0.4176055
16	0x3ee4b710	0.44670916
17	0xbdb08bfe	-0.086204514
18	0xbe201496	-0.15632853
19	0x3ed22e41	0.41050914
20	0xbe9982bb	-0.29982552
21	0x3f0be1d5	0.5464147
22	0x3f73849b	0.95124215
23	0x3f5fdca1	0.8744603
24	0xbea66068	-0.32495427
25	0xbf864586	-1.0489967
26	0x3ef2bf0a	0.47411376
27	0x3d4f9c49	0.050686155
28	0x3e8584c5	0.26077858
29	0xbeb08ac0	-0.34480858
30	0xbe2c93a9	-0.16853203
31	0x3e85de1d	0.2614602
32	0x3e79286c	0.24331826
33	0xbf3016ad	-0.687846
34	0xbd57d435	-0.05269261
35	0xbec8ef63	-0.39245138
36	0xbe0c345f	-0.13691853
37	0xbebc98ed	-0.36835423
38	0x3e397a6b	0.18113105
39	0x3e17ca5d	0.14823289
40	0xbdca5cca	-0.09880979
41	0x3e07b492	0.13252476
42	0x3ea52456	0.32254285
43	0x3ecb50c0	0.39710045
44	0x3e2bd6ae	0.16781113
45	0xbf2e45b4	-0.6807511
46	0x3d23dc1b	0.04000483
47	0x3d8fde04	0.07024768
48	0xbf27bfee	-0.65527236
49	0x3eb7dac0	0.3590908
50	0xbf05b95f	-0.5223598
51	0xbe401cec	-0.18761033
52	0x3e5f9e8b	0.21837823
53	0xbe669fbc	-0.22521871
54	0x3e791778	0.24325359
55	0xbf6cbb34	-0.9247315
56	0xbe9a6112	-0.30152184
57	0x3e60bb85	0.21946533
58	0xbd638928	-0.055550724
59	0xbcaa1c6c	-0.020765506
60	0xbc9ab596	-0.018885415
61	0xbf23bc52	-0.6395923
62	0xbea754ca	-0.32681876
63	0xbe3ec76b	-0.1863076
64	0x3e1fe978	0.15616405
65	0x3f111284	0.5666888
66	0x3e5c92e0	0.21540403
67	0x3f255ea6	0.6459755
68	0x3e87542e	0.26431412
69	0x3da2c8ee	0.079484805
70	0x3ed00557	0.40629074
71	0xbe970088	-0.29492593
72	0x3f3533c5	0.7078212
73	0x3ee109c9	0.43952778
74	0xbee711e2	-0.4513083
75	0x3d813f6c	0.06310925
76	0xbebb460d	-0.36576882
77	0x3de49a0d	0.11162195
78	0xbe0011ba	-0.12506762
79	0xbe815d01	-0.2526627
80	0x3a08d874	0.00052202423
81	0x3f05a75f	0.52208513
82	0x3f04f31d	0.5193346
83	0x3e7a3e7a	0.24437895
84	0xbf0d5cbd	-0.5521963
85	0xbe2dfd6a	-0.16991201
86	0xbe5e708e	-0.21722624
87	0x3f0a772a	0.5408808
88	0x3f0fe4eb	0.56208676
89	0xbe4edce9	-0.20201458
90	0x3e9379b3	0.28803787
91	0xbd1b31b0	-0.037889183
92	0x3d9ed407	0.07755285
93	0xbe94f73a	-0.2909487
94	0x3e176b7e	0.14787099
95	0xbf07b648	-0.53012514
96	0xbc767f1b	-0.015044953
97	0xbcc984a0	-0.024599373
98	0xbe924645	-0.28569236
99	0x3dca8445	0.0988851
100	0xbf298a3f	-0.6622657
101	0x3e7cbe0b	0.2468187
102	0xbe6f68c5	-0.2337981
103	0xbdd561bf	-0.10419034
104	0xbe695e34	-0.22789842
105	0xbdb7e7ec	-0.089797825
106	0xbe8b222e	-0.27174515
107	0xbe7f54a9	-0.24934639
108	0xbe350fbf	-0.17681788
109	0xbe00a195	-0.12561639
110	0x3f1f841b	0.6231095
111	0xbe3914c3	-0.18074326
112	0x3f1397d8	0.5765357
113	0x3ea618d1	0.32440808
114	0x3e761d49	0.24034609
115	0x3e4bcf18	0.19903219
116	0xbdd2d75f	-0.10294985
117	0x3b54c708	0.0032467265
118	0x3ea27308	0.31728387
119	0xbc013e56	-0.007888397
120	0x3ef26bb0	0.47347784
121	0x3e449b22	0.19199803
122	0x3e098c3a	0.13432398
123	0xbe76b142	-0.24091056
124	0x3de53d4e	0.111933336
125	0xbeecf265	-0.46278682
126	0x3f3c1587	0.7347035
127	0xbe780976	-0.24222359
128	0x3e999791	0.29998448
129	0xbe0a77af	-0.13522218
130	0xbcab6ee0	-0.020926893
131	0x3f39bc00	0.7255249
132	0x3f446f26	0.767321
133	0x3e8c6c80	0.2742653
134	0xbe85fe28	-0.26170468
135	0xbeb49d57	-0.3527629
136	0xbc88ddff	-0.016707418
137	0xbdba64e4	-0.091012746
138	0xbe7171aa	-0.23578516
139	0xbf1f31f3	-0.6218559
140	0x3e1000d5	0.14062817
141	0x3ec67eab	0.38768515
142	0x3e7cdf6f	0.24694608
143	0xbe61f3e6	-0.22065696
144	0xbe78d03d	-0.24298187
145	0x3f79cdd8	0.9757972
146	0xbf24afbb	-0.64330643
147	0x3e18df4a	0.14928928
148	0xbd43d985	-0.047814865
149	0xbeb90b43	-0.36141405
150	0x3f682557	0.90681976
151	0xbdbe94ce	-0.09305726
152	0xbe93a7b6	-0.2883889
153	0x3e154958	0.1457876
154	0x3f1ba7a2	0.6080266
155	0xbf5a9cee	-0.85395706
156	0x3d9c9ce0	0.07647109
157	0x3e983789	0.2972987
158	0x3eb1e6c3	0.3474637
159	0xbf44fbdd	-0.7694681
160	0xbec6c1c1	-0.38819697
161	0x3dcf9ef9	0.101377435
162	0xbd90f9ca	-0.070788935
163	0xbe085539	-0.1331376
164	0x3eaf3679	0.34221247
165	0xbe9e598f	-0.30927703
166	0xbe5265ea	-0.2054669
167	0xbe50b528	-0.20381606
168	0xbd601d8f	-0.05471569
169	0x3dac0ae5	0.084005155
170	0x3d5ab72f	0.053397354
171	0x3ed38157	0.41309616
172	0x3d91d4d6	0.07120673
173	0xbdeab46f	-0.11460196
174	0xbe8fe195	-0.28101793
175	0x3da96198	0.08270568
176	0xbe233f95	-0.15942223
177	0xbceffa5b	-0.029294183
178	0xbecf6f41	-0.40514567
179	0xbe98bb49	-0.29830387
180	0x3e858fe8	0.26086354
181	0xbf0b39a2	-0.54384816
182	0x3ebd3b13	0.36959133
183	0xbdf42bc7	-0.11922412
184	0xbe85f8e2	-0.26166445
185	0x3e6e3eb7	0.23266111
186	0x3ec28d3e	0.37998384
187	0x3e70a4f3	0.23500423
188	0x3ecb4536	0.3970124
189	0x3f068fdc	0.5256326
190	0x3f1b8ebf	0.6076469
191	0x3e660498	0.2246269
192	0xbe2a931e	-0.16657683
193	0x3ed8c6f4	0.4233929
194	0x3e018f6d	0.12652369
195	0x3ee9f917	0.45697853
196	0x3e90b233	0.28260955
197	0x3f1924a0	0.5982151
198	0x3f31506b	0.69263333
199	0x3df6cdba	0.12050958
200	0x3e7e012d	0.24805136
201	0xbe5834bf	-0.21113871
202	0x3e05f012	0.13079861
203	0xbea46358	-0.32107043
204	0xbf1e92e1	-0.6194287
205	0xbecde5de	-0.40214437
206	0xbe266ba1	-0.16251995
207	0x3e1bc846	0.15213117
208	0xbdb878af	-0.090073936
209	0x3cd528ad	0.026020372
210	0x3f18c809	0.5968023
211	0xbf1d2191	-0.61379343
212	0xbded53c8	-0.11588246
213	0x3ebdfb64	0.37105858
214	0x3dbfe357	0.093695335
215	0xbde7c6da	-0.11317225
216	0x3e8945f8	0.26811194
217	0xbe896efc	-0.26842487
218	0x3ef67921	0.4813929
219	0xbd77407d	-0.060364235
220	0xbeda1c41	-0.4259968
221	0xbeeed898	-0.46649623
222	0xbef37265	-0.47548214
223	0x3f17550b	0.5911414
224	0xbecfe5a1	-0.4060488
225	0x3ed94b42	0.4244023
226	0x3e6400f1	0.22265984
227	0x3f341b2a	0.7035395
228	0x3ea59dc7	0.32346937
229	0xbe390e1c	-0.18071789
230	0x3e514cd9	0.20439471
231	0x3e8621e6	0.26197737
232	0xbdaa89ca	-0.083270624
233	0xbd5debae	-0.05417984
234	0x3de705f8	0.11280435
235	0x3eb67d61	0.35642532
236	0x3ea60607	0.32426473
237	0xbc828a4d	-0.015935088
238	0xbf2144a0	-0.6299534
239	0x3ebe28e7	0.3714058
240	0x3e9ed55f	0.31022164
241	0x3db167d1	0.086623795
242	0x3eae0f22	0.3399592
243	0x3e533d8c	0.20628947
244	0xbf1bfd70	-0.6093359
245	0x3dcd285f	0.10017466
246	0xbe18d60d	-0.14925404
247	0x3f248095	0.642587
248	0xbe482202	-0.19544223
249	0x3eaa2cc5	0.3323728
250	0xbe6c5f08	-0.23083127
251	0x3efbe9c7	0.49201795
252	0xbf131c01	-0.57464606
253	0x3e341482	0.17585948
254	0x3e323fbd	0.17407127
255	0x3dee963b	0.11649748

network_body._body_endoder.seq_layers.2.bias f4 [128]
0	0xbb993e72	-0.0046766335
1	0x3cc05ed6	0.023482721
2	0x3c207019	0.009792351
3	0x3c84786a	0.0161707
4	0x3ba3f436	0.0050034774
5	0x3c67d2ed	0.01414941
6	0xbc14e6ea	-0.009088257
7	0x3bcc830c	0.006241208
8	0xbc883c35	-0.016630271
9	0x3a00ab05	0.00049082964
10	0xbbd04ac4	-0.006356569
11	0xbb7f3f2f	-0.0038947572
12	0x3a2c9584	0.0006583559
13	0xbb987ebc	-0.00465378
14	0x38ff5a76	0.00012176197
15	0x3baee125	0.005336898
16	0xbae97d94	-0.0017813914
17	0xbbf727ac	-0.007542571
18	0x3b2ee5be	0.002668723
19	0xbbccffee	-0.006256095
20	0x3ba3d7a0	0.0050000697
21	0x3bc70336	0.006073381
22	0x39849ec6	0.00025295297
23	0xbbc27175	-0.0059339353
24	0xbac41b86	-0.0014961816
25	0xbc92d36f	-0.017923085
26	0xbb69b386	-0.0035659983
27	0x3b8cbfc1	0.00429532
28	0x3c0f193d	0.008734045
29	0xbaa8fbd0	-0.0012892429
30	0x3c92a088	0.017898813
31	0x3aaf94c3	0.0013395775
32	0xbc8f6e32	-0.0175086
33	0x3b2e18ca	0.0026565068
34	0x3bbac626	0.0056998907
35	0xbb63fe63	-0.0034789077
36	0xbb4a9e2e	-0.0030917036
37	0x3bd391ac	0.0064565744
38	0x3c0447eb	0.008073787
39	0x3b0b4c51	0.0021255205
40	0xbb6dc125	-0.0036278453
41	0x3869c44d	5.573435e-05
42	0xbada86b8	-0.0016672229
43	0x3c7fe535	0.015618612
44	0x3baed78b	0.0053357533
45	0x3beb3771	0.00717824
46	0xbb9c7f8c	-0.004775947
47	0xbc2a5287	-0.010395653
48	0xbb8b968f	-0.0042598913
49	0x3c1de4c7	0.009637064
50	0xbbe72869	-0.007054378
51	0x3b9cacd7	0.0047813463
52	0xbbf6a82c	-0.007527372
53	0x3c3b5d6f	0.0114358505
54	0xbc46f342	-0.012142958
55	0x3c15a643	0.009133878
56	0xb9d2d635	-0.00040213918
57	0xbc309936	-0.010778716
58	0xbb70cd0d	-0.0036743314
59	0xbc09cfc4	-0.008411352
60	0xbabd892a	-0.0014460434
61	0x3bab1501	0.0052210097
62	0xbc623bb1	-0.013808177
63	0xb897d4c7	-7.239874e-05
64	0x3b8b9a1f	0.004260316
65	0x3c124b63	0.008929106
66	0xbc680548	-0.014161415
67	0xbbebb576	-0.0071932627
68	0xbaeb31ca	-0.0017943915
69	0xbacc9f3a	-0.0015611418
70	0xba368a07	-0.00069633167
71	0x3b83f830	0.004027389
72	0x3b165645	0.0022939604
73	0xbc34fce1	-0.011046619
74	0xbc6d981c	-0.014501598
75	0xb9627c43	-0.0002159933
76	0x3bdea127	0.006794113
77	0xbc377f5d	-0.011199799
78	0xbb36c9e9	-0.0027891344
79	0xbb829b43	-0.003985794
80	0x3bfef3b2	0.0077805156
81	0xbc5215f8	-0.012822621
82	0x3bcb4964	0.006203817
83	0xbcbf8743	-0.023379928
84	0xbb92f121	-0.004484311
85	0x3a0f9acb	0.0005478083
86	0x3b602abf	0.0034205166
87	0x3b3b56e7	0.0028585733
88	0xbc25da46	-0.010122841
89	0x3c4a4e6a	0.012347797
90	0xbbd379e4	-0.0064537395
91	0x3c4436c2	0.011975946
92	0xbcd48aa6	-0.025945019
93	0x3b98f252	0.0046675587
94	0xbb0dcc9e	-0.0021636854
95	0x3b2662a4	0.0025388384
96	0x3cac0a83	0.021001106
97	0x39be9418	0.00036349962
98	0x3b04cb0e	0.0020262632
99	0x3a9a922a	0.0011792828
100	0xbbab7a47	-0.0052330825
101	0xbbd6b87b	-0.0065527535
102	0xbbc385a7	-0.0059668603
103	0xbbf26893	-0.00739772
104	0xbb22f422	-0.0024864753
105	0xba8f815b	-0.0010948585
106	0xbc2af9da	-0.010435546
107	0x3ad87230	0.0016513523
108	0xbc1fcc9f	-0.009753375
109	0x3b2a1a9d	0.0025955804
110	0xbc557902	-0.013029339
111	0xbbc26f5b	-0.0059336848
112	0x3bc29fb6	0.005939449
113	0xbbc19569	-0.0059077037
114	0xbbddc16c	-0.0067674424
115	0x3c469d3e	0.01212245
116	0x3be9abf6	0.007131095
117	0xbbb16b86	-0.005414429
118	0x3c3f4d10	0.011676088
119	0x3c0c5f8b	0.008567701
120	0xbc41cca5	-0.011828576
121	0xbaddbe08	-0.0016917596
122	0xbc3a06e5	-0.011354183
123	0xbb9f1e8f	-0.004855938
124	0x3c8e9858	0.017406628
125	0xbc132d57	-0.008982978
126	0x3a82eb5a	0.0009988353
127	0xbc204b59	-0.009783589

network_body._body_endoder.seq_layers.2.weight f4 [128, 128]
0	0xbd8e2c7a	-0.06942077
1	0xbd0f10f4	-0.034928277
2	0xbd7e19bb	-0.062036257
3	0x3d964900	0.073381424
4	0xbd1ed43b	-0.038776617
5	0x3d3c5588	0.045980006
6	0xbcd5bc7c	-0.026090853
7	0xbccb3806	-0.024806987
8	0xbbae9189	-0.0053274077
9	0x3d89e426	0.06732969
10	0xbda2ad3f	-0.079432
11	0xbdb6b45b	-0.08921119
12	0x3cf7e49f	0.030260382
13	0x3c9f6c3e	0.019460794
14	0x3d44487e	0.047920696
15	0x3d10b586	0.035329364
16	0x3ccc5154	0.024941124
17	0x3e41052b	0.18849628
18	0x3d0ec8b5	0.034859378
19	0x3dd70fdb	0.10501071
20	0xbdf456ad	-0.119305946
21	0xbcdbdd24	-0.026838847
22	0xbd8a4fca	-0.067535
23	0x3c76cee5	0.015063976
24	0x3e148785	0.14504822
25	0x3dd35bb7	0.103202276
26	0xbdb0d1ee	-0.08633791
27	0x3c461eaf	0.0120922765
28	0x3b23468a	0.002491387
29	0xbe1b4017	-0.15161167
30	0x3c34a2fd	0.011025188
31	0x3dedb492	0.11606707
32	0x3e03592a	0.12826982
33	0xbc78cdee	-0.015185816
34	0x3de76e2e	0.11300312
35	0x3d268d3f	0.040662047
36	0x3d8fa99a	0.07014771
37	0x3d9ae969	0.07564051
38	0xbdc50388	-0.09619814
39	0x3d8fa445	0.07013754
40	0x3dd6adea	0.1048239
41	0xbe29f15e	-0.1659598
42	0xbe141d00	-0.14464188
43	0xbe19809d	-0.14990468
44	0x3dd5fa17	0.104480915
45	0xbc1919af	-0.009344502
46	0x3cd74674	0.026278712
47	0x3dbf6548	0.0934549
48	0x3d03eb4a	0.03220681
49	0xbc31108f	-0.0108071705
50	0x3dbfa27d	0.09357164
51	0xbde5b980	-0.11217022
52	0xbe0edb25	-0.13950785
53	0x3d9713f0	0.0737685
54	0xbd50cc6e	-0.05097621
55	0xbd9c1d19	-0.076227374
56	0x3bb4f024	0.005521791
57	0xbd548f0d	-0.051894236
58	0x3d068065	0.03283729
59	0xbd8652e9	-0.065587826
60	0x3c885ebb	0.016646734
61	0xbd3dbb6b	-0.046321314
62	0x3d50406f	0.0508427
63	0x3c2a3aac	0.010389965
64	0xbde96b73	-0.113974474
65	0x3cb793c8	0.022409335
66	0xbda788bf	-0.08180379
67	0xbc418aa2	-0.011812838
68	0x3d69d6e7	0.057089712
69	0x3dcbebf1	0.099571116
70	0x3cc09578	0.023508772
71	0xbd828399	-0.063727565
72	0x3dfcd48a	0.12345226
73	0x3e019e96	0.12658152
74	0x3d6aad8b	0.05729441
75	0xbdab3d4c	-0.08361301
76	0x3d9f06ec	0.07764992
77	0xbccb267d	-0.024798626
78	0xbbdef607	-0.006804231
79	0xbd8836d8	-0.066510856
80	0x3d273a4c	0.04082708
81	0x3d32af88	0.04362443
82	0x3d950133	0.07275619
83	0xbd89c525	-0.067270555
84	0x3c9eacdd	0.019369537
85	0x3d8ebd42	0.06969692
86	0x3db8e3e3	0.09027841
87	0x3df380c7	0.11889797
88	0x3d8b0fa8	0.067900956
89	0x3df27313	0.11838355
90	0xbe109bce	-0.14121935
91	0xbcb449f9	-0.02200793
92	0x3d2eed91	0.04270703
93	0xbd9acfab	-0.07559141
94	0xbd2552e3	-0.04036225
95	0x3e61e63c	0.22060484
96	0x3c9d628a	0.019212026
97	0x3d43a717	0.04776677
98	0x3e15a580	0.14613914
99	0xbaf04c94	-0.0018333369
100	0xbe231bd3	-0.15928583
101	0xbdb2e724	-0.08735493
102	0xbceb4d74	-0.028723456
103	0x3dcbe4fb	0.09955784
104	0x3dff2be0	0.1245954
105	0x3dc36543	0.095407985
106	0x3bea0054	0.0071411524
107	0x3ddc2c96	0.107506916
108	0x3d38b50a	0.045094527
109	0x3d5e74f4	0.054310754
110	0xbe154974	-0.14578801
111	0x3d46fab6	0.04857894
112	0xbdb29d52	-0.08721413
113	0xbdcecc60	-0.10097575
114	0xbcd52826	-0.02602012
115	0x3d395401	0.045246128
116	0x3ba97cf7	0.0051723677
117	0x3e14c1b9	0.14527024
118	0x3cb20ea8	0.021735504
119	0x3bb64823	0.0055627986
120	0x3e099c2d	0.13438483
121	0x3e108f1a	0.14117089
122	0x3d31d39a	0.04341469
123	0xbe25ae31	-0.1617973
124	0xbdbe2e15	-0.09286133
125	0x3e1a5f34	0.1507538
126	0x3c7cf432	0.01543908
127	0xbcb9bda3	-0.022673434
128	0xba88e302	-0.001044363
129	0xbcc2dbe3	-0.02378649
130	0xbd1a5b3d	-0.037684668
131	0x3cef737a	0.029229868
132	0x3d9d0cb8	0.076684415
133	0x3d834a95	0.0641071
134	0xbdf1add9	-0.11800737
135	0x3cb69ee6	0.022292566
136	0xbdc41070	-0.09573448
137	0x3cc87bd0	0.0244731
138	0x3c2470ca	0.010036657
139	0x3cafaecd	0.021445656
140	0x3d5dbca4	0.05413498
141	0x3dd1d35a	0.1024539
142	0x3d91db89	0.07121951
143	0x3b2a3099	0.0025968908
144	0xbe87087d	-0.26373664
145	0xbdac77d0	-0.0842129
146	0x3d8889ad	0.066668846
147	0xbc0f57b9	-0.008748942
148	0x3ba59273	0.0050528585
149	0xbdb2f333	-0.08737793
150	0xbe089911	-0.1333964
151	0x3d8deac6	0.06929545
152	0x3d46d612	0.048543997
153	0xbb4fb204	-0.00316918
154	0x3de2680a	0.11055
155	0x3c58ff61	0.013244481
156	0xbbb94cc1	-0.0056549017
157	0x3d43e32b	0.047824066
158	0xbd3a90af	-0.045548137
159	0x3dcbe3bf	0.099555485
160	0xbcf1745c	-0.02947443
161	0x3d8bdbd5	0.06829039
162	0xbd3225af	-0.04349297
163	0xbdbb2be7	-0.09139233
164	0x3d791983	0.060815345
165	0xbd7ef69a	-0.062246896
166	0x3e053c16	0.13011202
167	0xbe51b8e5	-0.20480688
168	0x3e4a2b85	0.19743164
169	0xbd8c37af	-0.06846558
170	0x3d947db0	0.072505355
171	0x3d986d00	0.07442665
172	0x3d382718	0.044959158
173	0xbdc3e892	-0.09565844
174	0x3d90a4cd	0.07062683
175	0x3d43b1dc	0.04777704
176	0xbd9c7bf0	-0.07640827
177	0xbdb16b40	-0.086630344
178	0x3d4fd542	0.050740488
179	0xbe4a8ea4	-0.19780976
180	0xbe4a8807	-0.19778453
181	0xbd93b70f	-0.0721265
182	0x3dbda018	0.09259051
183	0x3cb44a22	0.022008006
184	0x3dfdb572	0.123881236
185	0x3d2d7418	0.042347044
186	0xbe36a90e	-0.17837927
187	0xbd83525b	-0.064121924
188	0x3db3822b	0.08765062
189	0x3e1aac31	0.15104748
190	0xbe173b53	-0.14768724
191	0xbd38867b	-0.045050126
192	0x3d02fe70	0.03198093
193	0xbccbb92a	-0.024868567
194	0xbd4e30f8	-0.05033967
195	0xb9f268cb	-0.00046235914
196	0x3be3aca8	0.0069480725
197	0xbda90ee2	-0.08254792
198	0xbc4440ec	-0.011978369
199	0x3e096ff6	0.13421616
200	0x3ceac747	0.028659476
201	0x3ce85892	0.028362546
202	0x3dec6bd9	0.11544008
203	0xbd3071a0	-0.04307711
204	0x3cee3d5c	0.029081993
205	0x3d2ac057	0.041687336
206	0x3d25f5c1	0.040517572
207	0xbe007b2e	-0.1254699
208	0xbdabc50c	-0.08387193
209	0x3c005786	0.007833367
210	0x3dd8d949	0.10588319
211	0x3c991d9c	0.018690877
212	0xbe306e9d	-0.17229696
213	0xbdc7024a	-0.097172335
214	0xbd43b38c	-0.04777865
215	0x3c72a965	0.014810895
216	0x3d468911	0.04847056
217	0x3dabd5d2	0.08390392
218	0xbd5c6f20	-0.053816915
219	0x3da4127e	0.080113396
220	0xbb57e596	-0.003294324
221	0xbd34d11d	-0.04414474
222	0xbd8799e6	-0.06621151
223	0xbce5aa54	-0.02803532
224	0xbd7ee824	-0.062233105
225	0xbd812d4b	-0.06307467
226	0xbdc4caf1	-0.096090205
227	0x3dc0c2fd	0.09412191
228	0x3decdb4d	0.11565266
229	0xbd9c0479	-0.076180406
230	0x3cea4f67	0.028602315
231	0x3af20ee4	0.0018467573
232	0xbdeb4b85	-0.114890136
233	0xbda07da7	-0.07836466
234	0xbcb168f1	-0.021656485
235	0xbd9c1ce2	-0.076226965
236	0xbdbcd298	-0.09219855
237	0x3dc23f57	0.09484737
238	0x3e634334	0.22193605
239	0xbd163d4b	-0.036679547
240	0xbde7ff7c	-0.11328027
241	0xbd659402	-0.056049354
242	0xbda38be6	-0.07985668
243	0x3df0e3af	0.11762177
244	0xbd1a8120	-0.0377208
245	0x3db81ca0	0.08989835
246	0x3d7ffcb5	0.06249686
247	0x3df511db	0.11966296
248	0xbe19a283	-0.150034
249	0x3c5c5bac	0.013449591
250	0xbc6b05c2	-0.0143446345
251	0x3cce0897	0.02515058
252	0x3ddeffbd	0.10888622
253	0x3d935136	0.07193224
254	0x3d87844a	0.06617029
255	0xbcf5f7b7	-0.030025346
