results/Run1/MoveThePlayer/MoveThePlayer-500070.pt (torch, 437663 bytes, 30 tensors)

network_body._body_endoder.seq_layers.0.weight f4 [128, 6]
-0.25797567 0.026347065 -0.022482231 0.19126378 -0.3163175 -0.37083995 0.03952201 -0.14343828
-0.03613711 -0.33331063 0.37612706 -0.43114263 -0.703735 -0.049170803 -0.44752222 -0.20192593
-0.10752921 0.3857007 -0.020818217 0.16877648 -0.32740405 -0.13384314 0.09631364 -0.6455201
0.35157838 0.16361488 -0.14095478 -0.3474621 0.85151523 -0.26988888 0.20484528 -0.0013518755
0.37446854 -0.7127911 -0.42989287 0.2861919 0.6390767 -0.055720914 -0.05466726 0.7158023
0.07687323 -0.6606272 -0.16514225 0.7834053 0.54176617 -0.3317299 -0.43428087 -0.4401023
0.09766835 0.09786306 -0.53198284 0.08792526 0.71053547 0.10018107 -0.14658885 -0.6942095
0.17927162 -0.35638237 0.4175741 -0.2570222 -0.0123720765 -0.29732326 -0.103442274 -0.52920467
-0.5348839 0.65924454 0.60771686 -0.34072688 0.32613227 0.09125821 -0.3301068 -0.27100933
0.10601686 -0.20577271 -0.25320792 0.8335145 0.33223146 -0.13687196 0.11927881 0.45692167
-0.53474367 -0.13506313 -0.088573776 0.40489188 0.49767128 0.1575221 0.36420128 0.46399948
0.34633636 0.04794176 -0.31677458 0.40445223 0.21451162 -0.49517196 0.08246538 -0.0041642734
0.36469123 0.19374792 0.036765352 0.26285708 0.65522313 -0.31783015 0.18017958 0.058840014
0.26900512 -0.69911665 -0.3915065 -0.09226418 -0.018195158 -0.08113624 -0.18797782 -0.4965406
0.10475576 0.6249483 0.5564492 -0.22282909 0.26453876 0.25722888 -0.21559303 -0.37512
0.09573318 0.775463 -0.14414878 -0.08280046 -0.22427091 -0.39841637 0.36989737 0.2974937
-0.085536025 0.1382064 -0.05838604 0.11057684 -0.2599817 -0.21152917 0.021206044 0.18160266
0.28661254 -0.06354755 0.6493247 0.59506774 0.21880014 0.22225428 0.0027378015 -0.027161883
0.77250654 -0.048609298 0.16597475 -0.0032589382 -0.33322677 -0.47344768 -0.16508529 0.8603539
-0.3324368 0.42376977 -0.42447093 -0.03905105 0.26393503 0.1229363 -0.58032006 0.36826196
0.47666776 0.17552868 -0.14082286 0.045875076 0.21413878 0.3910188 0.34301075 0.15671161
-0.5618471 -0.22829886 -0.15502903 -0.65846443 0.12214945 0.32797623 0.47170964 0.21656457
0.12490129 0.105602026 0.049263474 0.17922577 0.63739187 -1.0629365 0.37328634 0.12173387
-0.21644293 0.39917302 -0.82866985 0.03554633 0.16806655 0.34088323 -0.19977835 0.02157105
0.42854938 0.62337494 0.100806884 -0.13687296 -0.64141756 -0.009302382 0.18671842 -0.2863768
-0.21064813 0.15518895 -0.055076335 0.49006277 -0.1297759 0.51075786 -0.05856664 0.1393355
0.5343295 0.52549684 -0.8423212 -0.014553675 0.15583509 0.718761 0.085004844 0.26714933
0.09614462 0.12649734 0.35978943 0.18482293 -0.158902 0.15576929 0.03369229 0.37232423
-0.18427138 0.58379996 -0.26780543 0.10728671 0.44739467 -0.09152975 -0.1758495 0.71943086
0.48680073 0.85221165 0.005874813 -0.19239096 -0.20683058 0.3123995 0.1583037 -0.4159177
0.23072977 0.3851933 -0.1474927 -0.16572079 -0.6461992 -0.06315901 0.43268254 -0.99638766
0.8598138 0.16664226 -0.19055094 0.5282229 -0.5011101 0.53710204 0.6817975 0.6153388
00000000: 6315 84be cdd5 d73c a82c b8bc a7da 433e
00000010: 5ef4 a1be bcde bdbe d5e1 213d 7ce1 12be
00000020: 8204 14bd b1a7 aabe ba93 c03e babe dcbe
00000030: fa27 34bf 5367 49bd a221 e5be acc5 4ebe
00000040: 4638 dcbd 907a c53e f78a aabc bed3 2c3e
00000050: 81a1 a7be 2d0e 09be 1640 c53d ce40 25bf
00000060: 1502 b43e a98a 273e 7356 10be 8de6 b1be
00000070: e7fc 593f e02e 8abe f6c2 513e 6a31 b1ba
00000080: 57ba bf3e 7a79 36bf eb1a dcbe bf87 923e
00000090: 889a 233f 9d3b 64bd c7ea 5fbd d23e 373f
000000a0: b66f 9d3d dd1e 29bf 0d1b 29be 408d 483f
000000b0: 30b1 0a3f 80d8 a9be 105a debe 1755 e1be
000000c0: 5806 c83d 6e6c c83d 0730 08bf 2912 b43d
000000d0: a7e5 353f bc2b cd3d 631b 16be b7b7 31bf
000000e0: fb92 373e c077 b6be 46cc d53e 6a98 83be
000000f0: 40b4 4abc c13a 98be 8bd9 d3bd f579 07bf
00000100: 27ee 08bf 40c4 283f 5593 1b3f c173 aebe
00000110: cffa a63e 96e5 ba3d c203 a9be bcc1 8abe
00000120: 5e1f d93d 15b6 52be 78a4 81be 3561 553f
00000130: 3e1a aa3e 2a28 0cbe 7348 f43d a3f1 e93e
00000140: f6e4 08bf fd4d 0abe 2b66 b5bd fd4d cf3e
00000150: c5ce fe3e 794d 213e 9778 ba3e 5791 ed3e
00000160: 0053 b13e 945e 443d 4730 a2be 5d14 cf3e
00000170: efa8 5b3e 2e87 fdbe 9ce3 a83d 7574 88bb
00000180: cfb8 ba3e db65 463e 4497 163d 3495 863e
00000190: b4bc 273f a2ba a2be ff80 383e 3a02 713d
000001a0: 0abb 893e 4ff9 32bf 8a73 c8be 01f5 bcbd
000001b0: 030e 95bc c22a a6bd 427d 40be 923a febe
000001c0: 308a d63d 9dfc 1f3f 7473 0e3f 4f2d 64be
000001d0: a071 873e 81b3 833e 6bc4 5cbe bb0f c0be
000001e0: c20f c43d be84 463f bd9b 13be 4a93 a9bd
000001f0: 46a7 65be 3bfd cbbe 3063 bd3e 1851 983e
00000200: 832d afbd fb85 0d3e 3326 6fbd 1c76 e23d
00000210: 521c 85be 1a9b 58be 4cb8 ad3c 0cf6 393e
00000220: e1be 923e 3825 82bd 253a 263f 5c56 183f
00000230: 250d 603e a096 633e b06c 333b 9982 debc
00000240: fdc2 453f 8b1a 47bd 49f5 293e e993 55bb
00000250: b39c aabe bc67 f2be 1e0c 29be 2740 5c3f
00000260: 2835 aabe 5af8 d83e 4154 d9be fef3 1fbd
00000270: 7e22 873e 07c6 fb3d db8f 14bf d58c bc3e
00000280: cc0d f43e cabd 333e de33 10be 81e7 3b3d
00000290: 3247 5b3e 9e33 c83e 1b9f af3e 0279 203e
000002a0: 36d5 0fbf 2dc7 69be eebf 1ebe 2091 28bf
000002b0: 7e29 fa3d 80ec a73e ed83 f13e 1ac3 5d3e
000002c0: 3fcc ff3d e045 d83d 7fc8 493d f686 373e
000002d0: 1d2c 233f 4e0e 88bf 631f bf3e 9b4f f93d
000002e0: 37a3 5dbe 6860 cc3e b523 54bf 0799 113d
000002f0: a319 2c3e 3f88 ae3e b292 4cbe c5b5 b03c
00000300: d36a db3e 8095 1f3f d773 ce3d 6d28 0cbe
00000310: f133 24bf 0569 18bc 1d33 3f3e fb9f 92be
00000320: 25b4 57be dae9 1e3e b997 61bd 82e9 fa3e
00000330: f9e3 04be 07c1 023f 93e3 6fbd f7ad 0e3e
00000340: d1c9 083f f686 063f 5da2 57bf 8a72 6ebc
00000350: 3c93 1f3e b900 383f 0517 ae3d ccc7 883e
00000360: 78e7 c43d 8588 013e 5236 b83e 3942 3d3e
00000370: 35b7 22be fc81 1f3e ed00 0a3d 48a1 be3e
00000380: a3b1 3cbe ea73 153f cb1d 89be 22b9 db3d
00000390: ea10 e53e f373 bbbd e411 34be 9f2c 383f
000003a0: f23d f93e 8b2a 5a3f 8181 c03b 2302 45be
000003b0: 65cb 53be d4f2 9f3e 5d1a 223e 2af3 d4be
000003c0: 6d44 6c3e 0e38 c53e 5408 17be b6b2 29be
000003d0: 506d 25bf 8359 81bd 9188 dd3e 4313 7fbf
000003e0: c21c 5c3f 45a4 2a3e c91f 43be 9e39 073f
000003f0: c048 00bf 857f 093f 488a 2e3f d886 1d3f

network_body._body_endoder.seq_layers.0.bias f4 [128]
0.019303536 -0.0078084804 0.0043626283 0.0093103405 -0.0040604477 -0.007878504 0.010527576 0.0014295212
0.00019173225 0.010686141 -0.009889657 -0.0019074562 -0.0006762784 -0.0042166305 0.018193917 -0.03019443
0.0068663163 -0.00936473 0.004272321 0.0060226796 0.017669655 -0.011062069 -0.0040747556 -0.0030200393
-0.0025728461 -0.00031254976 0.016180167 0.004279891 0.0020566501 -0.009221675 -0.0033892074 0.000104768566
0.0016268537 0.005220452 0.022535162 -0.0013222604 0.0019831178 -0.017233534 -0.004798338 0.0056424374
-0.0020412535 -0.0023693359 0.026195267 -0.0004318825 0.002818621 0.0028995438 0.0054209717 0.009615445
0.0060548643 -0.0051322277 0.0054867165 0.010610102 -0.010645606 0.0029668172 0.003721967 0.021617383
0.0028946148 -0.003098711 0.003163875 0.003893926 -0.008895163 0.0025903995 -0.009379653 0.007617733
-0.0008414728 -0.004253253 0.0039881286 0.011068984 -0.005680787 -0.0021726615 0.0012908806 0.0030492577
0.0047568926 -0.0022560672 -0.0008358704 0.0042170715 -0.0010829462 0.0021733225 -0.0043914136 -0.0070002866
0.006243508 -0.004938251 0.0075597824 0.0074927243 0.0010331705 -0.0038198356 -0.0036130028 0.001156415
-0.006354656 0.00043096507 0.0025868132 0.0017628731 0.0026175962 0.0022909134 0.012289289 -0.006912964
0.0059391437 0.003541021 -0.0076939524 0.008113786 -0.0086551085 0.002274587 0.0029373697 0.018102037
-0.004712934 -0.00045272714 -0.006686236 -0.0001643244 -0.013738452 -0.014300516 0.012505111 -0.0013340542
0.010637264 -0.0127159525 -0.0056756595 0.008696098 0.0021383313 -0.002879484 0.00277722 0.004243569
-0.011685107 0.013456456 -0.026554363 -0.0026397689 -0.0096478 -0.007955334 0.00053171377 -0.016410748
00000000: 7322 9e3c 48de ffbb 61f4 8e3b 668a 183c
00000010: 810d 85bb d714 01bc db7b 2c3c c65e bb3a
00000020: bc0b 4939 ed14 2f3c 3a08 22bc 9c03 faba
00000030: 4648 31ba a92b 8abb 690b 953c 4f5a f7bc
00000040: d6fe e03b 866e 19bc d3fe 8b3b e659 c53b
00000050: f4bf 903c ae3d 35bc 8785 85bb daeb 45bb
00000060: 329d 28bb b8dd a3b9 458c 843c 543e 8c3b
00000070: ddc8 063b 8216 17bc 771d 5ebb 32b7 db38
00000080: 273c d53a 5310 ab3b a99b b83c b24f adba
00000090: 32f7 013b 572d 8dbc 603b 9dbb 32e4 b83b
000000a0: 8dc6 05bb dc46 1bbb 7597 d63c 4a6e e2b9
000000b0: 9db8 383b 4606 3e3b 68a2 b13b 198a 1d3c
000000c0: e267 c63b 3f2c a8bb eac9 b33b fed5 2d3c
000000d0: e86a 2ebc ef6e 423b 3fec 733b f016 b13c
000000e0: 94b3 3d3b be13 4bbb 0459 4f3b 3d31 7f3b
000000f0: 05bd 11bc b1c3 293b 1ead 19bc 2d9e f93b
00000100: 4996 5cba df5e 8bbb d9ae 823b af5a 353c
00000110: e525 babb 3663 0ebb c432 a93a 0ed6 473b
00000120: b5df 9b3b 87da 13bb 501e 5bba 5c2f 8a3b
00000130: a5f1 8dba 4d6e 0e3b d9e5 8fbb a962 e5bb
00000140: 5796 cc3b 0dd1 a1bb 0db8 f73b 8785 f53b
00000150: 736b 873a 3556 7abb 21c8 6cbb d992 973a
00000160: b83a d0bb 27f3 e139 8687 293b 3510 e73a
00000170: fa8b 2b3b 2623 163b 0459 493c 2586 e2bb
00000180: 269d c23b 7910 683b 8d1d fcbb afef 043c
00000190: 28ce 0dbc 3d11 153b e380 403b b94a 943c
000001a0: f56e 9abb 025c edb9 3618 dbbb 7f4e 2cb9
000001b0: 3f17 61bc b64c 6abc 3de2 4c3c 6edb aeba
000001c0: eb47 2e3c 9256 50bc e2fa b9bb 147a 0e3c
000001d0: 3f23 0c3b bab5 3cbb 0502 363b a30d 8b3b
000001e0: e472 3fbc 7878 5c3c 8988 d9bc f9ff 2cbb
000001f0: ce11 1ebc 1757 02bc b562 0b3a d56f 86bc

network_body._body_endoder.seq_layers.2.weight f4 [128, 128]
0.027071828 0.012566663 0.08320442 -0.18351427 0.0769961 0.082681395 -0.107239336 -0.008942124
-0.11825134 -0.019939277 -0.040213775 -0.044585764 -0.27371702 -0.06835191 -0.033105277 0.13832688
0.04852524 0.041091688 0.16368973 -0.012908648 0.046977736 0.05116853 0.014320082 -0.2331096
-0.16246714 -0.0192753 0.04404446 0.15434052 -0.0022879334 -0.051067345 -0.07437773 0.045257237
0.07639824 -0.079217345 -0.072583795 -0.11117842 0.12825088 0.08233675 -0.032776274 0.10856478
0.057626363 -0.04814685 -0.057095364 0.030533763 -0.015943464 0.027046682 -9.732585e-06 0.018196022
0.03201619 0.05685265 0.030202037 -0.025681477 -0.041336115 0.10059622 -0.10528578 -0.05221315
-0.16729909 0.07293483 0.04247321 0.04954674 0.12799312 -0.0782474 0.11812591 0.008127031
0.017522728 -0.016650109 0.077268265 0.1258712 0.03242519 -0.11820535 0.10184068 -0.110732466
0.08956607 -0.19029918 -0.07259242 -0.10206535 -0.07031094 -0.05044456 -0.17443916 0.009746297
-0.10720411 -0.14927404 0.08459117 0.0020956895 -0.02832994 -0.042843286 -0.093893066 -0.021202594
-0.06714945 0.053101495 -0.1819959 -0.11998737 -0.06915012 0.09589232 -0.11665039 0.015148916
-0.12942664 0.118983835 -0.049278405 -0.030412124 -0.08542288 0.0018932405 -0.03744266 -0.02305981
0.020090941 -0.11052583 0.12600641 0.04501399 0.022975145 -0.08415325 0.022015072 0.1444139
-0.053250536 -0.02295641 0.08565765 -0.063857816 0.02644758 -0.032427844 0.0143293245 -0.07221124
0.008126211 0.020731201 -0.055343412 -0.20183931 -0.08859676 -0.011353731 0.095607646 -0.022694226
-0.008812999 0.14095113 -0.109132 -0.1559201 0.0788434 -0.058633067 0.039485026 -0.17991234
-0.1869287 0.019238206 0.036808167 -0.1374034 0.07994733 0.0044680536 0.017571641 0.08350987
0.0059056114 -0.06256781 0.0042072376 -0.09212499 -0.09498569 0.0440741 0.07982755 -0.057532407
-0.097937874 0.0055838455 -0.08583211 -0.08186251 -0.034459405 -0.12679231 -0.21524939 0.16336001
-0.13726953 0.025053574 0.035931386 0.033452243 0.030961499 -0.0309954 -0.10678055 0.1357684
-0.06306758 -0.06895729 0.033947837 -0.0080665285 0.1708166 -0.0052849557 -0.19077013 0.1303002
-0.0021605385 -0.038993448 0.10548531 -0.041290596 -0.1611572 0.08794867 -0.10299988 -0.1291017
0.03734814 -0.1282425 -0.04707522 6.438321e-05 -0.017537018 -0.04878691 -0.039692767 -0.06597062
0.022847734 0.07887316 0.025389574 -0.06122169 0.08233003 0.07151889 0.040739745 -0.06628154
-0.030047752 0.01535511 -0.0037077265 -0.08660789 0.04744276 -0.016909815 0.0050590173 -0.00613721
-0.05693996 0.075543016 0.0629856 0.070469685 -0.019446155 -0.14175741 0.084468536 -0.13106416
0.009572529 -0.022967797 -0.013754705 -0.094935365 -0.10312035 0.10593046 -0.119777665 -0.056540195
-0.03856481 0.110314175 -0.022619724 0.049070366 -0.1906196 -0.23166203 -0.0076828892 0.082035705
-0.058086388 0.09381026 -0.07317311 0.004066149 -0.1027137 -0.092427276 -0.018486714 -0.12283155
0.034239117 0.015899103 0.14615102 -0.10808258 -0.055526216 -0.108480036 -0.06386855 0.09370743
-0.050422486 0.12639195 0.07973098 0.089647405 -0.16982162 0.06818759 0.09022457 0.047426417
00000000: bdc5 dd3c 68e4 4d3c 1467 aa3d 2aeb 3bbe
00000010: 22b0 9d3d dd54 a93d 4ca0 dbbd fd81 12bc
00000020: c22d f2bd b257 a3bc 33b7 24bd 909f 36bd
00000030: a324 8cbe 16fc 8bbd 6699 07bd 90a5 0d3e
00000040: 67c2 463d c24f 283d 489e 273e cb7e 53bc
00000050: ba6b 403d 1896 513d c79e 6a3c 48b4 6ebe
00000060: c95d 26be 3ce7 9dbc f767 343d 710b 1e3e
00000070: 27f1 15bb fe2b 51bd 5a53 98bd a75f 393d
00000080: ae76 9c3d b43c a2bd d0a6 94bd 83b1 e3bd
00000090: 3354 033e 2ca0 a83d 6a40 06bd 3657 de3d
000000a0: 9f09 6c3d a235 45bd d4dc 69bd f121 fa3c
000000b0: de9b 82bc 0191 dd3c 2249 23b7 d30f 953c
000000c0: 6923 033d 53de 683d 436a f73c f661 d2bc
000000d0: 0f50 29bd 6405 ce3d 12a0 d7bd 75dd 55bd
000000e0: 7450 2bbe db5e 953d 63f8 2d3d 86f1 4a3d
000000f0: a110 033e 2c40 a0bd ffeb f13d 3d27 053c
00000100: d38b 8f3c cf65 88bc d33e 9e3d 61e4 003e
00000110: 47d0 043d a615 f2bd d991 d03d b4c7 e2bd
00000120: 6a6e b73d cadd 42be 56ab 94bd a307 d1bd
00000130: 2fff 8fbd f49e 4ebd 2ea0 32be efae 1f3c
00000140: d48d dbbd 4bdb 18be 233e ad3d d657 093b
00000150: 3114 e8bc 717c 2fbd 024b c0bd 10b1 adbc
00000160: a785 89bd f480 593d 225d 3abe f0bb f5bd
00000170: 949e 8dbd 3163 c43d 66e6 eebd 2933 783c
00000180: 6b88 04be ccad f33d 27d8 49bd d922 f9bc
00000190: 31f2 aebd 9c26 f83a 7a5d 19bd ede7 bcbc
000001a0: c295 a43c 5e5b e2bd d307 013e 9760 383d
000001b0: 5f36 bc3c 8a58 acbd f458 b43c 3de1 133e
000001c0: 3c1d 5abd 150f bcbc 476d af3d e3c7 82bd
000001d0: 98a8 d83c 0fd3 04bd 8bc5 6a3c 7de3 93bd
000001e0: cd23 053c 7bd4 a93c c6af 62bd f7ae 4ebe
000001f0: 3872 b5bd 0005 3abc f1cd c33d 3ee9 b9bc
00000200: 6664 10bc 7e55 103e 9980 dfbd 85a9 1fbe
00000210: a678 a13d 3a29 70bd 0dbb 213d f13a 38be
00000220: 3d6a 3fbe 7199 9d3c 29c4 163d 7ab3 0cbe
00000230: 6dbb a33d c068 923b 67f2 8f3c 3907 ab3d
00000240: dc83 c13b 8d23 80bd dedc 893b 07ac bcbd
00000250: dc87 c2bd 0b87 343d a07c a33d 1aa7 6bbd
00000260: a793 c8bd b1f8 b63b bfc8 afbd 88a7 a7bd
00000270: 4e25 0dbd d8d5 01be 566a 5cbe d947 273e
00000280: 6290 0cbe 273d cd3c ca2c 133d 3805 093d
00000290: f8a2 fd3c 11ea fdbc c3af dabd df06 0b3e
000002a0: 9329 81bd 7b39 8dbd e30c 0b3d 7929 04bc
000002b0: 8cea 2e3e 6c2d adbb 3f59 43be 6a6d 053e
000002c0: d297 0dbb 98b7 1fbd af08 d83d 5420 29bd
000002d0: 6506 25be 6f1e b43d 9af1 d2bd 3c33 04be
000002e0: 5dfa 183d 0052 03be f2d1 40bd 7905 8738
000002f0: cba9 8fbc c8d4 47bd e294 22bd 9b1b 87bd
00000300: 2c2b bb3c 4088 a13d ccfd cf3c 98c3 7abd
00000310: a69c a83d 7f78 923d b8de 263d 9ebe 87bd
00000320: b426 f6bc 0094 7b3c 54fd 72bb 7a5f b1bd
00000330: 5753 423d 7486 8abc 1dc6 a53b a61a c9bb
00000340: e039 69bd 4cb6 9a3d 98fe 803d 6952 903d
00000350: 8b4d 9fbc db28 11be d7fd ac3d af35 06be
00000360: 19d6 1c3c f626 bcbc 6a5b 61bc 796d c2bd
00000370: c330 d3bd 12f2 d83d fe4d f5bd b196 67bd
00000380: 22f6 1dbd 66ec e13d 004d b9bc 02fe 483d
00000390: c931 43be d038 6dbe bfc0 fbbb 5602 a83d
000003a0: feeb 6dbd 981f c03d c9db 95bd 543d 853b
000003b0: 8f5b d2bd 834a bdbd 7371 97bc 1c8f fbbd
000003c0: 513e 0c3d d63e 823c 9da8 153e 665a ddbd
000003d0: 756f 63bd c82a debd 84cd 82bd aee9 bf3d
000003e0: cf87 4ebd e46c 013e ff49 a33d 0f99 b73d
000003f0: b8e5 2dbe efa5 8b3d a9c7 b83d 3442 423d

network_body._body_endoder.seq_layers.2.bias f4 [128]
-0.012927223 0.00031410283 -0.002870355 -0.0032453071 -0.013408058 0.00023691801 0.003766722 0.0010269217
-0.0006250577 -0.0032271824 -0.0018290682 -0.0069516166 -0.006010852 -0.0020149741 0.0025500841 0.0032444457
-0.0021756287 -0.009806706 -0.0029813605 0.0064673917 0.006387675 0.0046678856 0.0020592504 -0.006568108
-0.0056725657 -0.0028928604 -0.003932294 -0.0020421399 0.011271672 -0.004063527 0.004996168 0.0010416001
-0.0050227097 0.010108374 0.0034318855 -0.0074405377 -0.011960014 0.010019546 -0.0051521584 -0.006054761
-0.012762512 -0.0063405433 -0.0030697067 0.0014215587 -4.211195e-05 -0.0033733286 0.0031955212 -0.0009356602
-0.00018525137 0.0039932607 -0.0019391071 -0.0054760454 -0.000529974 0.014998926 -0.008216499 0.0019127231
-0.0067146304 0.0055626254 -0.0024498638 0.011851762 -0.0010368866 0.00015929135 -0.007419417 0.008201532
-0.006230972 -0.009894593 0.0029249452 -0.0066952845 0.0004902157 0.0016100674 -0.00037534846 -0.0073951827
-0.0026117072 -0.0058400347 -0.0044736015 -0.0025611916 -0.006316821 -0.0038269816 0.0017642924 0.0017973018
-0.00053805206 0.00087993254 -0.007764007 -0.0062461477 0.0009973577 0.0006951914 -0.004939377 -0.008145655
-0.0011908517 -0.0060532135 -0.013104708 -0.001789238 -0.006826297 0.0049320366 0.0044435333 -0.0077923727
-0.0037256286 -0.002041579 0.0067597665 0.0014187376 0.010774625 0.002250027 -0.0032528585 -0.0016948663
-0.0051406487 -0.0060157003 0.008605084 0.0016981706 -0.0006677738 0.00042613634 -0.0025076168 -0.001318262
0.004933943 0.0025656929 0.0024269975 0.007214482 -0.0043805586 0.0034430544 -0.008056122 -0.005186834
0.0051229177 -0.010955082 -0.002037663 -0.00514775 0.0055920035 0.0055996417 -0.009560592 -0.0007667804
00000000: b4cc 53bc 2bae a439 911c 3cbb 38af 54bb
00000010: 79ad 5bbc 326d 7839 1cdb 763b c699 863a
00000020: eada 23ba 237f 53bb 58bd efba 63ca e3bb
00000030: aef6 c4bb a80d 04bb 501f 273b c4a0 543b
00000040: fe94 0ebb 4eac 20bc ee62 43bb 6aec d33b
00000050: b44f d13b 10f5 983b 7df4 063b 4939 d7bb
00000060: eee0 b9bb 2596 3dbb 79da 80bb 6cd5 05bb
00000070: d2ac 383c 5627 85bb e5b6 a33b 4d86 883a
00000080: 8b95 a4bb 989d 253c 7ce9 603b c1cf f3bb
00000090: eff3 43bc 0629 243c 70d3 a8bb 0467 c6bb
000000a0: db19 51bc 55c4 cfbb 222d 49bb 9853 ba3a
000000b0: 5da1 30b8 1013 5dbb f36b 513b 1847 75ba
000000c0: 0940 42b9 e6d9 823b a329 feba 6670 b3bb
000000d0: f4ed 0aba 0ebe 753c 7f9e 06bc 56b4 fa3a
000000e0: 6706 dcbb af46 b63b e58d 20bb e52d 423c
000000f0: 24e8 87ba 7207 2739 951e f3bb b85f 063c
00000100: 2e2d ccbb ee1c 22bc 70b0 3f3b 1e64 dbbb
00000110: d281 003a e608 d33a 6bca c4b9 4a53 f2bb
00000120: 2d29 2bbb c35d bfbb 4a97 92bb aad9 27bb
00000130: 56fd cebb 19ce 7abb d43f e73a 7193 eb3a
00000140: 100c 0dba 46ab 663a 3669 febb 7cac ccbb
00000150: c5b9 823a 813d 363a 7fda a1bb 5a75 05bc
00000160: 5a16 9cba 095a c6bb 21b5 56bc dd84 eaba
00000170: 21af dfbb ec9c a13b 0f9b 913b 2957 ffbb
00000180: ad29 74bb 03cc 05bb 0881 dd3b eff4 b93a
00000190: 0e88 303c 3075 133b e92d 55bb 4726 deba
000001a0: e372 a8bb 5a1f c5bb 57fc 0c3c 2695 de3a
000001b0: 8b0d 2fba 0d6b df39 d456 24bb 88c9 acba
000001c0: eaac a13b 2f25 283b 430e 1f3b 7667 ec3b
000001d0: ca8a 8fbb dea4 613b d3fd 03bc 51f6 a9bb
000001e0: 26de a73b f27c 33bc 508a 05bb 75ae a8bb
000001f0: 203d b73b 337d b73b 07a4 1cbc c301 49ba

action_model._continuous_distribution.mu.weight f4 [1, 128]
0.014150115 -0.044996135 -0.023827609 -0.02539698 -0.019089794 0.011823252 -0.038929652 0.0065273475
0.017348975 -0.011532234 0.0173912 -0.0077639134 0.012628835 0.032754883 0.02853753 0.023833496
-0.034663662 -0.02295576 -0.01985819 0.020347975 0.015396147 0.010547256 -0.033669434 -0.021636931
-0.0074594594 -0.0114838565 -0.024933776 -0.0136563815 0.011717627 -0.0034908906 0.022253532 0.023038032
-0.01677838 0.026684606 0.017590223 -0.022924103 -0.0003969614 0.017165197 -0.012951421 -0.01009594
-0.020657947 -0.013287759 -0.0052194674 0.044056296 0.0070351777 -0.004505585 0.015076472 0.007834283
0.01822497 0.017288294 -0.01506565 -0.0026072415 -0.030084979 -0.0455371 -0.006767888 0.008927543
0.008136558 0.015786774 0.008396704 0.035861474 0.0027276205 -0.030030813 -0.036601115 0.029121483
-0.020520823 -0.015150523 -0.03132345 -0.016790008 -0.04731537 -0.007784247 0.0041971565 -0.017166799
-0.028665407 -0.027673129 -0.016672295 -0.021706952 -0.011062186 0.014816788 -0.04186351 -0.03910563
-0.020419046 0.014301945 -0.009015177 -0.0024478477 -0.032444168 -0.00484848 -0.011989777 0.00068869843
0.0064646644 -0.026182977 -0.030547595 -0.005912344 -0.0005162666 0.014110486 0.015317209 -0.00023479358
-0.02899649 -0.013176947 -0.054775048 0.02776096 0.03598361 0.05150131 -0.032759976 0.040998705
-0.01058631 -0.003984348 0.04240411 0.03022556 0.008340385 0.021802068 0.0026934573 -0.013146469
0.027518064 -0.018895874 0.04294259 0.020228868 0.010736067 0.0122535275 -0.003017626 -0.036407072
-0.031007018 0.006061088 -0.041961927 -0.015802698 0.039375618 0.020784281 -0.0013800524 0.020464843
00000000: e2d5 673c de4d 38bd 1e32 c3bc 540d d0bc
00000010: 3362 9cbc 50b6 413c b374 1fbd 5ce3 d53b
00000020: 701f 8e3c b2f1 3cbc fd77 8e3c 6d68 febb
00000030: 2ce9 4e3c fc29 063d 8ac7 e93c 773e c33c
00000040: 7cfb 0dbd b80d bcbc a5ad a2bc ccb0 a63c
00000050: 1f40 7c3c 66ce 2c3c f6e8 09bd ef3f b1bc
00000060: 7b6e f4bb c926 3cbc eb41 ccbc 04bf 5fbc
00000070: 4afb 3f3c 6dc7 64bb 0a4d b63c 41ba bc3c
00000080: d072 89bc ad99 da3c 5f19 903c 54cb bbbc
00000090: 421f d0b9 079e 8c3c 3232 54bc 7169 25bc
000000a0: db3a a9bc e7b4 59bc 1108 abbb 6074 343d
000000b0: 5987 e63b 96a3 93bb 4f03 773c 5d5b 003c
000000c0: 884c 953c 2ea0 8d3c ebd5 76bc 41de 2abb
000000d0: c674 f6bc 1c85 3abd 29c5 ddbb d444 123c
000000e0: 334f 053c 4453 813c 5492 093c 7be3 123d
000000f0: e1c1 323b 2e03 f6bc 0deb 15bd 2d90 ee3c
00000100: 491b a8bc e639 78bc 054d 00bd 338b 89bc
00000110: c3cd 41bd ff12 ffbb 4d88 893b 63a1 8cbc
00000120: b7d3 eabc c2b2 e2bc 5694 88bc c7d2 b1bc
00000130: 2c3e 35bc 1dc2 723c 1279 2bbd 3a2d 20bd
00000140: d845 a7bc b552 6a3c 65b4 13bc 126c 20bb
00000150: 2de4 04bd 00e0 9ebb c570 44bc c589 343a
00000160: 89d5 d33b af7d d6bc f33e fabc 56bc c1bb
00000170: 1156 07ba ab2f 673c 08f5 7a3c ec32 76b9
00000180: 0c8a edbc 1fe4 57bc cd5b 60bd f46a e33c
00000190: 8d63 133d 0af3 523d 532f 06bd 42ee 273d
000001a0: 3472 2dbc 228f 82bb efaf 2d3d 989b f73c
000001b0: 1ca6 083c 409a b23c b784 303b 4a64 57bc
000001c0: 906d e13c 85cb 9abc 92e4 2f3d 03b7 a53c
000001d0: 54e6 2f3c 05c3 483c 5dc3 45bb 951f 15bd
000001e0: 6e02 febc 179c c63b 45e0 2bbd a974 81bc
000001f0: 5448 213d cc43 aa3c e0e2 b4ba e3a5 a73c

exp_avg f4 [128, 6]
-0.00075226085 -3.8918206e-05 0.0 -0.00021250434 0.00034824814 0.0 -0.0011989388 -0.00020556858
0.0 0.001060901 0.00012396499 0.0 0.0010599239 -0.0005288971 0.0 -0.000965426
0.0012769978 0.0 -0.0005533376 -0.00057727617 0.0 0.0010205287 0.00078655366 0.0
-0.0015806564 7.518179e-05 0.0 -0.00064008066 -0.00026630904 0.0 0.00016325145 -6.9147274e-05
0.0 0.00051891373 -0.00050957623 0.0 0.00045567026 -0.0005170307 0.0 0.0008145873
-0.000121681434 0.0 0.0016196269 -0.0004365512 0.0 -0.0011149164 0.000670416 0.0
-0.00032886118 -0.00014658518 0.0 5.1152503e-05 8.514113e-05 0.0 0.00016456272 0.0002149463
0.0 -0.0011797377 -0.00017814357 0.0 0.0008231947 -0.0003476422 0.0 -0.0013852216
-0.00071152416 0.0 -0.00025906827 0.00017091213 0.0 -0.00063739903 0.00012067074 0.0
-0.000815839 0.00013023856 0.0 3.0973526e-05 0.00010071128 0.0 -0.0005067521 -4.094096e-05
0.0 -0.00095694204 0.0003628867 0.0 -6.4350636e-05 -0.00039798766 0.0 0.0011549746
-0.0002569379 0.0 0.0012251502 0.0002343345 0.0 -0.001290714 0.00011299303 0.0
0.00044479716 -6.721801e-06 0.0 0.00080816605 -0.00057013554 0.0 -0.00020356709 -0.0002587102
0.0 3.929308e-05 -0.0007230285 0.0 -0.0006390591 -8.197065e-06 0.0 -0.0007677171
-0.0008067986 0.0 -0.00030811602 -0.00032405744 0.0 0.0014831428 -0.000769556 0.0
-0.00097234035 7.877131e-05 0.0 0.0011014474 -0.0010377172 0.0 0.0005275096 -0.00014611043
0.0 0.0005164956 0.000103348706 0.0 5.67413e-05 2.5187186e-05 0.0 8.888139e-05
7.216853e-05 0.0 -0.00014694325 -0.00022351947 0.0 0.00084777316 0.00026123767 0.0
-0.00046106425 0.00050893653 0.0 -0.0016315272 0.00049647747 0.0 -0.0031265905 0.00078930496
0.0 -0.001136322 0.00096480706 0.0 0.0015299574 -0.0005340574 0.0 0.00066295924
-0.00064113765 0.0 0.000674644 -0.00075071136 0.0 -0.00065077405 0.00030503696 0.0
-0.00017841975 -5.944304e-05 0.0 6.8828005e-05 0.0002991288 0.0 -0.00014853873 -4.8408016e-05
0.0 0.0008544814 -7.1818446e-05 0.0 -0.0013620121 0.00045864828 0.0 -0.0020968309
0.0009126496 0.0 0.0014218105 -0.00023493406 0.0 -0.00050590484 0.001352534 0.0
-0.00031940104 0.0003002351 0.0 -0.001244889 0.00041935814 0.0 -0.0003544769 0.00016284082
0.0 -0.0006086922 0.0004630204 0.0 -0.0012691189 -0.00058090803 0.0 -0.0016759714
0.0005394844 0.0 0.0001125606 3.1801114e-06 0.0 -0.000336909 0.00051148434 0.0
-0.0026156185 0.0008084023 0.0 0.00027771923 0.00041402527 0.0 -0.0025960063 0.00058776437
0.0 0.00035866798 0.00013992828 0.0 0.00051256287 9.131713e-05 0.0 4.0624218e-05
-0.00035853678 0.0 -0.00017423855 -0.00013207662 0.0 -7.236676e-05 3.8052283e-05 0.0
0.00011493079 0.00019223687 0.0 -0.0020052725 -8.3042694e-05 0.0 -0.0013629999 0.0002266153
0.0 -0.0011916235 0.0003235203 0.0 -0.0014441037 -0.0005157425 0.0 -0.0028886532
00000000: 5f33 45ba 1b3c 23b8 0000 0000 b3d3 5eb9
00000010: 1395 b639 0000 0000 b625 9dba e58d 57b9
00000020: 0000 0000 ee0d 8b3a 99fc 0139 0000 0000
00000030: 25ed 8a3a afa5 0aba 0000 0000 a414 7dba
00000040: f060 a73a 0000 0000 dc0d 11ba 5954 17ba
00000050: 0000 0000 43c3 853a b930 4e3a 0000 0000
00000060: 072e cfba ebaa 9d38 0000 0000 16cb 27ba
00000070: 659f 8bb9 0000 0000 7a2e 2b39 2903 91b8
00000080: 0000 0000 b607 083a 1595 05ba 0000 0000
00000090: 07e7 ee39 5889 07ba 0000 0000 078a 553a
000000a0: 392f ffb8 0000 0000 a949 d43a e9e0 e4b9
000000b0: 0000 0000 6322 92ba dbbe 2f3a 0000 0000
000000c0: 006b acb9 a9b4 19b9 0000 0000 958c 5638
000000d0: cc8d b238 0000 0000 788e 2c39 3563 6139
000000e0: 0000 0000 6ea1 9aba 0dcc 3ab9 0000 0000
000000f0: a9cb 573a bf43 b6b9 0000 0000 5390 b5ba
00000100: 9485 3aba 0000 0000 8ed3 87b9 e036 3339
00000110: 0000 0000 2017 27ba 9c10 fd38 0000 0000
00000120: 07de 55ba a690 0839 0000 0000 92e9 0138
00000130: f534 d338 0000 0000 8fd7 04ba 05b8 2bb8
00000140: 0000 0000 4bdb 7aba d441 be39 0000 0000
00000150: fcf3 86b8 00a9 d0b9 0000 0000 8462 973a
00000160: 9fb5 86b9 0000 0000 3895 a03a b0b7 7539
00000170: 0000 0000 2d2d a9ba acf6 ec38 0000 0000
00000180: aa33 e939 d58b e1b6 0000 0000 1bdb 533a
00000190: 2675 15ba 0000 0000 a074 55b9 7fa3 87b9
000001a0: 0000 0000 a0ce 2438 9f89 3dba 0000 0000
000001b0: 8886 27ba 2086 09b7 0000 0000 9f40 49ba
000001c0: 567f 53ba 0000 0000 a28a a1b9 41e6 a9b9
000001d0: 0000 0000 0466 c23a 07bc 49ba 0000 0000
000001e0: a8e4 7eba 0632 a538 0000 0000 715e 903a
000001f0: 0304 88ba 0000 0000 9248 0a3a 3835 19b9
00000200: 0000 0000 6f65 073a eabc d838 0000 0000
00000210: 82fd 6d38 1249 d337 0000 0000 d565 ba38
00000220: 2f59 9738 0000 0000 c714 1ab9 8d60 6ab9
00000230: 0000 0000 183d 5e3a baf6 8839 0000 0000
00000240: ffba f1b9 276a 053a 0000 0000 f8d8 d5ba
00000250: 0a26 023a 0000 0000 7ce7 4cbb 5ce9 4e3a
00000260: 0000 0000 a4f0 94ba 1beb 7c3a 0000 0000
00000270: da88 c83a fcff 0bba 0000 0000 71ca 2d3a
00000280: 0512 28ba 0000 0000 98da 303a 63cb 44ba
00000290: 0000 0000 b598 2aba 5eed 9f39 0000 0000
000002a0: 3016 3bb9 7a52 79b8 0000 0000 c157 9038
000002b0: 63d4 9c39 0000 0000 10c1 1bb9 b609 4bb8
000002c0: 0000 0000 47ff 5f3a 3c9d 96b8 0000 0000
000002d0: 8b85 b2ba bb76 f039 0000 0000 fc6a 09bb
000002e0: e13e 6f3a 0000 0000 0b5c ba3a a258 76b9
000002f0: 0000 0000 b39e 04ba 8347 b13a 0000 0000
00000300: 4875 a7b9 df68 9d39 0000 0000 8b2b a3ba
00000310: 4cdd db39 0000 0000 16d9 b9b9 40c0 2a39
00000320: 0000 0000 a490 1fba 8cc1 f239 0000 0000
00000330: 9058 a6ba 1448 18ba 0000 0000 45ac dbba
00000340: 2f6c 0d3a 0000 0000 830e ec38 e669 5536
00000350: 0000 0000 29a3 b0b9 2215 063a 0000 0000
00000360: cc6a 2bbb f6ea 533a 0000 0000 d89a 9139
00000370: 8811 d939 0000 0000 c221 2abb 3314 1a3a
00000380: 0000 0000 9a0b bc39 b6b9 1239 0000 0000
00000390: 835d 063a 8381 bf38 0000 0000 ec63 2a38
000003a0: fef9 bbb9 0000 0000 ceb3 36b9 0c7e 0ab9
000003b0: 0000 0000 9cc3 97b8 549a 1f38 0000 0000
000003c0: ff06 f138 3193 4939 0000 0000 e46a 03bb
000003d0: 3527 aeb8 0000 0000 b0a6 b2ba 959f 6d39
000003e0: 0000 0000 4030 9cba 299e a939 0000 0000
000003f0: 1448 bdba e532 07ba 0000 0000 8f4f 3dbb

exp_avg_sq f4 [128, 6]
1.6702093e-06 8.597366e-08 0.0 4.1940027e-07 1.8871535e-07 0.0 9.995209e-06 6.5432624e-07
0.0 4.6864884e-06 1.1362289e-06 0.0 2.6949005e-05 2.120102e-06 0.0 1.0069847e-05
2.8218167e-06 0.0 2.9174606e-05 2.3412226e-06 0.0 9.170041e-06 2.7135766e-06 0.0
6.953902e-06 3.937374e-07 0.0 1.6827748e-06 5.550639e-07 0.0 4.042855e-06 3.4962704e-07
0.0 1.7752448e-06 3.7211157e-07 0.0 8.081393e-06 4.8282203e-07 0.0 2.9535672e-06
6.690695e-07 0.0 9.127201e-06 8.1661346e-07 0.0 3.5244818e-06 9.429887e-07 0.0
2.5013915e-06 1.5553393e-07 0.0 9.259993e-07 2.68588e-07 0.0 5.3731123e-06 4.0426178e-07
0.0 2.1612043e-06 5.4974765e-07 0.0 2.3716842e-05 1.2697246e-06 0.0 9.175017e-06
2.0636671e-06 0.0 1.7044334e-06 1.263709e-07 0.0 6.3795227e-07 1.3935959e-07 0.0
9.561533e-07 5.472226e-08 0.0 3.6362175e-07 1.10487065e-07 0.0 1.8853872e-05 8.57486e-07
0.0 6.037871e-06 1.5496786e-06 0.0 7.31775e-06 5.0509817e-07 0.0 2.7330868e-06
6.2050515e-07 0.0 3.0533338e-06 2.4604358e-07 0.0 1.6808584e-06 3.261691e-07 0.0
5.247362e-06 3.9843562e-07 0.0 1.6319603e-06 4.9813605e-07 0.0 8.190053e-06 5.207657e-07
0.0 3.2548066e-06 8.39743e-07 0.0 1.463384e-05 8.320048e-07 0.0 4.287097e-06
1.484368e-06 0.0 1.1575784e-05 8.136463e-07 0.0 3.6512845e-06 9.216459e-07 0.0
8.206597e-06 4.2229405e-07 0.0 2.4027138e-06 8.186118e-07 0.0 2.8705272e-06 1.8257161e-07
0.0 9.922379e-07 2.5252533e-07 0.0 9.512751e-07 5.9445163e-08 0.0 3.4802318e-07
8.4035086e-08 0.0 7.905429e-06 4.0571283e-07 0.0 3.1162797e-06 5.9141377e-07 0.0
2.2737679e-05 1.2592988e-06 0.0 8.417577e-06 1.6652275e-06 0.0 4.5406137e-05 3.8393264e-06
0.0 1.8631767e-05 4.8988927e-06 0.0 1.36669805e-05 8.240862e-07 0.0 4.8377437e-06
9.030038e-07 0.0 9.867187e-06 7.60825e-07 0.0 4.191012e-06 9.3996675e-07 0.0
4.8704173e-06 4.879104e-07 0.0 1.2542164e-06 4.2602235e-07 0.0 4.38169e-06 2.9986674e-07
0.0 1.7494604e-06 3.4160885e-07 0.0 3.4388977e-05 1.9776323e-06 0.0 1.0453024e-05
2.6481769e-06 0.0 1.20033565e-05 1.0244955e-06 0.0 4.5761626e-06 1.5192596e-06 0.0
9.894801e-06 6.090197e-07 0.0 3.772359e-06 8.326323e-07 0.0 2.4354574e-06 1.3211208e-07
0.0 9.783163e-07 1.9349558e-07 0.0 8.352471e-06 7.059239e-07 0.0 3.1159266e-06
6.519805e-07 0.0 1.7302792e-06 1.617219e-07 0.0 1.0322467e-06 1.6444463e-07 0.0
1.3010399e-05 1.1270205e-06 0.0 4.80709e-06 1.5890704e-06 0.0 5.2185613e-05 4.691814e-06
0.0 1.8405644e-05 5.59044e-06 0.0 3.8222847e-06 3.0134987e-07 0.0 1.197329e-06
4.046412e-07 0.0 2.7461408e-06 1.9833396e-07 0.0 1.3375679e-06 2.179109e-07 0.0
1.0035867e-05 7.069366e-07 0.0 4.1846247e-06 8.663277e-07 0.0 1.5978048e-05 6.8345844e-07
0.0 5.75899e-06 1.1933348e-06 0.0 3.3422613e-05 2.859692e-06 0.0 1.5205601e-05
00000000: f42b e035 85a0 b833 0000 0000 ef29 e134
00000010: aea1 4a34 0000 0000 19b1 2737 f5a4 2f35
00000020: 0000 0000 a140 9d36 8780 9835 0000 0000
00000030: 8c10 e237 1347 0e36 0000 0000 aaf1 2837
00000040: 715e 3d36 0000 0000 fdbb f437 e61d 1d36
00000050: 0000 0000 07d9 1937 e41a 3636 0000 0000
00000060: 9055 e936 db62 d334 0000 0000 b4db e135
00000070: b3ff 1435 0000 0000 dca7 8736 60b4 bb34
00000080: 0000 0000 f244 ee35 a0c6 c734 0000 0000
00000090: 5295 0737 479b 0135 0000 0000 e635 4636
000000a0: 1b9a 3335 0000 0000 0821 1937 4035 5b35
000000b0: 0000 0000 2386 6c36 b121 7d35 0000 0000
000000c0: 94dd 2736 d700 2734 0000 0000 3092 7835
000000d0: 7432 9034 0000 0000 af4a b436 5109 d934
000000e0: 0000 0000 3509 1136 5f92 1335 0000 0000
000000f0: 88f3 c637 686b aa35 0000 0000 66ee 1937
00000100: 887d 0a36 0000 0000 e3c3 e435 92b0 0734
00000110: 0000 0000 bf3f 2b35 dfa2 1534 0000 0000
00000120: 2d55 8035 c307 6b33 0000 0000 cb37 c334
00000130: e844 ed33 0000 0000 6228 9e37 fd2d 6635
00000140: 0000 0000 eb98 ca36 8dfe cf35 0000 0000
00000150: fe8a f536 1596 0735 0000 0000 136a 3736
00000160: ca90 2635 0000 0000 e0e7 4c36 f917 8434
00000170: 0000 0000 db99 e135 571c af34 0000 0000
00000180: 7f12 b036 93e8 d534 0000 0000 bb09 db35
00000190: a6b7 0535 0000 0000 0368 0937 bfca 0b35
000001a0: 0000 0000 276d 5a36 b36a 6135 0000 0000
000001b0: dd83 7537 ef56 5f35 0000 0000 e2d9 8f36
000001c0: 7f3a c735 0000 0000 9d35 4237 5969 5a35
000001d0: 0000 0000 9708 7536 0667 7735 0000 0000
000001e0: 11af 0937 a7b7 e234 0000 0000 4f3e 2136
000001f0: 93be 5b35 0000 0000 48a3 4036 e708 4434
00000200: 0000 0000 092d 8535 d192 8734 0000 0000
00000210: 215b 7f35 a650 7f33 0000 0000 f1d7 ba34
00000220: c776 b433 0000 0000 8fa1 0437 bfd0 d934
00000230: 0000 0000 4721 5136 a5c1 1e35 0000 0000
00000240: cbbc be37 2d05 a935 0000 0000 3839 0d37
00000250: c880 df35 0000 0000 7872 3e38 90d3 8036
00000260: 0000 0000 6a4b 9c37 2b61 a436 0000 0000
00000270: 3c4b 6537 c636 5d35 0000 0000 e753 a236
00000280: f365 7235 0000 0000 3f8b 2537 7f3b 4c35
00000290: 0000 0000 85a0 8c36 0652 7c35 0000 0000
000002a0: 916c a336 f3f8 0235 0000 0000 8c56 a835
000002b0: 11b8 e434 0000 0000 6e06 9336 5ffd a034
000002c0: 0000 0000 00cf ea35 5d66 b734 0000 0000
000002d0: e23c 1038 77b7 0436 0000 0000 655f 2f37
000002e0: 55b7 3136 0000 0000 0662 4937 6681 8935
000002f0: 0000 0000 f08c 9936 5de9 cb35 0000 0000
00000300: d901 2637 847b 2335 0000 0000 a228 7d36
00000310: 0e82 5f35 0000 0000 d770 2336 b1da 0d34
00000320: 0000 0000 b14e 8335 a9c3 4f34 0000 0000
00000330: 9721 0c37 b97e 3d35 0000 0000 361b 5136
00000340: c203 2f35 0000 0000 f13b e835 c7a5 2d34
00000350: 0000 0000 ba8b 8a35 3292 3034 0000 0000
00000360: 3d47 5a37 2144 9735 0000 0000 974c a136
00000370: 0b48 d535 0000 0000 e0e1 5a38 606e 9d36
00000380: 0000 0000 d265 9a37 8495 bb36 0000 0000
00000390: 2d41 8036 36c9 a134 0000 0000 e9b3 a035
000003a0: 773d d934 0000 0000 574a 3836 a0f5 5434
000003b0: 0000 0000 7c86 b335 e4fa 6934 0000 0000
000003c0: b85f 2837 50c4 3d35 0000 0000 a769 8c36
000003d0: 968d 6835 0000 0000 9908 8637 e876 3735
000003e0: 0000 0000 593d c136 ac2a a035 0000 0000
000003f0: 422f 0c38 22e9 3f36 0000 0000 8f1b 7f37

exp_avg f4 [128]
-6.874345e-05 -0.00013029332 -0.00012320594 -0.00025770266 -0.00011232684 -2.2087634e-05 8.7848886e-05 -0.00013709912
-3.7046175e-05 1.1427319e-05 0.00010762375 -3.0470537e-05 -2.7241913e-05 5.5444343e-05 4.7566864e-06 0.00020153458
0.00010208652 2.343507e-05 0.000109771114 -1.4014661e-05 6.1227904e-05 6.339132e-05 -1.2102703e-06 -3.295878e-05
-6.340926e-05 -8.35263e-05 0.00014278351 -8.259863e-05 2.0748384e-05 -9.82489e-06 -0.0001659308 -0.00018334661
9.2960225e-05 -5.6276513e-05 -7.587605e-05 -1.3664799e-05 6.1918145e-05 -0.00013090472 8.1075676e-05 -6.500309e-05
0.0003466029 -0.00017318928 -2.348816e-05 6.923121e-05 8.068875e-05 -0.00010359394 2.3583496e-05 -6.386253e-05
-5.137415e-05 5.5565066e-05 0.00012426655 -0.00017387385 5.4303514e-06 0.00014419046 -6.7487854e-05 -6.5002554e-05
-9.883527e-05 3.3372675e-05 9.340702e-05 -1.7212122e-05 2.7539692e-05 0.00035084 2.3663117e-06 -0.00015937578
1.6808574e-06 -2.5440548e-05 -0.00019413544 -3.5967867e-05 -5.846678e-05 -2.3637933e-05 -0.00017683253 8.872654e-06
2.4751414e-05 -0.000102066966 0.00010429713 -0.00023822747 0.0001672668 0.00021939246 0.00019300848 -0.00011195036
9.259808e-05 0.00013660961 -7.79012e-05 -3.0870568e-05 -0.00023618908 0.00021512058 2.1826037e-05 -7.4176685e-05
1.9068802e-06 -2.8437116e-05 -4.4121276e-05 -8.23054e-05 -0.00011891785 -1.8446057e-05 2.214365e-05 -0.00015128688
-8.282594e-05 -1.9161955e-05 5.0004975e-05 -9.776958e-05 1.5285212e-05 0.0001455176 -4.2512047e-06 -0.0002492106
-5.291057e-05 -9.394433e-06 -5.0547744e-05 0.0001085681 -5.7860165e-05 -9.69938e-06 -1.8249779e-05 -0.00024706768
-0.00012365314 9.561509e-05 -0.00012446492 0.00017154381 0.000100783756 0.00023706017 1.7686605e-05 7.170751e-05
-0.00013241783 1.5561287e-05 -7.2251223e-06 9.0105576e-05 -1.9424939e-05 -6.2575826e-05 1.7137105e-05 -3.18624e-05
00000000: 5c2a 90b8 599f 08b9 d830 01b9 441c 87b9
00000010: 0391 ebb8 d548 b9b7 833b b838 44c2 0fb9
00000020: 0762 1bb8 f6b7 3f37 10b4 e138 fb9a ffb7
00000030: 9085 e4b7 e98c 6838 a09b 9f36 0753 5339
00000040: 4817 d638 6e96 c437 eb34 e638 8320 6bb7
00000050: 7b67 8038 f5f0 8438 9270 a2b5 383d 0ab8
00000060: 96fa 84b8 d72a afb8 28b8 1539 cd38 adb8
00000070: d10c ae37 95d5 24b7 b6fd 2db9 bb40 40b9
00000080: a4f3 c238 720a 6cb8 a51f 9fb8 dd41 65b7
00000090: 0dda 8138 7843 09b9 2c07 aa38 4552 88b8
000000a0: 41b8 b539 259a 35b9 7108 c5b7 3930 9138
000000b0: 7137 a938 9340 d9b8 2cd5 c537 efed 85b8
000000c0: 937a 57b8 890e 6938 8c4d 0239 e851 36b9
000000d0: 5d36 b636 d531 1739 4488 8db8 fb51 88b8
000000e0: c845 cfb8 a3f9 0b38 83e3 c338 c062 90b7
000000f0: 0a05 e737 f3f0 b739 edcc 1e36 1c1e 27b9
00000100: d299 e135 2969 d5b7 d690 4bb9 34dc 16b8
00000110: 3a3a 75b8 134a c6b7 1f6c 39b9 c2db 1437
00000120: 42a1 cf37 c90c d6b8 18ba da38 b3cc 79b9
00000130: 5764 2f39 b70c 6639 5262 4a39 e4c6 eab8
00000140: 3731 c238 dd3e 0f39 e35e a3b8 057b 01b8
00000150: 86a9 77b9 fe91 6139 0f17 b737 4e8f 9bb8
00000160: e8ef ff35 3e8c eeb7 dc0e 39b8 609b acb8
00000170: 8963 f9b8 9bbc 9ab7 20c1 b937 c3a2 1eb9
00000180: d7b2 adb8 fcbd a0b7 6fbc 5138 a509 cdb8
00000190: be38 8037 1596 1839 92a5 8eb6 7ba8 82b9
000001a0: 4bec 5db8 c89c 1db7 3a03 54b8 0eaf e338
000001b0: e1ae 72b8 85ba 22b7 1a17 99b7 dd88 81b9
000001c0: e3a8 01b9 f684 c838 cc82 02b9 71e0 3339
000001d0: de5b d338 5b93 7839 b25d 9437 ad61 9638
000001e0: a4d9 0ab9 9c89 8237 546f f2b6 10f7 bc38
000001f0: bdf2 a2b7 243b 83b8 a7c1 8f37 fea3 05b8

exp_avg_sq f4 [128]
2.4878194e-08 1.54304e-07 3.9071136e-07 4.1165572e-07 9.9252794e-08 5.984854e-08 1.17734025e-07 1.3047207e-07
3.8168512e-08 7.7480564e-08 3.2880675e-07 2.4790044e-08 1.4716581e-08 2.731168e-07 1.0510695e-07 4.8182216e-08
6.9116375e-08 1.1887673e-07 2.0113067e-07 1.679811e-07 1.16474666e-07 4.1756202e-08 1.3343293e-08 1.14099386e-07
3.3047903e-07 6.793669e-07 1.9428882e-07 1.5103377e-07 7.2081974e-08 6.417509e-08 5.0006685e-07 1.740094e-07
1.4169937e-07 3.557972e-08 1.1748359e-07 2.5101512e-08 1.9743543e-07 7.90443e-07 5.0212712e-08 4.23971e-08
1.4116715e-07 2.3214693e-07 4.8023685e-07 1.17496015e-07 8.154379e-08 1.228206e-07 2.8529328e-08 1.6005956e-06
3.7151338e-08 9.459948e-08 2.2506885e-07 1.1646151e-07 4.441894e-08 2.449701e-07 2.0678355e-07 7.512203e-08
6.588968e-08 9.479409e-08 6.768193e-08 2.7526648e-08 1.3470369e-08 8.1200943e-07 7.599012e-09 8.875507e-08
1.2423223e-07 1.0346244e-07 3.772013e-07 1.5322394e-07 2.7533028e-08 2.613621e-08 9.0666944e-08 3.6873075e-08
6.3566866e-08 2.0060324e-07 3.5381214e-07 3.8272378e-07 2.4703365e-07 4.8672373e-08 1.1284996e-07 3.8292736e-08
3.228649e-08 2.2098962e-07 7.776723e-08 3.540786e-08 7.752761e-08 2.9259215e-07 7.806695e-08 6.709517e-08
2.914079e-08 1.4154743e-07 4.3132875e-08 7.425843e-08 2.1003264e-07 3.420038e-08 4.331511e-08 2.593481e-07
1.03641426e-07 1.3664694e-08 1.1850834e-07 4.8889884e-08 2.2289095e-08 2.2540591e-07 8.248416e-08 9.647262e-08
2.4286596e-08 9.6982454e-08 1.0756582e-08 9.1522715e-08 5.069857e-08 4.587611e-08 1.6763889e-07 2.0850392e-07
5.2890766e-08 2.0350271e-07 1.8030063e-07 1.5267238e-07 2.1835989e-07 2.4583923e-07 4.9702004e-07 2.5888955e-08
1.2689172e-07 2.4500942e-08 1.0438195e-08 3.01158e-08 2.1509156e-07 5.2118033e-08 1.1583691e-08 7.2495844e-08
00000000: bab3 d532 c3ae 2534 f6c2 d134 8801 dd34
00000010: cd24 d533 1586 8033 f7d4 fc33 e417 0c34
00000020: b9ee 2333 6463 a633 db86 b034 e2f1 d432
00000030: 35d4 7c32 e3a0 9234 28b7 e133 e8f0 4e33
00000040: 216d 9433 2c49 ff33 61f6 5734 4b5e 3434
00000050: a020 fa33 6e57 3333 6c3c 6532 cd06 f533
00000060: b16c b134 bd5d 3635 b49d 5034 d92b 2234
00000070: 7ccb 9a33 a1d0 8933 553c 0635 57d7 3a34
00000080: 0726 1834 51d0 1833 494b fc33 cf9e d732
00000090: a3fe 5334 d42e 5435 76a9 5733 1b18 3633
000000a0: bb93 1734 1044 7934 a0e9 0035 1e52 fc33
000000b0: 2c1d af33 abe0 0334 a810 f532 0cd4 d635
000000c0: 5490 1f33 9d26 cb33 74aa 7134 6419 fa33
000000d0: 24c7 3e33 6f84 8334 3b08 5e34 c652 a133
000000e0: 3c7f 8d33 9a91 cb33 8958 9133 bd73 ec32
000000f0: 4f6b 6732 ddf8 5935 cf8c 0232 9e99 be33
00000100: b264 0534 142f de33 2782 ca34 e085 2434
00000110: c581 ec32 2282 e032 aeb4 c233 605e 1e33
00000120: 4182 8833 6665 5734 92f3 bd34 2879 cd34
00000130: 0ca0 8434 d70b 5133 ec57 f233 4f77 2433
00000140: 5fab 0a33 2a49 6d34 fd00 a733 5b13 1833
00000150: 417d a633 8f15 9d34 c2a5 a733 f615 9033
00000160: 4651 fa32 43fc 1734 1941 3933 0178 9f33
00000170: 5585 6134 b7e3 1233 7809 3a33 883c 8b34
00000180: 7a91 de33 f6c1 6a32 a67e fe33 fffa 5133
00000190: 3d76 bf32 1b07 7234 2622 b133 622c cf33
000001a0: ca9e d032 ab44 d033 f3cb 3832 258b c433
000001b0: abbf 5933 5109 4533 3a00 3434 1fe1 5f34
000001c0: 032a 6333 6682 5a34 a998 4134 44ee 2334
000001d0: 4f76 6a34 e3fb 8334 f56a 0535 6a62 de32
000001e0: bb3f 0834 2476 d232 ab53 3332 ac58 0133
000001f0: ebf3 6634 62d8 5f33 9d01 4732 03af 9b33

exp_avg f4 [128, 128]
1.2941665e-05 -4.498148e-06 -8.98969e-06 3.921996e-07 1.3367927e-05 1.0378804e-05 -3.0557803e-05 9.143636e-06
-5.747822e-07 -1.7626835e-05 3.870189e-07 -1.9977082e-05 -4.3888813e-06 8.355424e-06 -1.5078769e-05 -1.3399916e-05
-3.96091e-06 1.0061327e-05 -1.9211102e-06 -2.1461952e-05 1.169799e-05 -2.4249618e-06 -1.7362037e-06 -1.494e-06
-1.2203344e-05 1.7152192e-05 -9.267675e-06 5.248074e-06 -2.969334e-05 -3.4085713e-06 -3.6437934e-05 1.1892177e-05
5.18955e-06 -1.1314597e-05 1.2871366e-06 1.9356674e-05 -1.1827528e-06 6.38744e-06 -2.433808e-05 -2.2522165e-06
3.238017e-06 -3.084847e-05 1.0589801e-05 -8.4955045e-06 1.1970639e-05 -4.7983183e-05 -2.4764457e-05 2.2589888e-05
-5.2333908e-06 -4.1657786e-06 -1.6863341e-05 2.1182119e-05 -9.199511e-06 1.1701117e-05 -1.3182267e-06 -1.1221615e-05
-1.6000991e-05 -9.68922e-06 -1.7674158e-05 2.3775345e-07 -5.4348516e-06 1.046709e-05 -3.08312e-05 1.4975405e-05
-7.1044747e-06 1.1080962e-05 4.7593076e-06 -2.2069814e-07 -3.0250014e-05 -6.1827377e-06 1.674309e-05 -3.581294e-06
-9.72788e-06 7.032743e-06 -9.072975e-06 -1.0136419e-05 7.493473e-06 7.0141476e-07 -1.4201174e-05 -6.9854054e-06
2.3716611e-06 -1.966556e-05 -1.2091168e-05 6.0214334e-06 -2.823577e-05 -5.738161e-06 -2.8591821e-06 4.1855897e-06
1.85469e-06 -2.1739343e-06 -1.93755e-06 -5.7825637e-06 8.209694e-06 -8.017839e-06 8.043279e-06 1.2552785e-07
-1.6646716e-06 2.9139064e-06 7.3035385e-06 -5.484593e-06 8.967246e-06 1.6201415e-05 -1.0597166e-05 -8.35101e-06
-9.862023e-06 -2.264304e-06 5.0430453e-06 -3.3436831e-06 7.4942074e-07 2.4446435e-06 -1.2661308e-05 -1.2457434e-05
3.2630334e-05 9.335224e-06 6.590066e-06 2.1434622e-05 2.0246455e-06 -3.367791e-06 -7.9349877e-07 -6.80986e-06
-2.5153187e-05 1.3400852e-05 -2.7257142e-06 -1.8787026e-05 7.7224295e-06 8.202229e-06 9.349145e-06 6.093166e-06
0.00038111434 -4.3392643e-06 0.0003275047 -1.7169741e-05 -2.1815904e-05 -4.6889967e-05 2.435525e-05 0.00015589068
-3.0155432e-05 -3.2514993e-06 -8.389936e-05 1.4600083e-05 0.00039965604 -1.1562181e-05 -1.7462581e-06 -3.4000033e-05
-2.6062162e-05 -4.628001e-05 -3.1888354e-05 6.133469e-06 0.00014525867 -2.0393556e-05 0.0001936055 -1.8920953e-05
1.1565321e-05 0.00087305804 2.2808452e-05 0.0003605041 -0.0001101978 -1.4638518e-05 2.2207998e-05 0.0009001592
2.6039068e-06 -2.2316734e-05 0.00029641142 0.0011606398 0.00012436866 0.0006208552 5.5331668e-05 0.00010592556
6.5702477e-07 1.6791948e-05 0.00097513234 -7.3611195e-06 0.00075121224 6.958595e-06 -4.5199613e-06 0.0010640388
0.00012980362 3.994063e-06 6.5611603e-06 0.0005961712 0.0005137802 0.0001869937 -1.0587396e-05 -3.9197937e-05
-6.927541e-05 -2.5000341e-05 0.000111102076 3.8650005e-06 8.525014e-05 -3.2885306e-05 1.8872968e-05 0.00040329935
2.7800676e-05 0.0006509433 0.000264356 -0.0001498007 -5.761e-06 -3.4802666e-05 0.0004024063 5.6661452e-08
-1.6170794e-06 -9.960608e-06 0.00013832963 0.0003382589 0.00014275456 -9.40953e-06 0.00012845427 -1.5780486e-05
4.0423085e-05 0.00018936716 -7.9844256e-05 -5.5398746e-06 -1.092589e-05 -6.4813894e-06 -1.8929691e-06 0.0006350518
-0.00010380183 -1.6922336e-06 0.00033914877 -3.3898013e-05 0.00094781106 -3.995612e-05 0.0006715237 -4.1092535e-05
0.0004725151 0.00029681565 0.00045554523 -4.395683e-05 0.00042373143 -2.8949651e-05 -5.5874058e-05 -4.2082156e-05
8.249011e-07 -2.8671375e-05 0.00034441112 -8.324416e-06 -0.00013776748 0.0004058104 2.2898182e-06 -1.7168935e-05
0.0013146261 0.0005486699 1.7452348e-06 0.00086051686 1.9831116e-06 0.00011205196 -6.9511785e-05 0.00017934988
1.4111255e-05 0.0005173493 0.0001601119 2.9766572e-05 -3.101491e-05 -1.6449218e-05 -2.7647197e-06 -5.8957626e-06
00000000: 0720 5937 ccee 96b6 6dd2 16b7 818f d234
00000010: cf46 6037 a020 2e37 312b 00b8 9e67 1937
00000020: bb4a 1ab5 57dd 93b7 79c7 cf34 7594 a7b7
00000030: 3444 93b6 462e 0c37 d2fa 7cb7 33d0 60b7
00000040: f5e7 84b6 12cd 2837 6cec 00b6 3109 b4b7
00000050: 7c42 4437 87bc 22b6 8107 e9b5 7385 c8b5
00000060: f7bc 4cb7 0de2 8f37 5c7c 1bb7 9d18 b036
00000070: f615 f9b7 cfbe 64b6 efd4 18b8 8384 4737
00000080: e521 ae36 d3d3 3db7 adc1 ac35 2460 a237
00000090: 14bf 9eb5 b153 d636 a129 ccb7 c924 17b6
000000a0: b54c 5936 4b63 01b8 d9aa 3137 ea87 0eb7
000000b0: 81d5 4837 8d41 49b8 44bd cfb7 6a7f bd37
000000c0: 7c9a afb6 c4c7 8bb6 c075 8db7 41b0 b137
000000d0: 9957 1ab7 ea4f 4437 eded b0b5 7844 3cb7
000000e0: de39 86b7 e28e 22b7 f742 94b7 2c49 7f34
000000f0: 055d b6b6 cf9b 2f37 c050 01b8 e03e 7b37
00000100: f962 eeb6 5fe8 3937 24b2 9f36 0bf9 6cb4
00000110: 69c1 fdb7 5075 cfb6 8373 8c37 2a56 70b6
00000120: ed34 23b7 cdfa eb36 2238 18b7 970f 2ab7
00000130: 7170 fb36 db48 3c35 9441 6eb7 2d64 eab6
00000140: d428 1f36 78f7 a4b7 2cdb 4ab7 b80b ca36
00000150: dbdb ecb7 6d8a c0b6 60e0 3fb6 f171 8c36
00000160: aaee f835 e8e3 11b6 db06 02b6 d807 c2b6
00000170: 5ebc 0937 5b84 06b7 9ff1 0637 d5c8 0634
00000180: ae6d dfb5 888c 4336 eb10 f536 4c08 b8b6
00000190: 0772 1637 46e8 8737 7bca 31b7 511b 0cb7
000001a0: 1175 25b7 72f4 17b6 6e37 a936 0a64 60b6
000001b0: cd2b 4935 a80e 2436 e76b 54b7 4600 51b7
000001c0: 8edc 0838 7b9e 1c37 3c20 dd36 80ce b337
000001d0: 25df 0736 3502 62b6 d200 55b5 4180 e4b6
000001e0: 0f00 d3b7 39d4 6037 6aeb 36b6 d598 9db7
000001f0: 958f 0137 4e9c 0937 46da 1c37 e673 cc36
00000200: 4dd0 c739 ff99 91b6 f0b4 ab39 bd07 90b7
00000210: 4c01 b7b7 b8ab 44b8 804e cc37 9676 2339
00000220: 4cf6 fcb7 5534 5ab6 20f3 afb8 e1f2 7437
00000230: ed88 d139 30fb 41b7 f960 eab5 429b 0eb8
00000240: 11a0 dab7 c81c 42b8 dcbf 05b8 19ce cd36
00000250: 9450 1839 d412 abb7 9502 4b39 70b8 9eb7
00000260: ad08 4237 efdd 643a c754 bf37 0b02 bd39
00000270: fe19 e7b8 f597 75b7 504b ba37 a9f8 6b3a
00000280: c7be 2e36 d234 bbb7 ab67 9b39 9c20 983a
00000290: f568 0239 e3c0 223a ed13 6838 5a24 de38
000002a0: 665e 3035 6fdc 8c37 06a0 7f3a 89ff f6b6
000002b0: 00ed 443a e07d e936 2caa 97b6 3877 8b3a
000002c0: e51b 0839 bd04 8636 f027 dc36 5f48 1c3a
000002d0: 35af 063a bd13 4439 85a0 31b7 7768 24b8
000002e0: f447 91b8 d3b7 d1b7 79ff e838 1ab0 8136
000002f0: 52c8 b238 54ee 09b8 6451 9e37 ec71 d339
00000300: 7f35 e937 11a4 2a3a 4399 8a39 d213 1db9
00000310: 9d4e c1b6 14f9 11b8 0ffa d239 ed5b 7333
00000320: 6d0a d9b5 7c1c 27b7 940c 1139 5758 b139
00000330: 63b0 1539 a0dd 1db7 aeb1 0639 5660 84b7
00000340: f58b 2938 dc90 4639 0f72 a7b8 29e3 b9b6
00000350: 574e 37b7 b67a d9b6 ec11 feb5 9b79 263a
00000360: 2fb0 d9b8 b420 e3b5 c7cf b139 b72d 0eb8
00000370: 8676 783a 8f96 27b8 3109 303a c65a 2cb8
00000380: e7bb f739 ec9d 9b39 3fd6 ee39 495e 38b8
00000390: 4528 de39 e7d8 f2b7 505a 6ab8 5f81 30b8
000003a0: c66e 5d35 4f83 f0b7 1492 b439 18a9 0bb7
000003b0: ad75 10b9 f3c2 d439 c7aa 1936 0206 90b7
000003c0: 884f ac3a 9dd4 0f3a d03d ea35 4f94 613a
000003d0: 9915 0536 70fd ea38 dbc6 91b8 de0f 3c39
000003e0: 61bf 6c37 b99e 073a b6e3 2739 3ab3 f937
000003f0: 0216 02b8 6dfc 89b7 8689 39b6 37d4 c5b6
