results/Run1/MoveThePlayer/MoveThePlayer-1990.onnx (onnx, 72119 bytes, 5 tensors)

action_model._continuous_distribution.mu.weight f4 [1, 128]
0	0x39df6095	0.00042605834
1	0xbcec1948	-0.028820649
2	0x3bbcd79c	0.0057630073
3	0x3bbbe478	0.0057340227
4	0x3cb317f3	0.021862006
5	0x3bc44322	0.005989448
6	0x3cb6b934	0.022305109
7	0xbb8808d8	-0.004151445
8	0xba8e55a3	-0.0010859262
9	0x3ce67f0a	0.028136749
10	0x3bf0c65b	0.0073478646
11	0xbc4c59fb	-0.012472625
12	0xbc9d735e	-0.01922005
13	0xbc39d775	-0.011342873
14	0xba5c3450	-0.0008400129
15	0xbc2a7fb4	-0.010406423
16	0xbbbc602f	-0.0057487707
17	0x3c55893a	0.013033206
18	0xbc608efb	-0.013705964
19	0x3b13fe24	0.00225819
20	0x3c9aff5f	0.018920599
21	0x3d42ee86	0.047590755
22	0x3d031bff	0.03200912
23	0x3bc5eb85	0.006040039
24	0x3ce22e7d	0.027610058
25	0xbb37f654	-0.0028070407
26	0xba962104	-0.0011453931
27	0x3cc1fd26	0.02368028
28	0xbaa3a833	-0.001248604
29	0x3d117df4	0.03552051
30	0x3cbd72b7	0.02312599
31	0xbc94e6ca	-0.018176455
32	0xbc47c2fe	-0.012192486
33	0xbc7221c5	-0.014778559
34	0xbc333f00	-0.010940313
35	0xbc0dc917	-0.008653901
36	0xbc5d3385	-0.013501053
37	0xbc81926e	-0.015816893
38	0x3c068229	0.008209744
39	0x3c82d2f4	0.01596973
40	0x3b81df12	0.0039633596
41	0xb99217bf	-0.00027864982
42	0xbcfaf522	-0.030634467
43	0x3c353fd1	0.011062578
44	0xbc6f2d5d	-0.014598218
45	0x3cafaef8	0.021445736
46	0x3c814b29	0.01578291
47	0xbcdc062f	-0.026858417
48	0x3c4f10fb	0.012638326
49	0x3c23903d	0.00998312
50	0xbc2b00d7	-0.010437212
51	0xbc1e08b9	-0.009645634
52	0xbba8bb93	-0.0051493137
53	0xbcb0e764	-0.02159471
54	0x3c81018b	0.015747806
55	0x3cd0d4b8	0.025492057
56	0xbc79ee4f	-0.015254571
57	0xbbd92de5	-0.0066277855
58	0x3bf27258	0.0073988847
59	0x3c8bb9b9	0.017056333
60	0x3cafb6af	0.021449415
61	0xbbf49de2	-0.00746511
62	0xbd1ee02d	-0.03878801
63	0xbc98e821	-0.018665375
64	0xba4e14d5	-0.00078613806
65	0x3c888216	0.016663592
66	0x3c1e7794	0.009672064
67	0x3c3b80f7	0.011444322
68	0xbcb6bf73	-0.022308087
69	0x3c4fa732	0.01267414
70	0xbcd5e9f2	-0.02611253
71	0xbbee50cf	-0.0072728167
72	0x3b3b3a94	0.002856885
73	0x3c8e8482	0.017397169
74	0xbd327f34	-0.04357834
75	0xbce602f3	-0.028077578
76	0xbc2968df	-0.010339945
77	0xbbe75b05	-0.007060411
78	0xbc5bf5ea	-0.01342533
79	0x3b9d7c3f	0.004806071
80	0x3ab65cb7	0.0013913129
81	0xbb4fdfeb	-0.003171916
82	0xbb4aa93b	-0.0030923623
83	0x3baaa0db	0.0052071637
84	0xbc13b34d	-0.009014917
85	0xbd4081bc	-0.046998724
86	0x3c376e56	0.01119574
87	0xbcbb792a	-0.022884924
88	0xbbf076bd	-0.0073383735
89	0x3c630c67	0.013857937
90	0xbc334427	-0.010941542
91	0x3b71f333	0.003691864
92	0xbcc830ef	-0.024437396
93	0x3cf118f5	0.029430846
94	0xbc9d7a27	-0.019223286
95	0x3afa1313	0.0019079171
96	0xbbbc9d17	-0.0057560313
97	0xbc968087	-0.018371833
98	0xbc25bf3f	-0.010116397
99	0xbc7116ef	-0.01471494
100	0xbcaa5aab	-0.020795187
101	0x3d225444	0.039631143
102	0xbb92223e	-0.0044596484
103	0x3bc5a081	0.0060310964
104	0x3b592d47	0.003313856
105	0x3c1dd943	0.009634319
106	0xba84f447	-0.0010143601
107	0xbc3c3bae	-0.011488838
108	0xbc62f0f8	-0.013851397
109	0xbc3c60b3	-0.011497664
110	0xbb83d2bf	-0.0040229256
111	0x3cab8748	0.02093853
112	0x3b97eec1	0.004636616
113	0xbc49b533	-0.012311268
114	0x3c14c173	0.009079325
115	0xbc417873	-0.0118085025
116	0xbc5dcc6b	-0.013537507
117	0xbb979c2a	-0.0046267705
118	0xbb00b548	-0.0019639302
119	0x3b0963fb	0.0020964134
120	0xbce06b7d	-0.027395004
121	0x3c05c717	0.0081651425
122	0x3c928819	0.017887162
123	0xbacd750b	-0.001567514
124	0x3c8a48b6	0.016880374
125	0xbc3270eb	-0.01089118
126	0x3ca8e592	0.02061728
127	0x3a91c92e	0.0011122578

network_body._body_endoder.seq_layers.0.bias f4 [128]
0	0x00000000	0.0
1	0x00000000	0.0
2	0x00000000	0.0
3	0x00000000	0.0
4	0x00000000	0.0
5	0x00000000	0.0
6	0x00000000	0.0
7	0x00000000	0.0
8	0x00000000	0.0
9	0x00000000	0.0
10	0x00000000	0.0
11	0x00000000	0.0
12	0x00000000	0.0
13	0x00000000	0.0
14	0x00000000	0.0
15	0x00000000	0.0
16	0x00000000	0.0
17	0x00000000	0.0
18	0x00000000	0.0
19	0x00000000	0.0
20	0x00000000	0.0
21	0x00000000	0.0
22	0x00000000	0.0
23	0x00000000	0.0
24	0x00000000	0.0
25	0x00000000	0.0
26	0x00000000	0.0
27	0x00000000	0.0
28	0x00000000	0.0
29	0x00000000	0.0
30	0x00000000	0.0
31	0x00000000	0.0
32	0x00000000	0.0
33	0x00000000	0.0
34	0x00000000	0.0
35	0x00000000	0.0
36	0x00000000	0.0
37	0x00000000	0.0
38	0x00000000	0.0
39	0x00000000	0.0
40	0x00000000	0.0
41	0x00000000	0.0
42	0x00000000	0.0
43	0x00000000	0.0
44	0x00000000	0.0
45	0x00000000	0.0
46	0x00000000	0.0
47	0x00000000	0.0
48	0x00000000	0.0
49	0x00000000	0.0
50	0x00000000	0.0
51	0x00000000	0.0
52	0x00000000	0.0
53	0x00000000	0.0
54	0x00000000	0.0
55	0x00000000	0.0
56	0x00000000	0.0
57	0x00000000	0.0
58	0x00000000	0.0
59	0x00000000	0.0
60	0x00000000	0.0
61	0x00000000	0.0
62	0x00000000	0.0
63	0x00000000	0.0
64	0x00000000	0.0
65	0x00000000	0.0
66	0x00000000	0.0
67	0x00000000	0.0
68	0x00000000	0.0
69	0x00000000	0.0
70	0x00000000	0.0
71	0x00000000	0.0
72	0x00000000	0.0
73	0x00000000	0.0
74	0x00000000	0.0
75	0x00000000	0.0
76	0x00000000	0.0
77	0x00000000	0.0
78	0x00000000	0.0
79	0x00000000	0.0
80	0x00000000	0.0
81	0x00000000	0.0
82	0x00000000	0.0
83	0x00000000	0.0
84	0x00000000	0.0
85	0x00000000	0.0
86	0x00000000	0.0
87	0x00000000	0.0
88	0x00000000	0.0
89	0x00000000	0.0
90	0x00000000	0.0
91	0x00000000	0.0
92	0x00000000	0.0
93	0x00000000	0.0
94	0x00000000	0.0
95	0x00000000	0.0
96	0x00000000	0.0
97	0x00000000	0.0
98	0x00000000	0.0
99	0x00000000	0.0
100	0x00000000	0.0
101	0x00000000	0.0
102	0x00000000	0.0
103	0x00000000	0.0
104	0x00000000	0.0
105	0x00000000	0.0
106	0x00000000	0.0
107	0x00000000	0.0
108	0x00000000	0.0
109	0x00000000	0.0
110	0x00000000	0.0
111	0x00000000	0.0
112	0x00000000	0.0
113	0x00000000	0.0
114	0x00000000	0.0
115	0x00000000	0.0
116	0x00000000	0.0
117	0x00000000	0.0
118	0x00000000	0.0
119	0x00000000	0.0
120	0x00000000	0.0
121	0x00000000	0.0
122	0x00000000	0.0
123	0x00000000	0.0
124	0x00000000	0.0
125	0x00000000	0.0
126	0x00000000	0.0
127	0x00000000	0.0

network_body._body_endoder.seq_layers.0.weight f4 [128, 6]
0	0xbe5eb2fd	-0.21747966
1	0xbe937c4d	-0.2880577
2	0x3d89fbc2	0.06737472
3	0xbea72aa1	-0.3264971
4	0x3edf53d0	0.4361863
5	0x3db5d105	0.08877758
6	0x3b9fd8c0	0.0048781335
7	0x3db1a4d9	0.0867402
8	0xbeea91eb	-0.45814452
9	0x3eea7ec3	0.45799837
10	0x3ebd6348	0.36989808
11	0x3e43acf2	0.19108942
12	0xbf0c5be8	-0.5482774
13	0x3ebc1307	0.36733267
14	0x3f009b21	0.5023671
15	0x3e9ee8a3	0.31036863
16	0x3dba8761	0.09107853
17	0x3e0f782b	0.14010684
18	0xbeea5058	-0.45764422
19	0x3f0e9ff9	0.5571285
20	0x3e3e381e	0.18576095
21	0xbf01f964	-0.50771165
22	0xbe8223ef	-0.2541804
23	0x3c6e0172	0.014526712
24	0xbf00e8b7	-0.50355095
25	0x3e1e0ef3	0.1543539
26	0xbc835f54	-0.016036667
27	0x3e81bcac	0.25339258
28	0xbea13224	-0.31483567
29	0xbe584b62	-0.21122506
30	0xbdbc64ae	-0.091988906
31	0xbea2c4c6	-0.3179075
32	0x3ca975d9	0.020686077
33	0x3f0a2ecc	0.53977656
34	0xbcd20065	-0.025634954
35	0xbe35cfdf	-0.17755078
36	0xbe956c6c	-0.29184282
37	0x3ec80a1c	0.39070213
38	0x3f406852	0.7515918
39	0x3e5f8896	0.21829447
40	0xbe6a0b8b	-0.22855966
41	0xbecdb0f7	-0.40174076
42	0xbf06c01f	-0.52636904
43	0xbe71329b	-0.2355446
44	0xbdc40a20	-0.09572244
45	0xbf8dbe70	-1.1073742
46	0x3e84afb7	0.2591531
47	0xbf21c977	-0.63198036
48	0xbf19badd	-0.60050756
49	0x3e72c928	0.23709548
50	0x3e15e3a3	0.14637618
51	0xbd0b600f	-0.034027155
52	0xbe14cdc0	-0.14531612
53	0x3ebf18b9	0.3732355
54	0xbf0df010	-0.5544443
55	0xbe46e983	-0.19425015
56	0x3e9da70a	0.30791503
57	0xbe7d063c	-0.2470941
58	0x3eab6f95	0.33483568
59	0x3f7f10a0	0.9963474
60	0x3e1d5f3b	0.15368359
61	0x3e005cf0	0.12535453
62	0xbf7ddb96	-0.99163187
63	0x3e089cb3	0.13341026
64	0x3ebbfee8	0.36717916
65	0xbea4fb95	-0.32223192
66	0xbe282d72	-0.16423586
67	0x3e8b19a9	0.27168015
68	0x3e94f357	0.29091904
69	0x3e6b4a00	0.22977448
70	0x3e94e72f	0.2908263
71	0x3d2107da	0.03931413
72	0xbf3ef012	-0.7458507
73	0x3e9c2bb6	0.305021
74	0xbd23dd50	-0.040005982
75	0x3e4749bf	0.19461726
76	0xbe7c0523	-0.24611335
77	0xbe8fa033	-0.2805191
78	0xbe28da9e	-0.16489646
79	0xbbfc1495	-0.0076928833
80	0xbf40e344	-0.7534678
81	0xbe162714	-0.14663345
82	0x3da90dbb	0.08254572
83	0xbeb6749e	-0.35635847
84	0x3ead9869	0.33905342
85	0x3e219ee7	0.15783273
86	0xbf0f1e5c	-0.559057
87	0x3ef43c6d	0.4770235
88	0x3ea3d0eb	0.3199533
89	0xbe282cd0	-0.16423345
90	0x3f532ef7	0.8249354
91	0x3e937008	0.2879641
92	0x3f3bfa9d	0.7342928
93	0xbf18ec1b	-0.5973527
94	0x3e8ed386	0.27895755
95	0xbe9eab10	-0.30989885
96	0xbf5644b9	-0.8369861
97	0x3f471960	0.77773094
98	0xbf505311	-0.8137675
99	0x3d8152d7	0.063146286
100	0xbf4023c3	-0.7505457
101	0xbf8b8873	-1.0901016
102	0x3edbcf7c	0.42931736
103	0x3dee9ac5	0.11650614
104	0x3e9f5282	0.31117636
105	0xbe4cac85	-0.19987686
106	0xbf4eb919	-0.80751187
107	0x3e23a40c	0.15980548
108	0xbe615a40	-0.22007084
109	0x3e8531b9	0.26014498
110	0x3dc0128c	0.093785375
111	0x3f10757a	0.56429255
112	0x3ea1eadc	0.31624496
113	0xbd051e7a	-0.032499768
114	0x3ec3dc32	0.38253933
115	0x3eed0fa4	0.46300995
116	0xbe5ba706	-0.21450433
117	0xbf95ef9f	-1.1713752
118	0xbdb9ed5b	-0.09078475
119	0x3ee43c41	0.4457722
120	0xbd3d0e47	-0.046156194
121	0xbf32bcfd	-0.69819623
122	0xbe6cf823	-0.23141532
123	0xbf09e3de	-0.5386332
124	0xbea2d26b	-0.3180116
125	0x3d971807	0.0737763
126	0x3f03e83f	0.51526254
127	0xbf3810c8	-0.71900606
128	0x3f1bc041	0.6084023
129	0x3efea462	0.4973479
130	0x3de90056	0.11377017
131	0x3f0167b8	0.5054889
132	0x3f209c89	0.62738854
133	0xbdac7bc3	-0.08422043
134	0xbee52cdf	-0.44760796
135	0x3ea39822	0.31952006
136	0xbe6618f3	-0.22470455
137	0xbeab45d7	-0.3345172
138	0xbee1b419	-0.44082716
139	0xbeb38647	-0.35063383
140	0xbf566bbf	-0.8375816
141	0x3dc94faf	0.098296516
142	0x3e8518a8	0.25995374
143	0x3ee32fb9	0.44372347
144	0xbe647df2	-0.2231367
145	0x3e3bb965	0.18332441
146	0xbeb59e11	-0.35472158
147	0xbf26d939	-0.65175205
148	0xbf239bda	-0.63909686
149	0x3bf009d6	0.0073253913
150	0xbec129af	-0.37727115
151	0x3df40b8c	0.11916265
152	0x3e78f16b	0.24310844
153	0xbe4be92b	-0.19913165
154	0x3dcb9c90	0.09941971
155	0xbba13b1b	-0.004920376
156	0xbcf62c09	-0.030050294
157	0x3ebaf9a1	0.36518577
158	0x3ec2ec5b	0.3807095
159	0x3f519b51	0.8187762
160	0xbce18cbf	-0.027532933
161	0x3e9e56a6	0.30925483
162	0xbf00ed28	-0.5036187
163	0xbe859bb0	-0.26095343
164	0xbeed2dcb	-0.46324
165	0x3e3d7c59	0.18504466
166	0xbf4d8c3a	-0.80292094
167	0x3ec1dce9	0.37863854
168	0x3e424bad	0.1897418
169	0x3eeeeb45	0.4666387
170	0x3f0e0313	0.5547344
171	0xbdc26ea7	-0.094937615
172	0xbd4a4bfc	-0.04938887
173	0xbf466995	-0.77504855
174	0x3e06b162	0.13153604
175	0x3f1629af	0.58657354
176	0xbdceb31e	-0.10092758
177	0x3f0f500c	0.55981517
178	0xbed82cf4	-0.42221797
179	0xbcf9bc04	-0.03048516
180	0xbc46f16b	-0.0121425195
181	0x3ce90cf3	0.028448557
182	0xbf4dd674	-0.80405354
183	0xbe8c6acc	-0.2742523
184	0x3efd74d1	0.49503186
185	0x3ee5687c	0.44806278
186	0x3d8259aa	0.06364758
187	0xbea0c440	-0.31399727
188	0x3ded82bc	0.11597201
189	0xbe392472	-0.18080309
190	0x3e26de71	0.16295792
191	0xbe75cfe4	-0.24005085
192	0x3eab32c7	0.33437178
193	0xbdda93ae	-0.10672699
194	0x3eb448cd	0.35211793
195	0x3e89250b	0.26786074
196	0xbd61a4c2	-0.055088766
197	0xbed4de6b	-0.4157594
198	0xbf1067ae	-0.564082
199	0x3e4acec7	0.19805442
200	0x3ea2bfa2	0.3178683
201	0xbe29c632	-0.16579512
202	0x3ce1ad4f	0.02754846
203	0xbddd2ad1	-0.10799182
204	0xbf271fd2	-0.6528293
205	0xbe8c31e5	-0.27381817
206	0x3ecc2226	0.39869803
207	0xbf5a60e4	-0.85304093
208	0x3e883b50	0.26607752
209	0x3e966746	0.29375666
210	0xbec5e0a1	-0.3864794
211	0xbde47209	-0.11154563
212	0xbeeb8994	-0.460034
213	0x3f680a27	0.9064049
214	0xbf359138	-0.7092471
215	0xbef9674e	-0.48711628
216	0x3de14e4f	0.11001264
217	0x3da29cb2	0.079400435
218	0xbd2a3c2a	-0.041561283
219	0x3f7613e9	0.9612413
220	0x3c3ca2e7	0.011513448
221	0xbf4cc477	-0.7998728
222	0xbc85a244	-0.016312726
223	0xbf057939	-0.52138096
224	0x3f07ca09	0.53042656
225	0xbee99edd	-0.45629016
226	0xbdf6b479	-0.12046141
227	0xbf3f9ee6	-0.74851835
228	0xbe8816ec	-0.26579988
229	0x3e2d3184	0.1691342
230	0xbf379af2	-0.717208
231	0x3df89a4f	0.12138807
232	0x3f0ea158	0.5571494
233	0xbe9f95bd	-0.3116893
234	0x3edd02b0	0.43166113
235	0xbdc68c70	-0.09694755
236	0x3e35f272	0.17768267
237	0x3ecf6c3b	0.4051226
238	0x3b277c05	0.00255561
239	0xbeb03bb9	-0.34420565
240	0x3e7ad810	0.24496484
241	0x3eb20e8e	0.3477673
242	0x3db3b342	0.08774425
243	0x3ef08610	0.46977282
244	0xbe0170e5	-0.12640722
245	0xbecd4d45	-0.40098014
246	0xbe904874	-0.28180277
247	0xbd4e551c	-0.050374135
248	0x3e173036	0.14764485
249	0x3db88802	0.090103164
250	0xbf201066	-0.6252502
251	0x3e8e392f	0.27778003
252	0x3e25d46c	0.16194314
253	0xbe1eaf31	-0.15496518
254	0x3e7222cc	0.23646086
255	0x3ebfca83	0.37459192

network_body._body_endoder.seq_layers.2.bias f4 [128]
0	0x00000000	0.0
1	0x00000000	0.0
2	0x00000000	0.0
3	0x00000000	0.0
4	0x00000000	0.0
5	0x00000000	0.0
6	0x00000000	0.0
7	0x00000000	0.0
8	0x00000000	0.0
9	0x00000000	0.0
10	0x00000000	0.0
11	0x00000000	0.0
12	0x00000000	0.0
13	0x00000000	0.0
14	0x00000000	0.0
15	0x00000000	0.0
16	0x00000000	0.0
17	0x00000000	0.0
18	0x00000000	0.0
19	0x00000000	0.0
20	0x00000000	0.0
21	0x00000000	0.0
22	0x00000000	0.0
23	0x00000000	0.0
24	0x00000000	0.0
25	0x00000000	0.0
26	0x00000000	0.0
27	0x00000000	0.0
28	0x00000000	0.0
29	0x00000000	0.0
30	0x00000000	0.0
31	0x00000000	0.0
32	0x00000000	0.0
33	0x00000000	0.0
34	0x00000000	0.0
35	0x00000000	0.0
36	0x00000000	0.0
37	0x00000000	0.0
38	0x00000000	0.0
39	0x00000000	0.0
40	0x00000000	0.0
41	0x00000000	0.0
42	0x00000000	0.0
43	0x00000000	0.0
44	0x00000000	0.0
45	0x00000000	0.0
46	0x00000000	0.0
47	0x00000000	0.0
48	0x00000000	0.0
49	0x00000000	0.0
50	0x00000000	0.0
51	0x00000000	0.0
52	0x00000000	0.0
53	0x00000000	0.0
54	0x00000000	0.0
55	0x00000000	0.0
56	0x00000000	0.0
57	0x00000000	0.0
58	0x00000000	0.0
59	0x00000000	0.0
60	0x00000000	0.0
61	0x00000000	0.0
62	0x00000000	0.0
63	0x00000000	0.0
64	0x00000000	0.0
65	0x00000000	0.0
66	0x00000000	0.0
67	0x00000000	0.0
68	0x00000000	0.0
69	0x00000000	0.0
70	0x00000000	0.0
71	0x00000000	0.0
72	0x00000000	0.0
73	0x00000000	0.0
74	0x00000000	0.0
75	0x00000000	0.0
76	0x00000000	0.0
77	0x00000000	0.0
78	0x00000000	0.0
79	0x00000000	0.0
80	0x00000000	0.0
81	0x00000000	0.0
82	0x00000000	0.0
83	0x00000000	0.0
84	0x00000000	0.0
85	0x00000000	0.0
86	0x00000000	0.0
87	0x00000000	0.0
88	0x00000000	0.0
89	0x00000000	0.0
90	0x00000000	0.0
91	0x00000000	0.0
92	0x00000000	0.0
93	0x00000000	0.0
94	0x00000000	0.0
95	0x00000000	0.0
96	0x00000000	0.0
97	0x00000000	0.0
98	0x00000000	0.0
99	0x00000000	0.0
100	0x00000000	0.0
101	0x00000000	0.0
102	0x00000000	0.0
103	0x00000000	0.0
104	0x00000000	0.0
105	0x00000000	0.0
106	0x00000000	0.0
107	0x00000000	0.0
108	0x00000000	0.0
109	0x00000000	0.0
110	0x00000000	0.0
111	0x00000000	0.0
112	0x00000000	0.0
113	0x00000000	0.0
114	0x00000000	0.0
115	0x00000000	0.0
116	0x00000000	0.0
117	0x00000000	0.0
118	0x00000000	0.0
119	0x00000000	0.0
120	0x00000000	0.0
121	0x00000000	0.0
122	0x00000000	0.0
123	0x00000000	0.0
124	0x00000000	0.0
125	0x00000000	0.0
126	0x00000000	0.0
127	0x00000000	0.0

network_body._body_endoder.seq_layers.2.weight f4 [128, 128]
0	0x3b8da79f	0.0043229605
1	0xbc9cc733	-0.019137954
2	0xbdd94655	-0.10609118
3	0xbe4ab005	-0.19793709
4	0x3cede7d2	0.029041205
5	0x3d1b99b1	0.03798837
6	0xbda20d18	-0.07912654
7	0xbd914ead	-0.07095084
8	0x3e2e4da1	0.170218
9	0x3e722e1c	0.23650402
10	0xbcb19fc0	-0.02168262
11	0x3dc53527	0.09629279
12	0x3ca02def	0.019553153
13	0x3d14d74f	0.036338147
14	0x3dd6b99b	0.1048462
15	0xbd8d434b	-0.06897601
16	0x3d82136b	0.0635136
17	0x3d086a1a	0.03330431
18	0x3df60fbd	0.120147206
19	0x3dc2b499	0.095071025
20	0x3d68d5d3	0.056844544
21	0xbe292a9f	-0.16520165
22	0xbe460ce3	-0.19340853
23	0x3d4a4cb0	0.04938954
24	0x3db4bb0d	0.088247396
25	0xbc73369b	-0.014844562
26	0xbdc1828b	-0.09448727
27	0xbde280a5	-0.11059693
28	0x3c356081	0.011070372
29	0x3d487a76	0.048944913
30	0xbe376a96	-0.17911753
31	0x3e2b169a	0.1670784
32	0x3c1cec9c	0.009577896
33	0xbd7cddcd	-0.061734963
34	0x3e088131	0.13330533
35	0x3d2181eb	0.03943054
36	0xbdf8ca7b	-0.12147995
37	0x3d0b7586	0.034047626
38	0x3e5e5dd7	0.21715485
39	0xbd8a8eb4	-0.067655
40	0xbc94d1c5	-0.018166432
41	0xbe1a944d	-0.15095635
42	0xbe2c302e	-0.16815254
43	0x3d6bf267	0.05760422
44	0xbe0be3dc	-0.1366114
45	0x3da4c7cb	0.0804592
46	0xbcad1076	-0.021126013
47	0x3d691154	0.05690129
48	0x3d9e77d9	0.07737703
49	0xbddd82a9	-0.10815937
50	0x3ddff89d	0.10936091
51	0xbdbd485d	-0.09242318
52	0xbdad2575	-0.0845441
53	0x3d1bfa53	0.038080525
54	0xbc0ed51d	-0.008717802
55	0xbe1b68a1	-0.15176632
56	0xbd913b40	-0.07091379
57	0xbd81344d	-0.06308804
58	0x3cb7f874	0.022457339
59	0xbc6a400d	-0.014297497
60	0xbd00b268	-0.03142014
61	0x3c42af7d	0.01188266
62	0xbdff9aba	-0.124806836
63	0xbbbaf147	-0.005705032
64	0x3d830ebc	0.06399295
65	0xbe0df434	-0.13862687
66	0xbbec0979	-0.0072032777
67	0xbdd219ac	-0.10258803
68	0xbd87d67c	-0.066327065
69	0xbdc8e973	-0.09810152
70	0xbd0ac269	-0.03387681
71	0xbb8181f4	-0.003952259
72	0x3d997480	0.07492924
73	0x3d2a9d63	0.041654002
74	0xbd0b4136	-0.033997737
75	0x3e22ecf0	0.15910697
76	0xbb305831	-0.0026908035
77	0x3d96e552	0.07367958
78	0x3d46fee2	0.04858292
79	0x3b1c26ac	0.0023826761
80	0x3e0cbaed	0.13743182
81	0xbd460f86	-0.048354648
82	0xbe7351a6	-0.23761615
83	0x3ca8dae2	0.020612184
84	0xbd9c0562	-0.07618214
85	0x3dad53fb	0.08463284
86	0x3da27767	0.079329304
87	0x3d6b3487	0.05742314
88	0xbdfc87d1	-0.123305924
89	0x3d3b0bd4	0.045665577
90	0xbde76a22	-0.1129954
91	0x3d8c3f07	0.06847959
92	0x3e1e2728	0.15444624
93	0xbd0a5caa	-0.033779778
94	0xbe3d1ae5	-0.1846729
95	0xbe36984f	-0.17831539
96	0xbd4a8ee4	-0.049452677
97	0xbbacceae	-0.0052736616
98	0xbd8c53d0	-0.068519235
99	0xbc62b4d4	-0.013837058
100	0xbe3f36fc	-0.18673319
101	0x3cd1aa75	0.025593976
102	0x3dd37b2c	0.103262275
103	0xbe12c84b	-0.14334218
104	0xbcb25aa1	-0.02177173
105	0xbda637b7	-0.081160955
106	0xbc580fee	-0.013187392
107	0xbe55f6b7	-0.20894895
108	0xbb84b1e8	-0.0040495284
109	0x3bd50e54	0.006501952
110	0x3c2f09da	0.010683501
111	0x3bc25266	0.005930233
112	0xbdc7874f	-0.09742605
113	0xbb924182	-0.0044633755
114	0xbc9688a8	-0.01837571
115	0xbdf0eb11	-0.11763585
116	0x3a5f8d58	0.0008527837
117	0xbbac70ff	-0.0052624936
118	0x3ceb2222	0.0287028
119	0x38a53d2f	7.8792094e-05
120	0x3cea6dfc	0.028616898
121	0x3dc931f2	0.098239794
122	0x3d1fee94	0.039045885
123	0x3cff91b0	0.031197399
124	0x3e029a7f	0.12754248
125	0x3d9c1626	0.07621412
126	0x3da89df6	0.08233254
127	0x3cfcc00b	0.030853292
128	0x3d366432	0.044529147
129	0xbc111d4f	-0.008857085
130	0xbd92e4b3	-0.07172527
131	0xbd66fa3b	-0.056390982
132	0xbd2bd92d	-0.04195516
133	0xbe176ecd	-0.14788361
134	0x3d88ea58	0.066853225
135	0xbd67ee61	-0.05662382
136	0xbe0557d4	-0.13021785
137	0xbdf0c61c	-0.11756536
138	0xbdf15b48	-0.11784989
139	0x3d897456	0.067116424
140	0x3db9dadc	0.09074947
141	0xbd0e56a4	-0.034750596
142	0x3daed812	0.08537306
143	0x3e09612e	0.13415977
144	0x3d843c5f	0.06456827
145	0xbd136221	-0.035982255
146	0x3d129bca	0.035793103
147	0x3da47765	0.08030585
148	0xbd4bf4c2	-0.049793966
149	0xbc4f5af0	-0.0126559585
150	0x3d25f9e6	0.040521525
151	0x3d4b9add	0.049708236
152	0x3e036a40	0.128335
153	0x3dfc356b	0.12314876
154	0x3d1a0577	0.037602868
155	0xbca103e2	-0.019655172
156	0xbd133ca8	-0.03594652
157	0xbd73d194	-0.05952604
158	0x3cf40bc9	0.029790776
159	0x3de41d1d	0.111383654
160	0xbda1c00c	-0.07897958
161	0x3b874f1a	0.0041293027
162	0x3dc243ab	0.09485563
163	0x3ca99edb	0.020705631
164	0xbd515057	-0.05110201
165	0xbd693985	-0.05693962
166	0xbd2907f3	-0.041267347
167	0xbdec8098	-0.11547965
168	0x3bdbdcc0	0.006709665
169	0xbd8e206b	-0.06939777
170	0x3d087f22	0.03332437
171	0xbd4b0946	-0.04956939
172	0x3c399b43	0.011328521
173	0x3d96182b	0.073288284
174	0xbdcef877	-0.10105985
175	0xbd8bedbb	-0.06832453
176	0xbd846469	-0.06464464
177	0xbb822c51	-0.003972568
178	0xbe24d89a	-0.16098252
179	0xbda0fee6	-0.07861118
180	0x3d7282c7	0.05920675
181	0x3e064e54	0.13115817
182	0x3cf0f04a	0.029411454
183	0x3c35ed68	0.011103965
184	0xbde1dc5c	-0.11028358
185	0xbe0a4b2e	-0.13505241
186	0x3d55628d	0.05209594
187	0xbc8b7a53	-0.017026102
188	0x3d863160	0.06552386
189	0xbdaa3133	-0.08310165
190	0x3d79aa14	0.060953215
191	0x3b2f82ef	0.0026780923
192	0x3cca8b84	0.02472473
193	0x3ccdabe9	0.025106387
194	0x3dd9fc45	0.1064382
195	0x3dbfed04	0.09371379
196	0xbe19bcc4	-0.15013415
197	0x3dac9895	0.0842754
198	0x3d92d772	0.07169999
199	0x3d51da25	0.05123343
200	0x3e007d45	0.12547787
201	0xbc2ceaaa	-0.010553995
202	0xbd145a94	-0.036219195
203	0x3d4804bd	0.048832644
204	0x3b14612d	0.002264093
205	0x3d0ba421	0.034092072
206	0xbdab98a6	-0.08378725
207	0xbd937153	-0.07199349
208	0x3d2263a8	0.03964582
209	0x3d059ab9	0.03261826
210	0x3dc16d6f	0.09444701
211	0x3c7979fe	0.015226839
212	0xbe0be073	-0.1365984
213	0xbdf25e0b	-0.118343435
214	0x3c35cc9d	0.011096147
215	0xbc93386e	-0.017971244
216	0x3d54acc2	0.051922567
217	0x3dd08218	0.101810634
218	0xbd9afb93	-0.07567515
219	0xbd738201	-0.059450153
220	0xbd80c365	-0.062872685
221	0xbce17780	-0.027522802
222	0x3e17ef43	0.14837365
223	0x3d17afee	0.037033014
224	0x3df4deac	0.11956534
225	0x3dcdea02	0.10054399
226	0x3b3c2464	0.0028708214
227	0x3d4c0e91	0.04981858
228	0xbd4be656	-0.049780212
229	0x3d98b7e4	0.07456949
230	0xbcfbb3e2	-0.030725423
231	0xbc292f70	-0.010326251
232	0xbd70d5f3	-0.058797788
233	0x3cf7522d	0.030190552
234	0xbdbb4b50	-0.09145224
235	0xbe2568ee	-0.16153309
236	0x3d0fe2a8	0.035128266
237	0xbda1a486	-0.078927085
238	0x3d062dfb	0.032758694
239	0x3db37edf	0.08764433
240	0xbc31f02c	-0.010860484
241	0x3cac818d	0.021057868
242	0xbd098de3	-0.03358258
243	0x3c957756	0.01824538
244	0xbcc40f1e	-0.02393299
245	0x3cc6d510	0.024271518
246	0xbd07035d	-0.03296219
247	0xbdb8814c	-0.090090364
248	0x3d2dc54e	0.042424493
249	0xbc86755a	-0.01641338
250	0xbb8510b6	-0.00406083
251	0x3d231265	0.039812464
252	0xbd6246ba	-0.05524323
253	0xbd988e0e	-0.0744897
254	0x3d29f7f3	0.04149623
255	0xbcf1c38b	-0.029512187
