results/Run1/MoveThePlayer/MoveThePlayer-3499972.onnx (onnx, 72119 bytes, 5 tensors)

action_model._continuous_distribution.mu.weight f4 [1, 128]
000000 56 4a 8e 3c 79 62 3b 3d 6b e9 14 3d 7e e1 6c bd
       0.01736943 0.045748208 0.036355417 -0.057832234
000010 9c ab 07 3d b7 7b 52 bd 68 b4 a1 bb d5 84 e3 3c
       0.033122644 -0.051387515 -0.004934836 0.0277733
000020 ec b8 1c bb 08 e0 22 3c 96 48 e2 bc d3 9a 54 bc
       -0.0023913933 0.0099411085 -0.027622502 -0.012976366
000030 03 cb 7a bc da 85 a7 bc c5 df 5a 3c 31 d0 52 bd
       -0.015307191 -0.020449568 0.013359015 -0.051468078
000040 09 62 9b bc 27 a1 90 3c 7f 1b ef 3c 41 3a be bc
       -0.018967645 0.017654968 0.029187916 -0.023221137
000050 b8 b4 fe 3c 59 d6 32 3d a5 19 71 bc 5e 56 8d bc
       0.031092033 0.04366145 -0.014715587 -0.017253097
000060 a3 07 03 bd 8d 5c a1 bc 16 2c 9e 3c 74 0d 2e bd
       -0.031989705 -0.019697452 0.019308131 -0.0424933
000070 6d 9c 74 bc 9f cb 18 3d 41 a3 11 bd 0d 3a ee bc
       -0.014929873 0.037303563 -0.03555608 -0.029080415
000080 d1 cd 06 ba 31 c8 ec 3c 8b 90 3d bd d0 1b f1 bc
       -0.00051423634 0.028904052 -0.046280425 -0.029432207
000090 09 57 45 3d d1 ed 04 3d c2 be 54 3d 5a 9f b5 3c
       0.048178706 0.032453362 0.051939733 0.022170711
0000a0 b4 44 86 bc a8 52 7a bd e3 b3 ce 3c e3 b1 86 3d
       -0.016390182 -0.061113983 0.025232261 0.06576898
0000b0 5e cc 07 3d 19 82 71 bd c1 9c 22 bd 66 99 b2 bc
       0.033153884 -0.05896196 -0.039700273 -0.021801662
0000c0 ad c0 b8 3c db 57 1e bd a8 18 99 ba ea 38 b0 3c
       0.022552812 -0.038658004 -0.0011680322 0.021511514
0000d0 8b fb 10 bc 12 49 07 3d 35 70 2d bc 66 42 c5 3c
       -0.008849035 0.03302867 -0.010585834 0.024079513
0000e0 5c 04 ee 3c 69 8b 01 bc 9d a4 44 3c 96 19 b0 3c
       0.029054813 -0.007906773 0.0120021375 0.021496575
0000f0 46 48 1f bd ca cc 32 3d a4 f4 9d bc f3 f3 08 bd
       -0.038887285 0.043652333 -0.019281693 -0.033435773
000100 79 5f d1 3c e4 27 ba 3d 60 64 8d 3b 19 ca 2f bd
       0.02555822 0.0908964 0.004314944 -0.042917345
000110 7b 4a ea bb 68 c2 06 bd 3e e9 a5 bc c5 42 8b 3c
       -0.007149992 -0.032900244 -0.02025282 0.016999612
000120 85 30 0d 3d 6b d0 36 bb 34 c1 79 bd 14 72 c3 3c
       0.0344701 -0.0027895223 -0.06097527 0.023858108
000130 60 9e 3e 3d 8c 51 55 bc d6 c6 e4 3c d8 1e cc bc
       0.046537757 -0.013019931 0.027926844 -0.024917051
000140 dd b3 43 3d 8c 1e b7 bb 4d 01 3a bd 0f ec a8 3a
       0.047778953 -0.0055883583 -0.045411397 0.0012887734
000150 a8 0e cb bd 5e 2a 1f bd 6d ec 81 3c 49 c8 86 3c
       -0.09914905 -0.038858764 0.015859807 0.016452925
000160 ab bd 81 bc 29 c7 ec 3c c9 b5 3b 3b 50 91 83 bd
       -0.015837511 0.02890356 0.0028642288 -0.064242005
000170 cf 89 a1 bb de 89 26 3d fa 39 45 bd cd 2d 42 bd
       -0.004929758 0.040658824 -0.048150994 -0.04740696
000180 e4 81 34 bd 06 b1 b7 39 5f 77 0a bd 8b bc 9f 3d
       -0.044069186 0.00035036373 -0.033805247 0.077996336
000190 49 16 d7 bc 56 22 8c 3b 20 e1 7e bd cd 9c d5 bc
       -0.026255744 0.004276554 -0.062226415 -0.026075745
0001a0 44 cf 99 bc cc 56 8e bc 26 4e 18 bd fb 42 83 3c
       -0.01877559 -0.017375372 -0.037183903 0.01602315
0001b0 1e e7 7d bc bc 78 bf 3c d7 80 2d bc af c1 d8 bc
       -0.015496997 0.023373 -0.0105898 -0.026459543
0001c0 ea a2 a7 bd 30 32 27 bd f2 b4 fd 3c d8 58 a9 3c
       -0.0818537 -0.040819347 0.03097007 0.020672247
0001d0 4e 91 9e bd 0c cd de bc 56 f7 29 bd 5c d5 4e bd
       -0.077425584 -0.027197383 -0.041495644 -0.050496444
0001e0 db 62 04 3d 36 a7 71 3c 24 0d 7e bd b4 d5 84 bc
       0.03232084 0.014749339 -0.06202425 -0.016215183
0001f0 70 03 9b 3d 2e d0 0e bc a4 26 45 bd 3f c2 d7 bc
       0.07569015 -0.008716626 -0.048132554 -0.026337741

network_body._body_endoder.seq_layers.0.bias f4 [128]
000000 8e 8e a6 3b e9 f6 f5 ba a9 45 1c bc fa 89 0d bd
       0.005082912 -0.0018765602 -0.009538093 -0.034555413
000010 df 14 02 3d 04 dd 91 bb ba b2 36 ba f7 62 e0 bb
       0.031758185 -0.004451396 -0.00069693814 -0.006847735
000020 01 a9 5b bc 1a fc bc bc 67 73 9e 3c ef dc bb 3c
       -0.013406993 -0.02306943 0.019342138 0.022932498
000030 bd c5 9b 3b 7f 88 22 3d dd e4 48 3d 77 80 da bb
       0.004753797 0.039680954 0.049046386 -0.0066681462
000040 45 80 92 3c 2c 53 c3 bb 53 c3 5d 3b 74 ad 1f 39
       0.01788343 -0.0059608426 0.0033838346 0.00015228038
000050 9d e2 f4 3b f4 48 d6 3b a5 c0 87 bc 2a ec 3b 3c
       0.0074733035 0.0065394584 -0.016571352 0.01146988
000060 c5 4c 97 bb 0a f9 ce bb 55 94 50 bc c0 d8 81 bc
       -0.004617306 -0.006316309 -0.012730678 -0.015850425
000070 1a 01 b6 3b 8f f1 c0 bc 56 24 2d bb c8 5e 5f 3c
       0.0055543305 -0.023552684 -0.0026419363 0.013633437
000080 5b 47 28 3c 0d 58 ea bc da 58 74 bb 47 67 4e bb
       0.010270919 -0.028606439 -0.0037284405 -0.0031494664
000090 2b fd d4 3c 64 c4 0a bc d9 44 ee 3c 75 38 4b 3c
       0.025999626 -0.008469675 0.029085563 0.012403597
0000a0 ee 2a 3e 3c b5 d0 81 3b f3 b7 34 bc e2 d5 cf bb
       0.011606915 0.0039616474 -0.011030185 -0.0063426355
0000b0 f7 8c 3e 3b 25 9e 81 bc cb 5a 08 bc 88 37 58 39
       0.002907572 -0.01582248 -0.008322428 0.00020620052
0000c0 09 9f 22 bc 5c 72 f1 3a a7 e5 03 3b f6 67 f5 3c
       -0.009925612 0.0018420923 0.0020125897 0.029956799
0000d0 fa 56 0e bb 02 e7 bb bc 51 7b d5 bc bf c5 03 3d
       -0.0021719323 -0.022937302 -0.026059778 0.032171007
0000e0 9b e5 35 3c 5f 9b 4f bc a0 9f 32 3d 28 65 b9 3b
       0.0111021055 -0.012671321 0.04360926 0.0056578107
0000f0 86 6e f9 bb b3 2f 90 3b 1a e0 2b 3d 9c 62 97 3c
       -0.0076120524 0.0044002174 0.041961767 0.018479638
000100 06 1c ba 3a 77 2a 03 3d cd ba 39 bb e8 30 e8 bb
       0.0014199025 0.03202292 -0.0028340102 -0.007085908
000110 7e 2e 8f 3c 85 a0 87 bc e4 d6 fa 3b 6f 9e e9 bb
       0.017478224 -0.016556034 0.0076550115 -0.0071294825
000120 c2 7b fa 3c 8f 6d ef 3c 7f 99 a3 3c 13 1e a0 bc
       0.03057659 0.029227046 0.019970654 -0.01954559
000130 7f d8 f1 bb ad 17 93 bc ad 05 89 3c fe 4c 09 bc
       -0.0073805447 -0.017955625 0.01672634 -0.008380173
000140 ba a9 f5 3b 40 c7 8e 3c b5 17 4f bd b3 6e 4b bc
       0.0074970396 0.017428994 -0.05055972 -0.0124165295
000150 00 af 57 bc 48 3d d7 bb 4c de be 3d 07 ae 3d bc
       -0.013164282 -0.0065685846 0.093197435 -0.011577136
000160 85 86 3f bc 1d 00 3d bb 19 04 69 ba 5b ea b5 bc
       -0.011689787 -0.002883918 -0.0008888855 -0.022206476
000170 d8 c6 86 bc 26 6c 19 3d 2d 55 ac 3c f5 c1 fd 3b
       -0.016452238 0.037456654 0.021036709 0.0077440687
000180 fe 74 6b bc 00 c3 3c 3d cd 25 9b 39 e2 f6 84 bc
       -0.014371155 0.046084404 0.00029592068 -0.016231004
000190 50 c0 ab bc 94 df db ba d9 ce 44 3d 0e e1 a3 bb
       -0.020965725 -0.0016775005 0.048048828 -0.005001194
0001a0 9b 0c c6 bc 73 22 c6 3b 18 f2 b0 3c ce 12 51 3b
       -0.024175933 0.006046587 0.021599814 0.0031902078
0001b0 f9 1d bc 3c 0e 3d 90 3b 35 ed 21 3d 00 d5 7d 3c
       0.02296351 0.0044018095 0.03953286 0.015492678
0001c0 4c 67 bc 3c e5 e5 2a 3b cf 80 33 3b 9a a4 8f 3c
       0.022998475 0.002607697 0.0027390008 0.017534543
0001d0 2a b9 93 bc 4e 02 7d 3c 6c 66 c5 3c 84 8d 28 3d
       -0.018032629 0.015442444 0.02409669 0.041150585
0001e0 95 4b 12 3d 6d 0b 89 bb 86 85 4e 3a 1c 62 95 bc
       0.035716612 -0.0041822703 0.0007878173 -0.018235259
0001f0 06 45 fe bb 83 e3 86 bb cd 23 2e bc de 64 cc ba
       -0.007759693 -0.004116477 -0.010628653 -0.0015594026

network_body._body_endoder.seq_layers.0.weight f4 [128, 6]
000000 d5 46 ee be 08 87 87 be 31 67 61 bf a1 d6 b5 3e
       -0.46538416 -0.26470208 -0.8804808 0.3551531
000010 55 86 35 3e 30 3a 5b 3f b7 4e 0a 3e 3f 05 79 bf
       0.17727025 0.8563566 0.1350659 -0.9727363
000020 23 93 68 3e f3 11 ea be 0c 6d c2 bd 01 0f 06 bf
       0.22712378 -0.4571682 -0.09493455 -0.52366644
000030 ad fc 48 bd f0 9f c5 be 68 51 57 be 0b 1e d7 3e
       -0.049069095 -0.38598585 -0.21027148 0.42015108
000040 1e c7 e6 3e fe 8b b0 bd e7 95 1f be 81 3b cf 3e
       0.4507379 -0.086204514 -0.15584527 0.40475085
000050 bb 82 99 be 4f bb 0c 3f e4 7d 75 3f a1 dc 5f 3f
       -0.29982552 0.5497331 0.9589522 0.8744603
000060 f4 01 af be fe e8 84 bf 0a bf f2 3e 86 e4 36 3d
       -0.34181178 -1.0383604 0.47411376 0.04465153
000070 36 7b 83 3e c0 8a b0 be 19 49 29 be b8 6c 86 3e
       0.2567994 -0.34480858 -0.16531791 0.2625482
000080 6c 28 79 3e 2d 0a 30 bf fc 37 63 bd 63 ef c8 be
       0.24331826 -0.68765527 -0.055473313 -0.39245138
000090 2f ab 0b be f9 28 ba be 6b 7a 39 3e 83 b8 17 3e
       -0.1363952 -0.36359385 0.18113105 0.1481648
0000a0 db 15 ba bd 92 b4 07 3e 7c e7 a2 3e 34 ed cd 3e
       -0.090862 0.13252476 0.31817234 0.40220034
0000b0 ae d6 2b 3e 64 54 2f bf a2 fd de 3c 04 de 8f 3d
       0.16781113 -0.68488145 0.02722055 0.07024768
0000c0 f3 e6 27 bf d0 3f b3 3e 5f b9 05 bf 4a 8c 45 be
       -0.65586776 0.35009623 -0.5223598 -0.19291797
0000d0 e9 fd 58 3e bc 9f 66 be 17 fe 7f 3e 4f 9d 6c bf
       0.21190609 -0.22521871 0.24999271 -0.92427534
0000e0 12 61 9a be 01 86 5f 3e 91 49 78 bd 6c 1c aa bc
       -0.30152184 0.21828462 -0.060617033 -0.020765506
0000f0 4e 59 f0 bc cb 96 23 bf ca 54 a7 be 34 dd 48 be
       -0.029339459 -0.63901967 -0.32681876 -0.19615632
000100 d5 56 20 3e 84 12 11 3f e8 d7 5b 3e ba 88 26 3f
       0.15658124 0.5666888 0.2146908 0.6505238
000110 2e 54 87 3e 3e 4c 96 3d 17 1b d1 3e 88 00 97 be
       0.26431412 0.07338761 0.4084098 -0.29492593
000120 9d 78 35 3f 45 62 e0 3e e2 11 e7 be e1 42 80 3d
       0.70887166 0.43824974 -0.4513083 0.06262756
000130 1c 01 bc be 0d 9a e4 3d 31 a6 06 be f6 02 81 be
       -0.36719596 0.11162195 -0.13149334 -0.25197572
000140 74 d8 08 3a 5a ee 05 3f fd c7 08 3f 7a 3e 7a 3e
       0.00052202423 0.5231682 0.5343016 0.24437895
000150 65 2e 11 bf 52 0b 24 be 8e 70 5e be f1 d2 07 3f
       -0.5671142 -0.16019943 -0.21722624 0.53056246
000160 fc 5e 10 3f e9 dc 4e be 16 d2 92 3e e9 87 19 bd
       0.56394935 -0.20201458 0.28675908 -0.03748313
000170 07 d4 9e 3d df 51 94 be 8b 85 1a 3e 48 b6 07 bf
       0.07755285 -0.28968713 0.15090005 -0.53012514
000180 10 f5 c9 bc 4a bf b6 bc 45 46 92 be dc 0c d7 3d
       -0.024652988 -0.02230801 -0.28569236 0.105004996
000190 b8 9d 2b bf 0b be 7c 3e 25 b1 6e be 14 dd cf bd
       -0.67037535 0.2468187 -0.23309763 -0.10149589
0001a0 34 5e 69 be eb 0c ba bd 4e f3 8b be a9 54 7f be
       -0.22789842 -0.09084495 -0.27334064 -0.24934639
0001b0 1f 27 2b be 7c 00 f3 bd 1b 84 1f 3f 40 8e 3b be
       -0.16714142 -0.11865327 0.6231095 -0.18315983
0001c0 ec 26 12 3f d1 18 a6 3e 38 85 76 3e db b3 4c 3e
       0.5709064 0.32440808 0.24074256 0.19990484
0001d0 5f d7 d2 bd 86 6c 8d 39 a3 d3 a2 3e 56 3e 01 bc
       -0.10294985 0.00026974472 0.3180209 -0.007888397
0001e0 84 1e f2 3e 8f 3a 41 3e 3a 8c 09 3e 3a ae 75 be
       0.47288907 0.18869995 0.13432398 -0.23992243
0001f0 64 27 e3 3d 65 f2 ec be 1a 1b 3c 3f db 07 7a be
       0.110914975 -0.46278682 0.73478854 -0.24417059
000200 91 97 99 3e 7a e0 0b be 18 66 b6 bc 00 bc 39 3f
       0.29998448 -0.1365985 -0.022265479 0.7255249
000210 fa f7 43 3f 79 d8 8b 3e 28 fe 85 be cd 2f b4 be
       0.7655026 0.27313593 -0.26170468 -0.3519272
000220 bd 83 83 bc e4 64 ba bd 82 d0 76 be da bc 1c bf
       -0.016054029 -0.091012746 -0.24102977 -0.61225665
000230 d5 00 10 3e ca 4a c8 3e d9 d0 85 3e e6 f3 61 be
       0.14062817 0.3911956 0.261359 -0.22065696
000240 71 a2 76 be 36 ae 79 3f bb af 24 bf 24 46 1a 3e
       -0.24085404 0.9753145 -0.64330643 0.15065819
000250 7a d4 58 bd 43 0b b9 be 6e ab 68 3f 95 08 bf bd
       -0.05293701 -0.36141405 0.9088658 -0.09327809
000260 b6 a7 93 be ea 39 17 3e 4f ea 1a 3f ee 9c 5a bf
       -0.2883889 0.14768186 0.60513777 -0.85395706
000270 56 5d a5 3d f7 39 98 3e c3 e6 b1 3e ec 6e 45 bf
       0.08074443 0.29731724 0.3474637 -0.7712238
000280 6e be c6 be f9 9e cf 3d 21 83 8b bd b0 0c 05 be
       -0.3881716 0.101377435 -0.0681212 -0.12993121
000290 79 36 af 3e 8e 45 a0 be ed b0 56 be 28 b5 50 be
       0.34221247 -0.31303066 -0.2096593 -0.20381606
0002a0 cd 71 68 bd 30 ef b7 3d 2f b7 5a 3d 42 03 d3 3e
       -0.056749154 0.08981168 0.053397354 0.41213423
0002b0 a4 c4 8f 3d 6f b4 ea bd 68 c9 8e be fb 43 b9 3d
       0.07019928 -0.11460196 -0.27888036 0.09046169
0002c0 95 3f 23 be 3d 47 05 bd b8 9b d2 be 49 bb 98 be
       -0.15942223 -0.03253864 -0.4113443 -0.29830387
0002d0 6d 46 85 3e e8 2f 0c bf 13 3b bd 3e aa 9c f0 bd
       0.26030293 -0.547606 0.36959133 -0.11748631
0002e0 d6 a6 87 be b7 3e 6e 3e 09 df c0 3e e5 58 76 3e
       -0.26494473 0.23266111 0.37670162 0.24057348
0002f0 36 45 cb 3e 44 80 07 3f c7 ff 1d 3f 98 04 66 3e
       0.3970124 0.5293009 0.6171841 0.2246269
000300 83 30 27 be a7 86 d7 3e 6d 8f 01 3e b0 a5 e9 3e
       -0.163271 0.4209492 0.12652369 0.45634222
000310 96 df 93 3e a0 24 19 3f b5 ea 30 3f e8 33 f1 3d
       0.2888152 0.5982151 0.69108135 0.117774785
000320 2d 01 7e 3e 42 23 58 be 16 c0 05 3e 58 63 a4 be
       0.24805136 -0.211072 0.13061556 -0.32107043
000330 66 c1 1e bf a4 58 d1 be a1 6b 26 be 81 19 1d 3e
       -0.6201385 -0.4088794 -0.16251995 0.1534176
000340 a4 2c a9 bd ad 28 d5 3c 48 58 19 3f 09 bd 1d bf
       -0.08260468 0.026020372 0.5990033 -0.6161657
000350 c8 53 ed bd 24 1b bf 3e 22 fc bc 3d da c6 e7 bd
       -0.11588246 0.37325394 0.09227778 -0.11317225
000360 96 d4 87 3e 1b b0 8b be 21 79 f6 3e 5d 6c 76 bd
       0.26529378 -0.27282795 0.4813929 -0.060161937
000370 34 7f db be 98 d8 ee be 54 54 f1 be 01 81 15 3f
       -0.42870486 -0.46649623 -0.4713465 0.5839997
000380 a1 e5 cf be 35 b1 db 3e ec 6a 66 3e 2a 1b 34 3f
       -0.4060488 0.42908636 0.22501725 0.7035395
000390 ce df a4 3e 32 42 3c be d9 4c 51 3e dc e4 85 3e
       0.32202 -0.18384627 0.20439471 0.26151168
0003a0 a8 c0 ae bd ae eb 5d bd c1 30 e2 3d a6 76 b3 3e
       -0.0853284 -0.05417984 0.11044455 0.3505146
0003b0 07 06 a6 3e 2e b1 84 bc bc e8 22 bf e7 28 be 3e
       0.32426473 -0.016197767 -0.63636374 0.3714058
0003c0 83 65 9b 3e 80 c8 b2 3d 22 0f ae 3e 4b 51 5b 3e
       0.30350885 0.087296486 0.3399592 0.2141773
0003d0 be 7c 1d bf 5f 28 cd 3d 99 20 17 be c4 fb 24 3f
       -0.61518466 0.10017466 -0.14758529 0.64446664
0003e0 02 22 48 be 25 b1 a8 3e d8 c1 6c be c7 e9 fb 3e
       -0.19544223 0.3294765 -0.2312082 0.49201795
0003f0 40 76 13 bf fa 94 37 3e bd 3f 32 3e 7d 27 eb 3d
       -0.5760231 0.17927924 0.17407127 0.11482141

network_body._body_endoder.seq_layers.2.bias f4 [128]
000000 06 e9 b7 bb f5 d6 bd 3c 77 fb 24 3c 97 66 61 3c
       -0.0056124954 0.023173789 0.0100697195 0.0137573695
000010 dc 89 8a 3b 51 92 44 3c 1a 88 33 bc 2f b4 23 3c
       0.00422786 0.011997775 -0.010957742 0.00999169
000020 20 c0 a3 bc fd 04 01 b9 40 60 22 bc d2 1f d8 bb
       -0.019989073 -0.00012304257 -0.009910643 -0.00659559
000030 d7 e5 32 3a 68 0b 92 bb 38 e6 48 3a a4 0c 43 3b
       0.000682441 -0.004456926 0.00076637 0.0029762173
000040 91 9f 87 bb 58 f5 80 bb c3 d7 0d 3c 3e ce de bb
       -0.004138895 -0.0039354973 0.008657399 -0.0067994883
000050 b2 ef 6a 3b 97 97 bb 3b 49 64 2c bb f4 69 c4 bb
       0.0035848436 0.005724858 -0.0026304892 -0.005994076
000060 46 b4 71 bb e5 4c b0 bc cd 66 9f bb 79 3f ad b8
       -0.0036881133 -0.021521041 -0.0048645497 -8.2611055e-05
000070 79 bd dd 3b 22 fa 12 bc 4b d8 85 3c b8 33 ed b9
       0.0067669717 -0.008970769 0.016338488 -0.00045242696
000080 35 15 a1 bc 1b 4d 14 3a b2 68 91 3b e0 61 2a ba
       -0.019663433 0.00056572416 0.0044375295 -0.000649957
000090 96 25 a3 b9 46 06 00 3c f7 6b 0e 3c 11 14 05 3b
       -0.00031117786 0.007813996 0.008692733 0.002030615
0000a0 34 60 85 bb 60 58 c0 3a 51 16 46 ba d3 ee 68 3c
       -0.004070306 0.0014674775 -0.0007556426 0.014217096
0000b0 09 f3 45 3b 6d 94 fa 3b 47 34 c0 bb 80 72 39 bc
       0.0030204675 0.0076470883 -0.005865607 -0.011318803
0000c0 1f a6 e7 b9 37 7e a0 3b c5 32 01 bc 10 76 df 3b
       -0.00044183523 0.0048978585 -0.00788564 0.006819494
0000d0 80 4a 09 bc b8 7c 41 3c 2a dc 61 bc 73 fa 19 3c
       -0.008379579 0.01180952 -0.013785401 0.009398091
0000e0 31 81 9b bb 60 44 2c bc 4d 86 68 bb b0 24 0e bc
       -0.0047456254 -0.010514349 -0.003548044 -0.008675739
0000f0 6f cc 80 bb 7f 4e 8c 3a 08 3b 40 bc 2f f0 59 b9
       -0.0039306204 0.0010704546 -0.011732824 -0.00020784208
000100 88 12 88 3b e9 35 fc 3b f3 d6 7a bc b7 82 bb bb
       0.0041525997 0.0076968563 -0.015310037 -0.0057223695
000110 2c c8 94 ba ea 02 04 bb f2 b2 41 3b d4 52 8c 3b
       -0.001135116 -0.0020143338 0.0029556123 0.004282335
000120 2c 75 47 3b 83 f9 50 bc 32 6f 90 bc 77 df 10 bb
       0.003043483 -0.012754801 -0.017631147 -0.0022105852
000130 41 8a 8e 3b 7a 8e 3d bc 3c 2e e2 bb d8 80 ba bb
       0.0043499772 -0.011569614 -0.006902484 -0.005691629
000140 bb fb fc 3b 76 0b 84 bc af cb bd 3b 90 1e d3 bc
       0.0077204383 -0.016118746 0.0057921032 -0.02577141
000150 63 6e 2b bb 66 f3 64 bb 67 61 c0 3a 3b 8e 80 3b
       -0.0026158325 -0.0034935116 0.0014677466 0.003923205
000160 15 e8 0f bc 97 98 49 3c da 5e 04 bc 9e d5 4c 3c
       -0.00878336 0.012304447 -0.008079255 0.012502102
000170 70 ad e2 bc ef ac 03 bb 03 41 80 39 95 4a 28 3b
       -0.027670592 -0.002009209 0.000244625 0.002567922
000180 84 f5 87 3c 4a 9e d0 ba b6 ac a9 3b 3c bb 8d 3c
       0.016596563 -0.0015916314 0.0051780595 0.017301194
000190 81 3e 25 bb 11 f6 0d bc 3b e7 c4 bb a9 f2 f9 bb
       -0.0025214257 -0.008664624 -0.00600901 -0.0076278043
0001a0 f4 eb 3b bb 6b 86 4a ba 19 40 2e bc c2 37 da 3a
       -0.0028674575 -0.00077257183 -0.010635399 0.0016648697
0001b0 cb d8 2c bc 6f 2c d8 3a ec 5a 12 bc c4 f7 d2 bb
       -0.010549734 0.0016492734 -0.00893281 -0.0064382274
0001c0 b8 79 9f 3b c3 34 96 bb 26 7e bb bb 3f 75 50 3c
       0.004866805 -0.0045839264 -0.005721825 0.012723266
0001d0 f0 8a a7 3b ae 34 b4 bb c0 17 62 3c 48 f7 09 3c
       0.005112998 -0.005499444 0.013799608 0.008420773
0001e0 b3 7e 7d bc 2e d5 31 ba 3a c0 65 bc 5c dd a6 bb
       -0.015472102 -0.00067837804 -0.014022881 -0.005092306
0001f0 56 03 75 3c 75 66 1e bc a4 6a 34 37 a3 84 14 bc
       0.014954409 -0.009667982 1.0753665e-05 -0.009064826

network_body._body_endoder.seq_layers.2.weight f4 [128, 128]
000000 a8 bc 8d bd 2c 3b 25 bd 41 a0 6e bd c2 81 98 3d
       -0.06920749 -0.040339634 -0.0582583 0.07446624
000010 3b 46 1b bd a7 4c 35 3d b7 f0 bc bc 04 bf e6 bc
       -0.037908774 0.044262554 -0.023064 -0.028167255
000020 f6 24 d3 bb cd 9b 90 3d 66 61 ab bd 1c 67 b8 bd
       -0.006443615 0.07060967 -0.08368187 -0.090040416
000030 e4 90 f2 3c d0 54 ac 3c 3f 03 43 3d 98 52 09 3d
       0.029610105 0.021036536 0.047610518 0.033526033
000040 ab 68 c2 3c 62 de 3f 3e 15 e3 07 3d f5 f1 d4 3d
       0.02373155 0.18737176 0.033175547 0.10397712
000050 40 97 f7 bd d0 09 e0 bc e1 3d 8d bd 05 ee 81 3c
       -0.120893955 -0.027348429 -0.06896568 0.015860567
000060 60 90 11 3e 29 88 d2 3d 15 35 b6 bd a7 ed 44 3c
       0.14215231 0.10279877 -0.08896843 0.012019551
000070 4f 39 37 3b 2c d4 1c be 5a b0 59 3c 36 d5 f0 3d
       0.0027957743 -0.15315312 0.013286674 0.11759417
000080 f7 52 02 3e d4 c6 85 bc 22 cf e6 3d 24 1d 2b 3d
       0.12726961 -0.01633016 0.11269976 0.041775838
000090 db e9 91 3d 17 4b 99 3d d9 72 c3 bd fa 87 88 3d
       0.071246825 0.074850254 -0.0954339 0.066665605
0000a0 5c a4 d5 3d f1 4a 2d be 98 3e 15 be e7 2d 1a be
       0.1043174 -0.16923119 -0.14574659 -0.15056573
0000b0 45 e8 d4 3d 36 9e 2c bc c9 46 d4 3c d4 e8 bf 3d
       0.103958644 -0.010535767 0.02591266 0.0937058
0000c0 b0 ce fc 3c ec 63 50 bc 20 25 bf 3d 88 c8 ea bd
       0.030860275 -0.012719136 0.09333253 -0.114640296
0000d0 80 c6 08 be df 85 95 3d 72 46 66 bd bb 67 93 bd
       -0.13356972 0.073009245 -0.056219526 -0.071975194
0000e0 39 59 a7 3b 0d 35 56 bd 70 f4 f3 3c b2 99 89 bd
       0.0051070717 -0.052296687 0.029779643 -0.06718768
0000f0 20 87 86 3c 09 98 4a bd e1 9e 43 3d d8 60 24 3c
       0.016421854 -0.0494614 0.04775894 0.010032855
000100 f4 90 ea bd 85 b7 ab 3c e1 ea a7 bd 2e 71 37 bc
       -0.11453429 0.020961532 -0.081990965 -0.011196418
000110 7d 45 68 3d 63 9d cb 3d 11 81 bf 3c 8a 08 81 bd
       0.056706894 0.099421285 0.023376973 -0.06300457
000120 8e 34 fe 3d fb c5 fc 3d f2 c5 6d 3d 9c e7 ac bd
       0.12412368 0.12342449 0.058050103 -0.084426135
000130 33 68 9f 3d 32 64 cf bc 99 73 f0 bb 98 c8 87 bd
       0.07783546 -0.025316332 -0.007337999 -0.06630057
000140 46 5c 37 3d c4 2b 32 3d 21 06 96 3d 96 79 8e bd
       0.044765733 0.04349877 0.07325388 -0.069567844
000150 fc 75 a4 3c 67 ce 8b 3d a3 42 c6 3d a2 6c ee 3d
       0.02007579 0.068264775 0.09680679 0.11641814
000160 9d e6 88 3d 81 16 f1 3d ca 53 11 be 43 9f b7 bc
       0.06684611 0.117718704 -0.14192119 -0.02241481
000170 11 71 29 3d 6a 3a 9b bd 47 70 32 bd c9 9d 61 3e
       0.041367594 -0.07579501 -0.043564107 0.22032847
000180 3e ad 9a 3c 54 09 5b 3d 65 bb 15 3e 26 74 be bb
       0.018881436 0.053475693 0.14622267 -0.005812186
000190 13 4a 24 be ea bf b3 bd 9d 6e f6 bc 18 10 c9 3d
       -0.16043882 -0.08776839 -0.030082041 0.09817523
0001a0 df a2 fc 3d 1a cd c4 3d a3 e2 08 3c 59 1b e1 3d
       0.12335753 0.096094325 0.008354816 0.10991544
0001b0 30 49 36 3d 64 49 5d 3d 7d d3 15 be 1e 21 50 3d
       0.04450339 0.05402507 -0.14631458 0.050812833
0001c0 3c cb b7 bd ac 44 d7 bd 22 20 d5 bc 20 8d 41 3d
       -0.08974311 -0.10511145 -0.026016299 0.047253728
0001d0 9d 7f be 3b ab 8b 10 3e e8 77 a9 3c 24 54 ca 3b
       0.0058135525 0.14115779 0.020687059 0.006174581
0001e0 fd c8 0b 3e 49 d9 0c 3e bb a5 32 3d 0b 53 25 be
       0.1365089 0.13754763 0.043615084 -0.1614496
0001f0 1c fc bb bd da bb 15 3e 45 64 71 3c 2a 59 c0 bc
       -0.091789454 0.14622441 0.014733379 -0.023480017
000200 a4 b6 a5 3a 94 34 f8 bc 20 89 fe bc b3 92 06 3d
       0.0012642932 -0.030298509 -0.031071246 0.032854747
000210 77 a8 99 3d 5c d3 84 3d 0e 03 e9 bd 9c 0d bc 3c
       0.07502835 0.06485626 -0.11377536 0.022955708
000220 a5 ed c2 bd 07 01 bf 3c 3d 6c ce 3a 65 58 af 3c
       -0.09517983 0.02331592 0.001574881 0.021404454
000230 a9 bc 57 3d 43 31 dd 3d 6f 54 97 3d ac 30 06 3b
       0.052670155 0.108004116 0.07389151 0.0020475788
000240 fc 40 8a be fc 11 af bd 4d 5a 84 3d ab 30 1a bc
       -0.27002704 -0.08548352 0.06462536 -0.009411017
000250 fe 3b 82 3b de a4 b5 bd dd df 09 be b3 f8 96 3d
       0.003974437 -0.088693365 -0.13464303 0.07371654
000260 ff ab 5b 3d e7 02 85 bb 6b c2 e6 3d 6f c0 57 3c
       0.053630825 -0.004059184 0.11267551 0.013168438
000270 b9 b9 99 39 0a d0 47 3d dd d7 46 bd fb fd ce 3d
       0.00029320808 0.048782386 -0.048545707 0.10107037
000280 6b de cb bc 27 83 89 3d 9e 5f 2f bd f1 28 bd bd
       -0.02488633 0.067144684 -0.042815797 -0.092363246
000290 3c 21 68 3d 5f cb 6b bd cc e3 03 3e e8 f6 54 be
       0.05667232 -0.057566997 0.12879866 -0.20797312
0002a0 a6 64 47 3e 23 8b 84 bd 66 97 98 3d ad 34 93 3d
       0.19471988 -0.06471851 0.07450752 0.071877815
0002b0 c1 c0 2a 3d 65 6d bb bd 66 d8 97 3d 69 c1 49 3d
       0.04168773 -0.09151725 0.074143216 0.049256716
0002c0 98 d4 9e bd 7b 2f b4 bd 5c 09 51 3d 2b 6b 4c be
       -0.07755393 -0.08798119 0.051034316 -0.19962756
0002d0 c7 8e 4c be 4e ad 8e bd 6c 8a b6 3d 5f 97 ac 3c
       -0.1997634 -0.06966649 0.089131206 0.021068273
0002e0 f3 52 fb 3d d9 96 29 3d d9 db 3a be 60 d9 85 bd
       0.12271681 0.041403625 -0.18247928 -0.065356016
0002f0 bc 82 b1 3d fa a4 18 3e e9 3b 14 be 3a 67 23 bd
       0.08667514 0.14906684 -0.14475979 -0.039893366
000300 ef 1a 0e 3d 51 2c cf bc d9 6d 55 bd dd 6b b9 ba
       0.034693655 -0.025289686 -0.052106712 -0.0014146526
000310 27 38 18 3c e3 13 a7 bd d4 bd ed bb a5 62 0d 3e
       0.0092907315 -0.0815809 -0.0072552953 0.13807161
000320 d1 1d f0 3c 97 85 ce 3c 5b b5 ed 3d 53 58 35 bd
       0.029311093 0.025210185 0.116068564 -0.044273686
000330 2d 03 f0 3c c7 47 39 3d bd 55 35 3d 97 2f 02 be
       0.02929839 0.045234468 0.04427122 -0.12713467
000340 30 ef a2 bd bb e0 25 3c 0b 16 de 3d 93 b9 aa 3c
       -0.07955778 0.010124381 0.10844048 0.020840442
000350 48 da 32 be df 03 cb bd ad f2 3c bd 5e 3e 7d 3c
       -0.1746608 -0.09912848 -0.04612987 0.015456764
000360 11 5b 40 3d 25 e1 a8 3d 8b f1 61 bd f0 b6 ae 3d
       0.046961848 0.08246068 -0.055161994 0.08530986
000370 c0 1a 89 bb 00 22 3e bd 88 3b 92 bd 43 23 c2 bc
       -0.004184097 -0.046419144 -0.07140261 -0.023698455
000380 e2 1e 69 bd cb 08 81 bd 78 36 c1 bd 2c 83 c2 3d
       -0.056914218 -0.06300505 -0.09434217 0.09497675
000390 84 6f e7 3d fc 80 9e bd 78 c7 dd 3c bf 4a 62 3a
       0.11300567 -0.077394456 0.027072653 0.0008632354
0003a0 7b 03 eb bd 69 d9 a3 bd 66 db c3 bc e1 95 9a bd
       -0.11475273 -0.08000452 -0.023908328 -0.075481184
0003b0 d6 7d bf bd 8c c1 cd 3d f8 48 63 3e b1 fd 0f bd
       -0.09350173 0.10046682 0.22195804 -0.03515405
0003c0 4e 6d e7 bd ca 00 5e bd 82 eb a5 bd 35 7e f2 3d
       -0.11300145 -0.05419997 -0.0810156 0.11840478
0003d0 ba 40 1d bd 6c cf b5 3d 0d 11 7c 3d fa 56 fa 3d
       -0.038391806 0.08877453 0.0615397 0.12223621
0003e0 8e da 1a be 36 c4 23 3c 34 93 81 bc e4 62 c1 3c
       -0.15122434 0.009995511 -0.015817262 0.023606725
0003f0 3c 05 de 3d b9 17 8b 3d b6 2b 85 3d f7 26 ee bc
       0.10840842 0.06791634 0.06502478 -0.029071314
