results/Run1/MoveThePlayer/MoveThePlayer-2499996.pt (torch, 437663 bytes, 30 tensors)

network_body._body_endoder.seq_layers.0.weight f4 [128, 6]
00000000: c68f edbe b0f7 87be 3167 61bf 4db1 af3e
00000010: a2e2 2a3e 303a 5b3f 01d8 103e 38a9 79bf
00000020: 2393 683e 2bcf e7be 52a2 cebd 010f 06bf
00000030: 2836 36bd ad30 c5be 6851 57be ad84 d73e
00000040: 9c7a e43e fe8b b0bd a364 16be e64e d43e
00000050: bb82 99be a008 0d3f e096 713f a1dc 5f3f
00000060: 8ae5 a4be 2f2b 86bf 0abf f23e 271c 683d
00000070: 669c 853e c08a b0be 7970 30be f565 843e
00000080: 6c28 793e 4ad2 2fbf 01f7 34bd 63ef c8be
00000090: bed2 0abe e393 bcbe 6b7a 393e cb54 193e
000000a0: 7a97 dabd 92b4 073e 3b53 a73e d2ef ca3e
000000b0: aed6 2b3e 9a45 2dbf f85b 4b3d 04de 8f3d
000000c0: 780d 28bf c654 ba3e 5fb9 05bf 9b7e 3ebe
000000d0: 2112 653e bc9f 66be a49e 7e3e 138b 6abf
000000e0: 1261 9abe 1078 623e d7af 54bd 6c1c aabc
000000f0: e6f1 47bc 5361 23bf ca54 a7be 1649 37be
00000100: fad9 163e 8412 113f 72ce 5b3e b651 253f
00000110: 2e54 873e b23b 993d 223d d03e 8800 97be
00000120: 93ed 343f 1cd7 e13e e211 e7be 976e 7e3d
00000130: da05 babe 0d9a e43d ec77 e6bd 7cc7 7fbe
00000140: 74d8 083a d84f 073f 3488 013f 7a3e 7a3e
00000150: fa63 0abf 521b 30be 8e70 5ebe 8ecd 0d3f
00000160: 9681 0f3f e9dc 4ebe e6a6 943e 7d33 1dbd
00000170: 07d4 9e3d 3b4c 93be 22c3 183e 48b6 07bf
00000180: 8241 7dbc 13dd b9bc 4546 92be 89df b13d
00000190: 1bce 29bf 0bbe 7c3e 9166 70be 5885 d5bd
000001a0: 345e 69be 4b93 b7bd c2d3 89be a954 7fbe
000001b0: 873e 39be d82b 09be 1b84 1f3f 1cb7 33be
000001c0: 0182 173f d118 a63e c2f9 753e dad3 4c3e
000001d0: 5fd7 d2bd 561f 023b 61db a13e 563e 01bc
000001e0: e7b0 f13e 99b2 443e 3a8c 093e 38a3 71be
000001f0: 7a2c e93d 65f2 ecbe 26c0 3b3f 3f13 77be
00000200: 9197 993e f80b 0abe 5abb a9bc 00bc 393f
00000210: d925 453f 47e7 8c3e 28fe 85be a778 b2be
00000220: 5ecb 83bc e464 babd 4ddb 70be 6784 1ebf
00000230: d500 103e 7d89 c63e fa92 6d3e e6f3 61be
00000240: e75c 79be fd20 7a3f bbaf 24bf 6f73 133e
00000250: 181a 3fbd 430b b9be 3bba 673f 0248 b8bd
00000260: b6a7 93be a79a 173e 1e39 1b3f ee9c 5abf
00000270: 3853 973d 0be3 963e c3e6 b13e 9791 44bf
00000280: 1b7c c3be f99e cf3d 34ad 92bd cc39 0ebe
00000290: 7936 af3e 12d3 9abe c46e 4abe 28b5 50be
000002a0: e5a1 63bd b3b5 a93d 2fb7 5a3d a26d d33e
000002b0: 33f0 8a3d 6fb4 eabd 7523 92be 30e9 a63d
000002c0: 953f 23be 0980 e9bc 59e2 cbbe 49bb 98be
000002d0: e803 863e 5675 0abf 133b bd3e 9d70 e9bd
000002e0: 4797 84be b73e 6e3e 610f c63e 615e 733e
000002f0: 3645 cb3e bf29 043f 9226 193f 9804 663e
00000300: eba5 27be 4925 d73e 6d8f 013e 2613 e83e
00000310: 07e6 913e a024 193f 2158 323f fe08 fc3d
00000320: 2d01 7e3e dd1e 5bbe f61f 053e 5863 a4be
00000330: 2a6b 1ebf c22c ccbe a16b 26be edc5 173e
00000340: 6406 cdbd ad28 d53c 0043 193f 401c 1cbf
00000350: c853 edbd 9a46 bd3e 19a9 c93d dac6 e7bd
00000360: cef5 883e d30f 88be 2179 f63e e684 67bd
00000370: 92cc dabe 98d8 eebe 1d0c f4be e247 173f
00000380: a1e5 cfbe c964 d63e d947 633e 2a1b 343f
00000390: a84f a53e f59c 39be d94c 513e 3cc8 873e
000003a0: 6412 a2bd aeeb 5dbd 01b5 e43d 0ffe b93e
000003b0: 0706 a63e 1dc9 b5bc 3d87 20bf e728 be3e
000003c0: 1187 9f3e 9980 b73d 220f ae3e 2f5c 4e3e
000003d0: 1577 1cbf 5f28 cd3d 0938 19be c4a3 243f
000003e0: 0222 48be 3d23 a73e f979 6dbe c7e9 fb3e
000003f0: a972 13bf 9b68 333e bd3f 323e cb61 ed3d
-0.46398753 -0.26556158 -0.8804808 0.34314957 0.16688016 0.8563566 0.14144899 -0.9752383
0.22712378 -0.45275244 -0.10089554 -0.52366644 -0.04448524 -0.385137 -0.21027148 0.4209341
0.44624794 -0.086204514 -0.14686827 0.41466445 -0.29982552 0.55091286 0.9437084 0.8744603
-0.32206374 -1.0481929 0.47411376 0.056667473 0.26095885 -0.34480858 -0.17230405 0.25859037
0.24331826 -0.6868025 -0.044180874 -0.39245138 -0.13556954 -0.3683158 0.18113105 0.14973752
-0.10673423 0.13252476 0.32680687 0.39636093 0.16781113 -0.6768433 0.049648255 0.07024768
-0.6564555 0.36392802 -0.5223598 -0.18602984 0.22370197 -0.22521871 0.24865204 -0.9161846
-0.30152184 0.22116113 -0.051925506 -0.020765506 -0.012203669 -0.6382038 -0.32681876 -0.17898974
0.14731589 0.5666888 0.21465471 0.64577806 0.26431412 0.07482089 0.4067164 -0.29492593
0.7067501 0.44109428 -0.4513083 0.062117185 -0.3633259 0.11162195 -0.11253342 -0.24978441
0.00052202423 0.52856207 0.50598454 0.24437895 -0.540588 -0.17197922 -0.21722624 0.55391777
0.5605711 -0.20201458 0.29033583 -0.03837918 0.07755285 -0.28769097 0.14918187 -0.53012514
-0.015457513 -0.022688424 -0.28569236 0.08685214 -0.66330117 0.2468187 -0.23476626 -0.10425824
-0.22789842 -0.08963641 -0.2691937 -0.24934639 -0.18090259 -0.13395631 0.6231095 -0.1755032
0.59182745 0.32440808 0.24021056 0.2000269 -0.10294985 0.0019855103 0.31612685 -0.007888397
0.47205278 0.19208755 0.13432398 -0.2359742 0.11385436 -0.46278682 0.7334007 -0.24128436
0.29998448 -0.13481128 -0.020719219 0.7255249 0.77010876 0.275202 -0.26170468 -0.34857675
-0.016088184 -0.091012746 -0.23521157 -0.6192078 0.14062817 0.3877677 0.23200598 -0.22065696
-0.24351846 0.97706586 -0.64330643 0.14399503 -0.046655744 -0.36141405 0.9051854 -0.089981094
-0.2883889 0.14805089 0.6063403 -0.85395706 0.073889196 0.29470095 0.3474637 -0.7678465
-0.38180622 0.101377435 -0.07161942 -0.13889235 0.34221247 -0.3023916 -0.19768816 -0.20381606
-0.055574317 0.082866095 0.053397354 0.4129458 0.067840956 -0.11460196 -0.28542677 0.08149946
-0.15942223 -0.028503435 -0.39821127 -0.29830387 0.26174855 -0.5408529 0.36959133 -0.113984324
-0.25896665 0.23266111 0.38683608 0.23766471 0.3970124 0.516262 0.5982448 0.2246269
-0.16371886 0.42020634 0.12652369 0.4532711 0.2849581 0.5982151 0.69665724 0.123064026
0.24805136 -0.21398492 0.13000473 -0.32107043 -0.6188227 -0.39877898 -0.16251995 0.14821596
-0.100109845 0.026020372 0.5986786 -0.60980606 -0.11588246 0.36967927 0.09846706 -0.11317225
0.26750034 -0.26574573 0.4813929 -0.056523226 -0.427342 -0.46649623 -0.47665492 0.5909406
-0.4060488 0.41873768 0.22195376 0.7035395 0.32287335 -0.1812628 0.20439471 0.26519954
-0.07913664 -0.05417984 0.11167336 0.36326644 0.32426473 -0.022190625 -0.6270636 0.3714058
0.31157735 0.08960075 0.3399592 0.20152353 -0.61119205 0.10017466 -0.14962782 0.64312387
-0.19544223 0.32644072 -0.2319106 0.49201795 -0.5759683 0.17520373 0.17407127 0.11590918

network_body._body_endoder.seq_layers.0.bias f4 [128]
00000000: 1e91 813b b720 d63a 7a29 39bc b5ba debc
00000010: 0910 523c 503b c43b c689 eeba 5b94 3ebc
00000020: 0c8c 49bc 3bad 30bc bebf e13b f874 a93c
00000030: ef50 243b af5c bd3c 131f c93c 511f 72bb
00000040: 4d9c 143c 5239 8ebb bd97 383c 46a4 d3ba
00000050: 7b04 d83b cf42 a73b 0490 41bc 49c1 de3b
00000060: 6ada d8bb 2e4d 2cbc d6c6 fabb 93df 2abc
00000070: b1e4 6f3b 35d8 87bc 05d8 d7ba 8eef 0c3c
00000080: 8151 033c 4b19 babc 89f0 98bb 69bd afbb
00000090: c1e2 d03c af37 68bb e1f1 d93c b17f b93b
000000a0: ff0a f73b dbcb af3b 7662 37bc 8d42 dbba
000000b0: 113d 53ba 4744 71bc f88d c5bb a963 f3bb
000000c0: 9b19 1fbc bbde 153b 2fac 6bb9 7fc9 f23c
000000d0: 4b0f b3bc 6013 a1bc 0da0 bcbc bd7d c23c
000000e0: e63c 543c 479d 25bc 4bdb 183d b2fd d23b
000000f0: e5c5 cdbb 042d ab3b 4e1c 2d3d 445e 9f3c
00000100: 8f5c d538 336c 063d f4a8 65bb 47e1 02bc
00000110: 41b0 973c 6f6f 83bc 76c8 073c f06c e9bb
00000120: b97e ae3c 10e7 9c3c 60db 8b3c 51b6 a4bc
00000130: 9ed6 50bc 38fb a0bc a460 573c 1f31 89bb
00000140: 117c 443c db77 823c fa69 2ebd 82e2 02bb
00000150: 8bd2 1ebc aaf3 a4bb f467 a93d 7065 d3b9
00000160: 203f 63bc 020d 86bb 8f24 e6bb d997 8bbc
00000170: 5b9a 4abc ed80 af3c 15ab 983c eb9f 7b3b
00000180: 8c08 6dbc 1e94 0b3d fa2d 93ba d4fe 5bbc
00000190: c220 80bc af68 c2b9 ca7e 123d 7627 3cbb
000001a0: 4f37 5ebb 4692 cc3b 7fb8 a63c a48e b83b
000001b0: 41df b13c e18a b7b9 7cff fa3c 7905 333c
000001c0: fecf c13c 09e5 743b 4758 b43a ba71 853c
000001d0: c1a4 80bc 6328 893c be74 b23c 8f8b 333d
000001e0: f021 d73c c357 25bc 4ed6 183a 42b4 c9bc
000001f0: f3d2 98bb 6a4a 51bc 1866 0dbc 82c2 b93b
0.003954067 0.0016336654 -0.011301393 -0.027188638 0.012821206 0.005988516 -0.0018199019 -0.01163205
-0.012301456 -0.010783489 0.0068893125 0.020685658 0.0025072654 0.023115484 0.02455095 -0.0036944936
0.009070468 -0.004340329 0.011266646 -0.001614698 0.006592331 0.0051043998 -0.011814121 0.0067979437
-0.006617834 -0.010516448 -0.0076530976 -0.010429281 0.0036604817 -0.016582588 -0.0016467577 0.008602036
0.0080150375 -0.022717139 -0.004667346 -0.0053631556 0.02549875 -0.003543358 0.026604595 0.005660974
0.0075391526 0.0053648776 -0.0111929085 -0.0016728208 -0.0008058111 -0.014725751 -0.006028887 -0.007427652
-0.009710695 0.0022868353 -0.0002247549 0.029637096 -0.021857878 -0.019662559 -0.023025537 0.023741597
0.012953972 -0.010108299 0.03731851 0.0064389342 -0.0062796944 0.005223872 0.04226332 0.019454129
0.00010173872 0.03281803 -0.003504333 -0.007988281 0.018516662 -0.016044347 0.00828754 -0.007123582
0.02130066 0.019153148 0.01707238 -0.020106466 -0.012746481 -0.01965104 0.0131455995 -0.004186764
0.01199247 0.015926292 -0.042581536 -0.0019971435 -0.009693752 -0.00503393 0.082717806 -0.00040320633
-0.013870031 -0.004090906 -0.007023401 -0.01704018 -0.012365903 0.021423781 0.018636266 0.003839488
-0.01446737 0.034076802 -0.0011228912 -0.013427455 -0.01564062 -0.0003708056 0.035765447 -0.0028710044
-0.0033907478 0.006243023 0.020351646 0.0056322385 0.021712901 -0.00035007953 0.030639403 0.010926598
0.023658749 0.003736796 0.0013759219 0.01628958 -0.01570356 0.01674289 0.021784183 0.043834265
0.0262613 -0.010091725 0.0005830274 -0.024622086 -0.004663819 -0.012774089 -0.008630298 0.005668939

network_body._body_endoder.seq_layers.2.weight f4 [128, 128]
00000000: f61c 90bd 2e58 10bd be59 74bd a926 983d
00000010: 0fb0 1ebd 791f 443d 9a1e e8bc eb93 c6bc
00000020: 75d7 a4bb 491f 8b3d 8b17 a0bd fc7f b0bd
00000030: c256 073d 8276 ae3c 49b1 423d 3621 133d
00000040: 25e6 dd3c 670a 423e fcd9 0a3d e758 dd3d
00000050: e2de efbd fcb2 c8bc 3de0 85bd 3be6 7d3c
00000060: 5ade 143e 8b9a d93d 1e03 adbd 6180 673c
00000070: 7983 6c3b fa5b 1abe 63bc 003c 4f33 f43d
00000080: cf13 043e b0bf 50bc 6d67 e73d b4c3 323d
00000090: b24a 913d f0a4 983d d483 bebd 2f4a 983d
000000a0: 2628 db3d 2189 28be 36eb 13be 708e 17be
000000b0: f285 d83d e591 14bc f068 d03c 38b3 bd3d
000000c0: 8e45 0c3d bc8b 20bc 955c bf3d 3e7e debd
000000d0: 2a18 19be 71cb 9d3d 6513 4bbd 870d a1bd
000000e0: e635 0c3c 4fd6 52bd b482 173d fe33 82bd
000000f0: 959d a33c d655 39bd 7fa1 5a3d 892d 2e3c
00000100: ee7a e9bd 590d c93c 913d a3bd a0a4 0dbc
00000110: 2f74 723d 7842 cf3d d924 ba3c d934 7abd
00000120: 3119 023e 2b09 043e 4a2b 723d 3210 a5bd
00000130: e331 9e3d d43d cebc d46a e0bb 5235 83bd
00000140: b5be 2a3d 31e3 2e3d d3dc 993d c450 87bd
00000150: 02e5 b13c ab2a 923d 7c06 af3d 4f48 f73d
00000160: c49f 903d ee6e f83d 5cd5 0dbe b0a7 b4bc
00000170: b7e8 3b3d e0a2 97bd bb22 1ebd f50b 643e
00000180: b232 993c eeaa 343d 29f1 143e 94a2 08ba
00000190: d0bd 21be c57a afbd 9c29 d8bc e2fa d13d
000001a0: 4141 003e 09e3 c83d 38c2 f13b 3691 d73d
000001b0: 488b 443d 8100 603d be42 15be 43b9 463d
000001c0: 924a adbd ca58 cabd 34c8 b9bc 1b00 483d
000001d0: 070e 073c 4dd1 143e deff af3c 932e aa3b
000001e0: ca81 093e 24de 123e 56a1 3d3d 4f5c 22be
000001f0: 8057 b7bd 207e 1b3e f952 943c f7bf c2bc
00000200: 277c 8cba 05ff c9bc adfb 17bd a000 e43c
00000210: 6308 a13d 19fd 703d a2e6 edbd 555d b73c
00000220: c03b cdbd fb29 003d 18a5 573c e888 b33c
00000230: 784c 663d d40c d23d 1b1e 923d 18d2 c13b
00000240: 3b24 7bbe 7e18 b5bd 7733 843d c121 dabb
00000250: efd3 003c 0f51 acbd a1d3 05be fc3b 903d
00000260: 1f86 293d fcbd 47ba cf4c d93d d105 dc3b
00000270: 3099 e6bb dfc7 303d 3bdb 1cbd c714 cc3d
00000280: 32fe 02bd 667a 913d 9659 37bd 2aca b5bd
00000290: c21c 8c3d 0b67 85bd 8157 073e c4bc 4dbe
000002a0: 5290 4b3e d508 93bd 815b 8d3d ed2d 8f3d
000002b0: 8698 2d3d 18e1 c8bd 1dab 8d3d 0cfe 393d
000002c0: ed24 96bd f198 aabd eec1 443d 2b45 3cbe
000002d0: 86fd 4abe 1a9d 8dbd 9717 bb3d 887f b53c
000002e0: d40b 013e 2e9c 223d af01 25be c760 7bbd
000002f0: 19f1 b63d a991 1e3e c0f0 1abe a0c2 37bd
00000300: 6e8e fd3c bab2 acbc 5571 3fbd 767c f03a
00000310: 717e 0dba c631 b6bd d5cc 63bc 5ca6 083e
00000320: 3548 f83c a465 063d 3929 de3d 8de1 28bd
00000330: b316 e73c 4473 253d 3810 223d 2290 fabd
00000340: e4bb a1bd 61a3 a93b c8fe d53d c23d 4e3c
00000350: 2bed 2dbe 22f3 bfbd ecbe 3cbd 7de3 233c
00000360: b718 513d 411b af3d d8ae 52bd 6d2d a33d
00000370: 1bad b2ba 0141 1bbd c1c4 8abd 18fa ecbc
00000380: 6cc6 80bd c73a 7dbd f111 c7bd fbab b93d
00000390: ca53 e53d 97e0 93bd 0e7f 033d 52d9 7d3b
000003a0: a045 f3bd bd01 9bbd a509 7abc f62b 8dbd
000003b0: 3050 b8bd a6a5 bf3d e6b8 653e 72b4 0cbd
000003c0: 5aaf eabd 1d99 71bd e2cc 9fbd 0c52 fb3d
000003d0: 847d 10bd 6a43 b83d 8658 833d 7035 ef3d
000003e0: cc92 1bbe 4866 323c bbf6 42bc 380a dc3c
000003f0: cda2 e23d f3a3 9a3d e013 8d3d e67a 07bd
-0.07036774 -0.035240345 -0.059655897 0.07429249 -0.03874212 0.047881577 -0.028334904 -0.024240455
-0.0050305673 0.067930765 -0.078169905 -0.08618161 0.033041723 0.021296743 0.047532354 0.035920344
0.02708728 0.1894928 0.033899292 0.108079724 -0.117124334 -0.024499409 -0.06536911 0.015496786
0.14537945 0.1062518 -0.0844786 0.014129729 0.0036089106 -0.15074149 0.007857415 0.11923849
0.12898181 -0.012741014 0.11299024 0.04364367 0.07094325 0.07453334 -0.09302488 0.074360244
0.10701017 -0.1645856 -0.14445195 -0.1480043 0.10572423 -0.009067987 0.025440663 0.09262699
0.03424602 -0.00979894 0.093438305 -0.108639225 -0.14950624 0.07704819 -0.049579043 -0.07863908
0.008557772 -0.05147391 0.036989883 -0.06357573 0.019972602 -0.045247875 0.05337667 0.010630974
-0.114004 0.024542497 -0.07970727 -0.008645207 0.059192833 0.101201 0.022722648 -0.061085556
0.12704922 0.12894122 0.059123315 -0.0805973 0.07724359 -0.025175966 -0.0068486724 -0.064066544
0.04168578 0.042697135 0.07512822 -0.06607202 0.021715645 0.071370445 0.08546159 0.12074339
0.07061723 0.12130533 -0.13850921 -0.022052616 0.04587623 -0.07404113 -0.03860734 0.22270186
0.018700931 0.044108324 0.1454512 -0.00052122143 -0.15795064 -0.08568338 -0.026387028 0.1025293
0.12524892 0.098089285 0.007377889 0.10525744 0.04798439 0.05468798 -0.14576241 0.048516523
-0.08461489 -0.098802164 -0.022678472 0.048828226 0.0082430905 0.14532967 0.021484312 0.0051935404
0.13428417 0.14342552 0.04629644 -0.15855525 -0.08952236 0.15184832 0.01810597 -0.023773177
-0.0010718153 -0.024657736 -0.03710525 0.02783233 0.07862928 0.058835123 -0.11616255 0.022383371
-0.10021162 0.031290036 0.01316192 0.021915868 0.05622527 0.10256353 0.071346484 0.0059149377
-0.2452554 -0.08842562 0.06455129 -0.006656856 0.007863029 -0.08413898 -0.13069011 0.07042691
0.041387673 -0.00076195574 0.10610353 0.0067145606 -0.0070373043 0.043159362 -0.038295012 0.099649005
-0.0319807 0.07103424 -0.04476317 -0.0887645 0.068414226 -0.065137945 0.13216974 -0.2009154
0.19879273 -0.07179419 0.069022186 0.069911815 0.042381786 -0.09808558 0.06917403 0.045408294
-0.07331262 -0.083299525 0.04803651 -0.1838576 -0.19823274 -0.0691473 0.09135359 0.022155538
0.12602168 0.039699726 -0.16113923 -0.06137159 0.089327045 0.15485252 -0.15130901 -0.044863343
0.030951705 -0.021081317 -0.04673894 0.0018347639 -0.00053975644 -0.08896212 -0.013903816 0.13344711
0.030307868 0.032811776 0.10847706 -0.041230727 0.028209066 0.04039313 0.03956625 -0.122345224
-0.078971654 0.005176947 0.10448986 0.012587966 -0.16985004 -0.09372546 -0.046080515 0.010002968
0.05104896 0.0855012 -0.051436275 0.07967649 -0.0013631912 -0.03790379 -0.06775809 -0.028927848
-0.06287846 -0.061823633 -0.09720219 0.09066006 0.11197622 -0.072205715 0.03210359 0.003873427
-0.11878514 -0.07568691 -0.0152610885 -0.068931505 -0.089996696 0.09357767 0.22433814 -0.034351774
-0.11459227 -0.05898391 -0.0780275 0.122715086 -0.03527595 0.08997233 0.06413369 0.11680114
-0.15192717 0.010888644 -0.011899645 0.026860341 0.11066208 0.07550802 0.068885565 -0.03307619

network_body._body_endoder.seq_layers.2.bias f4 [128]
00000000: c232 42bb d102 bc3c 3c28 ef3b 709e 7f3c
00000010: c5be 803b 80f1 463c f29a c9bb e10f 9d3b
00000020: b43a 57bc 8397 0a3a 7247 99bb 7f29 f9ba
00000030: 81d2 673a b6fd 86bb 9b7c 82ba 0934 583b
00000040: d0da 0dbb 18e8 02bc cbbc 2e3a d16f a1bb
00000050: b812 9c3b 3bd0 b83b ecad 233b b70a 8cbb
00000060: 7e67 d9ba 4e1e 6fbc 0207 a0ba f626 df3b
00000070: c923 143c 7687 193a f9b5 9e3c 5511 94ba
00000080: 7b42 70bc e89f 633b 55bb dd3b 2ab9 7cbb
00000090: 5f8b 0bbb d5c9 903b 0979 d93b 1b67 e43a
000000a0: 7507 f7ba a031 6ebb e4e1 25bb f189 593c
000000b0: 844c 5e3b 426d 0e3c 6e11 4cbb d763 1dbc
000000c0: 69a5 48bb d002 3b3c c26a bebb 8bc7 7f3b
000000d0: a6de bbbb 5d04 2c3c dc31 25bc 7aea 173c
000000e0: b1d5 8fba 83db 04bc 01bc 81bb 880d 09bc
000000f0: e243 923a 5de9 ac3b d153 2abc c685 85b9
00000100: dff7 673b f54e ee3b 24cd 64bc 174c febb
00000110: 9457 f4ba d0e3 2cbb 00bf abba 30b5 383b
00000120: 4259 413a ac91 33bc cc55 2abc ade3 3439
00000130: c76e 003c 4631 5cbc 5cc1 37bb 553a bcbb
00000140: 2abd ca3b 04d2 2bbc 006f ac3b 21e5 a9bc
00000150: 93d1 7dbb ba78 5dba bf2e 1d3b 1004 b139
00000160: a270 20bc 5661 323c 95f8 a2bb 5647 433c
00000170: d1f9 bebc f18c a83b 2043 19bb 475d 133b
00000180: abb0 bb3c 0936 9f3a 2883 2e39 def9 a63a
00000190: e431 babb 9e24 a7bb fc78 b6bb 20b5 babb
000001a0: a0e7 e7ba bf59 92ba 4d5d 0cbc c26a 7b3a
000001b0: 8c8b 0abc b45e d139 46bf 4cbc 5a30 8dbb
000001c0: 7918 d03b a261 63bb 367a 8dbb 4230 3c3c
000001d0: b4d2 a03b d633 7ebb c9b7 343c 7a53 013c
000001e0: e817 3bbc d30e deba 9118 24bc 4f2e 7fbb
000001f0: b2e1 4f3c 70f7 f9bb a908 4d3b 7f47 0cbc
-0.0029632305 0.022950562 0.0072984975 0.015601739 0.0039289915 0.012142539 -0.006152504 0.0047931527
-0.0131365545 0.0005286859 -0.0046777064 -0.0019009559 0.0008843318 -0.0041196 -0.0009955348 0.003299
-0.0021645315 -0.007989906 0.00066657056 -0.0049266596 0.0047629736 0.0056400574 0.0024975492 -0.0042737382
-0.0016586629 -0.014594628 -0.001220912 0.0068100644 0.009041735 0.0005856672 0.01937388 -0.0011296669
-0.014664288 0.0034732763 0.0067667165 -0.0038562515 -0.0021292788 0.0044185915 0.006636743 0.0017425747
-0.0018846827 -0.0036345497 -0.0025311643 0.013277517 0.0033920119 0.008693041 -0.0031138319 -0.009606323
-0.003061617 0.011414245 -0.0058110664 0.003902885 -0.005733329 0.010499087 -0.010082688 0.009272212
-0.0010973719 -0.008108976 -0.0039591794 -0.0083650425 0.0011159147 0.0052768425 -0.01039596 -0.00025467406
0.0035395545 0.007272596 -0.013964925 -0.0077605355 -0.0018641823 -0.0026380904 -0.0013103187 0.0028184168
0.0007375666 -0.010960024 -0.010396432 0.00017250954 0.007838911 -0.013439482 -0.0028038835 -0.0057442584
0.006187101 -0.010487083 0.0052622557 -0.02073914 -0.0038729652 -0.00084484706 0.0023984162 0.00033763098
-0.009792479 0.0108874645 -0.004973481 0.011918863 -0.023312481 0.0051437546 -0.0023385957 0.0022486018
0.02291139 0.0012146841 0.00016642793 0.0012739261 -0.005682217 -0.0051008007 -0.0055686217 -0.0056978613
-0.0017692931 -0.0011165662 -0.0085671665 0.0009590798 -0.008456122 0.00039934146 -0.012496775 -0.0043087425
0.0063505736 -0.0034695645 -0.004317547 0.011486115 0.0049079303 -0.003878822 0.011030146 0.0078934375
-0.011419274 -0.0016941674 -0.010015623 -0.0038937514 0.012688087 -0.007628374 0.003128568 -0.008561968

action_model._continuous_distribution.mu.weight f4 [1, 128]
00000000: 4f12 9e3c 0d07 2e3d 0bc6 fd3c 86f8 3abd
00000010: acb9 053d d526 3ebd fd85 88bb 5219 953c
00000020: fa94 2dbb 7055 2a3c f8e7 c0bc b7af 74bc
00000030: 0ab2 83bc d8df a3bc b5ae bd3b 8694 13bd
00000040: 6523 80bc 4e39 6a3c 9b6d 913c 6db1 8dbc
00000050: 4c92 0c3d d70c 303d 64f3 9ebc d058 80bc
00000060: 1c7b f6bc d056 a2bc a5bb 8e3c 063b debc
00000070: bd33 7abc b294 163d 155b 06bd e5db b0bc
00000080: 2fe9 07bc f164 e23c f1df 15bd fffd c3bc
00000090: 5fac 093d 01d5 fe3c aae5 463d dd8c ad3c
000000a0: 51dd 78bc a270 1fbd 83d2 c23c dd2f 793d
000000b0: 45fa e63c d780 5dbd f832 1fbd 5d6b 71bc
000000c0: c35c 883c 9434 2dbd 1ffe 563b 6d7c 973c
000000d0: fa77 01bc 6bf4 063d a5aa 01bc d96b b03c
000000e0: 3115 033d e54a ccbb d73d 363c 4351 873c
000000f0: cb32 1ebd 9863 3b3d 2a26 80bc 9527 e9bc
00000100: d127 d93c 0dcb b03d 24eb 893a 3592 26bd
00000110: bf6c 6abb 642f d9bc 239c 22bc d6c0 863c
00000120: f0a1 eb3c 2e4e 56bb d224 f9bc 2684 cf3c
00000130: fd43 523d 367e 8cbb 9927 cc3c 6381 88bc
00000140: 9e03 373d e6db 57bb 8e4c 1dbd fc5c ad3a
00000150: 13bb bcbd 22eb 10bd 8d49 883c f383 ec3b
00000160: 9647 17bc 2784 dc3c c2e1 9fba a0db 5dbd
00000170: dffa a3ba a8ea 0c3d 83b5 22bd b7f6 47bd
00000180: c1c3 0fbd 7cd8 343b 47dc ffbc 1643 383d
00000190: 52f4 b6bc f726 643b 63f9 69bd e3e7 dfbc
000001a0: 62e5 85bc 0728 86bc 4dc6 0dbd 54fc 7c3c
000001b0: cd03 76bc 748c 9f3c eaf5 88ba 1c50 cfbc
000001c0: efc0 8abd 9ca1 24bd 602e ea3c 930e b33c
000001d0: ba5c 79bd edc4 e6bc 32fb 0dbd 5c7c 20bd
000001e0: ae86 df3c cb35 433c 1215 63bd e1f6 9abc
000001f0: 09ac 673d d446 41bc fe82 39bd 432e c2bc
0.01929584 0.042487193 0.030978223 -0.045647167 0.032647774 -0.04642375 -0.0041663633 0.01820055
-0.0026486502 0.010396346 -0.023548111 -0.014934472 -0.016076107 -0.020004198 0.005788649 -0.036030315
-0.015641877 0.014295889 0.01775246 -0.017296517 0.034319207 0.042980995 -0.019403167 -0.01566735
-0.030088 -0.019816786 0.01742346 -0.027127754 -0.015271124 0.0367629 -0.032801706 -0.021589229
-0.008295341 0.027636023 -0.03659052 -0.023924826 0.03361165 0.031107428 0.04855887 0.021185333
-0.015189485 -0.038925774 0.02378202 0.06083666 0.02819551 -0.05407795 -0.038866967 -0.01473507
0.016645795 -0.04228647 0.0032805277 0.018491948 -0.00790214 0.03294794 -0.00791422 0.0215358
0.03200263 -0.006234514 0.011123142 0.01651824 -0.03862266 0.045749277 -0.015643198 -0.028461257
0.026508244 0.08632479 0.0010522348 -0.040666778 -0.0035770384 -0.026511855 -0.009924921 0.016449373
0.028763741 -0.0032700407 -0.030413065 0.025331568 0.05133437 -0.0042875065 0.024921225 -0.016663259
0.044681184 -0.0032937466 -0.038403086 0.0013226564 -0.09215369 -0.03538049 0.016636634 0.007217878
-0.009233376 0.026918484 -0.0012198018 -0.05416453 -0.0012510678 0.034403473 -0.039723884 -0.04881927
-0.035098795 0.0027594855 -0.031232966 0.044985853 -0.022333298 0.0034813264 -0.0571226 -0.027332252
-0.01634473 -0.016376508 -0.034612942 0.015441019 -0.015015555 0.019476153 -0.0010449265 -0.025306754
-0.067750804 -0.040193185 0.028586566 0.021857535 -0.060879447 -0.028170073 -0.034663387 -0.0391811
0.0272859 0.011914681 -0.055440016 -0.01891655 0.05656055 -0.011796672 -0.04529094 -0.0237037

exp_avg f4 [128, 6]
00000000: 74ff 693a b2b0 e237 0000 0000 3965 de39
00000010: 40dd b138 0000 0000 b0b0 a3ba 5a8a d6b9
00000020: 0000 0000 4799 8837 e195 8439 0000 0000
00000030: 03be a439 60da 7039 0000 0000 fff4 2b39
00000040: 5253 c5b8 0000 0000 69b8 873a 3107 ff39
00000050: 0000 0000 714a 58b9 3c61 ca38 0000 0000
00000060: b098 143a e290 51b8 0000 0000 7537 373a
00000070: 325b 5639 0000 0000 3311 9bba 6a61 15b9
00000080: 0000 0000 b909 31b9 f4c0 bf38 0000 0000
00000090: 6406 98ba a51c 1cb9 0000 0000 9eb3 13b9
000000a0: 1eb2 69b8 0000 0000 b36f 68ba 3153 5ab9
000000b0: 0000 0000 be5c 3fb9 5a67 7539 0000 0000
000000c0: 536a 8739 2f5d 92b6 0000 0000 1c66 8d38
000000d0: c362 7239 0000 0000 2505 f539 6663 9f38
000000e0: 0000 0000 a124 2db8 d89e d338 0000 0000
000000f0: e219 c538 8234 1839 0000 0000 0cdf d939
00000100: 3f5a 9b39 0000 0000 72e8 213a 82bd c136
00000110: 0000 0000 a5c1 eeb9 f231 eab9 0000 0000
00000120: 30b0 e739 2682 7239 0000 0000 b481 90b9
00000130: af25 c8b9 0000 0000 5618 ba39 ea61 2f39
00000140: 0000 0000 6c4e 9239 5c2e af38 0000 0000
00000150: b705 593a bc43 02ba 0000 0000 a554 863a
00000160: cbc0 ea38 0000 0000 63ee 7939 ff63 ffb7
00000170: 0000 0000 088f 8839 fc5b cb38 0000 0000
00000180: 910e d2b9 5732 6eb8 0000 0000 a866 12b9
00000190: 9f9a bf38 0000 0000 e256 21bb e432 0f37
000001a0: 0000 0000 75b1 69ba c40e 6139 0000 0000
000001b0: ffbd 8439 86f0 dcb8 0000 0000 17da a4b9
000001c0: db9f 5c37 0000 0000 8420 f839 77f3 6939
000001d0: 0000 0000 4e77 99b9 748b b9b9 0000 0000
000001e0: d551 183a e874 8039 0000 0000 35ec 1039
000001f0: 0e5d 7fb9 0000 0000 b382 c939 6d84 5e39
00000200: 0000 0000 8c23 2bb9 b464 a5b9 0000 0000
00000210: 134c 22b9 9da2 9cb8 0000 0000 e173 9239
00000220: c1ff 8039 0000 0000 a45c 10ba cdb1 feb8
00000230: 0000 0000 8bc2 9939 a564 9a39 0000 0000
00000240: d3d3 6c3a cf13 e7b9 0000 0000 8ace 063a
00000250: fceb 3eb9 0000 0000 e4a7 aa39 346d 0b39
00000260: 0000 0000 bf98 2bb9 2cbc 19b9 0000 0000
00000270: ecee 7dbb d63b 9139 0000 0000 dcb0 fcba
00000280: a7bf 17b9 0000 0000 e5bf 43ba 111d aab8
00000290: 0000 0000 0c03 f6b8 7bfa ccb8 0000 0000
000002a0: 1eca 61ba abb7 78b9 0000 0000 6096 9439
000002b0: e002 bf38 0000 0000 77fc 9aba a6c6 a1b8
000002c0: 0000 0000 7be9 ceb9 6ca9 4bb8 0000 0000
000002d0: 0722 a03a c56e f539 0000 0000 5caa f839
000002e0: 3f34 d0b9 0000 0000 ef84 7ab8 3d1a b037
000002f0: 0000 0000 2b32 70b9 b39c 4fb8 0000 0000
00000300: 3b62 343a 8fdc df37 0000 0000 0dd1 bab9
00000310: 87ce 67b7 0000 0000 6940 9839 6025 d438
00000320: 0000 0000 09f9 61b9 05c1 5eb9 0000 0000
00000330: e717 783a 0f25 36b9 0000 0000 504a 353a
00000340: fdcb 043a 0000 0000 4e1c 2a3a 2087 6a39
00000350: 0000 0000 fe4c 4eb9 4ff5 28b9 0000 0000
00000360: 292f 1e3a 2c96 8239 0000 0000 9734 b937
00000370: 6d24 11b9 0000 0000 abb3 b93a 42c3 1ab8
00000380: 0000 0000 3ba2 6cb8 df5c e7b8 0000 0000
00000390: ba77 a037 39f5 6538 0000 0000 cd38 2539
000003a0: cd6b f137 0000 0000 0c86 6a39 5493 21b9
000003b0: 0000 0000 cd39 2db9 e736 c239 0000 0000
000003c0: 6b4e d6b9 d576 8138 0000 0000 fdb4 5a39
000003d0: fe41 91b7 0000 0000 2c0b 58ba 104f 18ba
000003e0: 0000 0000 e7d5 c9b9 73db 4839 0000 0000
000003f0: 9dcb cbba f7c5 8839 0000 0000 8881 a0ba
0.000892631 2.702358e-05 0.0 0.00042418556 8.481229e-05 0.0 -0.001248857 -0.0004092034
0.0 1.6283839e-05 0.0002528867 0.0 0.00031422087 0.00022969535 0.0 0.00016399099
-9.4092116e-05 0.0 0.0010354641 0.00048642748 0.0 -0.00020627097 9.650222e-05 0.0
0.0005668504 -4.9964416e-05 0.0 0.000698916 0.00020442603 0.0 -0.0011830687 -0.00014246037
0.0 -0.00016883657 9.14353e-05 0.0 -0.0011598584 -0.0001488799 0.0 -0.00014085925
-5.5717413e-05 0.0 -0.0008866742 -0.00020821091 0.0 -0.00018249729 0.00023403522 0.0
0.00025828424 -4.361987e-06 0.0 6.742423e-05 0.0002311571 0.0 0.00046733874 7.600225e-05
0.0 -4.1280528e-05 0.00010090851 0.0 9.398513e-05 0.0001451541 0.0 0.00041555648
0.00029631142 0.0 0.00061762996 5.77391e-06 0.0 -0.00045539174 -0.0004466917 0.0
0.00044191023 0.00023127403 0.0 -0.00027562457 -0.0003817505 0.0 0.00035494816 0.00016725776
0.0 0.0002790572 8.3532854e-05 0.0 0.00082787446 -0.00049691997 0.0 0.0010248615
0.000111939 0.0 0.00023835296 -3.0444933e-05 0.0 0.00026046508 9.696928e-05 0.0
-0.00040065174 -5.6790504e-05 0.0 -0.00013961887 9.13639e-05 0.0 -0.0024618437 8.535313e-06
0.0 -0.0008914688 0.00021463173 0.0 0.0002531856 -0.000105352185 0.0 -0.00031443007
1.3150241e-05 0.0 0.00047326472 0.0002231131 0.0 -0.00029271323 -0.0003538985 0.0
0.0005810534 0.00024501164 0.0 0.00013820904 -0.0002435336 0.0 0.00038435086 0.00021220902
0.0 -0.00016321073 -0.00031546282 0.0 -0.00015477864 -7.468949e-05 0.0 0.00027933627
0.00024604614 0.0 -0.00055069686 -0.00012144782 0.0 0.0002932738 0.00029448155 0.0
0.000903425 -0.00044074512 0.0 0.0005142471 -0.00018207723 0.0 0.00032550015 0.00013296754
0.0 -0.00016364733 -0.00014661317 0.0 -0.0038747145 0.00027701136 0.0 -0.0019278782
-0.00014471878 0.0 -0.0007467254 -8.111646e-05 0.0 -0.000117307616 -9.774134e-05 0.0
-0.00086131867 -0.00023719545 0.0 0.00028340798 9.108125e-05 0.0 -0.0011824508 -7.7140794e-05
0.0 -0.00039465338 -4.8556758e-05 0.0 0.0012217172 0.0004681257 0.0 0.00047429174
-0.00039711778 0.0 -5.972845e-05 2.0993053e-05 0.0 -0.00022906873 -4.9498583e-05 0.0
0.00068810926 2.6686377e-05 0.0 -0.0003563244 -1.3816759e-05 0.0 0.00029039689 0.000101159094
0.0 -0.00021550445 -0.00021243475 0.0 0.0009464011 -0.00017370678 0.0 0.00069156755
0.0005065797 0.0 0.0006489203 0.00022366317 0.0 -0.00019674373 -0.00016113113 0.0
0.0006034249 0.0002490742 0.0 2.2078208e-05 -0.00013841847 0.0 0.0014167925 -3.689831e-05
0.0 -5.6417874e-05 -0.00011032237 0.0 1.9129238e-05 5.4826236e-05 0.0 0.00015756786
2.8779637e-05 0.0 0.00022365915 -0.0001540904 0.0 -0.00016520098 0.0003704347 0.0
-0.00040875687 6.1733335e-05 0.0 0.00020857523 -1.7316077e-05 0.0 -0.0008241411 -0.0005810121
0.0 -0.00038497077 0.00019155238 0.0 -0.0015548352 0.00026087437 0.0 -0.0012245635

exp_avg_sq f4 [128, 6]
00000000: d218 2c36 5ae9 6534 0000 0000 171a 6035
00000010: 629c 7934 0000 0000 96d8 9137 2775 fb35
00000020: 0000 0000 0f46 2d37 406b 0e36 0000 0000
00000030: a726 8737 7500 0e36 0000 0000 04f2 2637
00000040: c8f5 c935 0000 0000 a5f5 a737 6f3f 2d36
00000050: 0000 0000 4612 3d37 4d36 ea35 0000 0000
00000060: 8ea0 2536 7219 4b34 0000 0000 9b3c a035
00000070: 8c64 5d34 0000 0000 0ee7 ca36 136f 2f35
00000080: 0000 0000 c4a1 1b36 ec40 3b35 0000 0000
00000090: f814 b237 296b 9935 0000 0000 b488 9236
000000a0: ab80 e635 0000 0000 ae99 7e37 cdee 0136
000000b0: 0000 0000 f603 9836 ae5c bb35 0000 0000
000000c0: 6367 de36 f9c9 f534 0000 0000 7ea6 e535
000000d0: ada1 4a35 0000 0000 514a 7336 ad18 5d34
000000e0: 0000 0000 45e4 8f35 80b9 c734 0000 0000
000000f0: c0e8 9636 4d7d bf34 0000 0000 4cdd d535
00000100: e57f e434 0000 0000 37d2 2737 6780 9a35
00000110: 0000 0000 f13c ae36 d215 8535 0000 0000
00000120: 516d b437 9d8b 2d36 0000 0000 ec3b 0b37
00000130: 4e06 f735 0000 0000 8751 9536 7502 1535
00000140: 0000 0000 81d9 3b36 9771 d834 0000 0000
00000150: de94 4537 6c14 b235 0000 0000 b082 9836
00000160: 4700 9335 0000 0000 05be ea36 ca62 7035
00000170: 0000 0000 0a9d 7336 f290 2735 0000 0000
00000180: 3c52 ae36 c7f6 1035 0000 0000 c338 ee35
00000190: f547 1e35 0000 0000 0685 0838 c142 1136
000001a0: 0000 0000 25be 0937 1b76 f135 0000 0000
000001b0: c421 9536 6b76 1b35 0000 0000 3445 a735
000001c0: 41e7 b134 0000 0000 7e89 6437 a2b0 e235
000001d0: 0000 0000 5e1f bd36 d35d ac35 0000 0000
000001e0: d857 a637 19df 0136 0000 0000 109f bc36
000001f0: 74c3 c435 0000 0000 5663 4637 f0ea c735
00000200: 0000 0000 46e5 7b36 7ec7 8b35 0000 0000
00000210: e0eb cc36 3d0d 4d35 0000 0000 c1e8 4136
00000220: aded 4035 0000 0000 2a3f 9a37 88bd 4a35
00000230: 0000 0000 acd3 3636 c172 b235 0000 0000
00000240: bf88 3c38 04a6 4336 0000 0000 50a0 1c37
00000250: e79e 5636 0000 0000 51ed 0736 6086 5834
00000260: 0000 0000 bec5 1f35 3cfb d434 0000 0000
00000270: c22e 8d38 18d9 0437 0000 0000 aba0 d237
00000280: f912 b536 0000 0000 0f1f 0137 69f5 7835
00000290: 0000 0000 9b17 8736 d836 7035 0000 0000
000002a0: 6814 9037 68df df35 0000 0000 c721 d136
000002b0: 3610 b935 0000 0000 cb3b e936 9f65 e234
000002c0: 0000 0000 4f53 0e36 63ed b234 0000 0000
000002d0: 6060 1538 5be0 6936 0000 0000 f19a 0e37
000002e0: 6668 7736 0000 0000 724b 4736 4ddc 8334
000002f0: 0000 0000 766f 4e35 75f7 bd34 0000 0000
00000300: 6692 1c37 fa59 0d35 0000 0000 79ba 0536
00000310: c050 2c35 0000 0000 e2c6 0637 18d5 9435
00000320: 0000 0000 c50d 8236 631f 2935 0000 0000
00000330: ec0a 8137 a03d dc35 0000 0000 73fd 7636
00000340: d391 ba35 0000 0000 8d34 6d36 9bbe cd34
00000350: 0000 0000 f9ec b935 c0b4 d434 0000 0000
00000360: f887 c236 ebcf 1a35 0000 0000 a1ec ae35
00000370: f7db 3835 0000 0000 5bdd f737 59fb ec35
00000380: 0000 0000 03d7 d136 c7d3 f135 0000 0000
00000390: 39d0 7436 0599 ca34 0000 0000 343c 6835
000003a0: f598 7434 0000 0000 1b79 8737 a1c5 ae35
000003b0: 0000 0000 1892 5236 483b 1336 0000 0000
000003c0: 339b 2037 9856 b235 0000 0000 2809 8636
000003d0: 005e 8735 0000 0000 0c85 a338 3ee1 f436
000003e0: 0000 0000 c93a ba37 86bf d036 0000 0000
000003f0: 396b 9137 f1b1 ce35 0000 0000 b8e6 ab36
2.5644445e-06 2.141218e-07 0.0 8.348447e-07 2.3246824e-07 0.0 1.7386203e-05 1.8735053e-06
0.0 1.0327915e-05 2.1222077e-06 0.0 1.6111253e-05 2.1159915e-06 0.0 9.95072e-06
1.5047199e-06 0.0 2.0022339e-05 2.5815932e-06 0.0 1.12695325e-05 1.7450162e-06 0.0
2.468037e-06 1.8915105e-07 0.0 1.1938567e-06 2.0618808e-07 0.0 6.0469674e-06 6.5354214e-07
0.0 2.319096e-06 6.97574e-07 0.0 2.1229018e-05 1.1430576e-06 0.0 4.3670534e-06
1.7173783e-06 0.0 1.5175361e-05 1.9361498e-06 0.0 4.530414e-06 1.3959559e-06 0.0
6.6281514e-06 4.578176e-07 0.0 1.7110285e-06 7.5486133e-07 0.0 3.625308e-06 2.0591206e-07
0.0 1.0720765e-06 3.7201607e-07 0.0 4.497444e-06 3.566769e-07 0.0 1.5934143e-06
4.2561365e-07 0.0 1.000292e-05 1.1511264e-06 0.0 5.1926986e-06 9.915623e-07 0.0
2.1508577e-05 2.5860274e-06 0.0 8.298997e-06 1.8404769e-06 0.0 4.450037e-06 5.55104e-07
0.0 2.7991775e-06 4.0315783e-07 0.0 1.1776776e-05 1.3267977e-06 0.0 4.545167e-06
1.0952434e-06 0.0 6.9958646e-06 8.9550724e-07 0.0 3.630123e-06 6.242327e-07 0.0
5.1951774e-06 5.400329e-07 0.0 1.7748902e-06 5.89643e-07 0.0 3.2548814e-05 2.164554e-06
0.0 8.210108e-06 1.7990272e-06 0.0 4.444477e-06 5.791432e-07 0.0 1.246261e-06
3.3137079e-07 0.0 1.3621871e-05 1.6889719e-06 0.0 5.6362906e-06 1.2842305e-06 0.0
1.9829647e-05 1.9352358e-06 0.0 5.621354e-06 1.4660022e-06 0.0 1.1824848e-05 1.4895031e-06
0.0 3.753537e-06 1.0414367e-06 0.0 6.1071332e-06 7.6387715e-07 0.0 2.8894722e-06
7.187144e-07 0.0 1.8387644e-05 7.552667e-07 0.0 2.7243323e-06 1.3295431e-06 0.0
4.4950048e-05 2.9153898e-06 0.0 9.33565e-06 3.1980978e-06 0.0 2.0254704e-06 2.0165453e-07
0.0 5.951987e-07 3.9670874e-07 0.0 6.732113e-05 7.918359e-06 0.0 2.5108768e-05
5.396429e-06 0.0 7.696231e-06 9.274432e-07 0.0 4.0260616e-06 8.9486775e-07 0.0
1.717564e-05 1.6679815e-06 0.0 6.2326176e-06 1.3788292e-06 0.0 6.950902e-06 4.216972e-07
0.0 2.120814e-06 3.3327805e-07 0.0 3.5614124e-05 3.4850298e-06 0.0 8.499935e-06
3.6866636e-06 0.0 2.9697226e-06 2.456094e-07 0.0 7.690318e-07 3.5384042e-07 0.0
9.332411e-06 5.2657526e-07 0.0 1.9927086e-06 6.41925e-07 0.0 8.033328e-06 1.1088878e-06
0.0 3.875905e-06 6.300308e-07 0.0 1.5383084e-05 1.6409213e-06 0.0 3.6804383e-06
1.390052e-06 0.0 3.534634e-06 3.832291e-07 0.0 1.3852542e-06 3.961959e-07 0.0
5.7974794e-06 5.767203e-07 0.0 1.3032878e-06 6.886543e-07 0.0 2.9547771e-05 1.7656522e-06
0.0 6.253716e-06 1.8017535e-06 0.0 3.6480035e-06 3.7736768e-07 0.0 8.651434e-07
2.2779916e-07 0.0 1.6149648e-05 1.3021528e-06 0.0 3.1377476e-06 2.1939213e-06 0.0
9.572878e-06 1.3287236e-06 0.0 3.994577e-06 1.0085641e-06 0.0 7.7972276e-05 7.2979883e-06
0.0 2.2200302e-05 6.2211793e-06 0.0 1.7335276e-05 1.5399984e-06 0.0 5.1230563e-06

exp_avg f4 [128]
00000000: 03e9 ddb8 1be8 4137 882f aa36 4851 d637
00000010: 1e06 93b8 ad4d 2e38 08f5 1739 a309 6ab7
00000020: dbb8 fcb7 9311 6b37 c1f1 3338 535d 73b7
00000030: 6539 6638 e667 d2b7 1639 20b9 c2d5 f2b6
00000040: a4bd 23b8 2422 9239 4483 5bb5 a1b7 7338
00000050: f895 8038 ff3d 5038 72d9 b0b7 7ac9 4538
00000060: b98d 63b9 1309 2238 76f3 ad39 24ac ea37
00000070: 5efe 1f38 1d66 1339 d4d0 0e39 f8e8 9eb7
00000080: 5c33 11b9 3608 7738 000a f3b8 25f8 a038
00000090: 212e 5f38 d96a 48b9 141d 1c37 2943 50b8
000000a0: 9a62 c637 bcb8 6cb9 8aed 4739 94b8 6138
000000b0: e03f f538 52aa ccb8 f472 f0b7 8be3 a7b8
000000c0: 35b5 ed38 c5ce 0c39 5708 bcb9 2d7f 04b8
000000d0: 2adf 9db8 45fe deb4 eece ffb8 bf7d 7239
000000e0: f740 a8b6 f551 04b9 edd0 a9b8 f457 beb8
000000f0: 67df eeb7 7c0a 25b9 ccc0 ca38 78d8 c2b8
00000100: 1030 5a39 77cf 0538 0eb2 8038 7554 0238
00000110: a2ff db38 308e 3538 fea8 0bb9 c155 ecb8
00000120: 7d7e f737 1c3d 91b9 9616 6ab8 202b 7937
00000130: ff48 f738 632a c938 df7c 6139 8df6 ecb6
00000140: 727a 6538 934b b0b8 d357 86b9 2914 12b8
00000150: 6ed7 ea36 6db5 d638 fd9a 8838 c27d 81b7
00000160: 600e b637 b771 81b8 4f16 2f37 ddcc 17b9
00000170: 5bd6 0c37 d7be 0fb7 df18 2339 953d cbb8
00000180: 5d84 50b8 4384 0139 c622 85b7 9e99 2139
00000190: 13ab 8838 cd67 8937 b937 a3b9 2931 0537
000001a0: dac9 3937 bf8c 3e38 d3c0 2738 2d66 ef38
000001b0: c486 4b38 7a40 dfb8 5a1a a6b8 a70f 7f38
000001c0: 7955 c6b7 3143 9f39 e846 4138 e695 d036
000001d0: 9fe0 3138 e9c2 8e37 0b55 63b8 0fc3 15b9
000001e0: 5fe4 d338 2383 7d37 9d5b 9c38 ed2f d537
000001f0: 20cc 4c37 d524 46b9 7fb2 4138 3e38 a6b7
-0.00010581503 1.1557738e-05 5.071928e-06 2.5548637e-05 -7.010646e-05 4.1557174e-05 0.00014491763 -1.3949731e-05
-3.0126821e-05 1.4011183e-05 4.2902077e-05 -1.4505657e-05 5.4889726e-05 -2.5082332e-05 -0.00015280055 -7.2370467e-06
-3.9038845e-05 0.00027872727 -8.1774874e-07 5.8106732e-05 6.1314495e-05 4.9648803e-05 -2.108209e-05 4.71561e-05
-0.00021701203 3.863226e-05 0.00033178524 2.7975133e-05 3.8145452e-05 0.00014057053 0.0001361997 -1.8943552e-05
-0.0001384741 5.8897036e-05 -0.000115890056 7.675615e-05 5.3210304e-05 -0.0001911329 9.305095e-06 -4.9653612e-05
2.3649354e-05 -0.00022575533 0.00019066609 5.3816082e-05 0.00011694408 -9.759203e-05 -2.8663759e-05 -8.005564e-05
0.00011334793 0.00013428468 -0.00035864368 -3.1589694e-05 -7.527911e-05 -4.1535728e-07 -0.00012197891 0.00023125763
-5.014353e-06 -0.00012619032 -8.0974634e-05 -9.0762886e-05 -2.847584e-05 -0.00015739532 9.668022e-05 -9.290961e-05
0.00020808005 3.1902888e-05 6.136681e-05 3.1073072e-05 0.00010490349 4.3286185e-05 -0.00013319027 -0.0001126933
2.9503595e-05 -0.00027702085 -5.5810982e-05 1.4851597e-05 0.000117914744 9.592322e-05 0.0002150419 -7.0620504e-06
5.471189e-05 -8.406411e-05 -0.00025623906 -3.4827888e-05 6.9988228e-06 0.000102381084 6.513854e-05 -1.5436559e-05
2.1702785e-05 -6.1723804e-05 1.0436007e-05 -0.000144768 8.394559e-06 -8.567898e-06 0.00015554157 -9.691265e-05
-4.9714337e-05 0.0001235167 -1.5871028e-05 0.00015411383 6.5168504e-05 1.6380009e-05 -0.000311313 7.938864e-06
1.10738565e-05 4.543061e-05 3.9995484e-05 0.0001141544 4.8524482e-05 -0.00010645478 -7.920405e-05 6.0811315e-05
-2.364324e-05 0.00030376905 4.6080822e-05 6.2163335e-06 4.2409283e-05 1.7018481e-05 -5.420022e-05 -0.00014282412
0.000101038015 1.5110508e-05 7.455724e-05 2.5413896e-05 1.2206874e-05 -0.00018896472 4.6181023e-05 -1.9814932e-05

exp_avg_sq f4 [128]
00000000: f141 1f33 a423 8f34 bd7d 9034 c445 bd34
00000010: 0f1c 1d33 d62c b433 f6c9 a634 ee3e 6d34
00000020: edef d233 f1a1 5e33 b194 8733 64a5 1534
00000030: a54a a834 8da6 a133 b93e 2e34 c6e5 da33
00000040: 8981 ac33 a8e6 fb34 f4e3 8633 1a01 5334
00000050: 72e1 9a34 ef85 3834 df36 be33 2bdb 8e34
00000060: 9e1b 2535 4c97 fc32 44ba 8d35 7e06 ff33
00000070: c745 9934 38db d733 fa29 0a35 69ba 2c33
00000080: eb0a 0c34 694f fa33 11e1 6d34 b4c8 5d33
00000090: 00a2 b633 9daf e734 bc0d 6233 b1bf 6934
000000a0: fe1c 3334 8558 9535 b87a 8634 0b0d 4935
000000b0: c5b7 3334 d691 ad33 85b7 6c34 1b5f 5b32
000000c0: a674 8934 8f4b 4d35 18c8 3e35 3827 e134
000000d0: 5e67 d533 c18d 2f34 8c96 dc33 addf 0d35
000000e0: b857 dd32 548b 9333 fe02 d834 92a9 b334
000000f0: 64a1 4634 e2f9 6834 55f7 cf35 aa54 ba35
00000100: a671 ab34 474f 2234 0752 4f34 006d 6d33
00000110: d355 fe34 6e08 c234 e6cf a934 67ad a534
00000120: 3c3e 1d35 da45 a235 23aa a934 88c4 5232
00000130: 00fd 5234 a30b 6334 4d3b 8634 5026 3534
00000140: a59d d834 1c41 1c33 097d a634 28e3 2334
00000150: fa58 e033 16b9 d934 9214 0d34 043c 9233
00000160: 0dc1 1233 0a4b 3e34 c822 d832 dff0 d134
00000170: 4026 9133 af78 1733 1e0b 4034 2a55 b534
00000180: 1db2 ae33 8285 aa34 071b 0a34 80a1 1235
00000190: b72c 7633 1226 3d33 895a 1c35 923e 0334
000001a0: c16d a833 3323 7433 3d91 4c34 8286 b534
000001b0: 40ff 4634 ac43 7833 c7fc 6634 1a75 cc33
000001c0: b5d4 0235 7076 a034 6aae 2534 44e4 2e35
000001d0: 4b6a 2033 787f 9333 12d1 8334 61aa 8634
000001e0: d846 b934 ea6e 1834 e517 8834 0181 1e34
000001f0: 8bdc fa33 4eb9 a034 873f 1d34 253f fb33
3.7080046e-08 2.6661758e-07 2.6913577e-07 3.5254754e-07 3.657993e-08 8.390059e-08 3.1066855e-07 2.2095239e-07
9.822529e-08 5.1835688e-08 6.313474e-08 1.3936875e-07 3.134675e-07 7.527442e-08 1.6227831e-07 1.01932116e-07
8.0329364e-08 4.6920218e-07 6.281326e-08 1.9651307e-07 2.8848768e-07 1.718506e-07 8.8575455e-08 2.6609027e-07
6.150748e-07 2.9405463e-08 1.0559529e-06 1.1875544e-07 2.854924e-07 1.0051593e-07 5.147009e-07 4.021641e-08
1.3042488e-07 1.1655977e-07 2.2154224e-07 5.163811e-08 8.504503e-08 4.3154878e-07 5.2632217e-08 2.1769553e-07
1.6681221e-07 1.1127128e-06 2.5048735e-07 7.4897315e-07 1.6737529e-07 8.082468e-08 2.2045977e-07 1.2769102e-08
2.5603111e-07 7.6478403e-07 7.107169e-07 4.193805e-07 9.937388e-08 1.6349715e-07 1.02719326e-07 5.2852084e-07
2.5767676e-08 6.8705646e-08 4.0235312e-07 3.3464727e-07 1.84989e-07 2.169759e-07 1.5494685e-06 1.388272e-06
3.1933922e-07 1.5116267e-07 1.9308219e-07 5.5279997e-08 4.7373632e-07 3.614145e-07 3.162997e-07 3.0859812e-07
5.857762e-07 1.209027e-06 3.1602494e-07 1.2268295e-08 1.9649815e-07 2.1145256e-07 2.5002592e-07 1.6870877e-07
4.0347837e-07 3.6380797e-08 3.1010885e-07 1.5263197e-07 1.04469976e-07 4.0554067e-07 1.3139132e-07 6.8095716e-08
3.4168853e-08 1.7722428e-07 2.5161526e-08 3.910454e-07 6.759046e-08 3.526719e-08 1.7885438e-07 3.3775842e-07
8.134905e-08 3.1762107e-07 1.2862084e-07 5.462425e-07 5.7317006e-08 4.4039616e-08 5.8246275e-07 1.2223089e-07
7.843074e-08 5.684269e-08 1.9051818e-07 3.3811745e-07 1.8533046e-07 5.7803547e-08 2.1512379e-07 9.520791e-08
4.8738303e-07 2.9888497e-07 1.5430274e-07 6.515222e-07 3.7349576e-08 6.868407e-08 2.455277e-07 2.5083412e-07
3.451048e-07 1.4196453e-07 2.534936e-07 1.4761828e-07 1.1681649e-07 2.993715e-07 1.4644876e-07 1.1699584e-07

exp_avg f4 [128, 128]
00000000: d318 b3b9 5e8b eeb8 6af6 e9b8 8f02 1fb9
00000010: 112a c4b9 06ba 0aba 7781 e9b8 e29b beb8
00000020: 6430 4cba 3967 75b7 3656 e1b8 adcb d838
00000030: 10fd 4939 f21a 18b9 859d b2b9 afa7 d737
00000040: 7fc5 d1b8 8789 8fb9 a50a a2b9 2efd 8438
00000050: 7544 b738 1c97 dd38 96a4 0939 da8e 29b9
00000060: 477f 54b9 1e48 1b39 b3f3 dcb9 e2c9 39b9
00000070: 2bb0 e7b7 e451 a5b9 41a7 0b36 0b88 3b39
00000080: e76b a5b8 2fab ed38 1225 20ba 08ee d838
00000090: add5 5f38 e04e d0b9 b342 bc38 db5d e3b7
000000a0: 33ab bf38 f9a4 04b8 a37a 1aba d2db 41b9
000000b0: 4c04 09ba e53d 70b9 e53b b0b9 9f32 cab9
000000c0: ebd3 a438 f9bf cb38 9a25 6fba 4511 39b9
000000d0: 7bb0 f2b8 1717 85b7 2359 9eb9 4218 43b9
000000e0: 07b7 7639 1a1f 73ba 728c 39b9 8d4a 0439
000000f0: bba1 b939 cffa c3b8 cc35 3cb8 4e86 90b9
00000100: 175e 08ba d518 9137 239d da38 b82d 0e39
00000110: cbad 9ab9 cc52 20ba 0061 09b9 fedd 7a38
00000120: aca5 3839 dc43 5db9 7bc0 b7b9 ba4f 4439
00000130: 7393 b8b9 9807 c8b9 b32c c4b9 54fb 2b39
00000140: 0aa7 1d37 d28b 89b9 7b1e 2839 1877 c2b9
00000150: 61ae 1139 cf63 ca38 0fa3 1bb9 54ca f9b9
00000160: 7018 a538 382e 1f39 d9ec 2339 c065 85b9
00000170: 6b55 1739 bb01 1837 b104 91b9 4280 0438
00000180: da15 17b9 6e73 26b9 3e09 28ba d5dd 95b9
00000190: 3011 86ba b556 8538 d3eb 35b9 f636 5539
000001a0: bc10 37ba 9f9e 0c39 8b04 2d38 42d3 71b8
000001b0: 5e80 4139 6dab 37b9 c555 f5b8 8718 fab8
000001c0: b12d c538 2442 48b9 a143 0e39 84f4 ba37
000001d0: d87b 9438 33b7 a2b9 dddf 09b9 2e72 cdb7
000001e0: ae10 93b9 927b 00ba 253b ee38 b0e3 2939
000001f0: d518 1539 933b 61b9 703a 0939 e282 8db8
00000200: 7e26 13ba 7c10 12b9 5d28 7bb9 4c31 97b9
00000210: d4f5 4aba f0c1 8aba b8b0 20b9 00ef 03ba
00000220: 245f bbba 2d32 aa37 76e6 45b9 4a45 b4b7
00000230: 29ad 8db8 c22d 93b9 3ee5 30ba de8a 7bb8
00000240: c538 8f38 9337 c4b9 b73f 3bba 65b4 a4b6
00000250: bbab a2b8 e3ae 93b8 5a99 1eb9 dfcf b4b9
00000260: 6ef5 37b9 a2d4 9cb8 15c7 69ba 74fd a1b9
00000270: 3f8a 0538 09c3 afb9 a433 e537 9290 2239
00000280: 1fe1 40b8 ddf3 ecb8 1979 81ba feb0 b238
00000290: 3e4c 1638 7689 04ba b5b2 9938 95b0 ad37
000002a0: e17f 8538 e2db 5f39 8a17 41ba e803 a2b9
000002b0: 0112 91ba c810 1cb9 9ade e2b9 d4d3 75ba
000002c0: ba2d 71b8 0ec4 15b9 c924 f5ba d0f8 3238
000002d0: e2ff 8cb8 bbf1 0b39 64d0 20ba 9a27 2db9
000002e0: f8b1 8ab8 c30a efba 0530 d238 2f6b 2ab9
000002f0: ebdb 0db8 7f17 72b9 7735 0cb9 1eea 9638
00000300: f2f5 07ba 039d 95b8 f982 dab7 9121 9738
00000310: 51a2 9bb9 920f 8fba c0cc 66b9 61f6 1939
00000320: 6430 8639 5893 03ba b15f 16ba 46ab b8b8
00000330: 757b 2eba 83b2 c3b9 340a 96b9 29b3 b1b6
00000340: 92c1 3238 9c6c 0cba 01bb 8f39 a9c6 2fba
00000350: 735e 8938 fd27 1db8 c059 39b9 db59 75ba
00000360: fe91 d237 8d07 31b8 7677 9fb8 163f 7a36
00000370: ccf8 07b9 e751 2eb8 5507 12ba 2110 1639
00000380: 27c4 c8b8 6115 2eb9 3abe 90ba 1fc8 27ba
00000390: 4110 f3ba ab3b 8ab8 5334 cdb9 23f3 4eb9
000003a0: df47 89ba 66be 5738 2f02 5e38 ec63 0f38
000003b0: 988d 8db8 657e 04b9 c458 0cba a539 77b9
000003c0: 8b0e 6039 dc9a 0bba 4329 8737 344a 0538
000003d0: 8f3c 2a38 6bfb 56ba 67e2 b6b9 f259 f3b8
000003e0: c7e5 7cb9 5e40 82ba 177f 9937 d9dd f838
000003f0: e48d 0d39 c0f8 f7b9 36f2 c1b8 aec0 37b9
-0.00034160036 -0.000113746835 -0.00011156204 -0.00015164375 -0.00037415375 -0.0005292002 -0.000111344205 -9.0889414e-05
-0.0007789193 -1.4627171e-05 -0.00010744894 0.0001033762 0.00019263127 -0.00014505888 -0.00034068167 2.5708081e-05
-0.00010002683 -0.0002737755 -0.0003090698 6.341409e-05 8.738871e-05 0.000105662475 0.00013126651 -0.00016170312
-0.0002026531 0.00014808818 -0.0004214324 -0.00017718182 -2.761938e-05 -0.00031532266 2.0809969e-06 0.0001788439
-7.8879115e-05 0.00011332926 -0.00061090395 0.000103440194 5.3366344e-05 -0.00039731618 8.976962e-05 -2.7104214e-05
9.139478e-05 -3.1624895e-05 -0.0005892908 -0.00018487804 -0.00052267755 -0.00022911241 -0.0003361396 -0.00038566158
7.859602e-05 9.715552e-05 -0.00091227295 -0.00017649408 -0.00011572331 -1.5865588e-05 -0.0003020252 -0.00018605686
0.00023528571 -0.0009274349 -0.00017695295 0.00012616273 0.00035406448 -9.345041e-05 -4.4872795e-05 -0.00027565885
-0.0005202009 1.729691e-05 0.00010424319 0.00013559207 -0.00029502655 -0.00061158533 -0.00013101473 5.981139e-05
0.00017609325 -0.00021101482 -0.0003504789 0.00018721717 -0.00035205073 -0.0003815263 -0.00037417337 0.00016401458
9.396821e-06 -0.0002623485 0.00016033083 -0.00037091295 0.00013893239 9.6507014e-05 -0.00014842696 -0.00047643727
7.872365e-05 0.0001518064 0.00015633124 -0.00025443546 0.00014432303 9.060309e-06 -0.0002766005 3.1590702e-05
-0.00014408623 -0.00015873995 -0.00064100686 -0.00028584772 -0.0010228511 6.358085e-05 -0.00017349356 0.00020333737
-0.00069833896 0.00013410531 4.1250645e-05 -5.7655627e-05 0.00018453735 -0.00017516101 -0.00011698486 -0.000119254975
9.402203e-05 -0.00019098126 0.00013567369 2.228679e-05 7.080258e-05 -0.00031035542 -0.00013148734 -2.4491073e-05
-0.00028050452 -0.0004901226 0.00011359741 0.00016201916 0.00014218998 -0.00021479865 0.00013087108 -6.747783e-05
-0.0005613341 -0.00013929786 -0.00023952262 -0.00028837693 -0.000774232 -0.0010586362 -0.00015324622 -0.0005032867
-0.0014295322 2.0288944e-05 -0.00018873237 -2.1489937e-05 -6.7556575e-05 -0.00028072117 -0.0006748027 -5.9972394e-05
6.8293455e-05 -0.0003742544 -0.0007142978 -4.9085816e-06 -7.756749e-05 -7.0420814e-05 -0.00015125182 -0.0003448715
-0.0001754367 -7.4782656e-05 -0.000891791 -0.0003089715 3.1838423e-05 -0.00033523914 2.7322974e-05 0.0001550338
-4.5986028e-05 -0.0001129878 -0.0009878009 8.520669e-05 3.5833793e-05 -0.00050558837 7.328895e-05 2.0705435e-05
6.3657535e-05 0.0002134885 -0.00073658733 -0.00030901958 -0.0011067988 -0.00014883571 -0.0004327193 -0.0009377573
-5.7501464e-05 -0.00014282783 -0.001870298 4.267023e-05 -6.723382e-05 0.00013346125 -0.0006134568 -0.00016513318
-6.613502e-05 -0.001823746 0.00010022525 -0.00016252392 -3.3821834e-05 -0.00023087671 -0.00013371358 7.196165e-05
-0.000518649 -7.1341194e-05 -2.6048614e-05 7.206493e-05 -0.0002968484 -0.0010914674 -0.00022010785 0.00014683
0.00025594526 -0.00050192093 -0.0005736305 -8.805706e-05 -0.000665597 -0.000373263 -0.0002861783 -5.295868e-06
4.2618783e-05 -0.000535676 0.00027414414 -0.0006705323 6.5502616e-05 -3.746896e-05 -0.0001767641 -0.0009359398
2.5101934e-05 -4.220712e-05 -7.603962e-05 3.7289624e-06 -0.00012967287 -4.156111e-05 -0.00055705506 0.00014311123
-9.5732794e-05 -0.00016601897 -0.001104302 -0.0006400365 -0.0018544273 -6.591467e-05 -0.00039139632 -0.00019736266
-0.001047369 5.1437317e-05 5.293096e-05 3.4186916e-05 -6.749778e-05 -0.00012635587 -0.0005353803 -0.0002357723
0.00021367722 -0.0005325505 1.6112468e-05 3.1778778e-05 4.0587558e-05 -0.00082009163 -0.00034882428 -0.000116038966
-0.00024118192 -0.0009937396 1.8298202e-05 0.00011866884 0.00013499666 -0.00047296844 -9.2480725e-05 -0.00017524019
