results/Run1/MoveThePlayer/MoveThePlayer-2999982.pt (torch, 437663 bytes, 30 tensors)

network_body._body_endoder.seq_layers.0.weight f4 [128, 6]
000000 e3 e0 ed be 28 fb 88 be 31 67 61 bf 82 fe af 3e
       -0.46460637 -0.26754117 -0.8804808 0.34373862
000010 3e 89 31 3e 30 3a 5b 3f 1c 8e 0e 3e 0b aa 78 bf
       0.1733751 0.8563566 0.13921398 -0.97134465
000020 23 93 68 3e 34 0a e9 be 5d 72 cd bd 01 0f 06 bf
       0.22712378 -0.45515597 -0.10031579 -0.52366644
000030 69 bb 4b bd c2 db c5 be 68 51 57 be 63 d0 d5 3e
       -0.049739275 -0.38644224 -0.21027148 0.4176055
000040 10 b7 e4 3e fe 8b b0 bd 96 14 20 be 41 2e d2 3e
       0.44670916 -0.086204514 -0.15632853 0.41050914
000050 bb 82 99 be d5 e1 0b 3f 9b 84 73 3f a1 dc 5f 3f
       -0.29982552 0.5464147 0.95124215 0.8744603
000060 68 60 a6 be 86 45 86 bf 0a bf f2 3e 49 9c 4f 3d
       -0.32495427 -1.0489967 0.47411376 0.050686155
000070 c5 84 85 3e c0 8a b0 be a9 93 2c be 1d de 85 3e
       0.26077858 -0.34480858 -0.16853203 0.2614602
000080 6c 28 79 3e ad 16 30 bf 35 d4 57 bd 63 ef c8 be
       0.24331826 -0.687846 -0.05269261 -0.39245138
000090 5f 34 0c be ed 98 bc be 6b 7a 39 3e 5d ca 17 3e
       -0.13691853 -0.36835423 0.18113105 0.14823289
0000a0 ca 5c ca bd 92 b4 07 3e 56 24 a5 3e c0 50 cb 3e
       -0.09880979 0.13252476 0.32254285 0.39710045
0000b0 ae d6 2b 3e b4 45 2e bf 1b dc 23 3d 04 de 8f 3d
       0.16781113 -0.6807511 0.04000483 0.07024768
0000c0 ee bf 27 bf c0 da b7 3e 5f b9 05 bf ec 1c 40 be
       -0.65527236 0.3590908 -0.5223598 -0.18761033
0000d0 8b 9e 5f 3e bc 9f 66 be 78 17 79 3e 34 bb 6c bf
       0.21837823 -0.22521871 0.24325359 -0.9247315
0000e0 12 61 9a be 85 bb 60 3e 28 89 63 bd 6c 1c aa bc
       -0.30152184 0.21946533 -0.055550724 -0.020765506
0000f0 96 b5 9a bc 52 bc 23 bf ca 54 a7 be 6b c7 3e be
       -0.018885415 -0.6395923 -0.32681876 -0.1863076
000100 78 e9 1f 3e 84 12 11 3f e0 92 5c 3e a6 5e 25 3f
       0.15616405 0.5666888 0.21540403 0.6459755
000110 2e 54 87 3e ee c8 a2 3d 57 05 d0 3e 88 00 97 be
       0.26431412 0.079484805 0.40629074 -0.29492593
000120 c5 33 35 3f c9 09 e1 3e e2 11 e7 be 6c 3f 81 3d
       0.7078212 0.43952778 -0.4513083 0.06310925
000130 0d 46 bb be 0d 9a e4 3d ba 11 00 be 01 5d 81 be
       -0.36576882 0.11162195 -0.12506762 -0.2526627
000140 74 d8 08 3a 5f a7 05 3f 1d f3 04 3f 7a 3e 7a 3e
       0.00052202423 0.52208513 0.5193346 0.24437895
000150 bd 5c 0d bf 6a fd 2d be 8e 70 5e be 2a 77 0a 3f
       -0.5521963 -0.16991201 -0.21722624 0.5408808
000160 eb e4 0f 3f e9 dc 4e be b3 79 93 3e b0 31 1b bd
       0.56208676 -0.20201458 0.28803787 -0.037889183
000170 07 d4 9e 3d 3a f7 94 be 7e 6b 17 3e 48 b6 07 bf
       0.07755285 -0.2909487 0.14787099 -0.53012514
000180 1b 7f 76 bc a0 84 c9 bc 45 46 92 be 45 84 ca 3d
       -0.015044953 -0.024599373 -0.28569236 0.0988851
000190 3f 8a 29 bf 0b be 7c 3e c5 68 6f be bf 61 d5 bd
       -0.6622657 0.2468187 -0.2337981 -0.10419034
0001a0 34 5e 69 be ec e7 b7 bd 2e 22 8b be a9 54 7f be
       -0.22789842 -0.089797825 -0.27174515 -0.24934639
0001b0 bf 0f 35 be 95 a1 00 be 1b 84 1f 3f c3 14 39 be
       -0.17681788 -0.12561639 0.6231095 -0.18074326
0001c0 d8 97 13 3f d1 18 a6 3e 49 1d 76 3e 18 cf 4b 3e
       0.5765357 0.32440808 0.24034609 0.19903219
0001d0 5f d7 d2 bd 08 c7 54 3b 08 73 a2 3e 56 3e 01 bc
       -0.10294985 0.0032467265 0.31728387 -0.007888397
0001e0 b0 6b f2 3e 22 9b 44 3e 3a 8c 09 3e 42 b1 76 be
       0.47347784 0.19199803 0.13432398 -0.24091056
0001f0 4e 3d e5 3d 65 f2 ec be 87 15 3c 3f 76 09 78 be
       0.111933336 -0.46278682 0.7347035 -0.24222359
000200 91 97 99 3e af 77 0a be e0 6e ab bc 00 bc 39 3f
       0.29998448 -0.13522218 -0.020926893 0.7255249
000210 26 6f 44 3f 80 6c 8c 3e 28 fe 85 be 57 9d b4 be
       0.767321 0.2742653 -0.26170468 -0.3527629
000220 ff dd 88 bc e4 64 ba bd aa 71 71 be f3 31 1f bf
       -0.016707418 -0.091012746 -0.23578516 -0.6218559
000230 d5 00 10 3e ab 7e c6 3e 6f df 7c 3e e6 f3 61 be
       0.14062817 0.38768515 0.24694608 -0.22065696
000240 3d d0 78 be d8 cd 79 3f bb af 24 bf 4a df 18 3e
       -0.24298187 0.9757972 -0.64330643 0.14928928
000250 85 d9 43 bd 43 0b b9 be 57 25 68 3f ce 94 be bd
       -0.047814865 -0.36141405 0.90681976 -0.09305726
000260 b6 a7 93 be 58 49 15 3e a2 a7 1b 3f ee 9c 5a bf
       -0.2883889 0.1457876 0.6080266 -0.85395706
000270 e0 9c 9c 3d 89 37 98 3e c3 e6 b1 3e dd fb 44 bf
       0.07647109 0.2972987 0.3474637 -0.7694681
000280 c1 c1 c6 be f9 9e cf 3d ca f9 90 bd 39 55 08 be
       -0.38819697 0.101377435 -0.070788935 -0.1331376
000290 79 36 af 3e 8f 59 9e be ea 65 52 be 28 b5 50 be
       0.34221247 -0.30927703 -0.2054669 -0.20381606
0002a0 8f 1d 60 bd e5 0a ac 3d 2f b7 5a 3d 57 81 d3 3e
       -0.05471569 0.084005155 0.053397354 0.41309616
0002b0 d6 d4 91 3d 6f b4 ea bd 95 e1 8f be 98 61 a9 3d
       0.07120673 -0.11460196 -0.28101793 0.08270568
0002c0 95 3f 23 be 5b fa ef bc 41 6f cf be 49 bb 98 be
       -0.15942223 -0.029294183 -0.40514567 -0.29830387
0002d0 e8 8f 85 3e a2 39 0b bf 13 3b bd 3e c7 2b f4 bd
       0.26086354 -0.54384816 0.36959133 -0.11922412
0002e0 e2 f8 85 be b7 3e 6e 3e 3e 8d c2 3e f3 a4 70 3e
       -0.26166445 0.23266111 0.37998384 0.23500423
0002f0 36 45 cb 3e dc 8f 06 3f bf 8e 1b 3f 98 04 66 3e
       0.3970124 0.5256326 0.6076469 0.2246269
000300 1e 93 2a be f4 c6 d8 3e 6d 8f 01 3e 17 f9 e9 3e
       -0.16657683 0.4233929 0.12652369 0.45697853
000310 33 b2 90 3e a0 24 19 3f 6b 50 31 3f ba cd f6 3d
       0.28260955 0.5982151 0.69263333 0.12050958
000320 2d 01 7e 3e bf 34 58 be 12 f0 05 3e 58 63 a4 be
       0.24805136 -0.21113871 0.13079861 -0.32107043
000330 e1 92 1e bf de e5 cd be a1 6b 26 be 46 c8 1b 3e
       -0.6194287 -0.40214437 -0.16251995 0.15213117
000340 af 78 b8 bd ad 28 d5 3c 09 c8 18 3f 91 21 1d bf
       -0.090073936 0.026020372 0.5968023 -0.61379343
000350 c8 53 ed bd 64 fb bd 3e 57 e3 bf 3d da c6 e7 bd
       -0.11588246 0.37105858 0.093695335 -0.11317225
000360 f8 45 89 3e fc 6e 89 be 21 79 f6 3e 7d 40 77 bd
       0.26811194 -0.26842487 0.4813929 -0.060364235
000370 41 1c da be 98 d8 ee be 65 72 f3 be 0b 55 17 3f
       -0.4259968 -0.46649623 -0.47548214 0.5911414
000380 a1 e5 cf be 42 4b d9 3e f1 00 64 3e 2a 1b 34 3f
       -0.4060488 0.4244023 0.22265984 0.7035395
000390 c7 9d a5 3e 1c 0e 39 be d9 4c 51 3e e6 21 86 3e
       0.32346937 -0.18071789 0.20439471 0.26197737
0003a0 ca 89 aa bd ae eb 5d bd f8 05 e7 3d 61 7d b6 3e
       -0.083270624 -0.05417984 0.11280435 0.35642532
0003b0 07 06 a6 3e 4d 8a 82 bc a0 44 21 bf e7 28 be 3e
       0.32426473 -0.015935088 -0.6299534 0.3714058
0003c0 5f d5 9e 3e d1 67 b1 3d 22 0f ae 3e 8c 3d 53 3e
       0.31022164 0.086623795 0.3399592 0.20628947
0003d0 70 fd 1b bf 5f 28 cd 3d 0d d6 18 be 95 80 24 3f
       -0.6093359 0.10017466 -0.14925404 0.642587
0003e0 02 22 48 be c5 2c aa 3e 08 5f 6c be c7 e9 fb 3e
       -0.19544223 0.3323728 -0.23083127 0.49201795
0003f0 01 1c 13 bf 82 14 34 3e bd 3f 32 3e 3b 96 ee 3d
       -0.57464606 0.17585948 0.17407127 0.11649748

network_body._body_endoder.seq_layers.0.bias f4 [128]
000000 9b d9 94 3b a0 67 0b ba d6 15 42 bc a7 d7 01 bd
       0.004542542 -0.00053178705 -0.011846026 -0.031699803
000010 07 80 7d 3c 4f ba 69 3a 28 c0 c6 ba a0 13 32 bc
       0.015472419 0.0008916007 -0.0015163468 -0.010868937
000020 ff 9b 5f bc bb 8a 91 bc 40 92 2c 3c b3 e5 b2 3c
       -0.013648032 -0.017766347 0.010532916 0.021838045
000030 50 5c 75 3b 5c 34 fe 3c a9 f2 09 3d 8c cf 9f bb
       0.0037439056 0.031030826 0.033678684 -0.0048770364
000040 1a 43 12 3c 62 a4 a6 bb 75 81 46 3c d9 76 83 ba
       0.008927131 -0.005085514 0.012115826 -0.0010029926
000050 c4 21 06 3c 28 22 d1 3b e7 98 6f bc e8 aa 05 3c
       0.008186761 0.0063822456 -0.014623857 0.008158423
000060 46 f8 cc bb 56 cd 0f bc 75 8b 08 bc b9 8a 3f bc
       -0.0062551824 -0.008776983 -0.00833403 -0.011690789
000070 70 b9 8d 3b b3 b2 ae bc e1 c3 2c bb 9b e2 ab 3b
       0.0043250844 -0.021325445 -0.002636187 0.0052455193
000080 5d 0c 4a 3c e6 e7 dc bc df 18 89 bb 87 a1 cf bb
       0.012332049 -0.026966047 -0.004183873 -0.006336394
000090 ff 8a d1 3c 02 80 96 bb 8a e2 e9 3c 28 04 cb 3b
       0.025578974 -0.0045928964 0.028550405 0.006195564
0000a0 85 c5 d4 3b 9c 98 92 3b 5f ea 4b bc 54 1b 02 bb
       0.0064932727 0.004473759 -0.012446015 -0.0019852715
0000b0 f6 22 d8 39 ca 00 80 bc 37 86 da bb 48 6a 96 bb
       0.00041224778 -0.015625376 -0.0066688317 -0.0045903064
0000c0 2c e2 1b bc b5 26 30 3b f5 14 81 b7 13 ca ee 3c
       -0.009514373 0.002687854 -1.5387757e-05 0.02914909
0000d0 da 2b 98 bc f6 57 c6 bc d7 96 c0 bc 46 7d d6 3c
       -0.018575598 -0.024211865 -0.023509426 0.026182782
0000e0 fd c6 59 3c 46 af 33 bc c9 ee 2b 3d e3 aa c7 3b
       0.013292071 -0.010967081 0.04197577 0.0060933693
0000f0 4c 44 fe bb 22 e7 e2 3b b2 e2 2c 3d 32 34 9b 3c
       -0.0077596065 0.006924526 0.04220838 0.018945787
000100 af 8b 8c ba 61 37 11 3d 85 d5 e2 ba 85 0f fd bb
       -0.0010722781 0.035453204 -0.0017306065 -0.0077227973
000110 2d 95 9d 3c 80 af 72 bc 14 18 0a 3c ac 9a 0c bc
       0.019236172 -0.01481235 0.008428592 -0.0085817985
000120 f1 80 d9 3c fa 47 db 3c d0 09 a9 3c 04 c7 bc bc
       0.026550742 0.02676772 0.020634562 -0.023044117
000130 dc 64 51 bc 09 b6 9b bc 95 78 66 3c e9 32 be bb
       -0.012780394 -0.0190077 0.014066835 -0.005804409
000140 8c bd 29 3c bf 48 9c 3c cc 09 2f bd 85 a2 d8 bb
       0.010360133 0.019077657 -0.042733952 -0.0066111707
000150 4a c1 2e bc 60 cb ad bb 9f 7b b0 3d d8 52 fa ba
       -0.010666201 -0.005303785 0.08617329 -0.0019098176
000160 c6 ba 46 bc e1 dc 7f bb f5 04 7c bb aa d7 9e bc
       -0.012129491 -0.0039041566 -0.0038455103 -0.019389946
000170 0c 0b 76 bc f0 8b fa 3c 2d cb b3 3c 0d 64 80 3b
       -0.015017282 0.030584306 0.021947468 0.003918177
000180 58 af 51 bc 18 f5 16 3d b7 da 0d ba 9e b7 5b bc
       -0.012798153 0.036854833 -0.0005411314 -0.013410477
000190 b0 3d a1 bc cb aa 31 39 a8 48 31 3d 8d b0 83 bb
       -0.019682735 0.00016943661 0.04328218 -0.004018849
0001a0 61 c4 4e bc 58 1a d2 3b 1c 78 b5 3c 58 4f 04 3b
       -0.012620063 0.006411832 0.022152 0.0020188894
0001b0 c6 4f be 3c 15 9e 1e 3a e6 b8 29 3d d8 92 48 3c
       0.023231398 0.0006050778 0.0414361 0.0122420415
0001c0 7c ad be 3c ae 17 07 3c f5 e9 23 3b 5e a8 8e 3c
       0.023276083 0.008245392 0.0025011275 0.017414268
0001d0 17 28 84 bc b7 3f bb 3c f1 3d e7 3c 51 3b 35 3d
       -0.016132398 0.02285753 0.028227778 0.04424602
0001e0 51 67 eb 3c 1d 16 05 bc f6 ef 93 39 fb e4 b7 bc
       0.028735789 -0.008122948 0.0002821681 -0.022448054
0001f0 fb 83 bd bb 1e b7 01 bc b9 44 11 bc de 7f 89 3b
       -0.0057835556 -0.007917194 -0.008866482 0.004196151

network_body._body_endoder.seq_layers.2.weight f4 [128, 128]
000000 7a 2c 8e bd f4 10 0f bd bb 19 7e bd 00 49 96 3d
       -0.06942077 -0.034928277 -0.062036257 0.073381424
000010 3b d4 1e bd 88 55 3c 3d 7c bc d5 bc 06 38 cb bc
       -0.038776617 0.045980006 -0.026090853 -0.024806987
000020 89 91 ae bb 26 e4 89 3d 3f ad a2 bd 5b b4 b6 bd
       -0.0053274077 0.06732969 -0.079432 -0.08921119
000030 9f e4 f7 3c 3e 6c 9f 3c 7e 48 44 3d 86 b5 10 3d
       0.030260382 0.019460794 0.047920696 0.035329364
000040 54 51 cc 3c 2b 05 41 3e b5 c8 0e 3d db 0f d7 3d
       0.024941124 0.18849628 0.034859378 0.10501071
000050 ad 56 f4 bd 24 dd db bc ca 4f 8a bd e5 ce 76 3c
       -0.119305946 -0.026838847 -0.067535 0.015063976
000060 85 87 14 3e b7 5b d3 3d ee d1 b0 bd af 1e 46 3c
       0.14504822 0.103202276 -0.08633791 0.0120922765
000070 8a 46 23 3b 17 40 1b be fd a2 34 3c 92 b4 ed 3d
       0.002491387 -0.15161167 0.011025188 0.11606707
000080 2a 59 03 3e ee cd 78 bc 2e 6e e7 3d 3f 8d 26 3d
       0.12826982 -0.015185816 0.11300312 0.040662047
000090 9a a9 8f 3d 69 e9 9a 3d 88 03 c5 bd 45 a4 8f 3d
       0.07014771 0.07564051 -0.09619814 0.07013754
0000a0 ea ad d6 3d 5e f1 29 be 00 1d 14 be 9d 80 19 be
       0.1048239 -0.1659598 -0.14464188 -0.14990468
0000b0 17 fa d5 3d af 19 19 bc 74 46 d7 3c 48 65 bf 3d
       0.104480915 -0.009344502 0.026278712 0.0934549
0000c0 4a eb 03 3d 8f 10 31 bc 7d a2 bf 3d 80 b9 e5 bd
       0.03220681 -0.0108071705 0.09357164 -0.11217022
0000d0 25 db 0e be f0 13 97 3d 6e cc 50 bd 19 1d 9c bd
       -0.13950785 0.0737685 -0.05097621 -0.076227374
0000e0 24 f0 b4 3b 0d 8f 54 bd 65 80 06 3d e9 52 86 bd
       0.005521791 -0.051894236 0.03283729 -0.065587826
0000f0 bb 5e 88 3c 6b bb 3d bd 6f 40 50 3d ac 3a 2a 3c
       0.016646734 -0.046321314 0.0508427 0.010389965
000100 73 6b e9 bd c8 93 b7 3c bf 88 a7 bd a2 8a 41 bc
       -0.113974474 0.022409335 -0.08180379 -0.011812838
000110 e7 d6 69 3d f1 eb cb 3d 78 95 c0 3c 99 83 82 bd
       0.057089712 0.099571116 0.023508772 -0.063727565
000120 8a d4 fc 3d 96 9e 01 3e 8b ad 6a 3d 4c 3d ab bd
       0.12345226 0.12658152 0.05729441 -0.08361301
000130 ec 06 9f 3d 7d 26 cb bc 07 f6 de bb d8 36 88 bd
       0.07764992 -0.024798626 -0.006804231 -0.066510856
000140 4c 3a 27 3d 88 af 32 3d 33 01 95 3d 25 c5 89 bd
       0.04082708 0.04362443 0.07275619 -0.067270555
000150 dd ac 9e 3c 42 bd 8e 3d e3 e3 b8 3d c7 80 f3 3d
       0.019369537 0.06969692 0.09027841 0.11889797
000160 a8 0f 8b 3d 13 73 f2 3d ce 9b 10 be f9 49 b4 bc
       0.067900956 0.11838355 -0.14121935 -0.02200793
000170 91 ed 2e 3d ab cf 9a bd e3 52 25 bd 3c e6 61 3e
       0.04270703 -0.07559141 -0.04036225 0.22060484
000180 8a 62 9d 3c 17 a7 43 3d 80 a5 15 3e 94 4c f0 ba
       0.019212026 0.04776677 0.14613914 -0.0018333369
000190 d3 1b 23 be 24 e7 b2 bd 74 4d eb bc fb e4 cb 3d
       -0.15928583 -0.08735493 -0.028723456 0.09955784
0001a0 e0 2b ff 3d 43 65 c3 3d 54 00 ea 3b 96 2c dc 3d
       0.1245954 0.095407985 0.0071411524 0.107506916
0001b0 0a b5 38 3d f4 74 5e 3d 74 49 15 be b6 fa 46 3d
       0.045094527 0.054310754 -0.14578801 0.04857894
0001c0 52 9d b2 bd 60 cc ce bd 26 28 d5 bc 01 54 39 3d
       -0.08721413 -0.10097575 -0.02602012 0.045246128
0001d0 f7 7c a9 3b b9 c1 14 3e a8 0e b2 3c 23 48 b6 3b
       0.0051723677 0.14527024 0.021735504 0.0055627986
0001e0 2d 9c 09 3e 1a 8f 10 3e 9a d3 31 3d 31 ae 25 be
       0.13438483 0.14117089 0.04341469 -0.1617973
0001f0 15 2e be bd 34 5f 1a 3e 32 f4 7c 3c a3 bd b9 bc
       -0.09286133 0.1507538 0.01543908 -0.022673434
000200 02 e3 88 ba e3 db c2 bc 3d 5b 1a bd 7a 73 ef 3c
       -0.001044363 -0.02378649 -0.037684668 0.029229868
000210 b8 0c 9d 3d 95 4a 83 3d d9 ad f1 bd e6 9e b6 3c
       0.076684415 0.0641071 -0.11800737 0.022292566
000220 70 10 c4 bd d0 7b c8 3c ca 70 24 3c cd ae af 3c
       -0.09573448 0.0244731 0.010036657 0.021445656
000230 a4 bc 5d 3d 5a d3 d1 3d 89 db 91 3d 99 30 2a 3b
       0.05413498 0.1024539 0.07121951 0.0025968908
000240 7d 08 87 be d0 77 ac bd ad 89 88 3d b9 57 0f bc
       -0.26373664 -0.0842129 0.066668846 -0.008748942
000250 73 92 a5 3b 33 f3 b2 bd 11 99 08 be c6 ea 8d 3d
       0.0050528585 -0.08737793 -0.1333964 0.06929545
000260 12 d6 46 3d 04 b2 4f bb 0a 68 e2 3d 61 ff 58 3c
       0.048543997 -0.00316918 0.11055 0.013244481
000270 c1 4c b9 bb 2b e3 43 3d af 90 3a bd bf e3 cb 3d
       -0.0056549017 0.047824066 -0.045548137 0.099555485
000280 5c 74 f1 bc d5 db 8b 3d af 25 32 bd e7 2b bb bd
       -0.02947443 0.06829039 -0.04349297 -0.09139233
000290 83 19 79 3d 9a f6 7e bd 16 3c 05 3e e5 b8 51 be
       0.060815345 -0.062246896 0.13011202 -0.20480688
0002a0 85 2b 4a 3e af 37 8c bd b0 7d 94 3d 00 6d 98 3d
       0.19743164 -0.06846558 0.072505355 0.07442665
0002b0 18 27 38 3d 92 e8 c3 bd cd a4 90 3d dc b1 43 3d
       0.044959158 -0.09565844 0.07062683 0.04777704
0002c0 f0 7b 9c bd 40 6b b1 bd 42 d5 4f 3d a4 8e 4a be
       -0.07640827 -0.086630344 0.050740488 -0.19780976
0002d0 07 88 4a be 0f b7 93 bd 18 a0 bd 3d 22 4a b4 3c
       -0.19778453 -0.0721265 0.09259051 0.022008006
0002e0 72 b5 fd 3d 18 74 2d 3d 0e a9 36 be 5b 52 83 bd
       0.123881236 0.042347044 -0.17837927 -0.064121924
0002f0 2b 82 b3 3d 31 ac 1a 3e 53 3b 17 be 7b 86 38 bd
       0.08765062 0.15104748 -0.14768724 -0.045050126
000300 70 fe 02 3d 2a b9 cb bc f8 30 4e bd cb 68 f2 b9
       0.03198093 -0.024868567 -0.05033967 -0.00046235914
000310 a8 ac e3 3b e2 0e a9 bd ec 40 44 bc f6 6f 09 3e
       0.0069480725 -0.08254792 -0.011978369 0.13421616
000320 47 c7 ea 3c 92 58 e8 3c d9 6b ec 3d a0 71 30 bd
       0.028659476 0.028362546 0.11544008 -0.04307711
000330 5c 3d ee 3c 57 c0 2a 3d c1 f5 25 3d 2e 7b 00 be
       0.029081993 0.041687336 0.040517572 -0.1254699
000340 0c c5 ab bd 86 57 00 3c 49 d9 d8 3d 9c 1d 99 3c
       -0.08387193 0.007833367 0.10588319 0.018690877
000350 9d 6e 30 be 4a 02 c7 bd 8c b3 43 bd 65 a9 72 3c
       -0.17229696 -0.097172335 -0.04777865 0.014810895
000360 11 89 46 3d d2 d5 ab 3d 20 6f 5c bd 7e 12 a4 3d
       0.04847056 0.08390392 -0.053816915 0.080113396
000370 96 e5 57 bb 1d d1 34 bd e6 99 87 bd 54 aa e5 bc
       -0.003294324 -0.04414474 -0.06621151 -0.02803532
000380 24 e8 7e bd 4b 2d 81 bd f1 ca c4 bd fd c2 c0 3d
       -0.062233105 -0.06307467 -0.096090205 0.09412191
000390 4d db ec 3d 79 04 9c bd 67 4f ea 3c e4 0e f2 3a
       0.11565266 -0.076180406 0.028602315 0.0018467573
0003a0 85 4b eb bd a7 7d a0 bd f1 68 b1 bc e2 1c 9c bd
       -0.114890136 -0.07836466 -0.021656485 -0.076226965
0003b0 98 d2 bc bd 57 3f c2 3d 34 43 63 3e 4b 3d 16 bd
       -0.09219855 0.09484737 0.22193605 -0.036679547
0003c0 7c ff e7 bd 02 94 65 bd e6 8b a3 bd af e3 f0 3d
       -0.11328027 -0.056049354 -0.07985668 0.11762177
0003d0 20 81 1a bd a0 1c b8 3d b5 fc 7f 3d db 11 f5 3d
       -0.0377208 0.08989835 0.06249686 0.11966296
0003e0 83 a2 19 be ac 5b 5c 3c c2 05 6b bc 97 08 ce 3c
       -0.150034 0.013449591 -0.0143446345 0.02515058
0003f0 bd ff de 3d 36 51 93 3d 4a 84 87 3d b7 f7 f5 bc
       0.10888622 0.07193224 0.06617029 -0.030025346

network_body._body_endoder.seq_layers.2.bias f4 [128]
000000 72 3e 99 bb d6 5e c0 3c 19 70 20 3c 6a 78 84 3c
       -0.0046766335 0.023482721 0.009792351 0.0161707
000010 36 f4 a3 3b ed d2 67 3c ea e6 14 bc 0c 83 cc 3b
       0.0050034774 0.01414941 -0.009088257 0.006241208
000020 35 3c 88 bc 05 ab 00 3a c4 4a d0 bb 2f 3f 7f bb
       -0.016630271 0.00049082964 -0.006356569 -0.0038947572
000030 84 95 2c 3a bc 7e 98 bb 76 5a ff 38 25 e1 ae 3b
       0.0006583559 -0.00465378 0.00012176197 0.005336898
000040 94 7d e9 ba ac 27 f7 bb be e5 2e 3b ee ff cc bb
       -0.0017813914 -0.007542571 0.002668723 -0.006256095
000050 a0 d7 a3 3b 36 03 c7 3b c6 9e 84 39 75 71 c2 bb
       0.0050000697 0.006073381 0.00025295297 -0.0059339353
000060 86 1b c4 ba 6f d3 92 bc 86 b3 69 bb c1 bf 8c 3b
       -0.0014961816 -0.017923085 -0.0035659983 0.00429532
000070 3d 19 0f 3c d0 fb a8 ba 88 a0 92 3c c3 94 af 3a
       0.008734045 -0.0012892429 0.017898813 0.0013395775
000080 32 6e 8f bc ca 18 2e 3b 26 c6 ba 3b 63 fe 63 bb
       -0.0175086 0.0026565068 0.0056998907 -0.0034789077
000090 2e 9e 4a bb ac 91 d3 3b eb 47 04 3c 51 4c 0b 3b
       -0.0030917036 0.0064565744 0.008073787 0.0021255205
0000a0 25 c1 6d bb 4d c4 69 38 b8 86 da ba 35 e5 7f 3c
       -0.0036278453 5.573435e-05 -0.0016672229 0.015618612
0000b0 8b d7 ae 3b 71 37 eb 3b 8c 7f 9c bb 87 52 2a bc
       0.0053357533 0.00717824 -0.004775947 -0.010395653
0000c0 8f 96 8b bb c7 e4 1d 3c 69 28 e7 bb d7 ac 9c 3b
       -0.0042598913 0.009637064 -0.007054378 0.0047813463
0000d0 2c a8 f6 bb 6f 5d 3b 3c 42 f3 46 bc 43 a6 15 3c
       -0.007527372 0.0114358505 -0.012142958 0.009133878
0000e0 35 d6 d2 b9 36 99 30 bc 0d cd 70 bb c4 cf 09 bc
       -0.00040213918 -0.010778716 -0.0036743314 -0.008411352
0000f0 2a 89 bd ba 01 15 ab 3b b1 3b 62 bc c7 d4 97 b8
       -0.0014460434 0.0052210097 -0.013808177 -7.239874e-05
000100 1f 9a 8b 3b 63 4b 12 3c 48 05 68 bc 76 b5 eb bb
       0.004260316 0.008929106 -0.014161415 -0.0071932627
000110 ca 31 eb ba 3a 9f cc ba 07 8a 36 ba 30 f8 83 3b
       -0.0017943915 -0.0015611418 -0.00069633167 0.004027389
000120 45 56 16 3b e1 fc 34 bc 1c 98 6d bc 43 7c 62 b9
       0.0022939604 -0.011046619 -0.014501598 -0.0002159933
000130 27 a1 de 3b 5d 7f 37 bc e9 c9 36 bb 43 9b 82 bb
       0.006794113 -0.011199799 -0.0027891344 -0.003985794
000140 b2 f3 fe 3b f8 15 52 bc 64 49 cb 3b 43 87 bf bc
       0.0077805156 -0.012822621 0.006203817 -0.023379928
000150 21 f1 92 bb cb 9a 0f 3a bf 2a 60 3b e7 56 3b 3b
       -0.004484311 0.0005478083 0.0034205166 0.0028585733
000160 46 da 25 bc 6a 4e 4a 3c e4 79 d3 bb c2 36 44 3c
       -0.010122841 0.012347797 -0.0064537395 0.011975946
000170 a6 8a d4 bc 52 f2 98 3b 9e cc 0d bb a4 62 26 3b
       -0.025945019 0.0046675587 -0.0021636854 0.0025388384
000180 83 0a ac 3c 18 94 be 39 0e cb 04 3b 2a 92 9a 3a
       0.021001106 0.00036349962 0.0020262632 0.0011792828
000190 47 7a ab bb 7b b8 d6 bb a7 85 c3 bb 93 68 f2 bb
       -0.0052330825 -0.0065527535 -0.0059668603 -0.00739772
0001a0 22 f4 22 bb 5b 81 8f ba da f9 2a bc 30 72 d8 3a
       -0.0024864753 -0.0010948585 -0.010435546 0.0016513523
0001b0 9f cc 1f bc 9d 1a 2a 3b 02 79 55 bc 5b 6f c2 bb
       -0.009753375 0.0025955804 -0.013029339 -0.0059336848
0001c0 b6 9f c2 3b 69 95 c1 bb 6c c1 dd bb 3e 9d 46 3c
       0.005939449 -0.0059077037 -0.0067674424 0.01212245
0001d0 f6 ab e9 3b 86 6b b1 bb 10 4d 3f 3c 8b 5f 0c 3c
       0.007131095 -0.005414429 0.011676088 0.008567701
0001e0 a5 cc 41 bc 08 be dd ba e5 06 3a bc 8f 1e 9f bb
       -0.011828576 -0.0016917596 -0.011354183 -0.004855938
0001f0 58 98 8e 3c 57 2d 13 bc 5a eb 82 3a 59 4b 20 bc
       0.017406628 -0.008982978 0.0009988353 -0.009783589

action_model._continuous_distribution.mu.weight f4 [1, 128]
000000 62 40 8d 3c be 9f 35 3d 6e a1 04 3d 23 12 59 bd
       0.017242614 0.044341795 0.032380514 -0.052995812
000010 b7 c7 08 3d 56 93 4e bd 8b 83 23 bb c5 d6 bc 3c
       0.033393588 -0.05043348 -0.0024950232 0.023051629
000020 6d 67 54 bb 07 cf 32 3c f6 eb ca bc c3 ea 61 bc
       -0.003241028 0.010913617 -0.024770718 -0.013788882
000030 d8 28 8e bc 38 36 a5 bc 86 30 ef 3b 8e 28 3c bd
       -0.01735346 -0.020167455 0.0072994856 -0.045937113
000040 e8 ac a3 bc da a5 89 3c 36 af bf 3c c4 5f ae bc
       -0.019979909 0.016802717 0.023398977 -0.021285899
000050 45 07 04 3d 5e 14 30 3d c0 15 8f bc 31 58 83 bc
       0.032233495 0.042988174 -0.017466426 -0.016033264
000060 15 3a 04 bd 05 af a6 bc 11 ef 93 3c 2c 41 15 bd
       -0.032281954 -0.020347128 0.018058332 -0.036439106
000070 fd bc 77 bc 6e 52 1d 3d 17 b6 0b bd 79 f7 c6 bc
       -0.015120742 0.03840869 -0.0341092 -0.024287926
000080 21 6f d3 bb 15 aa e2 3c 23 8a 2d bd 0a 94 e6 bc
       -0.0064524566 0.027668992 -0.042368066 -0.028146762
000090 47 61 1d 3d 16 3f 04 3d b0 33 54 3d a4 e9 ae 3c
       0.03842285 0.032286726 0.051807106 0.021351643
0000a0 10 06 75 bc 05 f0 45 bd e7 1f d1 3c 2d a7 81 3d
       -0.014955059 -0.048324604 0.025527908 0.063307144
0000b0 60 5c 03 3d 50 72 64 bd b7 18 24 bd be 8a 98 bc
       0.032070518 -0.05577308 -0.040062632 -0.018620845
0000c0 18 6e a9 3c 85 75 2a bd bf 66 fa 3a c6 27 ae 3c
       0.02068238 -0.04161598 0.0019104107 0.0212592
0000d0 2c e5 0c bc ae 6f 0a 3d 19 67 18 bc 9b b7 c0 3c
       -0.008599561 0.033797912 -0.009301924 0.02352505
0000e0 f9 f6 fe 3c 5e a3 df bb c7 fe 4c 3c 4b 33 a3 3c
       0.031123625 -0.006824895 0.0125119155 0.01992192
0000f0 cd 5b 24 bd 79 2f 3e 3d c0 89 9a bc 4e ed fe bc
       -0.04012661 0.046431992 -0.018864512 -0.031119015
000100 bd 57 d4 3c 5c a4 bf 3d 7c e5 2e 3b 62 eb 2d bd
       0.025920743 0.09357521 0.0026687076 -0.042460807
000110 03 4d c0 bb 1e b7 01 bd d0 84 47 bc c1 1f 83 3c
       -0.0058685555 -0.031668775 -0.012177661 0.016006352
000120 8c 21 0c 3d 99 00 7a bb 63 c7 34 bd df 85 d2 3c
       0.03421168 -0.003814733 -0.044135462 0.0256986
000130 21 50 4e 3d f4 82 1b bc aa ce d5 3c de 27 bb bc
       0.050369386 -0.009491671 0.026099522 -0.022846159
000140 a5 d8 3f 3d bf 10 93 bb 86 48 2d bd 3a 64 08 3b
       0.046837468 -0.0044880803 -0.042305492 0.0020811693
000150 0a 37 c6 bd a0 79 20 bd 2a f9 82 3c 76 f3 5b 3c
       -0.096784666 -0.03917849 0.015987951 0.013424745
000160 04 ed 48 bc e7 76 e9 3c e4 75 84 3a 64 39 75 bd
       -0.01226354 0.02849908 0.0010105935 -0.059869185
000170 4f 4e d1 ba eb 5a 1a 3d e0 a2 2d bd 90 40 47 bd
       -0.0015968772 0.037684362 -0.042391658 -0.048645556
000180 00 00 28 bd 6b 35 db 3a 10 e2 0b bd 90 27 6c 3d
       -0.041015625 0.0016724294 -0.034151137 0.057654917
000190 47 d1 d3 bc f9 a6 83 3b 77 0a 78 bd 59 21 d7 bc
       -0.025856627 0.0040177074 -0.060556855 -0.026261019
0001a0 a8 1f 95 bc c8 25 85 bc a1 8d 1c bd af 6f 89 3c
       -0.018203571 -0.016253367 -0.038221005 0.016776888
0001b0 97 d0 7d bc 6e fd ad 3c 48 b0 46 bb 1b b5 cf bc
       -0.015491626 0.021239009 -0.0030317474 -0.025354913
0001c0 2e d3 9c bd 5f b2 1c bd 21 35 05 3d f9 07 b0 3c
       -0.07657467 -0.038256045 0.03252137 0.021488177
0001d0 5c 15 91 bd a6 33 e4 bc 59 70 26 bd 8c aa 45 bd
       -0.07084152 -0.02785666 -0.040634487 -0.04825835
0001e0 3d 14 07 3d ee c8 5a 3c 0c f7 6b bd e8 c7 8c bc
       0.032978285 0.013353569 -0.05760865 -0.017185166
0001f0 27 8c 80 3d 2e 9a 32 bc 64 1d 44 bd 60 10 cf bc
       0.06276732 -0.010901017 -0.04787959 -0.025276363

exp_avg f4 [128, 6]
000000 1d 22 69 b9 48 9f be b7 00 00 00 00 3a 06 73 b9
       -0.0002223332 -2.2723936e-05 0.0 -0.00023176605
000010 2e f2 b5 b8 00 00 00 00 25 0c a1 3a 34 09 18 39
       -8.675862e-05 0.0 0.0012286945 0.00014499278
000020 00 00 00 00 c3 fb b8 b8 40 79 94 b9 00 00 00 00
       0.0 -8.820698e-05 -0.00028319098 0.0
000030 99 e9 74 3a 44 5e 0a 3a 00 00 00 00 73 1f 9c 3a
       0.000934267 0.0005278329 0.0 0.0011911228
000040 b2 8e 44 3a 00 00 00 00 40 5c 11 3b 53 ef 57 39
       0.000749807 0.0 0.002218023 0.00020593153
000050 00 00 00 00 30 a2 c5 3a d3 a0 ad 39 00 00 00 00
       0.0 0.0015078243 0.00033116955 0.0
000060 a2 3d 60 ba 6b 53 00 38 00 00 00 00 a5 54 ea b9
       -0.0008554106 3.0595267e-05 0.0 -0.00044695023
000070 d2 90 c0 b8 00 00 00 00 41 5f 53 3a a0 44 a7 39
       -9.182248e-05 0.0 0.0008063205 0.00031903852
000080 00 00 00 00 2c 23 c2 b8 98 da 31 b9 00 00 00 00
       0.0 -9.257192e-05 -0.00016961468 0.0
000090 6e c2 d5 b7 7c 48 93 b7 00 00 00 00 40 51 68 39
       -2.5482117e-05 -1.7557519e-05 0.0 0.00022155512
0000a0 d6 be 50 39 00 00 00 00 82 b4 67 3a 02 00 37 39
       0.00019907518 0.0 0.00088388484 0.00017452243
0000b0 00 00 00 00 29 81 b1 37 24 85 9d 38 00 00 00 00
       0.0 2.116019e-05 7.511143e-05 0.0
0000c0 c3 78 e5 38 0a a3 3a b9 00 00 00 00 c8 b4 4e b9
       0.000109420645 -0.00017799079 0.0 -0.00019713037
0000d0 a7 3f bc b9 00 00 00 00 20 e5 3f 39 0d de fa 37
       -0.0003590558 0.0 0.00018300535 2.9905723e-05
0000e0 00 00 00 00 bc 7c 08 38 11 e0 3b 39 00 00 00 00
       0.0 3.2541095e-05 0.00017917181 0.0
0000f0 e5 b4 cf b8 37 25 0b b9 00 00 00 00 7a bb c3 38
       -9.9042234e-05 -0.00013269937 0.0 9.333245e-05
000100 7f aa 84 b7 00 00 00 00 0c b8 25 ba e1 93 07 b9
       -1.581502e-05 0.0 -0.00063216756 -0.00012929692
000110 00 00 00 00 cb 52 b0 37 e5 8f a4 38 00 00 00 00
       0.0 2.1019388e-05 7.846932e-05 0.0
000120 a4 14 8c ba da c5 86 b9 00 00 00 00 1c bc 0c 3a
       -0.0010687304 -0.00025705883 0.0 0.00053686067
000130 58 4b 08 39 00 00 00 00 cc 9b 29 3a 41 d7 5b 39
       0.00012998038 0.0 0.0006470054 0.00020965656
000140 00 00 00 00 cf 68 40 3a b7 e3 07 39 00 00 00 00
       0.0 0.00073398364 0.00012959434 0.0
000150 c6 e0 36 3a 88 a3 7a 39 00 00 00 00 9d b1 27 3a
       0.0006976243 0.00023902778 0.0 0.0006397011
000160 0d 18 2a 3a 00 00 00 00 bd 45 69 3a 14 c7 99 39
       0.0006488569 0.0 0.00088986364 0.0002933076
000170 00 00 00 00 79 a0 af 39 41 52 37 39 00 00 00 00
       0.0 0.00033498163 0.00017482882 0.0
000180 8c bb c0 39 34 e1 a8 38 00 00 00 00 59 88 63 b9
       0.00036760827 8.0528116e-05 0.0 -0.000216992
000190 05 c6 a7 38 00 00 00 00 ba f0 b4 39 88 7a 0b b9
       8.0000646e-05 0.0 0.0003451163 -0.0001330172
0001a0 00 00 00 00 1b 98 04 3a 7d cb 74 b9 00 00 00 00
       0.0 0.0005058066 -0.00023345459 0.0
0001b0 53 67 04 38 8a be a5 b7 00 00 00 00 e1 d4 0d 37
       3.156748e-05 -1.975826e-05 0.0 8.45382e-06
0001c0 92 d3 0c 39 00 00 00 00 68 5e 28 ba 1b d3 d8 b8
       0.00013430257 0.0 -0.0006422759 -0.00010339004
0001d0 00 00 00 00 ce fb ba 39 81 f8 18 39 00 00 00 00
       0.0 0.00035664294 0.00014588425 0.0
0001e0 ee 48 f2 39 8b e9 f9 37 00 00 00 00 0b d0 70 3a
       0.00046212174 2.9791865e-05 0.0 0.0009186274
0001f0 53 e7 81 39 00 00 00 00 1a 26 ff b9 33 ef 0c b9
       0.00024777147 0.0 -0.00048665778 -0.00013440549
000200 00 00 00 00 e9 4a b5 39 b0 0a 08 39 00 00 00 00
       0.0 0.00034578823 0.00012973952 0.0
000210 de 5f 5b 3a 4b 12 6c 39 00 00 00 00 c7 0c 4e 38
       0.00083684723 0.00022513529 0.0 4.9126127e-05
000220 e7 01 6c 38 00 00 00 00 58 77 7e b9 c6 ca 07 b6
       5.6268556e-05 0.0 -0.00024267787 -2.0234597e-06
000230 00 00 00 00 ee 6e f5 37 1e 42 5f b8 00 00 00 00
       0.0 2.9257932e-05 -5.322892e-05 0.0
000240 77 ab 3f ba bb 79 07 38 00 00 00 00 1e 61 c2 ba
       -0.0007311622 3.229988e-05 0.0 -0.0014829969
000250 e7 62 60 b9 00 00 00 00 95 57 a8 38 08 96 1a b8
       -0.00021399149 0.0 8.027178e-05 -3.685619e-05
000260 00 00 00 00 dd 18 04 b9 b9 e6 07 b8 00 00 00 00
       0.0 -0.00012597763 -3.2401385e-05 0.0
000270 8f 88 85 3a 0c 4e 06 3a 00 00 00 00 1e 07 83 3a
       0.0010187792 0.0005123324 0.0 0.0009996628
000280 0b 80 12 ba 00 00 00 00 35 d9 10 3a e8 43 5b 39
       -0.0005588538 0.0 0.00055255304 0.00020910765
000290 00 00 00 00 a6 0f 05 39 b6 bb 18 b9 00 00 00 00
       0.0 0.00012689698 -0.00014565777 0.0
0002a0 f8 25 9d ba 72 da 68 b9 00 00 00 00 f8 38 3b ba
       -0.0011989465 -0.00022206621 0.0 -0.0007141973
0002b0 ad da 02 ba 00 00 00 00 8f f5 ab 39 b5 ea 10 37
       -0.00049916917 0.0 0.00032798617 8.637716e-06
0002c0 00 00 00 00 db 72 a8 39 14 ac df 38 00 00 00 00
       0.0 0.0003212903 0.00010665521 0.0
0002d0 36 57 2a 39 31 64 77 b9 00 00 00 00 70 87 14 3a
       0.00016244952 -0.0002359308 0.0 0.0005665934
0002e0 6b e0 16 39 00 00 00 00 c1 68 e8 38 a0 e0 73 39
       0.00014388717 0.0 0.00011082134 0.00023257965
0002f0 00 00 00 00 91 06 38 b9 03 f7 57 38 00 00 00 00
       0.0 -0.00017550054 5.1490042e-05 0.0
000300 c6 b7 6b 3a e2 88 8d b8 00 00 00 00 e6 21 c1 38
       0.0008991923 -6.7489e-05 0.0 9.209271e-05
000310 e0 bb 04 b9 00 00 00 00 5a 7a 71 39 d2 49 b5 b8
       -0.0001265849 0.0 0.0002302913 -8.644503e-05
000320 00 00 00 00 6a 91 3d 3a b9 0a 04 3a 00 00 00 00
       0.0 0.0007231446 0.0005036998 0.0
000330 f6 b2 a6 b8 ba 73 9d b8 00 00 00 00 22 e9 b7 b8
       -7.948831e-05 -7.507899e-05 0.0 -8.7695444e-05
000340 23 a4 e0 37 00 00 00 00 bc ba 4c ba 16 2d 56 b9
       2.6779313e-05 0.0 -0.0007809808 -0.00020425426
000350 00 00 00 00 d4 35 c5 38 54 a1 24 39 00 00 00 00
       0.0 9.403718e-05 0.00015700358 0.0
000360 f9 6d 57 b9 25 89 f2 b8 00 00 00 00 32 a4 c1 39
       -0.00020544966 -0.000115650044 0.0 0.00036934164
000370 51 9b ed 38 00 00 00 00 24 0e 97 39 8a e1 13 39
       0.000113299706 0.0 0.000288115 0.00014103032
000380 00 00 00 00 fc b5 5b b9 b6 96 81 39 00 00 00 00
       0.0 -0.00020953262 0.00024717086 0.0
000390 2b ae 5e b9 65 03 8b b8 00 00 00 00 10 ff d8 38
       -0.00021236452 -6.628669e-05 0.0 0.00010347192
0003a0 67 06 ab b8 00 00 00 00 03 f7 20 39 ba 3a 99 b8
       -8.155108e-05 0.0 0.00015350808 -7.306547e-05
0003b0 00 00 00 00 50 63 db 38 7b 7b 76 39 00 00 00 00
       0.0 0.00010461232 0.00023506388 0.0
0003c0 c6 e7 1f ba 68 8a 45 b9 00 00 00 00 4e 4f 7a ba
       -0.00060999056 -0.00018838944 0.0 -0.00095485605
0003d0 fa 84 44 b9 00 00 00 00 6f 81 75 ba 5e 05 82 b9
       -0.00018741554 0.0 -0.00093652954 -0.0002479953
0003e0 00 00 00 00 fe d1 e0 ba a5 97 66 ba 00 00 00 00
       0.0 -0.0017152426 -0.00087964005 0.0
0003f0 21 7f 21 3a ee 67 ec b6 00 00 00 00 9e 97 f6 39
       0.0006160606 -7.045447e-06 0.0 0.0004703374

exp_avg_sq f4 [128, 6]
000000 10 51 56 36 cb 9a 6c 34 00 00 00 00 d2 24 a0 35
       3.193567e-06 2.2035526e-07 0.0 1.1931645e-06
000010 9a 72 92 34 00 00 00 00 ca fe bd 37 1e b3 34 36
       2.7278003e-07 0.0 2.2649201e-05 2.692635e-06
000020 00 00 00 00 5a 5f 63 37 a9 c7 3a 36 00 00 00 00
       0.0 1.3552455e-05 2.7832377e-06 0.0
000030 c9 43 b3 37 74 e2 2c 36 00 00 00 00 2f 71 4a 37
       2.1370028e-05 2.576181e-06 0.0 1.2066491e-05
000040 cc b3 0d 36 00 00 00 00 92 4e ed 37 e9 87 5d 36
       2.1115293e-06 0.0 2.8289189e-05 3.3010676e-06
000050 00 00 00 00 e7 3d 77 37 32 f8 17 36 00 00 00 00
       0.0 1.473676e-05 2.2645222e-06 0.0
000060 86 46 71 36 56 57 53 34 00 00 00 00 fc b2 ee 35
       3.5952849e-06 1.9682679e-07 0.0 1.7784473e-06
000070 0d 7a 9f 34 00 00 00 00 09 d3 3e 37 36 3f ca 35
       2.9704862e-07 0.0 1.1374018e-05 1.506857e-06
000080 00 00 00 00 d9 55 a6 36 01 e5 c5 35 00 00 00 00
       0.0 4.9571795e-06 1.4744293e-06 0.0
000090 7a 4c bc 37 cf fb 94 35 00 00 00 00 68 82 8a 36
       2.2446959e-05 1.1100145e-06 0.0 4.127902e-06
0000a0 be 53 da 35 00 00 00 00 cf ea 85 37 e5 2d 12 36
       1.6266638e-06 0.0 1.5964177e-05 2.178241e-06
0000b0 00 00 00 00 eb 48 bb 36 14 48 ce 35 00 00 00 00
       0.0 5.581523e-06 1.5369174e-06 0.0
0000c0 64 c3 0c 37 9f e9 05 35 00 00 00 00 81 63 07 36
       8.390143e-06 4.9886324e-07 0.0 2.0174487e-06
0000d0 79 9f 76 35 00 00 00 00 4c e5 8e 36 3f ae 5d 34
       9.1874205e-07 0.0 4.2586234e-06 2.0645619e-07
0000e0 00 00 00 00 bf e3 df 35 5c de ff 34 00 00 00 00
       0.0 1.6681078e-06 4.765924e-07 0.0
0000f0 8d 3d b7 36 30 df d4 34 00 00 00 00 7a 0d 03 36
       5.4609905e-06 3.9650467e-07 0.0 1.9528366e-06
000100 0c 36 09 35 00 00 00 00 59 bb 4a 37 9d bd c5 35
       5.1115126e-07 0.0 1.20837585e-05 1.4732829e-06
000110 00 00 00 00 23 be d2 36 48 bd b7 35 00 00 00 00
       0.0 6.2806225e-06 1.3689651e-06 0.0
000120 82 ae f5 37 0d 23 81 36 00 00 00 00 a2 f2 45 37
       2.9287537e-05 3.84858e-06 0.0 1.1798607e-05
000130 8f 0d 37 36 00 00 00 00 98 4e d4 36 70 9b 39 35
       2.7277017e-06 0.0 6.327242e-06 6.914406e-07
000140 00 00 00 00 83 98 76 36 23 11 18 35 00 00 00 00
       0.0 3.674563e-06 5.664935e-07 0.0
000150 15 21 64 37 08 e2 c2 35 00 00 00 00 2d dc b4 36
       1.35975615e-05 1.451991e-06 0.0 5.39005e-06
000160 35 c9 b1 35 00 00 00 00 7d df 1f 37 27 ae a5 35
       1.3246087e-06 0.0 9.529173e-06 1.2344143e-06
000170 00 00 00 00 36 62 a8 36 08 de 54 35 00 00 00 00
       0.0 5.0182234e-06 7.929925e-07 0.0
000180 17 09 c3 36 35 4c 24 35 00 00 00 00 c4 07 05 36
       5.812511e-06 6.1205657e-07 0.0 1.9823065e-06
000190 14 be 35 35 00 00 00 00 5c e1 2b 38 48 53 0e 36
       6.7704354e-07 0.0 4.097946e-05 2.1208125e-06
0001a0 00 00 00 00 52 5e 17 37 69 06 15 36 00 00 00 00
       0.0 9.022262e-06 2.2206461e-06 0.0
0001b0 30 8f 9d 36 b1 62 27 35 00 00 00 00 8c b8 ba 35
       4.695634e-06 6.2355963e-07 0.0 1.391179e-06
0001c0 4b eb ec 34 00 00 00 00 e5 3d 7e 37 71 1c 08 36
       4.4129624e-07 0.0 1.5153991e-05 2.0282134e-06
0001d0 00 00 00 00 5c b4 d6 36 7a ed cf 35 00 00 00 00
       0.0 6.3986936e-06 1.5491817e-06 0.0
0001e0 3f 48 08 38 fe cc 57 36 00 00 00 00 e5 ff 1c 37
       3.249221e-05 3.2156818e-06 0.0 9.357905e-06
0001f0 15 12 11 36 00 00 00 00 e6 0e 8a 37 79 ac 11 36
       2.1617209e-06 0.0 1.645782e-05 2.1707076e-06
000200 00 00 00 00 84 8b b5 36 56 4c c8 35 00 00 00 00
       0.0 5.410462e-06 1.4923378e-06 0.0
000210 05 67 00 37 db 28 82 35 00 00 00 00 7f d8 76 36
       7.653381e-06 9.697645e-07 0.0 3.6782874e-06
000220 f5 93 6f 35 00 00 00 00 9d 6f df 37 1d 73 5c 35
       8.9249744e-07 0.0 2.6635646e-05 8.21239e-07
000230 00 00 00 00 f2 09 64 36 39 7c e4 35 00 00 00 00
       0.0 3.3980436e-06 1.7023477e-06 0.0
000240 98 11 6a 38 a3 73 78 36 00 00 00 00 6e b1 3f 37
       5.5806333e-05 3.702219e-06 0.0 1.1425798e-05
000250 37 4a 83 36 00 00 00 00 69 42 49 36 f2 10 ac 34
       3.912744e-06 0.0 2.998999e-06 3.2049826e-07
000260 00 00 00 00 ca 21 6d 35 12 64 25 35 00 00 00 00
       0.0 8.833855e-07 6.161291e-07 0.0
000270 77 ed b1 38 c7 35 1f 37 00 00 00 00 b9 94 10 38
       8.484249e-05 9.4896595e-06 0.0 3.4470784e-05
000280 b2 15 fc 36 00 00 00 00 5d a0 56 37 db ef d9 35
       7.512711e-06 0.0 1.27927315e-05 1.6237567e-06
000290 00 00 00 00 bc 3c e8 36 46 01 cd 35 00 00 00 00
       0.0 6.921209e-06 1.5274061e-06 0.0
0002a0 b8 25 f0 37 a2 89 13 36 00 00 00 00 33 6c 12 37
       2.8627794e-05 2.198482e-06 0.0 8.72747e-06
0002b0 b4 24 04 36 00 00 00 00 e5 b6 1a 37 ec 98 f8 34
       1.9690897e-06 0.0 9.221699e-06 4.6304865e-07
0002c0 00 00 00 00 8f 61 2d 36 70 19 07 35 00 00 00 00
       0.0 2.5835795e-06 5.0328435e-07 0.0
0002d0 34 83 88 38 08 ef ce 36 00 00 00 00 c4 85 95 37
       6.509424e-05 6.1671053e-06 0.0 1.7824474e-05
0002e0 57 04 df 36 00 00 00 00 74 0e df 36 9f 70 0c 35
       6.646423e-06 0.0 6.6476005e-06 5.231795e-07
0002f0 00 00 00 00 e6 59 ff 35 9b 2c 3a 35 00 00 00 00
       0.0 1.9025144e-06 6.935531e-07 0.0
000300 1e 5b 23 37 1a 84 12 35 00 00 00 00 95 0c 15 36
       9.736772e-06 5.458147e-07 0.0 2.2210054e-06
000310 cb 57 21 35 00 00 00 00 17 d7 85 37 49 0d 19 36
       6.010493e-07 0.0 1.5954995e-05 2.280651e-06
000320 00 00 00 00 45 8d f3 36 f3 34 be 35 00 00 00 00
       0.0 7.2584103e-06 1.4171513e-06 0.0
000330 8c fe 8c 37 d8 b5 d5 35 00 00 00 00 a5 5f 85 36
       1.6807833e-05 1.592266e-06 0.0 3.9748434e-06
000340 ab 37 d9 35 00 00 00 00 9e 22 d4 36 f0 76 5a 35
       1.6183961e-06 0.0 6.3221223e-06 8.1384405e-07
000350 00 00 00 00 a6 b8 2d 36 d9 9d 47 35 00 00 00 00
       0.0 2.5886488e-06 7.4362976e-07 0.0
000360 9e 89 31 37 e3 bb 96 35 00 00 00 00 18 26 2f 36
       1.0582064e-05 1.1230553e-06 0.0 2.6099206e-06
000370 d3 81 99 35 00 00 00 00 4d c7 18 38 71 fd ea 35
       1.1437172e-06 0.0 3.6425237e-05 1.750812e-06
000380 00 00 00 00 72 50 e6 36 5c 80 08 36 00 00 00 00
       0.0 6.863899e-06 2.0340294e-06 0.0
000390 5e 75 84 36 aa f5 fa 34 00 00 00 00 af 11 81 35
       3.94757e-06 4.6744873e-07 0.0 9.616396e-07
0003a0 b1 4d a0 34 00 00 00 00 ab aa 85 37 94 57 b0 35
       2.985885e-07 0.0 1.5934309e-05 1.313851e-06
0003b0 00 00 00 00 50 be 6e 36 ac 71 03 36 00 00 00 00
       0.0 3.557554e-06 1.9586687e-06 0.0
0003c0 f8 07 60 37 be 6c d3 35 00 00 00 00 21 69 b1 36
       1.3353296e-05 1.5752373e-06 0.0 5.2872497e-06
0003d0 e1 24 a2 35 00 00 00 00 c7 bd fe 38 d2 ff 49 37
       1.2080674e-06 0.0 0.000121470126 1.2040096e-05
0003e0 00 00 00 00 fb af 1f 38 e7 39 19 37 00 00 00 00
       0.0 3.807245e-05 9.132992e-06 0.0
0003f0 c9 34 a5 37 ac 3c c0 35 00 00 00 00 ff ff c9 36
       1.9694113e-05 1.4322773e-06 0.0 6.0200687e-06

exp_avg f4 [128]
000000 a1 24 d9 37 4d ea 5f 38 fe 10 5b 39 85 37 b9 38
       2.5885472e-05 5.3385553e-05 0.00020891798 8.831829e-05
000010 4e c7 d3 38 b6 81 9a 38 e4 75 06 38 7c f6 40 38
       0.000100983874 7.367453e-05 3.2057884e-05 4.6005924e-05
000020 40 62 d0 b7 f2 20 28 38 e4 67 f5 38 07 bc 99 b8
       -2.4841283e-05 4.0085004e-05 0.000117018615 -7.330631e-05
000030 43 6c 09 b9 0a 90 92 38 e8 c2 06 39 6b 87 12 39
       -0.00013105669 6.988652e-05 0.00012851844 0.00013974092
000040 a0 a3 c7 36 6f 26 cb b7 2c 28 1a 36 f3 cf 50 b8
       5.9497106e-06 -2.4217383e-05 2.2971171e-06 -4.9784732e-05
000050 b3 f2 7c 38 72 17 79 b8 c1 5a d4 38 02 e9 4a 37
       6.0307513e-05 -5.938806e-05 0.00010125852 1.209439e-05
000060 99 f3 de 37 a1 2c 2f 37 ae 13 10 38 0a 44 13 38
       2.6577896e-05 1.0441204e-05 3.4350604e-05 3.5110897e-05
000070 03 8e 48 b8 b0 d9 5f b6 51 71 53 38 f7 86 54 38
       -4.7815975e-05 -3.33563e-06 5.0411854e-05 5.0670435e-05
000080 22 fa d0 b8 62 5d 8e 37 71 b3 06 37 bb e3 c8 b8
       -9.964804e-05 1.6971204e-05 8.028802e-06 -9.579161e-05
000090 f9 f5 c5 b7 fb 70 3d 37 48 ed 43 b8 00 71 fb b8
       -2.359877e-05 1.1291583e-05 -4.671261e-05 -0.000119896606
0000a0 34 6c 2a b9 3e d1 4d b9 ca f3 a0 b8 d7 b1 2a 38
       -0.00016252772 -0.00019628272 -7.674804e-05 4.0696785e-05
0000b0 a9 4c c6 38 8c 67 75 b7 6e df cf b7 cf 2c 00 38
       9.455655e-05 -1.4627247e-05 -2.4780365e-05 3.055931e-05
0000c0 c6 a6 f3 b8 35 0b e6 38 8d 23 e3 38 38 02 0b 38
       -0.00011618207 0.00010969342 0.00010830825 3.314225e-05
0000d0 6d 08 f3 37 a0 d9 5b b8 e6 91 81 38 a7 83 92 37
       2.8971781e-05 -5.2416348e-05 6.178375e-05 1.7465862e-05
0000e0 eb 16 6d b8 71 4c cf 38 c0 51 e5 b7 72 b1 51 38
       -5.6526547e-05 9.8847675e-05 -2.7336995e-05 4.9994742e-05
0000f0 32 01 94 b8 b2 fe d9 38 ad e6 4c 38 78 77 4f b9
       -7.0574126e-05 0.00010394807 4.8852224e-05 -0.00019785564
000100 6b f1 55 b7 4f 89 12 39 cf 15 89 b8 56 fe 08 b8
       -1.2751999e-05 0.00013974796 -6.536731e-05 -3.2661796e-05
000110 bd 7c 0f 38 eb 06 c1 38 ca 8d ed 38 b4 75 18 b9
       3.421003e-05 9.204246e-05 0.00011327451 -0.00014539697
000120 3b 80 00 b9 77 01 a0 38 4c 43 0a 39 1d fa d8 37
       -0.00012254801 7.6296674e-05 0.00013185776 2.5865675e-05
000130 d6 01 7f 38 74 b3 0a b9 a1 49 78 b7 ab da 08 b9
       6.0798448e-05 -0.00013227557 -1.4799095e-05 -0.00013051431
000140 91 a2 f5 b8 84 07 31 38 a4 57 76 b8 d6 db b7 38
       -0.00011712791 4.2207088e-05 -5.8732592e-05 8.7670676e-05
000150 00 eb 09 b8 e4 eb 1a b9 b3 7b e2 37 90 a1 b7 38
       -3.2882206e-05 -0.0001477446 2.6998901e-05 8.756213e-05
000160 87 a7 a3 b7 58 0a b2 b7 7d 09 a4 b8 b5 92 40 b8
       -1.9509125e-05 -2.122407e-05 -7.821897e-05 -4.5913e-05
000170 83 eb 35 b6 a9 fa 91 b7 55 44 9a 38 fa 02 2f b9
       -2.7108188e-06 -1.740207e-05 7.35602e-05 -0.0001669041
000180 0a 4e c5 b8 e0 5c d9 37 fd 5a b1 38 f7 0d 2e 38
       -9.408228e-05 2.5911664e-05 8.4569656e-05 4.149784e-05
000190 f4 ad a8 b5 2b 27 07 b8 b8 00 30 39 d7 1c db 38
       -1.2567602e-06 -3.2222986e-05 0.00016784936 0.000104481056
0001a0 02 c5 33 b7 8a 68 7a b8 87 ce 5e b8 3f 84 74 38
       -1.0715101e-05 -5.9702004e-05 -5.3121268e-05 5.8297297e-05
0001b0 1e 48 4b 38 ce b8 f0 b8 b0 5a 0a 39 d9 29 65 b8
       4.8466136e-05 -0.00011478514 0.0001319449 -5.463683e-05
0001c0 e0 8b 2a b9 06 d8 eb b8 0a f1 57 b8 da 2d 13 39
       -0.00016264571 -0.00011245911 -5.148448e-05 0.00014036093
0001d0 a2 c5 bb b7 4f db 87 b7 77 fc 78 37 dc f7 ae 38
       -2.2384167e-05 -1.6195378e-05 1.48407335e-05 8.343134e-05
0001e0 73 ff f4 37 9e 2f 8d b4 c5 e1 09 37 e5 ce 68 b9
       2.920602e-05 -2.6297943e-07 8.218402e-06 -0.00022202318
0001f0 58 30 23 b9 5d 62 aa 38 d7 56 3b 38 a6 cd 4d b8
       -0.00015562901 8.124553e-05 4.466515e-05 -4.9067334e-05

exp_avg_sq f4 [128]
000000 62 d4 45 33 15 79 b7 34 28 43 b0 34 2b ea f4 34
       4.6060798e-08 3.4174505e-07 3.2831417e-07 4.561892e-07
000010 ef 74 61 33 02 8d 3c 34 e5 fa af 34 27 11 82 34
       5.2493245e-08 1.7560163e-07 3.277884e-07 2.4226867e-07
000020 ca 9a 02 34 1f 3a 84 33 88 12 a0 33 98 d8 3a 34
       1.2163505e-07 6.157301e-08 7.4539514e-08 1.7401396e-07
000030 c1 9b e4 34 b1 6d dc 33 91 9d 49 34 38 4f 13 34
       4.2581635e-07 1.0264501e-07 1.8776906e-07 1.3719261e-07
000040 54 5b c1 33 47 23 1f 35 ae 75 90 33 24 27 6b 34
       9.003875e-08 5.928345e-07 6.726928e-08 2.190032e-07
000050 25 40 fd 34 45 84 80 34 f3 7a ee 33 5d 1e ce 34
       4.7171594e-07 2.3938097e-07 1.1105103e-07 3.8392582e-07
000060 75 31 64 35 f1 8c 3a 33 a3 ce b4 35 f7 cd 52 34
       8.500859e-07 4.3434685e-08 1.3471184e-06 1.9632704e-07
000070 d5 4e d5 34 ab 17 0f 34 47 54 7c 35 b1 a8 ca 33
       3.97317e-07 1.3326523e-07 9.3999955e-07 9.437043e-08
000080 af d0 1c 34 ae 66 77 34 24 aa 82 34 34 2b c7 33
       1.4604551e-07 2.3041022e-07 2.433818e-07 9.274518e-08
000090 cd 8d 22 34 6f ad 0c 35 e8 97 77 33 cd 9f 76 34
       1.5139013e-07 5.2406443e-07 5.7647327e-08 2.296867e-07
0000a0 75 82 5c 34 1f bb f8 35 a3 d8 98 34 09 8a 94 35
       2.0536557e-07 1.8531899e-06 2.846983e-07 1.1067033e-06
0000b0 46 0f 75 34 85 e6 c9 33 95 5d 95 34 ef 9d 9f 32
       2.282296e-07 9.401723e-08 2.7821503e-07 1.8581856e-08
0000c0 20 1e ed 34 14 58 b0 35 31 1f 44 35 8a 1d 06 35
       4.416661e-07 1.3138656e-06 7.306108e-07 4.9961875e-07
0000d0 29 81 46 34 09 f9 86 34 d8 97 ae 33 71 2d 2e 35
       1.8487175e-07 2.5140642e-07 8.1301266e-08 6.4886177e-07
0000e0 65 03 25 33 0d 95 bb 33 6a 1c 07 35 9a f6 de 34
       3.8420144e-08 8.734978e-08 5.0332767e-07 4.1530149e-07
0000f0 73 c0 a9 34 05 3b 85 34 97 d4 05 36 28 8d ff 35
       3.1618728e-07 2.4816123e-07 1.9942288e-06 1.9040062e-06
000100 12 10 bc 34 26 a0 8b 34 72 99 b6 34 d7 77 6d 33
       3.5029421e-07 2.600729e-07 3.4011788e-07 5.5289856e-08
000110 6f 06 52 35 c0 4e 12 35 19 b7 c6 34 0f 4b 28 35
       7.824046e-07 5.4503835e-07 3.7013595e-07 6.26941e-07
000120 6b ae 3b 35 33 19 c2 35 1f bc e3 34 77 ab 58 32
       6.991674e-07 1.446146e-06 4.241892e-07 1.2611841e-08
000130 cd ad 75 34 31 2e 81 34 ad b4 94 34 c4 3d 56 34
       2.2880631e-07 2.406173e-07 2.7698607e-07 1.9952773e-07
000140 c1 73 10 35 f8 a8 5f 33 e0 93 d9 34 38 2f 4c 34
       5.3812624e-07 5.207491e-08 4.0526993e-07 1.9016159e-07
000150 b1 57 cc 33 cd 2f 18 35 0c f5 06 34 52 64 24 34
       9.515441e-08 5.669397e-07 1.256887e-07 1.5310187e-07
000160 26 5d 24 33 b5 30 89 34 3f e6 21 33 a9 b8 f8 34
       3.8268944e-08 2.5553678e-07 3.769514e-08 4.6327958e-07
000170 c8 37 8a 33 7b fd 4d 33 11 16 7b 34 b1 ee 2b 35
       6.436272e-08 4.796082e-08 2.3384224e-07 6.4049806e-07
000180 83 ff f3 33 62 40 b9 34 4b a0 1e 34 e0 44 48 35
       1.13620466e-07 3.450578e-07 1.4773211e-07 7.460603e-07
000190 42 d9 9a 33 71 51 3c 33 e9 6e 2c 35 48 c4 5c 34
       7.210703e-08 4.384623e-08 6.423639e-07 2.0560503e-07
0001a0 d3 0c af 33 1e ba c7 33 f5 70 97 34 98 8b af 34
       8.151405e-08 9.300514e-08 2.820813e-07 3.2697858e-07
0001b0 fd 2d 8b 34 d3 9f b6 33 d9 c3 ee 34 60 bb 20 34
       2.5924228e-07 8.504107e-08 4.4473452e-07 1.4969328e-07
0001c0 d7 85 5e 35 08 7e ff 34 64 9a 47 34 cf 86 82 35
       8.289621e-07 4.758915e-07 1.8589486e-07 9.724989e-07
0001d0 a4 9b 8a 33 a7 bd c2 33 f4 b9 a2 34 2e b9 a5 34
       6.4544366e-08 9.0683265e-08 3.031015e-07 3.086838e-07
0001e0 3c e3 cf 34 d8 79 1b 34 f8 46 fc 34 96 b7 8b 34
       3.872209e-07 1.4479826e-07 4.6990294e-07 2.6024344e-07
0001f0 65 83 5e 34 db 94 ac 34 ca 57 a5 34 5a 5b 22 34
       2.0723162e-07 3.2145803e-07 3.079752e-07 1.5120659e-07
