results/Run1/MoveThePlayer/MoveThePlayer-499972.onnx (onnx, 72119 bytes, 5 tensors)

action_model._continuous_distribution.mu.weight f4 [1, 128]
0	0x3c67d5e2	0.014150115
1	0xbd384dde	-0.044996135
2	0xbcc3321e	-0.023827609
3	0xbcd00d54	-0.02539698
4	0xbc9c6233	-0.019089794
5	0x3c41b650	0.011823252
6	0xbd1f74b3	-0.038929652
7	0x3bd5e35c	0.0065273475
8	0x3c8e1f70	0.017348975
9	0xbc3cf1b2	-0.011532234
10	0x3c8e77fd	0.0173912
11	0xbbfe686d	-0.0077639134
12	0x3c4ee92c	0.012628835
13	0x3d0629fc	0.032754883
14	0x3ce9c78a	0.02853753
15	0x3cc33e77	0.023833496
16	0xbd0dfb7c	-0.034663662
17	0xbcbc0db8	-0.02295576
18	0xbca2ada5	-0.01985819
19	0x3ca6b0cc	0.020347975
20	0x3c7c401f	0.015396147
21	0x3c2cce66	0.010547256
22	0xbd09e8f6	-0.033669434
23	0xbcb13fef	-0.021636931
24	0xbbf46e7b	-0.0074594594
25	0xbc3c26c9	-0.0114838565
26	0xbccc41eb	-0.024933776
27	0xbc5fbf04	-0.0136563815
28	0x3c3ffb4a	0.011717627
29	0xbb64c76d	-0.0034908906
30	0x3cb64d0a	0.022253532
31	0x3cbcba41	0.023038032
32	0xbc8972d0	-0.01677838
33	0x3cda99ad	0.026684606
34	0x3c90195f	0.017590223
35	0xbcbbcb54	-0.022924103
36	0xb9d01f42	-0.0003969614
37	0x3c8c9e07	0.017165197
38	0xbc543232	-0.012951421
39	0xbc256971	-0.01009594
40	0xbca93adb	-0.020657947
41	0xbc59b4e7	-0.013287759
42	0xbbab0811	-0.0052194674
43	0x3d347460	0.044056296
44	0x3be68759	0.0070351777
45	0xbb93a396	-0.004505585
46	0x3c77034f	0.015076472
47	0x3c005b5d	0.007834283
48	0x3c954c88	0.01822497
49	0x3c8da02e	0.017288294
50	0xbc76d5eb	-0.01506565
51	0xbb2ade41	-0.0026072415
52	0xbcf674c6	-0.030084979
53	0xbd3a851c	-0.0455371
54	0xbbddc529	-0.006767888
55	0x3c1244d4	0.008927543
56	0x3c054f33	0.008136558
57	0x3c815344	0.015786774
58	0x3c099254	0.008396704
59	0x3d12e37b	0.035861474
60	0x3b32c1e1	0.0027276205
61	0xbcf6032e	-0.030030813
62	0xbd15eb0d	-0.036601115
63	0x3cee902d	0.029121483
64	0xbca81b49	-0.020520823
65	0xbc7839e6	-0.015150523
66	0xbd004d05	-0.03132345
67	0xbc898b33	-0.016790008
68	0xbd41cdc3	-0.04731537
69	0xbbff12ff	-0.007784247
70	0x3b89884d	0.0041971565
71	0xbc8ca163	-0.017166799
72	0xbcead3b7	-0.028665407
73	0xbce2b2c2	-0.027673129
74	0xbc889456	-0.016672295
75	0xbcb1d2c7	-0.021706952
76	0xbc353e2c	-0.011062186
77	0x3c72c21d	0.014816788
78	0xbd2b7912	-0.04186351
79	0xbd202d3a	-0.03910563
80	0xbca745d8	-0.020419046
81	0x3c6a52b5	0.014301945
82	0xbc13b465	-0.009015177
83	0xbb206c12	-0.0024478477
84	0xbd04e42d	-0.032444168
85	0xbb9ee000	-0.00484848
86	0xbc4470c5	-0.011989777
87	0x3a3489c5	0.00068869843
88	0x3bd3d589	0.0064646644
89	0xbcd67daf	-0.026182977
90	0xbcfa3ef3	-0.030547595
91	0xbbc1bc56	-0.005912344
92	0xba075611	-0.0005162666
93	0x3c672fab	0.014110486
94	0x3c7af508	0.015317209
95	0xb97632ec	-0.00023479358
96	0xbced8a0c	-0.02899649
97	0xbc57e41f	-0.013176947
98	0xbd605bcd	-0.054775048
99	0x3ce36af4	0.02776096
100	0x3d13638d	0.03598361
101	0x3d52f30a	0.05150131
102	0xbd062f53	-0.032759976
103	0x3d27ee42	0.040998705
104	0xbc2d7234	-0.01058631
105	0xbb828f22	-0.003984348
106	0x3d2dafef	0.04240411
107	0x3cf79b98	0.03022556
108	0x3c08a61c	0.008340385
109	0x3cb29a40	0.021802068
110	0x3b3084b7	0.0026934573
111	0xbc57644a	-0.013146469
112	0x3ce16d90	0.027518064
113	0xbc9acb85	-0.018895874
114	0x3d2fe492	0.04294259
115	0x3ca5b703	0.020228868
116	0x3c2fe654	0.010736067
117	0x3c48c305	0.0122535275
118	0xbb45c35d	-0.003017626
119	0xbd151f95	-0.036407072
120	0xbcfe026e	-0.031007018
121	0x3bc69c17	0.006061088
122	0xbd2be045	-0.041961927
123	0xbc8174a9	-0.015802698
124	0x3d214854	0.039375618
125	0x3caa43cc	0.020784281
126	0xbab4e2e0	-0.0013800524
127	0x3ca7a5e3	0.020464843

network_body._body_endoder.seq_layers.0.bias f4 [128]
0	0x3c9e2273	0.019303536
1	0xbbffde48	-0.0078084804
2	0x3b8ef461	0.0043626283
3	0x3c188a66	0.0093103405
4	0xbb850d81	-0.0040604477
5	0xbc0114d7	-0.007878504
6	0x3c2c7bdb	0.010527576
7	0x3abb5ec6	0.0014295212
8	0x39490bbc	0.00019173225
9	0x3c2f14ed	0.010686141
10	0xbc22083a	-0.009889657
11	0xbafa039c	-0.0019074562
12	0xba314846	-0.0006762784
13	0xbb8a2ba9	-0.0042166305
14	0x3c950b69	0.018193917
15	0xbcf75a4f	-0.03019443
16	0x3be0fed6	0.0068663163
17	0xbc196e86	-0.00936473
18	0x3b8bfed3	0.004272321
19	0x3bc559e6	0.0060226796
20	0x3c90bff4	0.017669655
21	0xbc353dae	-0.011062069
22	0xbb858587	-0.0040747556
23	0xbb45ebda	-0.0030200393
24	0xbb289d32	-0.0025728461
25	0xb9a3ddb8	-0.00031254976
26	0x3c848c45	0.016180167
27	0x3b8c3e54	0.004279891
28	0x3b06c8dd	0.0020566501
29	0xbc171682	-0.009221675
30	0xbb5e1d77	-0.0033892074
31	0x38dbb732	0.000104768566
32	0x3ad53c27	0.0016268537
33	0x3bab1053	0.005220452
34	0x3cb89ba9	0.022535162
35	0xbaad4fb2	-0.0013222604
36	0x3b01f732	0.0019831178
37	0xbc8d2d57	-0.017233534
38	0xbb9d3b60	-0.004798338
39	0x3bb8e432	0.0056424374
40	0xbb05c68d	-0.0020412535
41	0xbb1b46dc	-0.0023693359
42	0x3cd69775	0.026195267
43	0xb9e26e4a	-0.0004318825
44	0x3b38b89d	0.002818621
45	0x3b3e0646	0.0028995438
46	0x3bb1a268	0.0054209717
47	0x3c1d8a19	0.009615445
48	0x3bc667e2	0.0060548643
49	0xbba82c3f	-0.0051322277
50	0x3bb3c9ea	0.0054867165
51	0x3c2dd5fe	0.010610102
52	0xbc2e6ae8	-0.010645606
53	0x3b426eef	0.0029668172
54	0x3b73ec3f	0.003721967
55	0x3cb116f0	0.021617383
56	0x3b3db394	0.0028946148
57	0xbb4b13be	-0.003098711
58	0x3b4f5904	0.003163875
59	0x3b7f313d	0.003893926
60	0xbc11bd05	-0.008895163
61	0x3b29c3b1	0.0025903995
62	0xbc19ad1e	-0.009379653
63	0x3bf99e2d	0.007617733
64	0xba5c9649	-0.0008414728
65	0xbb8b5edf	-0.004253253
66	0x3b82aed9	0.0039881286
67	0x3c355aaf	0.011068984
68	0xbbba25e5	-0.005680787
69	0xbb0e6336	-0.0021726615
70	0x3aa932c4	0.0012908806
71	0x3b47d60e	0.0030492577
72	0x3b9bdfb5	0.0047568926
73	0xbb13da87	-0.0022560672
74	0xba5b1e50	-0.0008358704
75	0x3b8a2f5c	0.0042170715
76	0xba8df1a5	-0.0010829462
77	0x3b0e6e4d	0.0021733225
78	0xbb8fe5d9	-0.0043914136
79	0xbbe562a9	-0.0070002866
80	0x3bcc9657	0.006243508
81	0xbba1d10d	-0.004938251
82	0x3bf7b80d	0.0075597824
83	0x3bf58587	0.0074927243
84	0x3a876b73	0.0010331705
85	0xbb7a5635	-0.0038198356
86	0xbb6cc821	-0.0036130028
87	0x3a9792d9	0.001156415
88	0xbbd03ab8	-0.006354656
89	0x39e1f327	0.00043096507
90	0x3b298786	0.0025868132
91	0x3ae71035	0.0017628731
92	0x3b2b8bfa	0.0026175962
93	0x3b162326	0.0022909134
94	0x3c495904	0.012289289
95	0xbbe28625	-0.006912964
96	0x3bc29d26	0.0059391437
97	0x3b681079	0.003541021
98	0xbbfc1d8d	-0.0076939524
99	0x3c04efaf	0.008113786
100	0xbc0dce28	-0.0086551085
101	0x3b15113d	0.002274587
102	0x3b4080e3	0.0029373697
103	0x3c944ab9	0.018102037
104	0xbb9a6ef5	-0.004712934
105	0xb9ed5c02	-0.00045272714
106	0xbbdb1836	-0.006686236
107	0xb92c4e7f	-0.0001643244
108	0xbc61173f	-0.013738452
109	0xbc6a4cb6	-0.014300516
110	0x3c4ce23d	0.012505111
111	0xbaaedb6e	-0.0013340542
112	0x3c2e47eb	0.010637264
113	0xbc505692	-0.0127159525
114	0xbbb9fae2	-0.0056756595
115	0x3c0e7a14	0.008696098
116	0x3b0c233f	0.0021383313
117	0xbb3cb5ba	-0.002879484
118	0x3b360205	0.00277722
119	0x3b8b0da3	0.004243569
120	0xbc3f72e4	-0.011685107
121	0x3c5c7878	0.013456456
122	0xbcd98889	-0.026554363
123	0xbb2cfff9	-0.0026397689
124	0xbc1e11ce	-0.0096478
125	0xbc025717	-0.007955334
126	0x3a0b62b5	0.00053171377
127	0xbc866fd5	-0.016410748

network_body._body_endoder.seq_layers.0.weight f4 [128, 6]
0	0xbe841563	-0.25797567
1	0x3cd7d5cd	0.026347065
2	0xbcb82ca8	-0.022482231
3	0x3e43daa7	0.19126378
4	0xbea1f45e	-0.3163175
5	0xbebddebc	-0.37083995
6	0x3d21e1d5	0.03952201
7	0xbe12e17c	-0.14343828
8	0xbd140482	-0.03613711
9	0xbeaaa7b1	-0.33331063
10	0x3ec093ba	0.37612706
11	0xbedcbeba	-0.43114263
12	0xbf3427fa	-0.703735
13	0xbd496753	-0.049170803
14	0xbee521a2	-0.44752222
15	0xbe4ec5ac	-0.20192593
16	0xbddc3846	-0.10752921
17	0x3ec57a90	0.3857007
18	0xbcaa8af7	-0.020818217
19	0x3e2cd3be	0.16877648
20	0xbea7a181	-0.32740405
21	0xbe090e2d	-0.13384314
22	0x3dc54016	0.09631364
23	0xbf2540ce	-0.6455201
24	0x3eb40215	0.35157838
25	0x3e278aa9	0.16361488
26	0xbe105673	-0.14095478
27	0xbeb1e68d	-0.3474621
28	0x3f59fce7	0.85151523
29	0xbe8a2ee0	-0.26988888
30	0x3e51c2f6	0.20484528
31	0xbab1316a	-0.0013518755
32	0x3ebfba57	0.37446854
33	0xbf36797a	-0.7127911
34	0xbedc1aeb	-0.42989287
35	0x3e9287bf	0.2861919
36	0x3f239a88	0.6390767
37	0xbd643b9d	-0.055720914
38	0xbd5feac7	-0.05466726
39	0x3f373ed2	0.7158023
40	0x3d9d6fb6	0.07687323
41	0xbf291edd	-0.6606272
42	0xbe291b0d	-0.16514225
43	0x3f488d40	0.7834053
44	0x3f0ab130	0.54176617
45	0xbea9d880	-0.3317299
46	0xbede5a10	-0.43428087
47	0xbee15517	-0.4401023
48	0x3dc80658	0.09766835
49	0x3dc86c6e	0.09786306
50	0xbf083007	-0.53198284
51	0x3db41229	0.08792526
52	0x3f35e5a7	0.71053547
53	0x3dcd2bbc	0.10018107
54	0xbe161b63	-0.14658885
55	0xbf31b7b7	-0.6942095
56	0x3e3792fb	0.17927162
57	0xbeb677c0	-0.35638237
58	0x3ed5cc46	0.4175741
59	0xbe83986a	-0.2570222
60	0xbc4ab440	-0.0123720765
61	0xbe983ac1	-0.29732326
62	0xbdd3d98b	-0.103442274
63	0xbf0779f5	-0.52920467
64	0xbf08ee27	-0.5348839
65	0x3f28c440	0.65924454
66	0x3f1b9355	0.60771686
67	0xbeae73c1	-0.34072688
68	0x3ea6facf	0.32613227
69	0x3dbae596	0.09125821
70	0xbea903c2	-0.3301068
71	0xbe8ac1bc	-0.27100933
72	0x3dd91f5e	0.10601686
73	0xbe52b615	-0.20577271
74	0xbe81a478	-0.25320792
75	0x3f556135	0.8335145
76	0x3eaa1a3e	0.33223146
77	0xbe0c282a	-0.13687196
78	0x3df44873	0.11927881
79	0x3ee9f1a3	0.45692167
80	0xbf08e4f6	-0.53474367
81	0xbe0a4dfd	-0.13506313
82	0xbdb5662b	-0.088573776
83	0x3ecf4dfd	0.40489188
84	0x3efecec5	0.49767128
85	0x3e214d79	0.1575221
86	0x3eba7897	0.36420128
87	0x3eed9157	0.46399948
88	0x3eb15300	0.34633636
89	0x3d445e94	0.04794176
90	0xbea23047	-0.31677458
91	0x3ecf145d	0.40445223
92	0x3e5ba8ef	0.21451162
93	0xbefd872e	-0.49517196
94	0x3da8e39c	0.08246538
95	0xbb887475	-0.0041642734
96	0x3ebab8cf	0.36469123
97	0x3e4665db	0.19374792
98	0x3d169744	0.036765352
99	0x3e869534	0.26285708
100	0x3f27bcb4	0.65522313
101	0xbea2baa2	-0.31783015
102	0x3e3880ff	0.18017958
103	0x3d71023a	0.058840014
104	0x3e89bb0a	0.26900512
105	0xbf32f94f	-0.69911665
106	0xbec8738a	-0.3915065
107	0xbdbcf501	-0.09226418
108	0xbc950e03	-0.018195158
109	0xbda62ac2	-0.08113624
110	0xbe407d42	-0.18797782
111	0xbefe3a92	-0.4965406
112	0x3dd68a30	0.10475576
113	0x3f1ffc9d	0.6249483
114	0x3f0e7374	0.5564492
115	0xbe642d4f	-0.22282909
116	0x3e8771a0	0.26453876
117	0x3e83b381	0.25722888
118	0xbe5cc46b	-0.21559303
119	0xbec00fbb	-0.37512
120	0x3dc40fc2	0.09573318
121	0x3f4684be	0.775463
122	0xbe139bbd	-0.14414878
123	0xbda9934a	-0.08280046
124	0xbe65a746	-0.22427091
125	0xbecbfd3b	-0.39841637
126	0x3ebd6330	0.36989737
127	0x3e985118	0.2974937
128	0xbdaf2d83	-0.085536025
129	0x3e0d85fb	0.1382064
130	0xbd6f2633	-0.05838604
131	0x3de2761c	0.11057684
132	0xbe851c52	-0.2599817
133	0xbe589b1a	-0.21152917
134	0x3cadb84c	0.021206044
135	0x3e39f60c	0.18160266
136	0x3e92bee1	0.28661254
137	0xbd822538	-0.06354755
138	0x3f263a25	0.6493247
139	0x3f18565c	0.59506774
140	0x3e600d25	0.21880014
141	0x3e6396a0	0.22225428
142	0x3b336cb0	0.0027378015
143	0xbcde8299	-0.027161883
144	0x3f45c2fd	0.77250654
145	0xbd471a8b	-0.048609298
146	0x3e29f549	0.16597475
147	0xbb5593e9	-0.0032589382
148	0xbeaa9cb3	-0.33322677
149	0xbef267bc	-0.47344768
150	0xbe290c1e	-0.16508529
151	0x3f5c4027	0.8603539
152	0xbeaa3528	-0.3324368
153	0x3ed8f85a	0.42376977
154	0xbed95441	-0.42447093
155	0xbd1ff3fe	-0.03905105
156	0x3e87227e	0.26393503
157	0x3dfbc607	0.1229363
158	0xbf148fdb	-0.58032006
159	0x3ebc8cd5	0.36826196
160	0x3ef40dcc	0.47666776
161	0x3e33bdca	0.17552868
162	0xbe1033de	-0.14082286
163	0x3d3be781	0.045875076
164	0x3e5b4732	0.21413878
165	0x3ec8339e	0.3910188
166	0x3eaf9f1b	0.34301075
167	0x3e207902	0.15671161
168	0xbf0fd536	-0.5618471
169	0xbe69c72d	-0.22829886
170	0xbe1ebfee	-0.15502903
171	0xbf289120	-0.65846443
172	0x3dfa297e	0.12214945
173	0x3ea7ec80	0.32797623
174	0x3ef183ed	0.47170964
175	0x3e5dc31a	0.21656457
176	0x3dffcc3f	0.12490129
177	0x3dd845e0	0.105602026
178	0x3d49c87f	0.049263474
179	0x3e3786f6	0.17922577
180	0x3f232c1d	0.63739187
181	0xbf880e4e	-1.0629365
182	0x3ebf1f63	0.37328634
183	0x3df94f9b	0.12173387
184	0xbe5da337	-0.21644293
185	0x3ecc6068	0.39917302
186	0xbf5423b5	-0.82866985
187	0x3d119907	0.03554633
188	0x3e2c19a3	0.16806655
189	0x3eae883f	0.34088323
190	0xbe4c92b2	-0.19977835
191	0x3cb0b5c5	0.02157105
192	0x3edb6ad3	0.42854938
193	0x3f1f9580	0.62337494
194	0x3dce73d7	0.100806884
195	0xbe0c286d	-0.13687296
196	0xbf2433f1	-0.64141756
197	0xbc186905	-0.009302382
198	0x3e3f331d	0.18671842
199	0xbe929ffb	-0.2863768
200	0xbe57b425	-0.21064813
201	0x3e1ee9da	0.15518895
202	0xbd6197b9	-0.055076335
203	0x3efae982	0.49006277
204	0xbe04e3f9	-0.1297759
205	0x3f02c107	0.51075786
206	0xbd6fe393	-0.05856664
207	0x3e0eadf7	0.1393355
208	0x3f08c9d1	0.5343295
209	0x3f0686f6	0.52549684
210	0xbf57a25d	-0.8423212
211	0xbc6e728a	-0.014553675
212	0x3e1f933c	0.15583509
213	0x3f3800b9	0.718761
214	0x3dae1705	0.085004844
215	0x3e88c7cc	0.26714933
216	0x3dc4e778	0.09614462
217	0x3e018885	0.12649734
218	0x3eb83652	0.35978943
219	0x3e3d4239	0.18482293
220	0xbe22b735	-0.158902
221	0x3e1f81fc	0.15576929
222	0x3d0a00ed	0.03369229
223	0x3ebea148	0.37232423
224	0xbe3cb1a3	-0.18427138
225	0x3f1573ea	0.58379996
226	0xbe891dcb	-0.26780543
227	0x3ddbb922	0.10728671
228	0x3ee510ea	0.44739467
229	0xbdbb73f3	-0.09152975
230	0xbe3411e4	-0.1758495
231	0x3f382c9f	0.71943086
232	0x3ef93df2	0.48680073
233	0x3f5a2a8b	0.85221165
234	0x3bc08181	0.005874813
235	0xbe450223	-0.19239096
236	0xbe53cb65	-0.20683058
237	0x3e9ff2d4	0.3123995
238	0x3e221a5d	0.1583037
239	0xbed4f32a	-0.4159177
240	0x3e6c446d	0.23072977
241	0x3ec5380e	0.3851933
242	0xbe170854	-0.1474927
243	0xbe29b2b6	-0.16572079
244	0xbf256d50	-0.6461992
245	0xbd815983	-0.06315901
246	0x3edd8891	0.43268254
247	0xbf7f1343	-0.99638766
248	0x3f5c1cc2	0.8598138
249	0x3e2aa445	0.16664226
250	0xbe431fc9	-0.19055094
251	0x3f07399e	0.5282229
252	0xbf0048c0	-0.5011101
253	0x3f097f85	0.53710204
254	0x3f2e8a48	0.6817975
255	0x3f1d86d8	0.6153388

network_body._body_endoder.seq_layers.2.bias f4 [128]
0	0xbc53ccb4	-0.012927223
1	0x39a4ae2b	0.00031410283
2	0xbb3c1c91	-0.002870355
3	0xbb54af38	-0.0032453071
4	0xbc5bad79	-0.013408058
5	0x39786d32	0.00023691801
6	0x3b76db1c	0.003766722
7	0x3a8699c6	0.0010269217
8	0xba23daea	-0.0006250577
9	0xbb537f23	-0.0032271824
10	0xbaefbd58	-0.0018290682
11	0xbbe3ca63	-0.0069516166
12	0xbbc4f6ae	-0.006010852
13	0xbb040da8	-0.0020149741
14	0x3b271f50	0.0025500841
15	0x3b54a0c4	0.0032444457
16	0xbb0e94fe	-0.0021756287
17	0xbc20ac4e	-0.009806706
18	0xbb4362ee	-0.0029813605
19	0x3bd3ec6a	0.0064673917
20	0x3bd14fb4	0.006387675
21	0x3b98f510	0.0046678856
22	0x3b06f47d	0.0020592504
23	0xbbd73949	-0.006568108
24	0xbbb9e0ee	-0.0056725657
25	0xbb3d9625	-0.0028928604
26	0xbb80da79	-0.003932294
27	0xbb05d56c	-0.0020421399
28	0x3c38acd2	0.011271672
29	0xbb852756	-0.004063527
30	0x3ba3b6e5	0.004996168
31	0x3a88864d	0.0010416001
32	0xbba4958b	-0.0050227097
33	0x3c259d98	0.010108374
34	0x3b60e97c	0.0034318855
35	0xbbf3cfc1	-0.0074405377
36	0xbc43f3ef	-0.011960014
37	0x3c242906	0.010019546
38	0xbba8d370	-0.0051521584
39	0xbbc66704	-0.006054761
40	0xbc5119db	-0.012762512
41	0xbbcfc455	-0.0063405433
42	0xbb492d22	-0.0030697067
43	0x3aba5398	0.0014215587
44	0xb830a15d	-4.211195e-05
45	0xbb5d1310	-0.0033733286
46	0x3b516bf3	0.0031955212
47	0xba754718	-0.0009356602
48	0xb9424009	-0.00018525137
49	0x3b82d9e6	0.0039932607
50	0xbafe29a3	-0.0019391071
51	0xbbb37066	-0.0054760454
52	0xba0aedf4	-0.000529974
53	0x3c75be0e	0.014998926
54	0xbc069e7f	-0.008216499
55	0x3afab456	0.0019127231
56	0xbbdc0667	-0.0067146304
57	0x3bb646af	0.0055626254
58	0xbb208de5	-0.0024498638
59	0x3c422de5	0.011851762
60	0xba87e824	-0.0010368866
61	0x39270772	0.00015929135
62	0xbbf31e95	-0.007419417
63	0x3c065fb8	0.008201532
64	0xbbcc2d2e	-0.006230972
65	0xbc221cee	-0.009894593
66	0x3b3fb070	0.0029249452
67	0xbbdb641e	-0.0066952845
68	0x3a0081d2	0.0004902157
69	0x3ad308e6	0.0016100674
70	0xb9c4ca6b	-0.00037534846
71	0xbbf2534a	-0.0073951827
72	0xbb2b292d	-0.0026117072
73	0xbbbf5dc3	-0.0058400347
74	0xbb92974a	-0.0044736015
75	0xbb27d9aa	-0.0025611916
76	0xbbcefd56	-0.006316821
77	0xbb7ace19	-0.0038269816
78	0x3ae73fd4	0.0017642924
79	0x3aeb9371	0.0017973018
80	0xba0d0c10	-0.00053805206
81	0x3a66ab46	0.00087993254
82	0xbbfe6936	-0.007764007
83	0xbbccac7c	-0.0062461477
84	0x3a82b9c5	0.0009973577
85	0x3a363d81	0.0006951914
86	0xbba1da7f	-0.004939377
87	0xbc05755a	-0.008145655
88	0xba9c165a	-0.0011908517
89	0xbbc65a09	-0.0060532135
90	0xbc56b521	-0.013104708
91	0xbaea84dd	-0.001789238
92	0xbbdfaf21	-0.006826297
93	0x3ba19cec	0.0049320366
94	0x3b919b0f	0.0044435333
95	0xbbff5729	-0.0077923727
96	0xbb7429ad	-0.0037256286
97	0xbb05cc03	-0.002041579
98	0x3bdd8108	0.0067597665
99	0x3ab9f4ef	0.0014187376
100	0x3c30880e	0.010774625
101	0x3b137530	0.002250027
102	0xbb552de9	-0.0032528585
103	0xbade2647	-0.0016948663
104	0xbba872e3	-0.0051406487
105	0xbbc51f5a	-0.0060157003
106	0x3c0cfc57	0.008605084
107	0x3ade9526	0.0016981706
108	0xba2f0d8b	-0.0006677738
109	0x39df6b0d	0.00042613634
110	0xbb2456d4	-0.0025076168
111	0xbaacc988	-0.001318262
112	0x3ba1acea	0.004933943
113	0x3b28252f	0.0025656929
114	0x3b1f0e43	0.0024269975
115	0x3bec6776	0.007214482
116	0xbb8f8aca	-0.0043805586
117	0x3b61a4de	0.0034430544
118	0xbc03fdd3	-0.008056122
119	0xbba9f651	-0.005186834
120	0x3ba7de26	0.0051229177
121	0xbc337cf2	-0.010955082
122	0xbb058a50	-0.002037663
123	0xbba8ae75	-0.00514775
124	0x3bb73d20	0.0055920035
125	0x3bb77d33	0.0055996417
126	0xbc1ca407	-0.009560592
127	0xba4901c3	-0.0007667804

network_body._body_endoder.seq_layers.2.weight f4 [128, 128]
0	0x3cddc5bd	0.027071828
1	0x3c4de468	0.012566663
2	0x3daa6714	0.08320442
3	0xbe3beb2a	-0.18351427
4	0x3d9db022	0.0769961
5	0x3da954dd	0.082681395
6	0xbddba04c	-0.107239336
7	0xbc1281fd	-0.008942124
8	0xbdf22dc2	-0.11825134
9	0xbca357b2	-0.019939277
10	0xbd24b733	-0.040213775
11	0xbd369f90	-0.044585764
12	0xbe8c24a3	-0.27371702
13	0xbd8bfc16	-0.06835191
14	0xbd079966	-0.033105277
15	0x3e0da590	0.13832688
16	0x3d46c267	0.04852524
17	0x3d284fc2	0.041091688
18	0x3e279e48	0.16368973
19	0xbc537ecb	-0.012908648
20	0x3d406bba	0.046977736
21	0x3d519618	0.05116853
22	0x3c6a9ec7	0.014320082
23	0xbe6eb448	-0.2331096
24	0xbe265dc9	-0.16246714
25	0xbc9de73c	-0.0192753
26	0x3d3467f7	0.04404446
27	0x3e1e0b71	0.15434052
28	0xbb15f127	-0.0022879334
29	0xbd512bfe	-0.051067345
30	0xbd98535a	-0.07437773
31	0x3d395fa7	0.045257237
32	0x3d9c76ae	0.07639824
33	0xbda23cb4	-0.079217345
34	0xbd94a6d0	-0.072583795
35	0xbde3b183	-0.11117842
36	0x3e035433	0.12825088
37	0x3da8a02c	0.08233675
38	0xbd06406a	-0.032776274
39	0x3dde5736	0.10856478
40	0x3d6c099f	0.057626363
41	0xbd4535a2	-0.04814685
42	0xbd69dcd4	-0.057095364
43	0x3cfa21f1	0.030533763
44	0xbc829bde	-0.015943464
45	0x3cdd9101	0.027046682
46	0xb7234922	-9.732585e-06
47	0x3c950fd3	0.018196022
48	0x3d032369	0.03201619
49	0x3d68de53	0.05685265
50	0x3cf76a43	0.030202037
51	0xbcd261f6	-0.025681477
52	0xbd29500f	-0.041336115
53	0x3dce0564	0.10059622
54	0xbdd7a012	-0.10528578
55	0xbd55dd75	-0.05221315
56	0xbe2b5074	-0.16729909
57	0x3d955edb	0.07293483
58	0x3d2df863	0.04247321
59	0x3d4af186	0.04954674
60	0x3e0310a1	0.12799312
61	0xbda0402c	-0.0782474
62	0x3df1ebff	0.11812591
63	0x3c05273d	0.008127031
64	0x3c8f8bd3	0.017522728
65	0xbc8865cf	-0.016650109
66	0x3d9e3ed3	0.077268265
67	0x3e00e461	0.1258712
68	0x3d04d047	0.03242519
69	0xbdf215a6	-0.11820535
70	0x3dd091d9	0.10184068
71	0xbde2c7b4	-0.110732466
72	0x3db76e6a	0.08956607
73	0xbe42ddca	-0.19029918
74	0xbd94ab56	-0.07259242
75	0xbdd107a3	-0.10206535
76	0xbd8fff2f	-0.07031094
77	0xbd4e9ef4	-0.05044456
78	0xbe32a02e	-0.17443916
79	0x3c1faeef	0.009746297
80	0xbddb8dd4	-0.10720411
81	0xbe18db4b	-0.14927404
82	0x3dad3e23	0.08459117
83	0x3b0957d6	0.0020956895
84	0xbce81431	-0.02832994
85	0xbd2f7c71	-0.042843286
86	0xbdc04b02	-0.093893066
87	0xbcadb110	-0.021202594
88	0xbd8985a7	-0.06714945
89	0x3d5980f4	0.053101495
90	0xbe3a5d22	-0.1819959
91	0xbdf5bbf0	-0.11998737
92	0xbd8d9e94	-0.06915012
93	0x3dc46331	0.09589232
94	0xbdeee666	-0.11665039
95	0x3c783329	0.015148916
96	0xbe04886b	-0.12942664
97	0x3df3adcc	0.118983835
98	0xbd49d827	-0.049278405
99	0xbcf922d9	-0.030412124
100	0xbdaef231	-0.08542288
101	0x3af8269c	0.0018932405
102	0xbd195d7a	-0.03744266
103	0xbcbce7ed	-0.02305981
104	0x3ca495c2	0.020090941
105	0xbde25b5e	-0.11052583
106	0x3e0107d3	0.12600641
107	0x3d386097	0.04501399
108	0x3cbc365f	0.022975145
109	0xbdac588a	-0.08415325
110	0x3cb458f4	0.022015072
111	0x3e13e13d	0.1444139
112	0xbd5a1d3c	-0.053250536
113	0xbcbc0f15	-0.02295641
114	0x3daf6d47	0.08565765
115	0xbd82c7e3	-0.063857816
116	0x3cd8a898	0.02644758
117	0xbd04d30f	-0.032427844
118	0x3c6ac58b	0.0143293245
119	0xbd93e37d	-0.07221124
120	0x3c0523cd	0.008126211
121	0x3ca9d47b	0.020731201
122	0xbd62afc6	-0.055343412
123	0xbe4eaef7	-0.20183931
124	0xbdb57238	-0.08859676
125	0xbc3a0500	-0.011353731
126	0x3dc3cdf1	0.095607646
127	0xbcb9e93e	-0.022694226
128	0xbc106466	-0.008812999
129	0x3e10557e	0.14095113
130	0xbddf8099	-0.109132
131	0xbe1fa985	-0.1559201
132	0x3da178a6	0.0788434
133	0xbd70293a	-0.058633067
134	0x3d21bb0d	0.039485026
135	0xbe383af1	-0.17991234
136	0xbe3f6a3d	-0.1869287
137	0x3c9d9971	0.019238206
138	0x3d16c429	0.036808167
139	0xbe0cb37a	-0.1374034
140	0x3da3bb6d	0.07994733
141	0x3b9268c0	0.0044680536
142	0x3c8ff267	0.017571641
143	0x3dab0739	0.08350987
144	0x3bc183dc	0.0059056114
145	0xbd80238d	-0.06256781
146	0x3b89dcde	0.0042072376
147	0xbdbcac07	-0.09212499
148	0xbdc287dc	-0.09498569
149	0x3d34870b	0.0440741
150	0x3da37ca0	0.07982755
151	0xbd6ba71a	-0.057532407
152	0xbdc893a7	-0.097937874
153	0x3bb6f8b1	0.0055838455
154	0xbdafc8bf	-0.08583211
155	0xbda7a788	-0.08186251
156	0xbd0d254e	-0.034459405
157	0xbe01d5d8	-0.12679231
158	0xbe5c6a56	-0.21524939
159	0x3e2747d9	0.16336001
160	0xbe0c9062	-0.13726953
161	0x3ccd3d27	0.025053574
162	0x3d132cca	0.035931386
163	0x3d090538	0.033452243
164	0x3cfda2f8	0.030961499
165	0xbcfdea11	-0.0309954
166	0xbddaafc3	-0.10678055
167	0x3e0b06df	0.1357684
168	0xbd812993	-0.06306758
169	0xbd8d397b	-0.06895729
170	0x3d0b0ce3	0.033947837
171	0xbc042979	-0.0080665285
172	0x3e2eea8c	0.1708166
173	0xbbad2d6c	-0.0052849557
174	0xbe43593f	-0.19077013
175	0x3e056d6a	0.1303002
176	0xbb0d97d2	-0.0021605385
177	0xbd1fb798	-0.038993448
178	0x3dd808af	0.10548531
179	0xbd292054	-0.041290596
180	0xbe250665	-0.1611572
181	0x3db41e6f	0.08794867
182	0xbdd2f19a	-0.10299988
183	0xbe04333c	-0.1291017
184	0x3d18fa5d	0.03734814
185	0xbe035200	-0.1282425
186	0xbd40d1f2	-0.04707522
187	0x38870579	6.438321e-05
188	0xbc8fa9cb	-0.017537018
189	0xbd47d4c8	-0.04878691
190	0xbd2294e2	-0.039692767
191	0xbd871b9b	-0.06597062
192	0x3cbb2b2c	0.022847734
193	0x3da18840	0.07887316
194	0x3ccffdcc	0.025389574
195	0xbd7ac398	-0.06122169
196	0x3da89ca6	0.08233003
197	0x3d92787f	0.07151889
198	0x3d26deb8	0.040739745
199	0xbd87be9e	-0.06628154
200	0xbcf626b4	-0.030047752
201	0x3c7b9400	0.01535511
202	0xbb72fd54	-0.0037077265
203	0xbdb15f7a	-0.08660789
204	0x3d425357	0.04744276
205	0xbc8a8674	-0.016909815
206	0x3ba5c61d	0.0050590173
207	0xbbc91aa6	-0.00613721
208	0xbd6939e0	-0.05693996
209	0x3d9ab64c	0.075543016
210	0x3d80fe98	0.0629856
211	0x3d905269	0.070469685
212	0xbc9f4d8b	-0.019446155
213	0xbe1128db	-0.14175741
214	0x3dacfdd7	0.084468536
215	0xbe0635af	-0.13106416
216	0x3c1cd619	0.009572529
217	0xbcbc26f6	-0.022967797
218	0xbc615b6a	-0.013754705
219	0xbdc26d79	-0.094935365
220	0xbdd330c3	-0.10312035
221	0x3dd8f212	0.10593046
222	0xbdf54dfe	-0.119777665
223	0xbd6796b1	-0.056540195
224	0xbd1df622	-0.03856481
225	0x3de1ec66	0.110314175
226	0xbcb94d00	-0.022619724
227	0x3d48fe02	0.049070366
228	0xbe4331c9	-0.1906196
229	0xbe6d38d0	-0.23166203
230	0xbbfbc0bf	-0.0076828892
231	0x3da80256	0.082035705
232	0xbd6debfe	-0.058086388
233	0x3dc01f98	0.09381026
234	0xbd95dbc9	-0.07317311
235	0x3b853d54	0.004066149
236	0xbdd25b8f	-0.1027137
237	0xbdbd4a83	-0.092427276
238	0xbc977173	-0.018486714
239	0xbdfb8f1c	-0.12283155
240	0x3d0c3e51	0.034239117
241	0x3c823ed6	0.015899103
242	0x3e15a89d	0.14615102
243	0xbddd5a66	-0.10808258
244	0xbd636f75	-0.055526216
245	0xbdde2ac8	-0.108480036
246	0xbd82cd84	-0.06386855
247	0x3dbfe9ae	0.09370743
248	0xbd4e87cf	-0.050422486
249	0x3e016ce4	0.12639195
250	0x3da349ff	0.07973098
251	0x3db7990f	0.089647405
252	0xbe2de5b8	-0.16982162
253	0x3d8ba5ef	0.06818759
254	0x3db8c7a9	0.09022457
255	0x3d424234	0.047426417
