results/Run1/MoveThePlayer/MoveThePlayer-3499972.pt (torch, 437663 bytes, 30 tensors)

network_body._body_endoder.seq_layers.0.weight f4 [128, 6]
0	0xbeee46d5	-0.46538416
1	0xbe878708	-0.26470208
2	0xbf616731	-0.8804808
3	0x3eb5d6a1	0.3551531
4	0x3e358655	0.17727025
5	0x3f5b3a30	0.8563566
6	0x3e0a4eb7	0.1350659
7	0xbf79053f	-0.9727363
8	0x3e689323	0.22712378
9	0xbeea11f3	-0.4571682
10	0xbdc26d0c	-0.09493455
11	0xbf060f01	-0.52366644
12	0xbd48fcad	-0.049069095
13	0xbec59ff0	-0.38598585
14	0xbe575168	-0.21027148
15	0x3ed71e0b	0.42015108
16	0x3ee6c71e	0.4507379
17	0xbdb08bfe	-0.086204514
18	0xbe1f95e7	-0.15584527
19	0x3ecf3b81	0.40475085
20	0xbe9982bb	-0.29982552
21	0x3f0cbb4f	0.5497331
22	0x3f757de4	0.9589522
23	0x3f5fdca1	0.8744603
24	0xbeaf01f4	-0.34181178
25	0xbf84e8fe	-1.0383604
26	0x3ef2bf0a	0.47411376
27	0x3d36e486	0.04465153
28	0x3e837b36	0.2567994
29	0xbeb08ac0	-0.34480858
30	0xbe294919	-0.16531791
31	0x3e866cb8	0.2625482
32	0x3e79286c	0.24331826
33	0xbf300a2d	-0.68765527
34	0xbd6337fc	-0.055473313
35	0xbec8ef63	-0.39245138
36	0xbe0bab2f	-0.1363952
37	0xbeba28f9	-0.36359385
38	0x3e397a6b	0.18113105
39	0x3e17b883	0.1481648
40	0xbdba15db	-0.090862
41	0x3e07b492	0.13252476
42	0x3ea2e77c	0.31817234
43	0x3ecded34	0.40220034
44	0x3e2bd6ae	0.16781113
45	0xbf2f5464	-0.68488145
46	0x3cdefda2	0.02722055
47	0x3d8fde04	0.07024768
48	0xbf27e6f3	-0.65586776
49	0x3eb33fd0	0.35009623
50	0xbf05b95f	-0.5223598
51	0xbe458c4a	-0.19291797
52	0x3e58fde9	0.21190609
53	0xbe669fbc	-0.22521871
54	0x3e7ffe17	0.24999271
55	0xbf6c9d4f	-0.92427534
56	0xbe9a6112	-0.30152184
57	0x3e5f8601	0.21828462
58	0xbd784991	-0.060617033
59	0xbcaa1c6c	-0.020765506
60	0xbcf0594e	-0.029339459
61	0xbf2396cb	-0.63901967
62	0xbea754ca	-0.32681876
63	0xbe48dd34	-0.19615632
64	0x3e2056d5	0.15658124
65	0x3f111284	0.5666888
66	0x3e5bd7e8	0.2146908
67	0x3f2688ba	0.6505238
68	0x3e87542e	0.26431412
69	0x3d964c3e	0.07338761
70	0x3ed11b17	0.4084098
71	0xbe970088	-0.29492593
72	0x3f35789d	0.70887166
73	0x3ee06245	0.43824974
74	0xbee711e2	-0.4513083
75	0x3d8042e1	0.06262756
76	0xbebc011c	-0.36719596
77	0x3de49a0d	0.11162195
78	0xbe06a631	-0.13149334
79	0xbe8102f6	-0.25197572
80	0x3a08d874	0.00052202423
81	0x3f05ee5a	0.5231682
82	0x3f08c7fd	0.5343016
83	0x3e7a3e7a	0.24437895
84	0xbf112e65	-0.5671142
85	0xbe240b52	-0.16019943
86	0xbe5e708e	-0.21722624
87	0x3f07d2f1	0.53056246
88	0x3f105efc	0.56394935
89	0xbe4edce9	-0.20201458
90	0x3e92d216	0.28675908
91	0xbd1987e9	-0.03748313
92	0x3d9ed407	0.07755285
93	0xbe9451df	-0.28968713
94	0x3e1a858b	0.15090005
95	0xbf07b648	-0.53012514
96	0xbcc9f510	-0.024652988
97	0xbcb6bf4a	-0.02230801
98	0xbe924645	-0.28569236
99	0x3dd70cdc	0.105004996
100	0xbf2b9db8	-0.67037535
101	0x3e7cbe0b	0.2468187
102	0xbe6eb125	-0.23309763
103	0xbdcfdd14	-0.10149589
104	0xbe695e34	-0.22789842
105	0xbdba0ceb	-0.09084495
106	0xbe8bf34e	-0.27334064
107	0xbe7f54a9	-0.24934639
108	0xbe2b271f	-0.16714142
109	0xbdf3007c	-0.11865327
110	0x3f1f841b	0.6231095
111	0xbe3b8e40	-0.18315983
112	0x3f1226ec	0.5709064
113	0x3ea618d1	0.32440808
114	0x3e768538	0.24074256
115	0x3e4cb3db	0.19990484
116	0xbdd2d75f	-0.10294985
117	0x398d6c86	0.00026974472
118	0x3ea2d3a3	0.3180209
119	0xbc013e56	-0.007888397
120	0x3ef21e84	0.47288907
121	0x3e413a8f	0.18869995
122	0x3e098c3a	0.13432398
123	0xbe75ae3a	-0.23992243
124	0x3de32764	0.110914975
125	0xbeecf265	-0.46278682
126	0x3f3c1b1a	0.73478854
127	0xbe7a07db	-0.24417059
128	0x3e999791	0.29998448
129	0xbe0be07a	-0.1365985
130	0xbcb66618	-0.022265479
131	0x3f39bc00	0.7255249
132	0x3f43f7fa	0.7655026
133	0x3e8bd879	0.27313593
134	0xbe85fe28	-0.26170468
135	0xbeb42fcd	-0.3519272
136	0xbc8383bd	-0.016054029
137	0xbdba64e4	-0.091012746
138	0xbe76d082	-0.24102977
139	0xbf1cbcda	-0.61225665
140	0x3e1000d5	0.14062817
141	0x3ec84aca	0.3911956
142	0x3e85d0d9	0.261359
143	0xbe61f3e6	-0.22065696
144	0xbe76a271	-0.24085404
145	0x3f79ae36	0.9753145
146	0xbf24afbb	-0.64330643
147	0x3e1a4624	0.15065819
148	0xbd58d47a	-0.05293701
149	0xbeb90b43	-0.36141405
150	0x3f68ab6e	0.9088658
151	0xbdbf0895	-0.09327809
152	0xbe93a7b6	-0.2883889
153	0x3e1739ea	0.14768186
154	0x3f1aea4f	0.60513777
155	0xbf5a9cee	-0.85395706
156	0x3da55d56	0.08074443
157	0x3e9839f7	0.29731724
158	0x3eb1e6c3	0.3474637
159	0xbf456eec	-0.7712238
160	0xbec6be6e	-0.3881716
161	0x3dcf9ef9	0.101377435
162	0xbd8b8321	-0.0681212
163	0xbe050cb0	-0.12993121
164	0x3eaf3679	0.34221247
165	0xbea0458e	-0.31303066
166	0xbe56b0ed	-0.2096593
167	0xbe50b528	-0.20381606
168	0xbd6871cd	-0.056749154
169	0x3db7ef30	0.08981168
170	0x3d5ab72f	0.053397354
171	0x3ed30342	0.41213423
172	0x3d8fc4a4	0.07019928
173	0xbdeab46f	-0.11460196
174	0xbe8ec968	-0.27888036
175	0x3db943fb	0.09046169
176	0xbe233f95	-0.15942223
177	0xbd05473d	-0.03253864
178	0xbed29bb8	-0.4113443
179	0xbe98bb49	-0.29830387
180	0x3e85466d	0.26030293
181	0xbf0c2fe8	-0.547606
182	0x3ebd3b13	0.36959133
183	0xbdf09caa	-0.11748631
184	0xbe87a6d6	-0.26494473
185	0x3e6e3eb7	0.23266111
186	0x3ec0df09	0.37670162
187	0x3e7658e5	0.24057348
188	0x3ecb4536	0.3970124
189	0x3f078044	0.5293009
190	0x3f1dffc7	0.6171841
191	0x3e660498	0.2246269
192	0xbe273083	-0.163271
193	0x3ed786a7	0.4209492
194	0x3e018f6d	0.12652369
195	0x3ee9a5b0	0.45634222
196	0x3e93df96	0.2888152
197	0x3f1924a0	0.5982151
198	0x3f30eab5	0.69108135
199	0x3df133e8	0.117774785
200	0x3e7e012d	0.24805136
201	0xbe582342	-0.211072
202	0x3e05c016	0.13061556
203	0xbea46358	-0.32107043
204	0xbf1ec166	-0.6201385
205	0xbed158a4	-0.4088794
206	0xbe266ba1	-0.16251995
207	0x3e1d1981	0.1534176
208	0xbda92ca4	-0.08260468
209	0x3cd528ad	0.026020372
210	0x3f195848	0.5990033
211	0xbf1dbd09	-0.6161657
212	0xbded53c8	-0.11588246
213	0x3ebf1b24	0.37325394
214	0x3dbcfc22	0.09227778
215	0xbde7c6da	-0.11317225
216	0x3e87d496	0.26529378
217	0xbe8bb01b	-0.27282795
218	0x3ef67921	0.4813929
219	0xbd766c5d	-0.060161937
220	0xbedb7f34	-0.42870486
221	0xbeeed898	-0.46649623
222	0xbef15454	-0.4713465
223	0x3f158101	0.5839997
224	0xbecfe5a1	-0.4060488
225	0x3edbb135	0.42908636
226	0x3e666aec	0.22501725
227	0x3f341b2a	0.7035395
228	0x3ea4dfce	0.32202
229	0xbe3c4232	-0.18384627
230	0x3e514cd9	0.20439471
231	0x3e85e4dc	0.26151168
232	0xbdaec0a8	-0.0853284
233	0xbd5debae	-0.05417984
234	0x3de230c1	0.11044455
235	0x3eb376a6	0.3505146
236	0x3ea60607	0.32426473
237	0xbc84b12e	-0.016197767
238	0xbf22e8bc	-0.63636374
239	0x3ebe28e7	0.3714058
240	0x3e9b6583	0.30350885
241	0x3db2c880	0.087296486
242	0x3eae0f22	0.3399592
243	0x3e5b514b	0.2141773
244	0xbf1d7cbe	-0.61518466
245	0x3dcd285f	0.10017466
246	0xbe172099	-0.14758529
247	0x3f24fbc4	0.64446664
248	0xbe482202	-0.19544223
249	0x3ea8b125	0.3294765
250	0xbe6cc1d8	-0.2312082
251	0x3efbe9c7	0.49201795
252	0xbf137640	-0.5760231
253	0x3e3794fa	0.17927924
254	0x3e323fbd	0.17407127
255	0x3deb277d	0.11482141

network_body._body_endoder.seq_layers.0.bias f4 [128]
0	0x3ba68e8e	0.005082912
1	0xbaf5f6e9	-0.0018765602
2	0xbc1c45a9	-0.009538093
3	0xbd0d89fa	-0.034555413
4	0x3d0214df	0.031758185
5	0xbb91dd04	-0.004451396
6	0xba36b2ba	-0.00069693814
7	0xbbe062f7	-0.006847735
8	0xbc5ba901	-0.013406993
9	0xbcbcfc1a	-0.02306943
10	0x3c9e7367	0.019342138
11	0x3cbbdcef	0.022932498
12	0x3b9bc5bd	0.004753797
13	0x3d22887f	0.039680954
14	0x3d48e4dd	0.049046386
15	0xbbda8077	-0.0066681462
16	0x3c928045	0.01788343
17	0xbbc3532c	-0.0059608426
18	0x3b5dc353	0.0033838346
19	0x391fad74	0.00015228038
20	0x3bf4e29d	0.0074733035
21	0x3bd648f4	0.0065394584
22	0xbc87c0a5	-0.016571352
23	0x3c3bec2a	0.01146988
24	0xbb974cc5	-0.004617306
25	0xbbcef90a	-0.006316309
26	0xbc509455	-0.012730678
27	0xbc81d8c0	-0.015850425
28	0x3bb6011a	0.0055543305
29	0xbcc0f18f	-0.023552684
30	0xbb2d2456	-0.0026419363
31	0x3c5f5ec8	0.013633437
32	0x3c28475b	0.010270919
33	0xbcea580d	-0.028606439
34	0xbb7458da	-0.0037284405
35	0xbb4e6747	-0.0031494664
36	0x3cd4fd2b	0.025999626
37	0xbc0ac464	-0.008469675
38	0x3cee44d9	0.029085563
39	0x3c4b3875	0.012403597
40	0x3c3e2aee	0.011606915
41	0x3b81d0b5	0.0039616474
42	0xbc34b7f3	-0.011030185
43	0xbbcfd5e2	-0.0063426355
44	0x3b3e8cf7	0.002907572
45	0xbc819e25	-0.01582248
46	0xbc085acb	-0.008322428
47	0x39583788	0.00020620052
48	0xbc229f09	-0.009925612
49	0x3af1725c	0.0018420923
50	0x3b03e5a7	0.0020125897
51	0x3cf567f6	0.029956799
52	0xbb0e56fa	-0.0021719323
53	0xbcbbe702	-0.022937302
54	0xbcd57b51	-0.026059778
55	0x3d03c5bf	0.032171007
56	0x3c35e59b	0.0111021055
57	0xbc4f9b5f	-0.012671321
58	0x3d329fa0	0.04360926
59	0x3bb96528	0.0056578107
60	0xbbf96e86	-0.0076120524
61	0x3b902fb3	0.0044002174
62	0x3d2be01a	0.041961767
63	0x3c97629c	0.018479638
64	0x3aba1c06	0.0014199025
65	0x3d032a77	0.03202292
66	0xbb39bacd	-0.0028340102
67	0xbbe830e8	-0.007085908
68	0x3c8f2e7e	0.017478224
69	0xbc87a085	-0.016556034
70	0x3bfad6e4	0.0076550115
71	0xbbe99e6f	-0.0071294825
72	0x3cfa7bc2	0.03057659
73	0x3cef6d8f	0.029227046
74	0x3ca3997f	0.019970654
75	0xbca01e13	-0.01954559
76	0xbbf1d87f	-0.0073805447
77	0xbc9317ad	-0.017955625
78	0x3c8905ad	0.01672634
79	0xbc094cfe	-0.008380173
80	0x3bf5a9ba	0.0074970396
81	0x3c8ec740	0.017428994
82	0xbd4f17b5	-0.05055972
83	0xbc4b6eb3	-0.0124165295
84	0xbc57af00	-0.013164282
85	0xbbd73d48	-0.0065685846
86	0x3dbede4c	0.093197435
87	0xbc3dae07	-0.011577136
88	0xbc3f8685	-0.011689787
89	0xbb3d001d	-0.002883918
90	0xba690419	-0.0008888855
91	0xbcb5ea5b	-0.022206476
92	0xbc86c6d8	-0.016452238
93	0x3d196c26	0.037456654
94	0x3cac552d	0.021036709
95	0x3bfdc1f5	0.0077440687
96	0xbc6b74fe	-0.014371155
97	0x3d3cc300	0.046084404
98	0x399b25cd	0.00029592068
99	0xbc84f6e2	-0.016231004
100	0xbcabc050	-0.020965725
101	0xbadbdf94	-0.0016775005
102	0x3d44ced9	0.048048828
103	0xbba3e10e	-0.005001194
104	0xbcc60c9b	-0.024175933
105	0x3bc62273	0.006046587
106	0x3cb0f218	0.021599814
107	0x3b5112ce	0.0031902078
108	0x3cbc1df9	0.02296351
109	0x3b903d0e	0.0044018095
110	0x3d21ed35	0.03953286
111	0x3c7dd500	0.015492678
112	0x3cbc674c	0.022998475
113	0x3b2ae5e5	0.002607697
114	0x3b3380cf	0.0027390008
115	0x3c8fa49a	0.017534543
116	0xbc93b92a	-0.018032629
117	0x3c7d024e	0.015442444
118	0x3cc5666c	0.02409669
119	0x3d288d84	0.041150585
120	0x3d124b95	0.035716612
121	0xbb890b6d	-0.0041822703
122	0x3a4e8586	0.0007878173
123	0xbc95621c	-0.018235259
124	0xbbfe4506	-0.007759693
125	0xbb86e383	-0.004116477
126	0xbc2e23cd	-0.010628653
127	0xbacc64de	-0.0015594026

network_body._body_endoder.seq_layers.2.weight f4 [128, 128]
0	0xbd8dbca8	-0.06920749
1	0xbd253b2c	-0.040339634
2	0xbd6ea041	-0.0582583
3	0x3d9881c2	0.07446624
4	0xbd1b463b	-0.037908774
5	0x3d354ca7	0.044262554
6	0xbcbcf0b7	-0.023064
7	0xbce6bf04	-0.028167255
8	0xbbd324f6	-0.006443615
9	0x3d909bcd	0.07060967
10	0xbdab6166	-0.08368187
11	0xbdb8671c	-0.090040416
12	0x3cf290e4	0.029610105
13	0x3cac54d0	0.021036536
14	0x3d43033f	0.047610518
15	0x3d095298	0.033526033
16	0x3cc268ab	0.02373155
17	0x3e3fde62	0.18737176
18	0x3d07e315	0.033175547
19	0x3dd4f1f5	0.10397712
20	0xbdf79740	-0.120893955
21	0xbce009d0	-0.027348429
22	0xbd8d3de1	-0.06896568
23	0x3c81ee05	0.015860567
24	0x3e119060	0.14215231
25	0x3dd28829	0.10279877
26	0xbdb63515	-0.08896843
27	0x3c44eda7	0.012019551
28	0x3b37394f	0.0027957743
29	0xbe1cd42c	-0.15315312
30	0x3c59b05a	0.013286674
31	0x3df0d536	0.11759417
32	0x3e0252f7	0.12726961
33	0xbc85c6d4	-0.01633016
34	0x3de6cf22	0.11269976
35	0x3d2b1d24	0.041775838
36	0x3d91e9db	0.071246825
37	0x3d994b17	0.074850254
38	0xbdc372d9	-0.0954339
39	0x3d8887fa	0.066665605
40	0x3dd5a45c	0.1043174
41	0xbe2d4af1	-0.16923119
42	0xbe153e98	-0.14574659
43	0xbe1a2de7	-0.15056573
44	0x3dd4e845	0.103958644
45	0xbc2c9e36	-0.010535767
46	0x3cd446c9	0.02591266
47	0x3dbfe8d4	0.0937058
48	0x3cfcceb0	0.030860275
49	0xbc5063ec	-0.012719136
50	0x3dbf2520	0.09333253
51	0xbdeac888	-0.114640296
52	0xbe08c680	-0.13356972
53	0x3d9585df	0.073009245
54	0xbd664672	-0.056219526
55	0xbd9367bb	-0.071975194
56	0x3ba75939	0.0051070717
57	0xbd56350d	-0.052296687
58	0x3cf3f470	0.029779643
59	0xbd8999b2	-0.06718768
60	0x3c868720	0.016421854
61	0xbd4a9809	-0.0494614
62	0x3d439ee1	0.04775894
63	0x3c2460d8	0.010032855
64	0xbdea90f4	-0.11453429
65	0x3cabb785	0.020961532
66	0xbda7eae1	-0.081990965
67	0xbc37712e	-0.011196418
68	0x3d68457d	0.056706894
69	0x3dcb9d63	0.099421285
70	0x3cbf8111	0.023376973
71	0xbd81088a	-0.06300457
72	0x3dfe348e	0.12412368
73	0x3dfcc5fb	0.12342449
74	0x3d6dc5f2	0.058050103
75	0xbdace79c	-0.084426135
76	0x3d9f6833	0.07783546
77	0xbccf6432	-0.025316332
78	0xbbf07399	-0.007337999
79	0xbd87c898	-0.06630057
80	0x3d375c46	0.044765733
81	0x3d322bc4	0.04349877
82	0x3d960621	0.07325388
83	0xbd8e7996	-0.069567844
84	0x3ca475fc	0.02007579
85	0x3d8bce67	0.068264775
86	0x3dc642a3	0.09680679
87	0x3dee6ca2	0.11641814
88	0x3d88e69d	0.06684611
89	0x3df11681	0.117718704
90	0xbe1153ca	-0.14192119
91	0xbcb79f43	-0.02241481
92	0x3d297111	0.041367594
93	0xbd9b3a6a	-0.07579501
94	0xbd327047	-0.043564107
95	0x3e619dc9	0.22032847
96	0x3c9aad3e	0.018881436
97	0x3d5b0954	0.053475693
98	0x3e15bb65	0.14622267
99	0xbbbe7426	-0.005812186
100	0xbe244a13	-0.16043882
101	0xbdb3bfea	-0.08776839
102	0xbcf66e9d	-0.030082041
103	0x3dc91018	0.09817523
104	0x3dfca2df	0.12335753
105	0x3dc4cd1a	0.096094325
106	0x3c08e2a3	0.008354816
107	0x3de11b59	0.10991544
108	0x3d364930	0.04450339
109	0x3d5d4964	0.05402507
110	0xbe15d37d	-0.14631458
111	0x3d50211e	0.050812833
112	0xbdb7cb3c	-0.08974311
113	0xbdd744ac	-0.10511145
114	0xbcd52022	-0.026016299
115	0x3d418d20	0.047253728
116	0x3bbe7f9d	0.0058135525
117	0x3e108bab	0.14115779
118	0x3ca977e8	0.020687059
119	0x3bca5424	0.006174581
120	0x3e0bc8fd	0.1365089
121	0x3e0cd949	0.13754763
122	0x3d32a5bb	0.043615084
123	0xbe25530b	-0.1614496
124	0xbdbbfc1c	-0.091789454
125	0x3e15bbda	0.14622441
126	0x3c716445	0.014733379
127	0xbcc0592a	-0.023480017
128	0x3aa5b6a4	0.0012642932
129	0xbcf83494	-0.030298509
130	0xbcfe8920	-0.031071246
131	0x3d0692b3	0.032854747
132	0x3d99a877	0.07502835
133	0x3d84d35c	0.06485626
134	0xbde9030e	-0.11377536
135	0x3cbc0d9c	0.022955708
136	0xbdc2eda5	-0.09517983
137	0x3cbf0107	0.02331592
138	0x3ace6c3d	0.001574881
139	0x3caf5865	0.021404454
140	0x3d57bca9	0.052670155
141	0x3ddd3143	0.108004116
142	0x3d97546f	0.07389151
143	0x3b0630ac	0.0020475788
144	0xbe8a40fc	-0.27002704
145	0xbdaf11fc	-0.08548352
146	0x3d845a4d	0.06462536
147	0xbc1a30ab	-0.009411017
148	0x3b823bfe	0.003974437
149	0xbdb5a4de	-0.088693365
150	0xbe09dfdd	-0.13464303
151	0x3d96f8b3	0.07371654
152	0x3d5babff	0.053630825
153	0xbb8502e7	-0.004059184
154	0x3de6c26b	0.11267551
155	0x3c57c06f	0.013168438
156	0x3999b9b9	0.00029320808
157	0x3d47d00a	0.048782386
158	0xbd46d7dd	-0.048545707
159	0x3dcefdfb	0.10107037
160	0xbccbde6b	-0.02488633
161	0x3d898327	0.067144684
162	0xbd2f5f9e	-0.042815797
163	0xbdbd28f1	-0.092363246
164	0x3d68213c	0.05667232
165	0xbd6bcb5f	-0.057566997
166	0x3e03e3cc	0.12879866
167	0xbe54f6e8	-0.20797312
168	0x3e4764a6	0.19471988
169	0xbd848b23	-0.06471851
170	0x3d989766	0.07450752
171	0x3d9334ad	0.071877815
172	0x3d2ac0c1	0.04168773
173	0xbdbb6d65	-0.09151725
174	0x3d97d866	0.074143216
175	0x3d49c169	0.049256716
176	0xbd9ed498	-0.07755393
177	0xbdb42f7b	-0.08798119
178	0x3d51095c	0.051034316
179	0xbe4c6b2b	-0.19962756
180	0xbe4c8ec7	-0.1997634
181	0xbd8ead4e	-0.06966649
182	0x3db68a6c	0.089131206
183	0x3cac975f	0.021068273
184	0x3dfb52f3	0.12271681
185	0x3d2996d9	0.041403625
186	0xbe3adbd9	-0.18247928
187	0xbd85d960	-0.065356016
188	0x3db182bc	0.08667514
189	0x3e18a4fa	0.14906684
190	0xbe143be9	-0.14475979
191	0xbd23673a	-0.039893366
192	0x3d0e1aef	0.034693655
193	0xbccf2c51	-0.025289686
194	0xbd556dd9	-0.052106712
195	0xbab96bdd	-0.0014146526
196	0x3c183827	0.0092907315
197	0xbda713e3	-0.0815809
198	0xbbedbdd4	-0.0072552953
199	0x3e0d62a5	0.13807161
200	0x3cf01dd1	0.029311093
201	0x3cce8597	0.025210185
202	0x3dedb55b	0.116068564
203	0xbd355853	-0.044273686
204	0x3cf0032d	0.02929839
205	0x3d3947c7	0.045234468
206	0x3d3555bd	0.04427122
207	0xbe022f97	-0.12713467
208	0xbda2ef30	-0.07955778
209	0x3c25e0bb	0.010124381
210	0x3dde160b	0.10844048
211	0x3caab993	0.020840442
212	0xbe32da48	-0.1746608
213	0xbdcb03df	-0.09912848
214	0xbd3cf2ad	-0.04612987
215	0x3c7d3e5e	0.015456764
216	0x3d405b11	0.046961848
217	0x3da8e125	0.08246068
218	0xbd61f18b	-0.055161994
219	0x3daeb6f0	0.08530986
220	0xbb891ac0	-0.004184097
221	0xbd3e2200	-0.046419144
222	0xbd923b88	-0.07140261
223	0xbcc22343	-0.023698455
224	0xbd691ee2	-0.056914218
225	0xbd8108cb	-0.06300505
226	0xbdc13678	-0.09434217
227	0x3dc2832c	0.09497675
228	0x3de76f84	0.11300567
229	0xbd9e80fc	-0.077394456
230	0x3cddc778	0.027072653
231	0x3a624abf	0.0008632354
232	0xbdeb037b	-0.11475273
233	0xbda3d969	-0.08000452
234	0xbcc3db66	-0.023908328
235	0xbd9a95e1	-0.075481184
236	0xbdbf7dd6	-0.09350173
237	0x3dcdc18c	0.10046682
238	0x3e6348f8	0.22195804
239	0xbd0ffdb1	-0.03515405
240	0xbde76d4e	-0.11300145
241	0xbd5e00ca	-0.05419997
242	0xbda5eb82	-0.0810156
243	0x3df27e35	0.11840478
244	0xbd1d40ba	-0.038391806
245	0x3db5cf6c	0.08877453
246	0x3d7c110d	0.0615397
247	0x3dfa56fa	0.12223621
248	0xbe1ada8e	-0.15122434
249	0x3c23c436	0.009995511
250	0xbc819334	-0.015817262
251	0x3cc162e4	0.023606725
252	0x3dde053c	0.10840842
253	0x3d8b17b9	0.06791634
254	0x3d852bb6	0.06502478
255	0xbcee26f7	-0.029071314

network_body._body_endoder.seq_layers.2.bias f4 [128]
0	0xbbb7e906	-0.0056124954
1	0x3cbdd6f5	0.023173789
2	0x3c24fb77	0.0100697195
3	0x3c616697	0.0137573695
4	0x3b8a89dc	0.00422786
5	0x3c449251	0.011997775
6	0xbc33881a	-0.010957742
7	0x3c23b42f	0.00999169
8	0xbca3c020	-0.019989073
9	0xb90104fd	-0.00012304257
10	0xbc226040	-0.009910643
11	0xbbd81fd2	-0.00659559
12	0x3a32e5d7	0.000682441
13	0xbb920b68	-0.004456926
14	0x3a48e638	0.00076637
15	0x3b430ca4	0.0029762173
16	0xbb879f91	-0.004138895
17	0xbb80f558	-0.0039354973
18	0x3c0dd7c3	0.008657399
19	0xbbdece3e	-0.0067994883
20	0x3b6aefb2	0.0035848436
21	0x3bbb9797	0.005724858
22	0xbb2c6449	-0.0026304892
23	0xbbc469f4	-0.005994076
24	0xbb71b446	-0.0036881133
25	0xbcb04ce5	-0.021521041
26	0xbb9f66cd	-0.0048645497
27	0xb8ad3f79	-8.2611055e-05
28	0x3bddbd79	0.0067669717
29	0xbc12fa22	-0.008970769
30	0x3c85d84b	0.016338488
31	0xb9ed33b8	-0.00045242696
32	0xbca11535	-0.019663433
33	0x3a144d1b	0.00056572416
34	0x3b9168b2	0.0044375295
35	0xba2a61e0	-0.000649957
36	0xb9a32596	-0.00031117786
37	0x3c000646	0.007813996
38	0x3c0e6bf7	0.008692733
39	0x3b051411	0.002030615
40	0xbb856034	-0.004070306
41	0x3ac05860	0.0014674775
42	0xba461651	-0.0007556426
43	0x3c68eed3	0.014217096
44	0x3b45f309	0.0030204675
45	0x3bfa946d	0.0076470883
46	0xbbc03447	-0.005865607
47	0xbc397280	-0.011318803
48	0xb9e7a61f	-0.00044183523
49	0x3ba07e37	0.0048978585
50	0xbc0132c5	-0.00788564
51	0x3bdf7610	0.006819494
52	0xbc094a80	-0.008379579
53	0x3c417cb8	0.01180952
54	0xbc61dc2a	-0.013785401
55	0x3c19fa73	0.009398091
56	0xbb9b8131	-0.0047456254
57	0xbc2c4460	-0.010514349
58	0xbb68864d	-0.003548044
59	0xbc0e24b0	-0.008675739
60	0xbb80cc6f	-0.0039306204
61	0x3a8c4e7f	0.0010704546
62	0xbc403b08	-0.011732824
63	0xb959f02f	-0.00020784208
64	0x3b881288	0.0041525997
65	0x3bfc35e9	0.0076968563
66	0xbc7ad6f3	-0.015310037
67	0xbbbb82b7	-0.0057223695
68	0xba94c82c	-0.001135116
69	0xbb0402ea	-0.0020143338
70	0x3b41b2f2	0.0029556123
71	0x3b8c52d4	0.004282335
72	0x3b47752c	0.003043483
73	0xbc50f983	-0.012754801
74	0xbc906f32	-0.017631147
75	0xbb10df77	-0.0022105852
76	0x3b8e8a41	0.0043499772
77	0xbc3d8e7a	-0.011569614
78	0xbbe22e3c	-0.006902484
79	0xbbba80d8	-0.005691629
80	0x3bfcfbbb	0.0077204383
81	0xbc840b76	-0.016118746
82	0x3bbdcbaf	0.0057921032
83	0xbcd31e90	-0.02577141
84	0xbb2b6e63	-0.0026158325
85	0xbb64f366	-0.0034935116
86	0x3ac06167	0.0014677466
87	0x3b808e3b	0.003923205
88	0xbc0fe815	-0.00878336
89	0x3c499897	0.012304447
90	0xbc045eda	-0.008079255
91	0x3c4cd59e	0.012502102
92	0xbce2ad70	-0.027670592
93	0xbb03acef	-0.002009209
94	0x39804103	0.000244625
95	0x3b284a95	0.002567922
96	0x3c87f584	0.016596563
97	0xbad09e4a	-0.0015916314
98	0x3ba9acb6	0.0051780595
99	0x3c8dbb3c	0.017301194
100	0xbb253e81	-0.0025214257
101	0xbc0df611	-0.008664624
102	0xbbc4e73b	-0.00600901
103	0xbbf9f2a9	-0.0076278043
104	0xbb3bebf4	-0.0028674575
105	0xba4a866b	-0.00077257183
106	0xbc2e4019	-0.010635399
107	0x3ada37c2	0.0016648697
108	0xbc2cd8cb	-0.010549734
109	0x3ad82c6f	0.0016492734
110	0xbc125aec	-0.00893281
111	0xbbd2f7c4	-0.0064382274
112	0x3b9f79b8	0.004866805
113	0xbb9634c3	-0.0045839264
114	0xbbbb7e26	-0.005721825
115	0x3c50753f	0.012723266
116	0x3ba78af0	0.005112998
117	0xbbb434ae	-0.005499444
118	0x3c6217c0	0.013799608
119	0x3c09f748	0.008420773
120	0xbc7d7eb3	-0.015472102
121	0xba31d52e	-0.00067837804
122	0xbc65c03a	-0.014022881
123	0xbba6dd5c	-0.005092306
124	0x3c750356	0.014954409
125	0xbc1e6675	-0.009667982
126	0x37346aa4	1.0753665e-05
127	0xbc1484a3	-0.009064826

action_model._continuous_distribution.mu.weight f4 [1, 128]
0	0x3c8e4a56	0.01736943
1	0x3d3b6279	0.045748208
2	0x3d14e96b	0.036355417
3	0xbd6ce17e	-0.057832234
4	0x3d07ab9c	0.033122644
5	0xbd527bb7	-0.051387515
6	0xbba1b468	-0.004934836
7	0x3ce384d5	0.0277733
8	0xbb1cb8ec	-0.0023913933
9	0x3c22e008	0.0099411085
10	0xbce24896	-0.027622502
11	0xbc549ad3	-0.012976366
12	0xbc7acb03	-0.015307191
13	0xbca785da	-0.020449568
14	0x3c5adfc5	0.013359015
15	0xbd52d031	-0.051468078
16	0xbc9b6209	-0.018967645
17	0x3c90a127	0.017654968
18	0x3cef1b7f	0.029187916
19	0xbcbe3a41	-0.023221137
20	0x3cfeb4b8	0.031092033
21	0x3d32d659	0.04366145
22	0xbc7119a5	-0.014715587
23	0xbc8d565e	-0.017253097
24	0xbd0307a3	-0.031989705
25	0xbca15c8d	-0.019697452
26	0x3c9e2c16	0.019308131
27	0xbd2e0d74	-0.0424933
28	0xbc749c6d	-0.014929873
29	0x3d18cb9f	0.037303563
30	0xbd11a341	-0.03555608
31	0xbcee3a0d	-0.029080415
32	0xba06cdd1	-0.00051423634
33	0x3cecc831	0.028904052
34	0xbd3d908b	-0.046280425
35	0xbcf11bd0	-0.029432207
36	0x3d455709	0.048178706
37	0x3d04edd1	0.032453362
38	0x3d54bec2	0.051939733
39	0x3cb59f5a	0.022170711
40	0xbc8644b4	-0.016390182
41	0xbd7a52a8	-0.061113983
42	0x3cceb3e3	0.025232261
43	0x3d86b1e3	0.06576898
44	0x3d07cc5e	0.033153884
45	0xbd718219	-0.05896196
46	0xbd229cc1	-0.039700273
47	0xbcb29966	-0.021801662
48	0x3cb8c0ad	0.022552812
49	0xbd1e57db	-0.038658004
50	0xba9918a8	-0.0011680322
51	0x3cb038ea	0.021511514
52	0xbc10fb8b	-0.008849035
53	0x3d074912	0.03302867
54	0xbc2d7035	-0.010585834
55	0x3cc54266	0.024079513
56	0x3cee045c	0.029054813
57	0xbc018b69	-0.007906773
58	0x3c44a49d	0.0120021375
59	0x3cb01996	0.021496575
60	0xbd1f4846	-0.038887285
61	0x3d32ccca	0.043652333
62	0xbc9df4a4	-0.019281693
63	0xbd08f3f3	-0.033435773
64	0x3cd15f79	0.02555822
65	0x3dba27e4	0.0908964
66	0x3b8d6460	0.004314944
67	0xbd2fca19	-0.042917345
68	0xbbea4a7b	-0.007149992
69	0xbd06c268	-0.032900244
70	0xbca5e93e	-0.02025282
71	0x3c8b42c5	0.016999612
72	0x3d0d3085	0.0344701
73	0xbb36d06b	-0.0027895223
74	0xbd79c134	-0.06097527
75	0x3cc37214	0.023858108
76	0x3d3e9e60	0.046537757
77	0xbc55518c	-0.013019931
78	0x3ce4c6d6	0.027926844
79	0xbccc1ed8	-0.024917051
80	0x3d43b3dd	0.047778953
81	0xbbb71e8c	-0.0055883583
82	0xbd3a014d	-0.045411397
83	0x3aa8ec0f	0.0012887734
84	0xbdcb0ea8	-0.09914905
85	0xbd1f2a5e	-0.038858764
86	0x3c81ec6d	0.015859807
87	0x3c86c849	0.016452925
88	0xbc81bdab	-0.015837511
89	0x3cecc729	0.02890356
90	0x3b3bb5c9	0.0028642288
91	0xbd839150	-0.064242005
92	0xbba189cf	-0.004929758
93	0x3d2689de	0.040658824
94	0xbd4539fa	-0.048150994
95	0xbd422dcd	-0.04740696
96	0xbd3481e4	-0.044069186
97	0x39b7b106	0.00035036373
98	0xbd0a775f	-0.033805247
99	0x3d9fbc8b	0.077996336
100	0xbcd71649	-0.026255744
101	0x3b8c2256	0.004276554
102	0xbd7ee120	-0.062226415
103	0xbcd59ccd	-0.026075745
104	0xbc99cf44	-0.01877559
105	0xbc8e56cc	-0.017375372
106	0xbd184e26	-0.037183903
107	0x3c8342fb	0.01602315
108	0xbc7de71e	-0.015496997
109	0x3cbf78bc	0.023373
110	0xbc2d80d7	-0.0105898
111	0xbcd8c1af	-0.026459543
112	0xbda7a2ea	-0.0818537
113	0xbd273230	-0.040819347
114	0x3cfdb4f2	0.03097007
115	0x3ca958d8	0.020672247
116	0xbd9e914e	-0.077425584
117	0xbcdecd0c	-0.027197383
118	0xbd29f756	-0.041495644
119	0xbd4ed55c	-0.050496444
120	0x3d0462db	0.03232084
121	0x3c71a736	0.014749339
122	0xbd7e0d24	-0.06202425
123	0xbc84d5b4	-0.016215183
124	0x3d9b0370	0.07569015
125	0xbc0ed02e	-0.008716626
126	0xbd4526a4	-0.048132554
127	0xbcd7c23f	-0.026337741

exp_avg f4 [128, 6]
0	0x38f426ab	0.00011642029
1	0x38ace654	8.244501e-05
2	0x00000000	0.0
3	0xb9350e3a	-0.00017266805
4	0xb8682994	-5.5351833e-05
5	0x00000000	0.0
6	0x3986bdb2	0.00025699806
7	0xb7cffcca	-2.4794037e-05
8	0x00000000	0.0
9	0x39538c7f	0.00020174867
10	0xb8f8669a	-0.000118446726
11	0x00000000	0.0
12	0xbaff824b	-0.0019493786
13	0xb9e6e013	-0.00044035967
14	0x00000000	0.0
15	0xba695d56	-0.0008902153
16	0xb99b2dff	-0.00029598174
17	0x00000000	0.0
18	0xbb0da866	-0.0021615266
19	0xba1096ec	-0.0005515653
20	0x00000000	0.0
21	0xba971a20	-0.0011528172
22	0xba3ac079	-0.00071240176
23	0x00000000	0.0
24	0x3a587938	0.0008257809
25	0xb837e409	-4.3842974e-05
26	0x00000000	0.0
27	0x39b1f412	0.00033941917
28	0x398459b8	0.00025243848
29	0x00000000	0.0
30	0xba797dbe	-0.0009517333
31	0xb97a103c	-0.00023847906
32	0x00000000	0.0
33	0xb75cf9ac	-1.3171153e-05
34	0x392a8c3a	0.00016264702
35	0x00000000	0.0
36	0xb9038317	-0.00012541968
37	0x3713bee9	8.8063325e-06
38	0x00000000	0.0
39	0x39a0215e	0.0003054244
40	0xb68d93eb	-4.2193474e-06
41	0x00000000	0.0
42	0x37e4e431	2.7285978e-05
43	0xb8bc1b8b	-8.969669e-05
44	0x00000000	0.0
45	0x39d164a0	0.00039938558
46	0x391e7ce5	0.00015114581
47	0x00000000	0.0
48	0x399c32eb	0.00029792576
49	0xb8a3f6bb	-7.818403e-05
50	0x00000000	0.0
51	0xb8535f7a	-5.039524e-05
52	0x390c4b1a	0.00013379418
53	0x00000000	0.0
54	0x3818ee7b	3.6461726e-05
55	0xb884e459	-6.3367836e-05
56	0x00000000	0.0
57	0xb94614d0	-0.00018890505
58	0x391d033c	0.00014973892
59	0x00000000	0.0
60	0x39f22dc0	0.00046191923
61	0xb99d9ea1	-0.0003006356
62	0x00000000	0.0
63	0x39ee73ac	0.0004548108
64	0xb8b35d19	-8.552726e-05
65	0x00000000	0.0
66	0x3a03825a	0.00050166773
67	0x398af61d	0.0002650478
68	0x00000000	0.0
69	0xb71fe79e	-9.531066e-06
70	0xb91c1a50	-0.00014887122
71	0x00000000	0.0
72	0xb936ded4	-0.00017439883
73	0x392addd4	0.00016295101
74	0x00000000	0.0
75	0xb9af29ee	-0.0003340984
76	0x38bbb59d	8.950683e-05
77	0x00000000	0.0
78	0xba649dc9	-0.00087210216
79	0xb9125b6b	-0.00013957701
80	0x00000000	0.0
81	0xb9ec6f00	-0.0004509613
82	0xb96a49a5	-0.00022343414
83	0x00000000	0.0
84	0x3a6ba2eb	0.0008988815
85	0x37b46d1b	2.1508478e-05
86	0x00000000	0.0
87	0x39d492ab	0.00040545067
88	0x39603ba5	0.00021384524
89	0x00000000	0.0
90	0xba317bf9	-0.00067704875
91	0xb98f66fb	-0.00027351812
92	0x00000000	0.0
93	0xb9bac8a6	-0.0003562618
94	0xb957136c	-0.00020511233
95	0x00000000	0.0
96	0xb768b3f0	-1.3870173e-05
97	0xb93d4c9c	-0.00018052984
98	0x00000000	0.0
99	0xb8277815	-3.9927738e-05
100	0x39889d4c	0.00026057137
101	0x00000000	0.0
102	0xba0032da	-0.000489039
103	0xb9196c65	-0.00014631597
104	0x00000000	0.0
105	0x38feb8f3	0.00012146113
106	0xb9140343	-0.00014115595
107	0x00000000	0.0
108	0xba833589	-0.0010010462
109	0xb95279e3	-0.00020072567
110	0x00000000	0.0
111	0x392d2b57	0.00016514711
112	0xb99d6968	-0.00030023907
113	0x00000000	0.0
114	0xb91ace8e	-0.00014763532
115	0x38292cc9	4.033445e-05
116	0x00000000	0.0
117	0xb9125beb	-0.00013957887
118	0xb9434c35	-0.00018625039
119	0x00000000	0.0
120	0xbad6a534	-0.0016376139
121	0xb9b45541	-0.00034395795
122	0x00000000	0.0
123	0xba8b2a17	-0.0010617402
124	0xba0b155b	-0.00053056114
125	0x00000000	0.0
126	0xb8d88435	-0.00010324308
127	0x39204436	0.000152842
128	0x00000000	0.0
129	0xb99a5c2b	-0.0002944184
130	0xb9343da4	-0.000171891
131	0x00000000	0.0
132	0xba55e5e1	-0.000815956
133	0xb9ab30ab	-0.00032651922
134	0x00000000	0.0
135	0xb8d83c1e	-0.0001031088
136	0xb898042f	-7.248704e-05
137	0x00000000	0.0
138	0x39a46d01	0.00031361732
139	0x3791a118	1.7360362e-05
140	0x00000000	0.0
141	0x3926c46a	0.00015904164
142	0xb8a6cebf	-7.954006e-05
143	0x00000000	0.0
144	0x3a62ec29	0.00086564064
145	0x39e82088	0.00044274726
146	0x00000000	0.0
147	0x3a7e92fa	0.0009711232
148	0x3a324067	0.0006799758
149	0x00000000	0.0
150	0x395c977d	0.00021037269
151	0x3905690a	0.00012722999
152	0x00000000	0.0
153	0xb89cae68	-7.471145e-05
154	0xb98d8c02	-0.0002699793
155	0x00000000	0.0
156	0xbb11e246	-0.0022260114
157	0xb9772cdc	-0.00023572467
158	0x00000000	0.0
159	0x395645f2	0.00020434687
160	0xb98a39b9	-0.00026364418
161	0x00000000	0.0
162	0xba3674b9	-0.0006960142
163	0xb94834dd	-0.0001909318
164	0x00000000	0.0
165	0xb848e716	-4.789893e-05
166	0x37e0ef5a	2.6814338e-05
167	0x00000000	0.0
168	0x3a88af4c	0.0010428219
169	0x39956b19	0.0002849929
170	0x00000000	0.0
171	0x3a41d445	0.00073939963
172	0x3907a595	0.00012936287
173	0x00000000	0.0
174	0xb9853cda	-0.00025413075
175	0xb98a0fd0	-0.00026333192
176	0x00000000	0.0
177	0xb9052fd2	-0.00012701683
178	0x38027850	3.1106465e-05
179	0x00000000	0.0
180	0xb974b4b6	-0.00023336973
181	0x39a5fade	0.00031658163
182	0x00000000	0.0
183	0xba7863a9	-0.00094753
184	0xba37668c	-0.00069961767
185	0x00000000	0.0
186	0x39fe659d	0.00048522363
187	0x37f193dd	2.8798293e-05
188	0x00000000	0.0
189	0x3915cfcd	0.00014287159
190	0xb893d40f	-7.049005e-05
191	0x00000000	0.0
192	0x38d70182	0.0001025228
193	0x39523dd0	0.00020050188
194	0x00000000	0.0
195	0xb6ad966d	-5.1733136e-06
196	0xb92c651b	-0.00016440863
197	0x00000000	0.0
198	0xb90d25d0	-0.00013460894
199	0x384b79fd	4.8512582e-05
200	0x00000000	0.0
201	0xba5ddd36	-0.0008463444
202	0xb98e76ae	-0.00027172774
203	0x00000000	0.0
204	0x39dca315	0.00042083176
205	0xb90c4490	-0.00013376982
206	0x00000000	0.0
207	0x39353f43	0.00017285072
208	0x389b860d	7.415945e-05
209	0x00000000	0.0
210	0x3a3b2f03	0.0007140489
211	0x39525e22	0.00020062228
212	0x00000000	0.0
213	0x38207cb6	3.826312e-05
214	0x39474c7b	0.0001900661
215	0x00000000	0.0
216	0xb9478c9e	-0.00019030503
217	0x387bc84e	6.002961e-05
218	0x00000000	0.0
219	0xb9f9dcc9	-0.0004765748
220	0xb9d900b8	-0.0004139
221	0x00000000	0.0
222	0xb9e757fd	-0.0004412531
223	0xb74ae551	-1.209353e-05
224	0x00000000	0.0
225	0xb9b24d4e	-0.00034008402
226	0xb88e79d3	-6.793779e-05
227	0x00000000	0.0
228	0xb9450d53	-0.00018792348
229	0xb77baeab	-1.5001434e-05
230	0x00000000	0.0
231	0xb9041d89	-0.00012599504
232	0x389588fa	7.1303875e-05
233	0x00000000	0.0
234	0x3aa33159	0.001245062
235	0x393e03eb	0.00018121272
236	0x00000000	0.0
237	0x3a622562	0.00086267863
238	0x3a0cebcf	0.00053757144
239	0x00000000	0.0
240	0x3ab8a163	0.0014086183
241	0x39d3bf63	0.0004038765
242	0x00000000	0.0
243	0x3a246aea	0.0006272035
244	0x39323d99	0.0001699835
245	0x00000000	0.0
246	0x3b083070	0.0020780824
247	0x3a40cce2	0.00073547487
248	0x00000000	0.0
249	0x3b152452	0.0022757244
250	0x3a863591	0.0010239353
251	0x00000000	0.0
252	0xb66c01d7	-3.5167811e-06
253	0x38c5b06a	9.426552e-05
254	0x00000000	0.0
255	0x37cdbec1	2.4526731e-05

exp_avg_sq f4 [128, 6]
0	0x3697ac71	4.5202255e-06
1	0x3482d8b6	2.4372065e-07
2	0x00000000	0.0
3	0x35de939f	1.6583252e-06
4	0x34cd02fd	3.81864e-07
5	0x00000000	0.0
6	0x3801b1fb	3.0921754e-05
7	0x366ab897	3.4976163e-06
8	0x00000000	0.0
9	0x379d1b41	1.872855e-05
10	0x3661aa68	3.3626802e-06
11	0x00000000	0.0
12	0x37bf81fc	2.2829503e-05
13	0x362bb29a	2.5584945e-06
14	0x00000000	0.0
15	0x37531436	1.2581286e-05
16	0x36285868	2.508541e-06
17	0x00000000	0.0
18	0x38115432	3.4649107e-05
19	0x3670fb33	3.5909004e-06
20	0x00000000	0.0
21	0x3793ef0b	1.7635079e-05
22	0x363c35b3	2.804544e-06
23	0x00000000	0.0
24	0x370991eb	8.1998105e-06
25	0x34904ed1	2.6879437e-07
26	0x00000000	0.0
27	0x366d58ab	3.5367364e-06
28	0x353a7796	6.946442e-07
29	0x00000000	0.0
30	0x37b538d3	2.1603342e-05
31	0x3646e239	2.9635978e-06
32	0x00000000	0.0
33	0x3721b40c	9.638268e-06
34	0x363f66d5	2.8521074e-06
35	0x00000000	0.0
36	0x37978420	1.8062128e-05
37	0x3572c56a	9.04393e-07
38	0x00000000	0.0
39	0x36718698	3.5990142e-06
40	0x35b54ff3	1.3508819e-06
41	0x00000000	0.0
42	0x37a554f3	1.970909e-05
43	0x36360eea	2.7128794e-06
44	0x00000000	0.0
45	0x370030a1	7.640717e-06
46	0x360411c5	1.9679876e-06
47	0x00000000	0.0
48	0x372b7c3a	1.0221318e-05
49	0x350b5975	5.191171e-07
50	0x00000000	0.0
51	0x362f86b0	2.615543e-06
52	0x35a08d4a	1.196205e-06
53	0x00000000	0.0
54	0x36b412a7	5.3665894e-06
55	0x347d677b	2.3600107e-07
56	0x00000000	0.0
57	0x361ce533	2.3379223e-06
58	0x353c8820	7.0233546e-07
59	0x00000000	0.0
60	0x370373c8	7.835166e-06
61	0x3506f8db	5.028102e-07
62	0x00000000	0.0
63	0x362c274d	2.5652873e-06
64	0x356224cc	8.424511e-07
65	0x00000000	0.0
66	0x37842bf2	1.575609e-05
67	0x35f53fec	1.8272526e-06
68	0x00000000	0.0
69	0x370174f4	7.716229e-06
70	0x35e37bef	1.6948887e-06
71	0x00000000	0.0
72	0x381efca3	3.790542e-05
73	0x36a7db6c	5.002532e-06
74	0x00000000	0.0
75	0x3782f8b6	1.5613023e-05
76	0x365a1415	3.249622e-06
77	0x00000000	0.0
78	0x370f5d01	8.545118e-06
79	0x3550fa68	7.785043e-07
80	0x00000000	0.0
81	0x369c73d7	4.662648e-06
82	0x357ce5a1	9.421147e-07
83	0x00000000	0.0
84	0x37885c72	1.6255512e-05
85	0x35c03b36	1.4322347e-06
86	0x00000000	0.0
87	0x36c95bef	6.0009693e-06
88	0x35d6a790	1.599301e-06
89	0x00000000	0.0
90	0x3757a2fb	1.28529455e-05
91	0x35dfbe7e	1.6670235e-06
92	0x00000000	0.0
93	0x36e5f3fc	6.8531353e-06
94	0x358b48b3	1.0377465e-06
95	0x00000000	0.0
96	0x36e254e5	6.745208e-06
97	0x3532a2a7	6.654686e-07
98	0x00000000	0.0
99	0x3606d421	2.0091031e-06
100	0x3556c0bf	8.0001695e-07
101	0x00000000	0.0
102	0x384238da	4.630615e-05
103	0x360d001a	2.1010696e-06
104	0x00000000	0.0
105	0x3733a723	1.0708146e-05
106	0x36409b91	2.870078e-06
107	0x00000000	0.0
108	0x36d078bc	6.2129384e-06
109	0x35421a1d	7.230863e-07
110	0x00000000	0.0
111	0x36085dd1	2.0320188e-06
112	0x352d37a7	6.4528507e-07
113	0x00000000	0.0
114	0x378e22cc	1.6943923e-05
115	0x36197e82	2.2872414e-06
116	0x00000000	0.0
117	0x36e9c73b	6.9671346e-06
118	0x35db312b	1.6331081e-06
119	0x00000000	0.0
120	0x381b1a9b	3.6979658e-05
121	0x366ed4f2	3.5588714e-06
122	0x00000000	0.0
123	0x37272822	9.96332e-06
124	0x36247e73	2.4511507e-06
125	0x00000000	0.0
126	0x37b6d7a3	2.1796504e-05
127	0x3641225b	2.8779239e-06
128	0x00000000	0.0
129	0x36f9c046	7.443162e-06
130	0x35ff1c84	1.900728e-06
131	0x00000000	0.0
132	0x3729806f	1.0103088e-05
133	0x35b31aa3	1.3344292e-06
134	0x00000000	0.0
135	0x36a9c7a3	5.0598333e-06
136	0x35999593	1.144292e-06
137	0x00000000	0.0
138	0x37eb1ace	2.8026665e-05
139	0x3563b0bc	8.482127e-07
140	0x00000000	0.0
141	0x367f805a	3.8072671e-06
142	0x36156f81	2.2267634e-06
143	0x00000000	0.0
144	0x3882d706	6.238934e-05
145	0x368ac2fd	4.13542e-06
146	0x00000000	0.0
147	0x3757e663	1.286864e-05
148	0x369a22c6	4.593606e-06
149	0x00000000	0.0
150	0x3665298a	3.4147838e-06
151	0x34bf7f77	3.5669265e-07
152	0x00000000	0.0
153	0x35841d7a	9.843345e-07
154	0x353c4129	7.013028e-07
155	0x00000000	0.0
156	0x38e4cdc9	0.00010910218
157	0x3745e90a	1.1796374e-05
158	0x00000000	0.0
159	0x38456587	4.7063015e-05
160	0x3735babe	1.083192e-05
161	0x00000000	0.0
162	0x379fde17	1.9057696e-05
163	0x36222406	2.416085e-06
164	0x00000000	0.0
165	0x372ca0e7	1.0289462e-05
166	0x361a2fad	2.297554e-06
167	0x00000000	0.0
168	0x37eba20e	2.8089646e-05
169	0x361211c2	2.1766032e-06
170	0x00000000	0.0
171	0x37202048	9.544259e-06
172	0x360c6979	2.0923019e-06
173	0x00000000	0.0
174	0x3745eb04	1.1796834e-05
175	0x350ae30a	5.173939e-07
176	0x00000000	0.0
177	0x367b2575	3.7423717e-06
178	0x35618639	8.401435e-07
179	0x00000000	0.0
180	0x38cd18f9	9.779813e-05
181	0x371de0c8	9.410265e-06
182	0x00000000	0.0
183	0x37d9c889	2.5961797e-05
184	0x372c7a11	1.028042e-05
185	0x00000000	0.0
186	0x37246b07	9.800081e-06
187	0x354ac662	7.553955e-07
188	0x00000000	0.0
189	0x363491ad	2.6906885e-06
190	0x358160be	9.639405e-07
191	0x00000000	0.0
192	0x371d9785	9.393208e-06
193	0x351229e5	5.4450203e-07
194	0x00000000	0.0
195	0x360cd14a	2.0983448e-06
196	0x3515a073	5.574031e-07
197	0x00000000	0.0
198	0x37e6becd	2.7506985e-05
199	0x3680eadc	3.8420385e-06
200	0x00000000	0.0
201	0x373bb6c2	1.118862e-05
202	0x3623a931	2.4387375e-06
203	0x00000000	0.0
204	0x378aa150	1.6525999e-05
205	0x35ae2364	1.297431e-06
206	0x00000000	0.0
207	0x3681a9aa	3.864251e-06
208	0x35f4c818	1.8237652e-06
209	0x00000000	0.0
210	0x37461f0d	1.1808949e-05
211	0x35d39b29	1.5765883e-06
212	0x00000000	0.0
213	0x36ae0ce5	5.187105e-06
214	0x35b48120	1.3448625e-06
215	0x00000000	0.0
216	0x3789a1d5	1.6407032e-05
217	0x35eec68d	1.7790168e-06
218	0x00000000	0.0
219	0x36842504	3.9382157e-06
220	0x35f889db	1.8517561e-06
221	0x00000000	0.0
222	0x380e0ff3	3.3870292e-05
223	0x35d624bb	1.5954932e-06
224	0x00000000	0.0
225	0x36f0f96a	7.181593e-06
226	0x3610a7ae	2.1555275e-06
227	0x00000000	0.0
228	0x369de718	4.7058675e-06
229	0x351dbb1c	5.875934e-07
230	0x00000000	0.0
231	0x35bb99e7	1.3977377e-06
232	0x34cb7dd1	3.790324e-07
233	0x00000000	0.0
234	0x378eed85	1.7038323e-05
235	0x35bdbeae	1.4137092e-06
236	0x00000000	0.0
237	0x3687154c	4.025793e-06
238	0x360665f3	2.0026898e-06
239	0x00000000	0.0
240	0x37796177	1.4864249e-05
241	0x35da679c	1.627242e-06
242	0x00000000	0.0
243	0x36e04600	6.6838693e-06
244	0x35c34358	1.4548232e-06
245	0x00000000	0.0
246	0x391b4f83	0.00014811572
247	0x3773f36f	1.45406075e-05
248	0x00000000	0.0
249	0x383ed6f8	4.5499735e-05
250	0x373db2a2	1.1306869e-05
251	0x00000000	0.0
252	0x379c1948	1.8608422e-05
253	0x359e817c	1.1809602e-06
254	0x00000000	0.0
255	0x36ce8a1d	6.155357e-06

exp_avg f4 [128]
0	0xb6a9c4e5	-5.059514e-06
1	0x3804b743	3.164193e-05
2	0xb9628812	-0.0002160373
3	0xb9937741	-0.00028126876
4	0xb8cc3a8c	-9.738383e-05
5	0xb58ef2d7	-1.06505e-06
6	0x3607afe3	2.0218947e-06
7	0x381a0f1e	3.673054e-05
8	0xb8003591	-3.0567466e-05
9	0x383654a7	4.347102e-05
10	0x34f7a503	4.6127397e-07
11	0x389561d3	7.123095e-05
12	0xb7c0a6c3	-2.2965838e-05
13	0xb8e75c12	-0.00011032088
14	0xb880ebfd	-6.147472e-05
15	0xb87bba18	-6.0016377e-05
16	0xb82b6409	-4.0862742e-05
17	0x3829ee03	4.0514406e-05
18	0xb6d98788	-6.482882e-06
19	0xb7bce07e	-2.2515884e-05
20	0xb94ff072	-0.00019830631
21	0xb7637367	-1.3557124e-05
22	0xb8cb7c93	-9.702998e-05
23	0xb825aaa4	-3.9497987e-05
24	0x3902899f	0.00012449034
25	0x37cc019f	2.431945e-05
26	0x38507d60	4.970783e-05
27	0x37558713	1.2727239e-05
28	0x390eb04f	0.00013607855
29	0xb600c3d5	-1.9187476e-06
30	0xb53fe955	-7.149259e-07
31	0xb7da5e30	-2.6031485e-05
32	0x37845535	1.5775304e-05
33	0xb7964163	-1.7911841e-05
34	0xb844c22d	-4.691088e-05
35	0x38a95d3a	8.075913e-05
36	0xb78dd45a	-1.6907394e-05
37	0xb841beac	-4.6192363e-05
38	0xb7d79abf	-2.5702057e-05
39	0x38a8f07b	8.055657e-05
40	0x390ce354	0.00013436127
41	0x39b01f62	0.00033592718
42	0x370f2d8d	8.53407e-06
43	0x380c3491	3.3427557e-05
44	0x37c1c6ee	2.3100027e-05
45	0xb7097e7b	-8.195285e-06
46	0x37ee08d9	2.8375931e-05
47	0x374fe401	1.2391248e-05
48	0x354c693d	7.6149064e-07
49	0xb97eba99	-0.0002429284
50	0xb86f942a	-5.712003e-05
51	0x37ff488a	3.0432147e-05
52	0xb8996712	-7.314807e-05
53	0x3918afbb	0.00014561314
54	0x3715cd72	8.928926e-06
55	0x37f366be	2.90157e-05
56	0x36907b23	4.3058694e-06
57	0xb7124adc	-8.719708e-06
58	0x39201fec	0.00015270681
59	0x372b79a0	1.0220712e-05
60	0x392e92ec	0.00016648666
61	0x38cf35d6	9.880557e-05
62	0x39a39fbf	0.00031208803
63	0x39cfabcb	0.00039610112
64	0xb73900d6	-1.1027054e-05
65	0xb906e821	-0.0001286571
66	0xb82cc9da	-4.1195985e-05
67	0x377f62c7	1.5222183e-05
68	0xb8592a11	-5.177601e-05
69	0xb78a4fb8	-1.6488004e-05
70	0xb926a1c0	-0.0001589125
71	0x3938d974	0.00017628615
72	0xb97d58a6	-0.00024160984
73	0xb9f95a90	-0.00047560455
74	0xb727371a	-9.966805e-06
75	0xb822f872	-3.8855193e-05
76	0xb847de3c	-4.765227e-05
77	0x35019cc7	4.8284386e-07
78	0x38a775e9	7.985143e-05
79	0x393d8148	0.00018072606
80	0x398d6deb	0.0002697551
81	0xb801b8d2	-3.0928124e-05
82	0x3899f66a	7.341507e-05
83	0x36129926	2.184484e-06
84	0x38f9f166	0.00011918209
85	0x36b7b239	5.474573e-06
86	0x3788118d	1.6220636e-05
87	0x35ee468c	1.7752914e-06
88	0xb89eb7a3	-7.568232e-05
89	0x383cf0dd	4.5047014e-05
90	0x380a96d4	3.3042234e-05
91	0x367181ec	3.5987423e-06
92	0x37d0435c	2.4826899e-05
93	0xb894a4ed	-7.08791e-05
94	0xb6ccac87	-6.0997586e-06
95	0x3986aed8	0.0002568874
96	0x38c85db7	9.554199e-05
97	0xb807a9e8	-3.2344746e-05
98	0xb7848008	-1.5795245e-05
99	0xb7cebcc4	-2.4645014e-05
100	0x37c50ab2	2.348921e-05
101	0x38532433	5.0340033e-05
102	0xb8931247	-7.012911e-05
103	0xb9697f05	-0.0002226793
104	0x380b2e0b	3.3183063e-05
105	0xb81cc5a7	-3.7377376e-05
106	0xb745188c	-1.174783e-05
107	0x37dfe51f	2.6690364e-05
108	0xb92a52f0	-0.0001624336
109	0x386f0640	5.698786e-05
110	0xb8a9a469	-8.089172e-05
111	0xb796ceb1	-1.7977642e-05
112	0x398de128	0.0002706137
113	0x38afc380	8.381065e-05
114	0xb80fa757	-3.4249704e-05
115	0xb9afd4b6	-0.00033537083
116	0x378aa85d	1.6529282e-05
117	0x3908d4d2	0.00013049252
118	0xb90d6acf	-0.00013486597
119	0xb8c6e42b	-9.483875e-05
120	0xb853b3e9	-5.0473875e-05
121	0xb89db1b9	-7.519447e-05
122	0xb9037313	-0.00012536002
123	0x390ad84a	0.0001324128
124	0x39308bfe	0.00016836819
125	0xb82687d2	-3.9703977e-05
126	0xb91890db	-0.00014549812
127	0xb8b145ce	-8.45302e-05

exp_avg_sq f4 [128]
0	0x338bb5e5	6.505778e-08
1	0x34fd7c0c	4.7215178e-07
2	0x34ba06dd	3.4650193e-07
3	0x3518abf0	5.6874615e-07
4	0x33fe40dd	1.1839595e-07
5	0x34ba5879	3.4709572e-07
6	0x348c8f53	2.6181314e-07
7	0x34a7a808	3.1228433e-07
8	0x34204ad2	1.492838e-07
9	0x33b56146	8.446163e-08
10	0x33f175d8	1.1243873e-07
11	0x3471917f	2.2497805e-07
12	0x3513c37f	5.504625e-07
13	0x3412dffa	1.3678792e-07
14	0x348053de	2.390288e-07
15	0x3446b403	1.8505675e-07
16	0x33d90996	1.01065936e-07
17	0x3533dfa4	6.7008136e-07
18	0x33be3dc5	8.8588e-08
19	0x34847a22	2.467578e-07
20	0x35107b8d	5.382397e-07
21	0x34a9fea2	3.1663973e-07
22	0x341d9337	1.4675321e-07
23	0x34dad000	4.0757004e-07
24	0x356bfd54	8.7912963e-07
25	0x33551f18	4.9621207e-08
26	0x35f5bbf8	1.8308629e-06
27	0x34a7079d	3.1111713e-07
28	0x34e7f0cc	4.3202306e-07
29	0x343867f2	1.717415e-07
30	0x35c13bd5	1.4397034e-06
31	0x34189e73	1.4213747e-07
32	0x3409bf77	1.2828774e-07
33	0x34d4806e	3.9581522e-07
34	0x347fef53	2.3835791e-07
35	0x343641b1	1.6973969e-07
36	0x348358cd	2.4465263e-07
37	0x350591be	4.9758444e-07
38	0x3392d9b9	6.838258e-08
39	0x348412fa	2.4600723e-07
40	0x3473a950	2.2692734e-07
41	0x3610ab18	2.1557262e-06
42	0x34904900	2.6875205e-07
43	0x35d48825	1.5834854e-06
44	0x34914cb7	2.7064172e-07
45	0x33c59ee7	9.2024315e-08
46	0x34b8891f	3.437244e-07
47	0x332a1c2e	3.960684e-08
48	0x35324e94	6.6424514e-07
49	0x35d9f485	1.6238924e-06
50	0x35337be5	6.6862987e-07
51	0x352291f7	6.056211e-07
52	0x34ed418d	4.4192385e-07
53	0x34bb983d	3.4942232e-07
54	0x338bcac2	6.509573e-08
55	0x352b173f	6.373629e-07
56	0x33681f51	5.404519e-08
57	0x33db267a	1.0204981e-07
58	0x353fdc21	7.1473374e-07
59	0x351b6905	5.7894823e-07
60	0x34cc284f	3.802729e-07
61	0x34919721	2.7118315e-07
62	0x36329edc	2.6616535e-06
63	0x3605215f	1.983797e-06
64	0x34b2373c	3.3195272e-07
65	0x34a37747	3.0447902e-07
66	0x35050938	4.9559776e-07
67	0x33ac39fa	8.01992e-08
68	0x35a552fa	1.2317607e-06
69	0x357a7a31	9.331007e-07
70	0x34e32dfd	4.2315506e-07
71	0x3558b5f5	8.073105e-07
72	0x354ae21a	7.5579885e-07
73	0x35e053e2	1.6713714e-06
74	0x35169553	5.609665e-07
75	0x328fb405	1.6729254e-08
76	0x347a1861	2.3291933e-07
77	0x348a62af	2.5776305e-07
78	0x348c0232	2.607863e-07
79	0x34657733	2.1370651e-07
80	0x352647de	6.19444e-07
81	0x3393de08	6.885608e-08
82	0x34f0dafb	4.4862813e-07
83	0x34a7c61e	3.1250323e-07
84	0x33c63ccd	9.231153e-08
85	0x35515efd	7.7996793e-07
86	0x33df3b9b	1.0395089e-07
87	0x34cd161c	3.8200312e-07
88	0x3317a62b	3.5308556e-08
89	0x34d25619	3.9178192e-07
90	0x3343bae8	4.5571966e-08
91	0x34ddc889	4.1310366e-07
92	0x3393f270	6.88932e-08
93	0x33830488	6.100987e-08
94	0x34b161a8	3.3039873e-07
95	0x35620a68	8.4206704e-07
96	0x3400b619	1.1987176e-07
97	0x3488c9df	2.5478855e-07
98	0x343e438b	1.7719701e-07
99	0x359fdbfb	1.1910446e-06
100	0x33a738aa	7.7868506e-08
101	0x337f7e21	5.9486528e-08
102	0x352db897	6.4716136e-07
103	0x34756cd5	2.2856996e-07
104	0x33a4c5fd	7.672859e-08
105	0x341af796	1.4432439e-07
106	0x34ca0c45	3.763436e-07
107	0x3494b3f9	2.7698096e-07
108	0x34948f5f	2.7671464e-07
109	0x33f0c457	1.1211585e-07
110	0x35367f62	6.798565e-07
111	0x34253356	1.5385498e-07
112	0x3596f5ae	1.1247373e-06
113	0x3541f50c	7.2254693e-07
114	0x347d0c0d	2.3566845e-07
115	0x359858d9	1.1350741e-06
116	0x33e4b162	1.0649343e-07
117	0x340c940c	1.3092375e-07
118	0x34c8601a	3.7322826e-07
119	0x34c81a76	3.7272156e-07
120	0x34c8035d	3.725535e-07
121	0x34443181	1.8271932e-07
122	0x353332e4	6.675675e-07
123	0x34b5d87d	3.3871393e-07
124	0x34919d9f	2.712304e-07
125	0x34bc7c64	3.5108235e-07
126	0x34db168e	4.080834e-07
127	0x34416a9b	1.8013309e-07
