results/Run1/MoveThePlayer/MoveThePlayer-2000318.pt (torch, 437663 bytes, 30 tensors)

network_body._body_endoder.seq_layers.0.weight f4 [128, 6]
000000 60 2d ef be f0 a1 88 be 31 67 61 bf ff af b0 3e
       -0.46714306 -0.26686049 -0.8804808 0.34509274
000010 68 9e 25 3e 30 3a 5b 3f 09 7f 13 3e 28 21 7a bf
       0.16173708 0.8563566 0.14403929 -0.9770684
000020 23 93 68 3e 7e f9 e4 be 9c 50 d1 bd 01 0f 06 bf
       0.22712378 -0.44721597 -0.10220453 -0.52366644
000030 eb 3e 33 bd 56 2c c5 be 68 51 57 be 7f 29 d7 3e
       -0.043761175 -0.38510388 -0.21027148 0.42023847
000040 c9 b1 e1 3e fe 8b b0 bd 4b 0f 16 be f7 24 d7 3e
       0.44080952 -0.086204514 -0.14654271 0.4202039
000050 bb 82 99 be 34 ce 0d 3f 83 67 6f 3f a1 dc 5f 3f
       -0.29982552 0.55392766 0.9351732 0.8744603
000060 98 7e a0 be 97 df 87 bf 0a bf f2 3e b5 2a 87 3d
       -0.31346583 -1.0615109 0.47411376 0.065999426
000070 47 dc 82 3e c0 8a b0 be 22 7e 32 be de d5 86 3e
       0.25558683 -0.34480858 -0.17430928 0.26335043
000080 6c 28 79 3e 3a e2 2f bf f2 b0 2a bd 63 ef c8 be
       0.24331826 -0.6870457 -0.041672654 -0.39245138
000090 66 7b 08 be 9e e0 b8 be 6b 7a 39 3e 3d 34 1c 3e
       -0.13328323 -0.3610887 0.18113105 0.15254302
0000a0 5f f2 e6 bd 92 b4 07 3e 42 3b aa 3e 7f 1c cc 3e
       -0.11276697 0.13252476 0.33248335 0.3986549
0000b0 ae d6 2b 3e 36 24 2d bf 51 66 49 3d 04 de 8f 3d
       0.16781113 -0.6763338 0.049169842 0.07024768
0000c0 10 d8 27 bf c6 6d b9 3e 5f b9 05 bf 11 46 3f be
       -0.6556406 0.36216563 -0.5223598 -0.18679072
0000d0 78 ff 68 3e bc 9f 66 be d1 57 83 3e 73 7e 68 bf
       0.22753704 -0.22521871 0.25652936 -0.90817946
0000e0 12 61 9a be 3f 45 68 3e f4 1b 3b bd 6c 1c aa bc
       -0.30152184 0.22682665 -0.045680955 -0.020765506
0000f0 b8 5c 11 bc 95 4c 24 bf ca 54 a7 be c0 0c 33 be
       -0.0088722035 -0.64179355 -0.32681876 -0.17485332
000100 a1 fa 16 3e 84 12 11 3f 54 d3 5c 3e f5 df 24 3f
       0.14744045 0.5666888 0.2156499 0.6440423
000110 2e 54 87 3e 2f ea 8a 3d 8e e8 d0 3e 88 00 97 be
       0.26431412 0.06782948 0.40802425 -0.29492593
000120 6e b4 34 3f c0 10 e2 3e e2 11 e7 be 99 f4 6f 3d
       0.70587814 0.44153404 -0.4513083 0.058582876
000130 7d 39 b8 be 0d 9a e4 3d 9e 6d d9 bd 16 86 7a be
       -0.3598136 0.11162195 -0.10616611 -0.24465212
000140 74 d8 08 3a ee f6 06 3f 86 8d fd 3e 7a 3e 7a 3e
       0.00052202423 0.52720535 0.49522036 0.24437895
000150 ed 65 0a bf f5 35 32 be 8e 70 5e be f8 5d 0e 3f
       -0.54061776 -0.17403395 -0.21722624 0.55612135
000160 8a 6f 0d 3f e9 dc 4e be 26 3c 96 3e 90 fb 16 bd
       0.5524832 -0.20201458 0.29342765 -0.036861002
000170 07 d4 9e 3d be 29 92 be 0d 25 13 3e 48 b6 07 bf
       0.07755285 -0.28547472 0.14369603 -0.53012514
000180 03 c5 8f bc 07 2f 88 bc 45 46 92 be 2b 34 9b 3d
       -0.017549997 -0.016623987 -0.28569236 0.075783096
000190 e3 c6 29 bf 0b be 7c 3e 69 29 71 be 46 d3 d0 bd
       -0.663191 0.2468187 -0.23550953 -0.10196547
0001a0 34 5e 69 be 3f 71 bc bd d9 f2 86 be a9 54 7f be
       -0.22789842 -0.092012875 -0.26357153 -0.24934639
0001b0 5c fa 34 be c2 80 1a be 1b 84 1f 3f 1e 75 2e be
       -0.1767363 -0.1508818 0.6231095 -0.17036864
0001c0 e8 64 18 3f d1 18 a6 3e 3f e8 75 3e d6 6c 4c 3e
       0.5952897 0.32440808 0.24014376 0.19963393
0001d0 5f d7 d2 bd 50 e5 08 3a 9a 50 a2 3e 56 3e 01 bc
       -0.10294985 0.00052221585 0.3170212 -0.007888397
0001e0 f1 95 f1 3e 7e d7 47 3e 3a 8c 09 3e bd c5 6b be
       0.4718471 0.19515797 0.13432398 -0.2302465
0001f0 40 9c e2 3d 65 f2 ec be 61 de 3b 3f a5 a4 77 be
       0.110649586 -0.46278682 0.733862 -0.241839
000200 91 97 99 3e 06 8e 09 be fa 5e 9c bc 00 bc 39 3f
       0.29998448 -0.13433084 -0.019088257 0.7255249
000210 de 29 46 3f 80 2a 90 3e 28 fe 85 be 89 3b b0 be
       0.77407634 0.28157425 -0.26170468 -0.34420422
000220 6f 8c c2 bc e4 64 ba bd dc 60 70 be 3f ba 1c bf
       -0.023748605 -0.091012746 -0.23474449 -0.6122169
000230 d5 00 10 3e 51 26 c6 3e 01 7c 64 3e e6 f3 61 be
       0.14062817 0.38701108 0.22312929 -0.22065696
000240 13 de 76 be 4b 2c 7b 3f bb af 24 bf ee d1 13 3e
       -0.24108152 0.9811446 -0.64330643 0.1443555
000250 3b 9c 49 bd 43 0b b9 be 86 e9 67 3f 92 95 a7 bd
       -0.04922126 -0.36141405 0.90590703 -0.08182825
000260 b6 a7 93 be 39 a7 1d 3e d3 0f 1d 3f ee 9c 5a bf
       -0.2883889 0.15395822 0.6135227 -0.85395706
000270 ef a9 99 3d a2 68 96 3e c3 e6 b1 3e 67 7e 44 bf
       0.075031154 0.29376704 0.3474637 -0.76755375
000280 ae 75 c0 be f9 9e cf 3d bd a9 90 bd d2 b8 10 be
       -0.37589782 0.101377435 -0.07063625 -0.14133003
000290 79 36 af 3e 25 b5 96 be 87 61 4a be 28 b5 50 be
       0.34221247 -0.29435077 -0.19763766 -0.20381606
0002a0 c0 d0 6e bd 3d 35 a6 3d 2f b7 5a 3d b0 9e d4 3e
       -0.05830455 0.08115623 0.053397354 0.4152732
0002b0 83 78 88 3d 6f b4 ea bd 0e 07 93 be 88 08 ab 3d
       0.06663611 -0.11460196 -0.2871632 0.083512366
0002c0 95 3f 23 be ec e2 f3 bc ae dc ca be 49 bb 98 be
       -0.15942223 -0.02977129 -0.3962149 -0.29830387
0002d0 13 87 87 3e ce 61 09 bf 13 3b bd 3e 4e fe cd bd
       0.2647024 -0.53664863 0.36959133 -0.100582704
0002e0 79 49 83 be b7 3e 6e 3e c5 f1 c9 3e ec 27 75 3e
       -0.25641993 0.23266111 0.39442268 0.2394101
0002f0 36 45 cb 3e a1 dd ff 3e fc 00 17 3f 98 04 66 3e
       0.3970124 0.49973777 0.5898588 0.2246269
000300 61 6e 2e be 62 5c d8 3e 6d 8f 01 3e 1c b0 e6 3e
       -0.17034294 0.42257982 0.12652369 0.45056236
000310 f6 89 94 3e a0 24 19 3f 5f b9 32 3f 3c bd f9 3d
       0.29011506 0.5982151 0.69814104 0.12194297
000320 2d 01 7e 3e 43 ba 5d be 29 a7 05 3e 58 63 a4 be
       0.24805136 -0.21653084 0.13052048 -0.32107043
000330 10 bb 1e bf f6 68 c9 be a1 6b 26 be 2f 89 10 3e
       -0.62004185 -0.3933789 -0.16251995 0.14114831
000340 e9 cb d5 bd ad 28 d5 3c ae e5 19 3f 98 9e 1b bf
       -0.104392834 0.026020372 0.6011609 -0.6078887
000350 c8 53 ed bd cd 5e bc 3e 60 6b d6 3d da c6 e7 bd
       -0.11588246 0.36791077 0.10469699 -0.11317225
000360 d0 0a 89 3e 98 76 86 be 21 79 f6 3e ba 65 28 bd
       0.26766062 -0.26262355 0.4813929 -0.04111264
000370 48 1e d9 be 98 d8 ee be 0a d4 f4 be 94 6c 17 3f
       -0.42405915 -0.46649623 -0.47818023 0.5915005
000380 a1 e5 cf be ba 02 d5 3e cf d0 61 3e 2a 1b 34 3f
       -0.4060488 0.41603643 0.2205231 0.7035395
000390 72 1b a5 3e a2 05 38 be d9 4c 51 3e 4f cd 8a 3e
       0.32247502 -0.17970899 0.20439471 0.27109763
0003a0 f7 1a ac bd ae eb 5d bd 71 28 dc 3d f9 56 bd 3e
       -0.08403581 -0.05417984 0.10749901 0.36980417
0003b0 07 06 a6 3e 45 df ee bc 64 ef 1f bf e7 28 be 3e
       0.32426473 -0.029159198 -0.62474656 0.3714058
0003c0 12 aa 9e 3e 55 72 b6 3d 22 0f ae 3e 9d ce 4c 3e
       0.30989128 0.08908526 0.3399592 0.20000692
0003d0 43 88 1b bf 5f 28 cd 3d 7d c4 1a be ae 02 25 3f
       -0.60754794 0.10017466 -0.15114017 0.64457214
0003e0 02 22 48 be 00 bc a2 3e 77 1e 6c be c7 e9 fb 3e
       -0.19544223 0.31784058 -0.23058496 0.49201795
0003f0 1b aa 13 bf 48 be 33 3e bd 3f 32 3e e4 18 ed 3d
       -0.57681435 0.17553055 0.17407127 0.11577013

network_body._body_endoder.seq_layers.0.bias f4 [128]
000000 ff eb ef 3b 22 25 11 3a b2 ac 30 bc bd 1c 8c bc
       0.007321834 0.0005536844 -0.010783361 -0.017103547
000010 b8 b6 a3 3b e0 8d 41 3c 47 df 2b bb 0c db 18 bc
       0.004996147 0.011813611 -0.0026225613 -0.009329569
000020 e8 7d 54 bc 05 ac cd bb da 0f fb 3b 07 47 94 3c
       -0.0129694715 -0.00627661 0.0076618018 0.018100275
000030 f1 70 af 3a f9 df ac 3c c1 16 a2 3c 13 49 61 bb
       0.00133851 0.021102892 0.01978624 -0.003437583
000040 9f 6b dd 3b 4b fa 7e bb c8 73 d8 3b 3f 43 f8 ba
       0.006757214 -0.003890651 0.006605599 -0.0018940939
000050 01 ba d0 3b 28 bd b4 3b 3a 7f 00 bc cd 2c f0 3b
       0.0063698296 0.0055157132 -0.007842833 0.0073295594
000060 d7 6a 38 bc cc 71 1f bc b3 4b ed bb 35 3d 1a bc
       -0.011255941 -0.009731721 -0.00724169 -0.009414007
000070 08 30 16 3b 6e a6 68 bc 6c 9b 10 3a b6 ca 0e 3c
       0.0022916812 -0.014199836 0.0005516324 0.008715322
000080 65 8b 43 3c 89 2d a9 bc 86 a4 5a bb 7c 10 91 bb
       0.01193509 -0.020651596 -0.0033362224 -0.004427014
000090 30 f4 bf 3c d3 dd 0e bb 1c 07 cd 3c 70 d6 7f 3b
       0.023431867 -0.0021799698 0.025027804 0.0039037727
0000a0 dd b1 e5 3b 31 84 93 3b 67 4e 2c bc da 29 c9 ba
       0.0070097283 0.0045018424 -0.010516739 -0.0015347556
0000b0 fb b2 c6 bb be cd 19 bc 67 08 63 bb c5 24 f9 bb
       -0.0060638166 -0.009387432 -0.003464246 -0.00760326
0000c0 2c 07 2f bc 08 74 07 3b 7c 6e 21 39 95 ff e3 3c
       -0.010682862 0.0020668525 0.00015395315 0.027831832
0000d0 9d 49 ce bc cd 8d 7c bc 55 7b b1 bc f0 fd a4 3c
       -0.025181586 -0.015414667 -0.021665255 0.020140618
0000e0 b0 d2 37 3c 1f 79 e7 bb 58 99 0e 3d 6f 23 fc 3b
       0.011219665 -0.0070639993 0.03481421 0.0076946537
0000f0 84 3d bb bb cb b3 a4 3b 7f 44 20 3d 21 63 8f 3c
       -0.0057141203 0.005026316 0.039127823 0.017503323
000100 7d 00 c1 b9 01 27 e3 3c 63 ca 34 bb 5f 9f e8 bb
       -0.00036812192 0.02772856 -0.0027586452 -0.0070990766
000110 c7 9a 87 3c 2b 00 8d bc ba 38 15 3c 3a 27 7d bb
       0.016553296 -0.017211994 0.009107763 -0.0038628117
000120 0d ef 54 3c 8b 5b 97 3c a5 14 68 3c 1f 56 8e bc
       0.012996447 0.018476268 0.014165078 -0.01737505
000130 1d 53 75 bc ee 3b 6a bc 3c 35 59 3c 78 23 86 bb
       -0.014973429 -0.014296515 0.013257321 -0.0040935837
000140 f2 b3 43 3c d5 7f 8c 3c b1 48 13 bd 50 68 c4 ba
       0.011944758 0.017150799 -0.035957996 -0.0014984701
000150 e7 03 14 bc bc a0 94 bb 14 e2 99 3d ff ba 2b 3a
       -0.0090341335 -0.0045357626 0.07513824 0.0006550997
000160 0a f4 5b bc c4 b9 2a bb 7d 83 f8 bb 50 69 73 bc
       -0.013424883 -0.0026050666 -0.007584034 -0.014856651
000170 2e 7c 3b bc 4d db 9b 3c 17 06 5c 3c 40 96 7a 3b
       -0.011443181 0.01902547 0.013429186 0.0038236529
000180 e6 b9 f9 bb d2 7c e4 3c 20 a6 1e bb 43 0e 48 bc
       -0.007621038 0.02789155 -0.0024207905 -0.0122104315
000190 ea 22 8a bc 38 de 03 b9 c9 98 03 3d dc 9d d5 3a
       -0.016862351 -0.00012575916 0.03212813 0.0016297656
0001a0 a5 98 61 bb 32 f7 99 3b da 12 a6 3c cc ce bf 3b
       -0.0034423259 0.0046986574 0.020272661 0.0058535095
0001b0 a5 fa a9 3c c9 d5 eb 3b f8 4c 9c 3c 74 7a 53 3c
       0.0207494 0.007197116 0.01907967 0.012907613
0001c0 32 99 ba 3c 0c f6 d5 3a 78 63 21 3a cc a0 8d 3c
       0.022778127 0.0016323938 0.00061564846 0.017288588
0001d0 92 7e 42 bc 8d 38 1e 3c 7b 7e a4 3c 70 18 29 3d
       -0.011870997 0.009657037 0.020079842 0.04128307
0001e0 64 60 a4 3c 4c ec 3a bc e4 97 0c 39 37 d8 c0 bc
       0.020065494 -0.011408877 0.00013408024 -0.0235406
0001f0 67 c3 d3 ba 39 f3 38 bc aa db e5 bb 8e ce fd 3b
       -0.0016156257 -0.011288458 -0.0070147114 0.0077455705

network_body._body_endoder.seq_layers.2.weight f4 [128, 128]
000000 b0 c4 90 bd a3 15 e8 bc 2a 59 76 bd f1 65 96 3d
       -0.07068765 -0.02833063 -0.060143627 0.073436625
000010 00 9a 15 bd 6c b7 49 3d 3b 96 f0 bc ad 2f c4 bc
       -0.03652382 0.04924719 -0.02936851 -0.023948515
000020 5c 2b 93 bb 4a 72 84 3d 49 b2 94 bd 25 69 aa bd
       -0.004491253 0.064671114 -0.07260568 -0.08320836
000030 e6 6f 10 3d 91 8a ac 3c da 78 41 3d bf 71 11 3d
       0.035262965 0.021062167 0.047234394 0.035508867
000040 f6 76 de 3c 62 5e 43 3e cb e5 0b 3d c2 68 e0 3d
       0.027156334 0.19078973 0.034154695 0.10957481
000050 2a 8a ed bd 05 17 c1 bc 44 54 83 bd df 05 89 3c
       -0.11598618 -0.023570547 -0.06412557 0.016726432
000060 47 d9 15 3e f2 59 dc 3d 23 3a aa bd 87 e6 81 3c
       0.14633666 0.10759343 -0.0831187 0.015856994
000070 cf 67 96 3b 6c a8 19 be d6 51 46 3b 0e 38 f7 3d
       0.0045900117 -0.15005654 0.003026118 0.120712385
000080 f3 5b 05 3e 18 dc 3c bc 51 53 e8 3d 5f fd 36 3d
       0.13023357 -0.011527084 0.11344016 0.044675227
000090 00 85 90 3d d7 91 96 3d 35 64 ba bd 13 0e a0 3d
       0.07056618 0.073520355 -0.09101144 0.078151844
0000a0 80 3d e0 3d 94 de 24 be cc 96 13 be ef 07 15 be
       0.1094923 -0.16100532 -0.14412993 -0.14553808
0000b0 49 a8 da 3d 11 d3 0f bc 37 5b cc 3c b3 fb bc 3d
       0.10676629 -0.0087783495 0.024945838 0.09227695
0000c0 ee ca 0f 3d f5 b2 1a bc 4d 39 c0 3d 3c ca dc bd
       0.03510564 -0.009442081 0.09385929 -0.10780761
0000d0 7d c8 22 be b7 96 a1 3d 30 0d 45 bd 8d 87 a4 bd
       -0.15896793 0.07890075 -0.04810828 -0.08033667
0000e0 6d 47 2c 3c bb f1 4e bd 46 9d 1e 3d 3b e7 7f bd
       0.010515076 -0.0505235 0.038724206 -0.062476378
0000f0 bf a0 b5 3c 45 8d 37 bd eb d7 6c 3d 76 6a 3b 3c
       0.022171376 -0.04481246 0.057823103 0.0114389565
000100 16 54 e9 bd 19 71 c4 3c 53 f3 a0 bd eb 69 f1 bb
       -0.11392991 0.02397971 -0.078589104 -0.0073673627
000110 6d bf 75 3d dd 5d d1 3d e4 a5 af 3c 59 64 73 bd
       0.05999701 0.10222981 0.021441408 -0.05942187
000120 82 06 04 3e 5a 57 02 3e 5c 45 77 3d 91 6d a0 bd
       0.12893108 0.12728634 0.06036888 -0.07833398
000130 ee d9 9e 3d 8d aa cf bc de 85 e5 bb 62 67 80 bd
       0.077564105 -0.02534988 -0.0070044836 -0.06269719
000140 e4 28 29 3d 31 93 2c 3d 74 9b 9d 3d bf 83 86 bd
       0.041298762 0.04213256 0.07695666 -0.06568097
000150 18 49 c0 3c d5 ec 94 3d 77 73 ab 3d a1 97 fa 3d
       0.023472354 0.072717346 0.083716325 0.12235952
000160 39 5d 95 3d 5a 90 fd 3d 5c f7 0b be bf 63 ad bc
       0.072931714 0.123810485 -0.13668579 -0.021165727
000170 b8 0c 44 3d f7 da 98 bd 52 58 19 bd 16 ed 65 3e
       0.047863692 -0.07463639 -0.037437744 0.22453722
000180 e6 0d 9b 3c f6 f9 2e 3d cf cb 14 3e 21 7b 4a 3a
       0.018927526 0.04271885 0.14530872 0.0007724036
000190 89 18 20 be de da af bd 24 15 e0 bc 06 d2 d5 3d
       -0.1563436 -0.085866675 -0.02735383 0.104404494
0001a0 e8 1e 01 3e cd 2d cc 3d 1a f0 c9 3b ae 84 d4 3d
       0.12609446 0.09969673 0.0061626555 0.10376869
0001b0 cc ee 4c 3d d1 11 63 3d 7d e7 16 be 68 3f 52 3d
       0.050032422 0.055436913 -0.14736743 0.05133
0001c0 ff 80 a5 bd c6 cf c7 bd 44 41 a8 bc 59 ee 3f 3d
       -0.08081245 -0.097564265 -0.020538934 0.046858165
0001d0 10 5e 12 3c 72 6b 16 3e 23 47 9c 3c 62 68 8e 3b
       0.008933559 0.14689425 0.01907689 0.0043459395
0001e0 ba d3 07 3e f8 29 14 3e c3 33 45 3d fc dc 1f be
       0.13264361 0.14469135 0.048145067 -0.15611643
0001f0 12 48 b3 bd f3 a7 1b 3e 56 3e 9f 3c b6 52 ce bc
       -0.08753981 0.15200786 0.019438904 -0.025185924
000200 54 25 4c ba 71 cb 89 bc 56 c1 18 bd 38 92 c0 3c
       -0.0007787545 -0.016820641 -0.037293755 0.023507223
000210 54 12 af 3d 9b 8b 58 3d 64 61 e1 bd c7 b5 a8 3c
       0.08548418 0.052867513 -0.11004904 0.02059449
000220 8d bb d5 bd 84 eb 18 3d f8 ad c6 3c 31 9a b0 3c
       -0.10436163 0.03733398 0.024252877 0.0215579
000230 63 2c 6d 3d 28 f4 cf 3d 97 fb 8f 3d cf 13 af 3b
       0.05790366 0.10153991 0.07030409 0.0053429375
000240 73 71 64 be b4 12 b5 bd 03 3a 83 3d 8f 0e ea bb
       -0.22308902 -0.08841458 0.06407549 -0.007142849
000250 c7 f0 02 3c d0 0c aa bd 05 62 05 be 72 86 97 3d
       0.007991976 -0.08303225 -0.13025673 0.0739869
000260 8a 53 06 3d 3a 69 0a ba 7a 3f d0 3d b5 9f 59 3b
       0.032794513 -0.0005279962 0.10168357 0.0033206765
000270 56 88 12 bc 5d c3 23 3d 96 66 0b bd 9c 76 ca 3d
       -0.008943638 0.039981235 -0.03403338 0.09885904
000280 35 f5 11 bd c4 34 92 3d b9 16 36 bd 91 05 b2 bd
       -0.03563424 0.071389705 -0.044455264 -0.08692468
000290 e0 d7 9a 3d 5c 08 91 bd 8e 16 0a 3e 93 19 47 be
       0.07560706 -0.070816725 0.13485166 -0.1944335
0002a0 06 87 52 3e 8c 46 97 bd 4e d1 86 3d 52 39 8f 3d
       0.2055932 -0.073865026 0.065828905 0.06993355
0002b0 b2 68 2f 3d a9 b2 d0 bd e0 a6 88 3d 51 a2 2d 3d
       0.042824455 -0.10190327 0.06672454 0.042391125
0002c0 da 6a 95 bd c0 88 a9 bd c8 27 3e 3d 02 e6 35 be
       -0.07295771 -0.08278036 0.046424657 -0.17763522
0002d0 ad b1 42 be 70 4c 86 bd 55 05 b8 3d 45 b8 10 3d
       -0.1901309 -0.06557548 0.08985392 0.035331983
0002e0 65 2e 02 3e 14 1f 21 3d df 99 1c be 8d 36 7a bd
       0.1271301 0.03933628 -0.15293072 -0.06108718
0002f0 cf d3 b8 3d bd a4 1d 3e 35 b1 1d be fe 67 3b bd
       0.09024774 0.15394874 -0.1539963 -0.04575347
000300 cd a4 fa 3c 5a 18 ba bc 9d 42 35 bd 2f 29 4c 3b
       0.030596161 -0.02271669 -0.04425298 0.0031152477
000310 73 d3 0e bb af da c2 bd 32 76 9a bc 88 d5 06 3e
       -0.0021793514 -0.09514367 -0.018855188 0.13167393
000320 0e 58 ff 3c 2d 28 fa 3c 0b 1e d6 3d 4e 1b 25 bd
       0.031169917 0.030536735 0.10454949 -0.040309243
000330 89 c4 ef 3c c7 35 1e 3d f2 6a 1c 3d 7f 0a f5 bd
       0.02926852 0.038625505 0.03818793 -0.119648926
000340 b4 71 8f bd e6 f0 d4 3a 2c e1 ce 3d 4b d5 9c 3b
       -0.07004109 0.001624611 0.10101542 0.0047861687
000350 30 aa 28 be fd 89 bb bd 31 2e 00 bd 60 a7 aa 3b
       -0.16471171 -0.091571786 -0.03129405 0.005207941
000360 df 2b 58 3d cb 73 b2 3d c6 b0 4d bd a5 78 a0 3d
       0.052776214 0.08713492 -0.050217412 0.07835511
000370 8b a1 da ba d8 41 0e bd 55 f2 89 bd ce 51 f9 bc
       -0.0016680224 -0.034730762 -0.06735674 -0.030434515
000380 81 1d 83 bd 23 3e 3f bd 50 50 c8 bd 76 79 b1 3d
       -0.06402112 -0.046690118 -0.097809434 0.08665745
000390 ca e7 e4 3d cc 3c 92 bd a4 c4 01 3d b0 ea 72 3b
       0.11177023 -0.07140502 0.03168167 0.0037066154
0003a0 07 4f f8 bd 8d 6b 94 bd 65 07 37 bc 5f 0f 5e bd
       -0.12124448 -0.07247076 -0.011171197 -0.054213878
0003b0 a4 94 b5 bd e4 23 bd 3d 6f 16 63 3e b5 b9 cd bc
       -0.088662416 0.09235361 0.22176526 -0.025112966
0003c0 10 82 eb bd 9e 8c 81 bd 19 19 9d bd 5d 9e fb 3d
       -0.11499417 -0.06325649 -0.076708026 0.12286065
0003d0 0c d2 0e bd 42 8e b5 3d 50 ea 78 3d 13 b3 e4 3d
       -0.034868285 0.08865024 0.060770333 0.11166968
0003e0 6c a1 13 be 2b c8 0e 3c 5b 8d 1d bc 13 0e f9 3c
       -0.14417046 0.008714716 -0.009616221 0.030402219
0003f0 e8 7c e6 3d b7 6b 99 3d db 74 8e 3d c2 a6 1e bd
       0.11254293 0.07491248 0.06955882 -0.03873325

network_body._body_endoder.seq_layers.2.bias f4 [128]
000000 39 3b e2 ba 49 81 b4 3c e2 12 22 3c 9e 87 66 3c
       -0.0017260081 0.022034304 0.009892197 0.01407042
000010 b3 4c 3c 3b a5 27 31 3c a9 68 7c bb 76 d9 4a 3b
       0.002873224 0.010812675 -0.003851453 0.003095237
000020 c2 c4 26 bc d9 01 d9 3a c3 60 96 bb 64 5c d2 ba
       -0.010178747 0.0016556337 -0.0045891716 -0.0016049263
000030 8e d3 6c 38 7e 07 7a bb 23 38 6f ba ab 33 8c 3b
       5.646381e-05 -0.0038151438 -0.00091254915 0.0042786202
000040 7d 5e 09 bb 7b 39 ec bb 5c b6 39 38 c4 1e 77 bb
       -0.002096086 -0.0072090006 4.4277273e-05 -0.0037707547
000050 3f 92 cb 3b 3e e4 da 3b 03 ba 43 3b 1a d9 84 bb
       0.0062125023 0.0066800406 0.002986551 -0.004054201
000060 8e db 11 bb a3 fc 4b bc 36 fd 83 ba 8a 9a 13 3c
       -0.002225611 -0.01245037 -0.001006997 0.009009013
000070 c3 ad 19 3c 1f c0 49 3b bc b7 9a 3c 1b 31 92 ba
       0.009379807 0.003078468 0.01888644 -0.0011153551
000080 72 e5 5a bc 08 94 36 3b 5d 84 db 3b 2c b4 94 bb
       -0.013360368 0.002785923 0.0066991285 -0.0045380797
000090 e2 e8 80 bb fb 29 3a ba 11 ee a2 3b 51 45 da 3a
       -0.003934012 -0.00071015925 0.0049722274 0.0016652738
0000a0 e0 8c 8b ba fe 60 26 bb b8 f4 6d bb 59 40 69 3c
       -0.0010646842 -0.0025387402 -0.0036309194 0.014236533
0000b0 17 83 9f 3b 5c cd 24 3c 75 c7 97 bb 2c 98 d3 bb
       0.004867922 0.010058727 -0.0046319314 -0.0064573493
0000c0 3c 25 29 bb 2d 1f 32 3c a5 18 9a bb 35 96 c8 3a
       -0.0025809547 0.010871691 -0.004702645 0.0015303554
0000d0 53 2d 7a bb 71 ff 18 3c 05 b4 f9 bb b9 d5 e4 3b
       -0.0038173988 0.009338246 -0.007620337 0.0069834855
0000e0 d9 dd 90 ba 0e e1 b8 bb 7b 98 6b bb ef 79 db bb
       -0.0011052444 -0.005642063 -0.003594904 -0.006697885
0000f0 38 28 a8 3a 61 cd 66 3b 39 67 04 bc 77 5d ab b9
       0.0012829369 0.003521763 -0.008081251 -0.00032685298
000100 b7 b9 49 3b f8 0f 90 3b ff c8 14 bc 6f 5e ce bb
       0.003078086 0.004396435 -0.009081124 -0.0062978785
000110 ce f5 00 bb 4e d8 19 bb 0c 5f bd b8 39 75 e0 3a
       -0.001967776 -0.0023474875 -9.029926e-05 0.0017124779
000120 a7 16 92 ba 32 ee 20 bc 9c 45 44 bc f0 dd 91 39
       -0.0011145667 -0.009822415 -0.011979487 0.00027821911
000130 81 72 14 3c b8 28 44 bc 6b 20 01 bb dc 89 c7 bb
       0.009060503 -0.011972599 -0.001970316 -0.006089432
000140 7f 6b c1 3b 97 5f fc bb 89 a7 4c 3b cc dd 6b bc
       0.005902707 -0.007701825 0.0031227788 -0.014396142
000150 5c 19 9d bb cd d0 a6 ba 60 4e 29 3b bb ea a1 39
       -0.004794283 -0.0012727022 0.0025834069 0.000308832
000160 be cd 10 bc b6 d8 0f 3c e6 28 63 bb 8a ff 30 3c
       -0.008838115 0.008779695 -0.0034661829 0.010803113
000170 51 c6 91 bc 23 ac 11 3c 18 9f 06 bb 2a 3f 2b 3a
       -0.01779476 0.008891138 -0.0020541605 0.00065325445
000180 77 87 c2 3c 5c 00 0e 3b 03 ca 81 ba 41 ea 15 3b
       0.023746235 0.0021667695 -0.0009902123 0.0022875222
000190 00 e0 bd bb d5 0c 5b bb 3d c9 75 bb a4 0e 75 bb
       -0.005794525 -0.0033424397 -0.003750398 -0.003739276
0001a0 37 4d a6 ba 59 6e ac ba 82 8c b4 bb 67 34 39 39
       -0.0012687807 -0.0013155445 -0.005509914 0.00017662496
0001b0 33 44 c2 bb b2 60 91 37 a8 3a 18 bc 1d 6f 24 bb
       -0.00592854 1.7330374e-05 -0.0092913285 -0.0025090643
0001c0 55 42 eb 3b 00 d2 32 bb 70 40 90 bb 03 62 33 3c
       0.0071795383 -0.0027285814 -0.004402213 0.010948661
0001d0 8b f7 9b 3b 57 9b 50 bb 79 f4 30 3c 59 62 f5 3b
       0.004759734 -0.003183087 0.010800474 0.0074885306
0001e0 dc d6 47 bc 46 fc 0e bb 46 68 25 bc b8 eb cb ba
       -0.012197223 -0.0021817847 -0.0100956615 -0.001555792
0001f0 16 83 97 3c 78 f4 e0 bb 2c ef 76 3b 9e cd 41 bc
       0.018495124 -0.0068650804 0.0037679179 -0.011828808

action_model._continuous_distribution.mu.weight f4 [1, 128]
000000 f4 12 a7 3c 54 7a 19 3d 4a 90 f6 3c 9d b0 22 bd
       0.02039478 0.037470177 0.0300981 -0.039719213
000010 c7 38 07 3d dd ca 31 bd 27 eb e1 bb 61 6b 6f 3c
       0.03301313 -0.043406356 -0.0068944874 0.0146130035
000020 30 e9 4e bb f9 5c 27 3c 63 6f b9 bc bc 08 87 bc
       -0.0031572096 0.0102150375 -0.022636121 -0.016483657
000030 67 af 83 bc be 38 a4 bc 78 72 e2 3b dc 23 06 bd
       -0.01607485 -0.020046588 0.0069106184 -0.032749042
000040 79 49 6f bc cd 4f 4b 3c 3c 7c 47 3c c5 03 81 bc
       -0.01460492 0.012409163 0.012175616 -0.015748868
000050 43 fb 0c 3d 0a ba 29 3d 10 a9 97 bc 3b 18 85 bc
       0.03441931 0.041437186 -0.018513232 -0.016246906
000060 b5 ea df bc 19 31 96 bc 50 51 aa 3c b8 7c b9 bc
       -0.027333597 -0.018333958 0.020790726 -0.022642478
000070 96 65 86 bc a9 ee 11 3d 1b 49 06 bd 1f 20 ae bc
       -0.016405862 0.035627995 -0.032784563 -0.02125555
000080 92 9e 07 bc 92 d7 e1 3c fb 54 08 bd c1 7a b2 bc
       -0.008277552 0.027568612 -0.03328417 -0.02178705
000090 b6 f0 e2 3c 22 eb e6 3c 02 dc 36 3d 00 af b0 3c
       0.02770267 0.028188292 0.04464341 0.021567822
0000a0 72 ae 60 bc c3 6f 12 bd e8 9c b0 3c 7b bf 6e 3d
       -0.013713466 -0.035751116 0.021559194 0.05828808
0000b0 bb 5f c4 3c 05 74 47 bd 09 6c 15 bd 92 6c 61 bc
       0.02397143 -0.04869463 -0.036479983 -0.013758795
0000c0 c9 25 5c 3c 34 14 2d bd 23 58 9c 3b 5c 3f 7b 3c
       0.013436743 -0.042255595 0.004771249 0.01533493
0000d0 e6 78 08 bc 6d bd 03 3d 3e 51 f8 bb 3a 40 97 3c
       -0.008329606 0.032163072 -0.007578044 0.018463243
0000e0 be 64 03 3d b1 cc cd bb b5 7e 23 3c 51 9a 87 3c
       0.032078497 -0.0062805046 0.00997894 0.016553076
0000f0 f3 be 0c bd 61 57 3b 3d 13 85 55 bc d1 d8 d4 bc
       -0.03436179 0.045737628 -0.013032216 -0.025982292
000100 e2 0d de 3c 94 c8 a5 3d 42 c7 91 b9 d5 12 1f bd
       0.02710623 0.08094898 -0.00027805014 -0.03883632
000110 6b cd 91 bb 98 ce c4 bc 17 e5 28 bc 12 96 8a 3c
       -0.0044495366 -0.024024293 -0.0103085255 0.016917262
000120 f3 06 c4 3c 11 3e 87 bb 95 88 ad bc f4 2e d3 3c
       0.023929095 -0.004127272 -0.021183291 0.025779225
000130 c8 16 51 3d bf 07 54 bb 59 d8 cc 3c 84 e5 73 bc
       0.051047117 -0.003235325 0.025005506 -0.014886264
000140 f4 80 30 3d d1 a0 84 bb 42 54 03 bd 3e 05 31 3a
       0.04309173 -0.004047491 -0.032062776 0.00067527953
000150 83 0e a9 bd e2 4e 09 bd 8a 9d 86 3c 29 89 72 3b
       -0.08254721 -0.033522494 0.016432542 0.0037008023
000160 8d d4 db bb 04 e3 c9 3c d7 00 9d bb eb 71 4c bd
       -0.0067086876 0.024644382 -0.00479136 -0.04991333
000170 d1 bc 64 39 8f dd 03 3d 21 cf 0f bd c6 70 43 bd
       0.00021814114 0.032193717 -0.035109643 -0.04771497
000180 71 77 fd bc e1 af 6c 3b b7 6b d9 bc f0 bb 05 3d
       -0.030940743 0.0036115574 -0.02654062 0.032649934
000190 72 b6 90 bc 03 af 60 3b f3 b2 56 bd 29 0f e5 bc
       -0.017665122 0.0034284003 -0.052416753 -0.02796133
0001a0 47 2d 85 bc 1d c0 85 bc 81 87 fb bc 1b 3f 67 3c
       -0.016256941 -0.016326958 -0.030704262 0.014114167
0001b0 37 65 85 bc a1 95 8f 3c 10 cb b1 3a b8 d8 d1 bc
       -0.016283615 0.017527403 0.0013564546 -0.025616035
0001c0 a3 33 87 bd 57 55 26 bd 31 13 da 3c a2 4c b7 3c
       -0.06601646 -0.04060873 0.02662048 0.022375409
0001d0 4f 32 63 bd 67 69 f1 bc 1d fd d7 bc 2a 4b 12 bd
       -0.0554679 -0.029469205 -0.026365811 -0.035716213
0001e0 8b 8e 92 3c 38 08 3b 3c 12 66 55 bd 76 43 aa bc
       0.017890235 0.011415534 -0.052099295 -0.020784121
0001f0 78 28 4f 3d df 5f 5f bc a6 bd 2d bd 31 e0 a9 bc
       0.050575703 -0.013633697 -0.04241719 -0.020736786

exp_avg f4 [128, 6]
000000 9c ea a3 39 84 1e 37 b8 00 00 00 00 eb 05 dc 39
       0.0003126458 -4.365902e-05 0.0 0.0004196608
000010 3d e5 b7 b7 00 00 00 00 e7 ef d6 3a 21 54 03 3a
       -2.1922047e-05 0.0 0.0016398401 0.00050097896
000020 00 00 00 00 ed e4 8e ba e6 d5 d4 b9 00 00 00 00
       0.0 -0.0010901965 -0.00040595158 0.0
000030 c2 2c 8e 39 01 8a 4a b9 00 00 00 00 07 82 db b9
       0.00027117698 -0.00019315632 0.0 -0.00041867813
000040 91 81 be b9 00 00 00 00 b5 96 6f b9 e9 56 69 38
       -0.00036336159 0.0 -0.00022848959 5.563247e-05
000050 00 00 00 00 da b9 9a ba dc a9 5a 39 00 00 00 00
       0.0 -0.0011804656 0.00020853378 0.0
000060 51 28 2a 3a c7 c9 9b b8 00 00 00 00 b9 db b8 39
       0.0006490993 -7.42856e-05 0.0 0.0003525892
000070 98 5f ef b8 00 00 00 00 2f 05 2c ba 02 32 8e 39
       -0.00011414214 0.0 -0.0006562052 0.0002712161
000080 00 00 00 00 89 6a 42 ba 9c 4f 0e b9 00 00 00 00
       0.0 -0.00074163877 -0.00013571832 0.0
000090 25 b8 b9 38 2a df 9b 38 00 00 00 00 49 d3 d4 38
       8.855787e-05 7.4325435e-05 0.0 0.00010148303
0000a0 bb 64 de b9 00 00 00 00 68 aa 2e 39 24 e2 24 3a
       -0.0004241819 0.0 0.00016657414 0.0006289801
0000b0 00 00 00 00 67 99 8c ba 1e e4 0b 39 00 00 00 00
       0.0 -0.001072687 0.00013341053 0.0
0000c0 3a 7f f6 b9 f1 dc 93 38 00 00 00 00 97 b8 06 39
       -0.00047015568 7.05066e-05 0.0 0.00012848001
0000d0 d6 bc f4 39 00 00 00 00 71 c1 65 39 0e 7e 79 38
       0.0004668 0.0 0.00021911204 5.9483624e-05
0000e0 00 00 00 00 fc d5 60 b9 65 b2 7b b7 00 00 00 00
       0.0 -0.0002144202 -1.5002302e-05 0.0
0000f0 eb cf a6 39 ca f4 1b 39 00 00 00 00 f7 34 f0 b8
       0.00031816898 0.00014873143 0.0 -0.00011453957
000100 b7 3d 21 39 00 00 00 00 f2 67 19 ba a7 ee 1d ba
       0.00015377147 0.0 -0.0005851976 -0.00060246367
000110 00 00 00 00 30 94 8d 3a 8f e1 a4 b6 00 00 00 00
       0.0 0.001080161 -4.9138393e-06 0.0
000120 93 f9 cf ba dc f6 28 ba 00 00 00 00 a6 d3 92 3a
       -0.0015867226 -0.00064454763 0.0 0.0011201992
000130 7c 88 9b 38 00 00 00 00 33 f5 68 3a 50 71 0d 38
       7.416398e-05 0.0 0.0008886635 3.372255e-05
000140 00 00 00 00 7a 1c 9c b9 25 81 b3 b8 00 00 00 00
       0.0 -0.00029775855 -8.55944e-05 0.0
000150 64 1f b7 3a cd a8 a3 b9 00 00 00 00 d4 51 61 3a
       0.0013971147 -0.0003121555 0.0 0.0008595262
000160 3f 8e 26 ba 00 00 00 00 6a ce 79 3a cf cb 86 39
       -0.0006353594 0.0 0.0009529354 0.0002571032
000170 00 00 00 00 8c 48 3f ba 33 9b 83 b9 00 00 00 00
       0.0 -0.0007296882 -0.000251019 0.0
000180 cf 34 4f b9 04 70 26 b9 00 00 00 00 1f 87 33 b9
       -0.00019760731 -0.00015872723 0.0 -0.00017121107
000190 2c c3 93 b8 00 00 00 00 92 0b e5 ba e0 c1 fa 39
       -7.04586e-05 0.0 -0.0017474762 0.00047828164
0001a0 00 00 00 00 2a 90 4f ba 49 d5 c0 39 00 00 00 00
       0.0 -0.00079179055 0.00036780004 0.0
0001b0 f0 49 e9 b9 43 b1 d9 38 00 00 00 00 06 fd de b9
       -0.0004449631 0.00010380384 0.0 -0.00042531657
0001c0 ad 7e 4f 39 00 00 00 00 42 a7 88 ba c5 d7 07 ba
       0.00019788249 0.0 -0.0010425823 -0.00051819935
0001d0 00 00 00 00 40 42 88 3a 44 bf 7a 38 00 00 00 00
       0.0 0.0010395721 5.9782775e-05 0.0
0001e0 64 44 a1 39 be e5 cf b7 00 00 00 00 04 06 9b 39
       0.00030759268 -2.4783305e-05 0.0 0.00029568386
0001f0 dc e4 71 b9 00 00 00 00 a9 52 0f ba 28 04 8e b9
       -0.00023068808 0.0 -0.00054673344 -0.00027087447
000200 00 00 00 00 c9 f8 47 3a 4f 84 0c b9 00 00 00 00
       0.0 0.00076283194 -0.00013400729 0.0
000210 17 80 75 3a fb b3 9f 39 00 00 00 00 06 4b 00 ba
       0.0009365095 0.0003046094 0.0 -0.0004893992
000220 cc 9e 02 b9 00 00 00 00 f4 af ce 39 56 9a e0 38
       -0.00012456923 0.0 0.00039422477 0.000107099
000230 00 00 00 00 fd 85 63 39 3f f4 a4 b9 00 00 00 00
       0.0 0.00021698322 -0.00031462495 0.0
000240 57 5e 09 3b 0f 0f b2 b8 00 00 00 00 93 74 a4 39
       0.0020960772 -8.490506e-05 0.0 0.00031367372
000250 b6 77 b9 38 00 00 00 00 58 d6 c5 39 f4 62 3d 39
       8.843785e-05 0.0 0.00037734467 0.00018061307
000260 00 00 00 00 0b a4 1d 39 a7 6f c5 38 00 00 00 00
       0.0 0.00015033798 9.414489e-05 0.0
000270 27 54 c7 ba 99 41 6b 3a 00 00 00 00 1d 7a 50 bb
       -0.0015207574 0.00089743134 0.0 -0.0031811066
000280 56 f2 e8 39 00 00 00 00 6a 8f 10 3a ec 52 26 39
       0.00044431043 0.0 0.00055145344 0.00015861884
000290 00 00 00 00 d3 35 0c ba ac 93 0c b9 00 00 00 00
       0.0 -0.00053485966 -0.00013406452 0.0
0002a0 db 0b 8f 38 76 fa 24 39 00 00 00 00 7d 3b 2e 3a
       6.8209796e-05 0.00015733563 0.0 0.00066464377
0002b0 d4 ef de 38 00 00 00 00 f0 3b 5c ba 7c 89 3a 39
       0.000106304564 0.0 -0.00084012654 0.00017789559
0002c0 00 00 00 00 a8 75 35 b9 29 8b a5 b7 00 00 00 00
       0.0 -0.00017305335 -1.9734334e-05 0.0
0002d0 09 cc 29 3a 5e 24 0b 39 00 00 00 00 41 66 88 3a
       0.0006477242 0.00013269621 0.0 0.0010406451
0002e0 63 bd 9d b9 00 00 00 00 70 5b d3 b9 22 d4 5f b9
       -0.00030086478 0.0 -0.00040313182 -0.00021345963
0002f0 00 00 00 00 fc 20 06 b9 0e 7b 8e 38 00 00 00 00
       0.0 -0.00012791523 6.7940084e-05 0.0
000300 ae 38 fd 38 26 d6 88 38 00 00 00 00 fe e1 f5 b9
       0.000120745375 6.5248736e-05 0.0 -0.0004689842
000310 08 86 a8 39 00 00 00 00 72 34 a7 ba 77 84 de b9
       0.00032143318 0.0 -0.0012756719 -0.00042441834
000320 00 00 00 00 74 ca 2c 3a 6b d2 42 38 00 00 00 00
       0.0 0.0006591447 4.644917e-05 0.0
000330 07 11 a0 3a 7c be 0e b9 00 00 00 00 f9 c8 b2 39
       0.0012212106 -0.00013613136 0.0 0.00034100542
000340 77 9d 98 b8 00 00 00 00 e6 fc 2c ba e3 c0 56 b9
       -7.277255e-05 0.0 -0.0006598964 -0.00020480486
000350 00 00 00 00 6d 73 7d 39 e9 fc f6 37 00 00 00 00
       0.0 0.0002417096 2.9443256e-05 0.0
000360 68 85 f4 39 66 9c f2 38 00 00 00 00 d3 a4 89 39
       0.00046638702 0.00011568591 0.0 0.0002625348
000370 ac 1f ca 37 00 00 00 00 8f a3 41 3a 3d 30 93 b9
       2.4095025e-05 0.0 0.0007386738 -0.00028073965
000380 00 00 00 00 81 f1 11 b9 c5 ce 52 b8 00 00 00 00
       0.0 -0.00013918245 -5.026047e-05 0.0
000390 0f 2c f8 b9 ef 21 88 b9 00 00 00 00 da 50 9c 39
       -0.00047335072 -0.00025965224 0.0 0.00029814878
0003a0 b8 7d 96 b8 00 00 00 00 46 c8 33 3a e5 6b 34 39
       -7.175974e-05 0.0 0.0006858151 0.00017206332
0003b0 00 00 00 00 9a d3 fc b5 fc 6c 15 3a 00 00 00 00
       0.0 -1.8837047e-06 0.0005700139 0.0
0003c0 3f 00 31 ba be cf 9e 38 00 00 00 00 e2 18 d9 39
       -0.0006752051 7.572722e-05 0.0 0.00041408004
0003d0 77 b3 24 b8 00 00 00 00 b8 64 5b 38 5b 36 46 b9
       -3.9267787e-05 0.0 5.230747e-05 -0.00018903
0003e0 00 00 00 00 6a 2b a9 38 09 81 81 3a 00 00 00 00
       0.0 8.0666345e-05 0.0009880374 0.0
0003f0 10 1c ae ba 05 1d 96 39 00 00 00 00 70 7a 82 ba
       -0.001328351 0.0002863185 0.0 -0.0009954702

exp_avg_sq f4 [128, 6]
000000 1e 18 42 36 4a 4f 8b 34 00 00 00 00 23 17 6b 35
       2.892229e-06 2.5948458e-07 0.0 8.757799e-07
000010 c6 13 8f 34 00 00 00 00 33 d7 29 37 b9 e2 82 35
       2.6650213e-07 0.0 1.012329e-05 9.75174e-07
000020 00 00 00 00 35 08 ba 36 5f 9d 9d 35 00 00 00 00
       0.0 5.5441874e-06 1.1743213e-06 0.0
000030 0b 2a 57 37 ca 5d d0 35 00 00 00 00 dd 9b f9 36
       1.28247875e-05 1.5524504e-06 0.0 7.438923e-06
000040 a4 62 9e 35 00 00 00 00 7b c4 83 37 08 3d eb 35
       1.1800626e-06 0.0 1.570791e-05 1.7526627e-06
000050 00 00 00 00 2b 8d ff 36 92 e5 a6 35 00 00 00 00
       0.0 7.6160263e-06 1.2434778e-06 0.0
000060 38 33 38 36 ba f2 83 34 00 00 00 00 da a5 a7 35
       2.744795e-06 2.4577258e-07 0.0 1.2490739e-06
000070 e4 3d 7f 34 00 00 00 00 0a b8 69 36 ba 67 c0 34
       2.3771241e-07 0.0 3.482683e-06 3.5838258e-07
000080 00 00 00 00 29 79 ae 35 ee 9e cd 34 00 00 00 00
       0.0 1.2999272e-06 3.8299862e-07 0.0
000090 47 b3 b0 37 17 0d a9 35 00 00 00 00 40 c9 a0 36
       2.1064317e-05 1.2595291e-06 0.0 4.7918e-06
0000a0 e7 e5 fa 35 00 00 00 00 98 73 55 37 c4 61 da 35
       1.8693362e-06 0.0 1.2722703e-05 1.6270719e-06
0000b0 00 00 00 00 28 b8 76 36 15 27 a5 35 00 00 00 00
       0.0 3.676405e-06 1.2304832e-06 0.0
0000c0 93 22 bf 36 09 fb df 34 00 00 00 00 e9 00 cf 35
       5.6962685e-06 4.171964e-07 0.0 1.5422967e-06
0000d0 11 cc 3e 35 00 00 00 00 87 c2 9e 36 44 95 9a 34
       7.107747e-07 0.0 4.731413e-06 2.879334e-07
0000e0 00 00 00 00 ac 52 b7 35 08 26 f4 34 00 00 00 00
       0.0 1.3658623e-06 4.5476213e-07 0.0
0000f0 2d ef b2 36 f5 a4 ee 34 00 00 00 00 7e 95 03 36
       5.332657e-06 4.4450977e-07 0.0 1.9607537e-06
000100 8d 2a 04 35 00 00 00 00 80 d5 db 36 7b 40 42 35
       4.923575e-07 0.0 6.5515633e-06 7.2364463e-07
000110 00 00 00 00 ec f3 75 36 5e ad 39 35 00 00 00 00
       0.0 3.6649826e-06 6.9170153e-07 0.0
000120 44 bd 5e 37 01 27 b7 35 00 00 00 00 d5 d0 af 36
       1.3276298e-05 1.3645914e-06 0.0 5.2397177e-06
000130 45 a9 a2 35 00 00 00 00 fe 2a 3e 36 6c 57 ab 34
       1.2119204e-06 0.0 2.833723e-06 3.191484e-07
000140 00 00 00 00 b6 75 cc 35 f3 20 96 34 00 00 00 00
       0.0 1.5233443e-06 2.796365e-07 0.0
000150 9f b2 16 37 96 81 8b 35 00 00 00 00 ec e1 70 36
       8.982285e-06 1.0394022e-06 0.0 3.589429e-06
000160 21 1b 7d 35 00 00 00 00 b8 7f 9f 36 5e e9 1b 35
       9.428932e-07 0.0 4.7534377e-06 5.8081594e-07
000170 00 00 00 00 42 da 23 36 cf 2c ec 34 00 00 00 00
       0.0 2.4415936e-06 4.3991028e-07 0.0
000180 e3 ae a2 36 49 c7 fd 34 00 00 00 00 52 cd cb 35
       4.8483357e-06 4.726992e-07 0.0 1.5184435e-06
000190 74 86 1d 35 00 00 00 00 f4 88 e9 37 2d 9c fb 35
       5.868271e-07 0.0 2.7839538e-05 1.874641e-06
0001a0 00 00 00 00 38 33 05 37 d7 93 e9 35 00 00 00 00
       0.0 7.939343e-06 1.740288e-06 0.0
0001b0 30 8c 5c 36 0b 79 e0 34 00 00 00 00 28 dc 88 35
       3.2864154e-06 4.1811322e-07 0.0 1.0196864e-06
0001c0 aa 01 86 34 00 00 00 00 07 8c 18 37 7c ce 89 35
       2.4960656e-07 0.0 9.092509e-06 1.026739e-06
0001d0 00 00 00 00 e2 9b 81 36 89 9b 6f 35 00 00 00 00
       0.0 3.8626467e-06 8.926077e-07 0.0
0001e0 7c de 4b 37 82 fe 97 35 00 00 00 00 85 c2 6d 36
       1.2151544e-05 1.1324448e-06 0.0 3.5428977e-06
0001f0 30 41 8a 35 00 00 00 00 6c dc e8 36 81 15 5f 35
       1.0300773e-06 0.0 6.9397993e-06 8.3105266e-07
000200 00 00 00 00 81 e1 21 36 39 84 33 35 00 00 00 00
       0.0 2.412213e-06 6.6875106e-07 0.0
000210 3c 2e 8e 36 d5 18 02 35 00 00 00 00 43 81 05 36
       4.237312e-06 4.846491e-07 0.0 1.9893785e-06
000220 c7 1a 07 35 00 00 00 00 52 d6 86 37 65 99 5b 35
       5.0330385e-07 0.0 1.6073845e-05 8.1807076e-07
000230 00 00 00 00 d7 74 44 36 be 7f ab 35 00 00 00 00
       0.0 2.9274286e-06 1.2777671e-06 0.0
000240 cb b4 19 38 c0 52 16 36 00 00 00 00 0d 21 0c 37
       3.664642e-05 2.2399909e-06 0.0 8.3523455e-06
000250 4d 89 42 36 00 00 00 00 5f 98 c6 35 69 f1 14 34
       2.8988172e-06 0.0 1.4796495e-06 1.3871399e-07
000260 00 00 00 00 e4 34 f6 34 c1 7e 9a 34 00 00 00 00
       0.0 4.5859554e-07 2.877696e-07 0.0
000270 83 4a 4e 38 54 58 bf 36 00 00 00 00 60 b9 a4 37
       4.918362e-05 5.7025263e-06 0.0 1.9636645e-05
000280 c4 ff 80 36 00 00 00 00 0d 1c 88 36 6e 70 df 34
       3.8444723e-06 0.0 4.0563814e-06 4.161879e-07
000290 00 00 00 00 d9 aa 07 36 ee 28 df 34 00 00 00 00
       0.0 2.0216014e-06 4.1566767e-07 0.0
0002a0 9c 00 59 37 07 df 97 35 00 00 00 00 0b f1 8e 36
       1.293435e-05 1.1315286e-06 0.0 4.259991e-06
0002b0 89 7d 8a 35 00 00 00 00 0c c4 c0 36 a1 06 c6 34
       1.0318337e-06 0.0 5.7448688e-06 3.6885197e-07
0002c0 00 00 00 00 a4 5c 04 36 48 90 a9 34 00 00 00 00
       0.0 1.9723457e-06 3.1583681e-07 0.0
0002d0 98 83 ad 37 d6 fc 0c 36 00 00 00 00 40 66 9e 36
       2.0684485e-05 2.1008796e-06 0.0 4.7206704e-06
0002e0 7f ab 14 36 00 00 00 00 65 ca e0 35 41 cd 2b 34
       2.2153542e-06 0.0 1.6748205e-06 1.6000287e-07
0002f0 00 00 00 00 b4 71 f4 34 f4 90 62 34 00 00 00 00
       0.0 4.5531272e-07 2.1100624e-07 0.0
000300 65 8d 1d 37 ed cf 17 35 00 00 00 00 4e 52 06 36
       9.39085e-06 5.6554455e-07 0.0 2.0015464e-06
000310 80 6e 37 35 00 00 00 00 14 c6 ac 36 0a 30 30 35
       6.833361e-07 0.0 5.149059e-06 6.5635015e-07
000320 00 00 00 00 47 93 2e 36 2c d0 ed 34 00 00 00 00
       0.0 2.6013747e-06 4.4296155e-07 0.0
000330 e3 09 3f 37 7b eb a1 35 00 00 00 00 fe 28 5e 36
       1.1386789e-05 1.2063969e-06 0.0 3.3104438e-06
000340 ac 70 8f 35 00 00 00 00 a8 81 18 36 b8 42 2d 34
       1.0687122e-06 0.0 2.2725235e-06 1.6136153e-07
000350 00 00 00 00 11 57 3e 35 cc 12 6f 34 00 00 00 00
       0.0 7.0907214e-07 2.2265448e-07 0.0
000360 34 1e 29 36 8e 83 87 34 00 00 00 00 97 67 2b 35
       2.5200543e-06 2.5241428e-07 0.0 6.385321e-07
000370 ed 4a bc 34 00 00 00 00 7d 6b d6 37 35 d6 d7 35
       3.5072244e-07 0.0 2.5560841e-05 1.6081091e-06
000380 00 00 00 00 ff 18 c1 36 c0 56 e5 35 00 00 00 00
       0.0 5.754758e-06 1.7087077e-06 0.0
000390 99 a5 68 36 ae 9b af 34 00 00 00 00 db 37 69 35
       3.4667084e-06 3.2709562e-07 0.0 8.6880544e-07
0003a0 1d 2a 81 34 00 00 00 00 cd b1 6d 37 8b d6 9e 35
       2.4058764e-07 0.0 1.4167698e-05 1.1834358e-06
0003b0 00 00 00 00 ab 36 3b 36 a0 27 0d 36 00 00 00 00
       0.0 2.7896992e-06 2.1033702e-06 0.0
0003c0 91 d6 fd 36 17 5a 83 35 00 00 00 00 04 86 4c 36
       7.5649664e-06 9.78648e-07 0.0 3.0476376e-06
0003d0 fc 46 6c 35 00 00 00 00 99 f7 5c 38 18 2d 98 36
       8.8020147e-07 0.0 5.268268e-05 4.5352026e-06
0003e0 00 00 00 00 f3 b1 6c 37 c1 3d 9a 36 00 00 00 00
       0.0 1.4108128e-05 4.5967467e-06 0.0
0003f0 b1 bd 67 37 35 99 a1 35 00 00 00 00 a0 73 96 36
       1.3812839e-05 1.2040024e-06 0.0 4.483809e-06

exp_avg f4 [128]
000000 39 e2 07 b8 d9 61 4a 39 b4 25 83 b8 95 22 1d 38
       -3.2397194e-05 0.00019300672 -6.2535895e-05 3.7463924e-05
000010 6e d0 9b b8 aa 3d 20 39 48 71 a6 36 e5 d5 3b 39
       -7.429799e-05 0.0001528176 4.960373e-06 0.00017913392
000020 16 12 cc 37 0d 34 98 b8 da ac 95 b7 32 60 5b b9
       2.4327117e-05 -7.25762e-05 -1.7842674e-05 -0.00020921303
000030 b2 8d 46 b9 7e 05 ed b8 9f 68 67 b9 28 f9 80 38
       -0.00018935537 -0.00011302064 -0.00022068851 6.1499246e-05
000040 b7 ae 17 b8 a6 e1 59 39 3c 52 90 38 95 0f 21 b9
       -3.616392e-05 0.00020778793 6.8817724e-05 -0.00015359961
000050 78 b9 fc 37 93 98 88 b8 d7 c8 e0 38 92 a2 1c b8
       3.0127107e-05 -6.5134045e-05 0.00010718562 -3.7344704e-05
000060 40 1e 14 b9 a2 69 39 38 c7 0a e9 39 41 01 ed 38
       -0.00014125649 4.4205815e-05 0.00044449253 0.00011301274
000070 cc bc f6 37 aa 5f d5 38 00 ce 8c 38 fe 7f a6 b8
       2.94134e-05 0.0001017445 6.714091e-05 -7.939337e-05
000080 3b f5 66 38 e0 58 06 b9 cc 5b 1b b9 5b 08 a1 b8
       5.5064662e-05 -0.00012812344 -0.00014816149 -7.6786346e-05
000090 95 db 22 37 10 b6 b0 b8 01 42 4d b8 aa fb 44 b8
       9.707078e-06 -8.426246e-05 -4.893728e-05 -4.6964422e-05
0000a0 3a 7a 1f 38 4c ed bb b8 ee 3a 29 39 9b c2 e0 39
       3.8022386e-05 -8.961055e-05 0.00016139049 0.00042869602
0000b0 17 2b 47 b7 75 a9 b4 b7 71 0d c0 37 dd 29 aa b8
       -1.1871357e-05 -2.1536582e-05 2.2894443e-05 -8.114029e-05
0000c0 1b 41 db b8 2b ab 8b b7 ad 12 a6 b9 12 7d 78 38
       -0.000104548606 -1.6649798e-05 -0.00031675902 5.924429e-05
0000d0 47 1d 2a b8 78 ab e4 37 40 c9 27 b9 05 51 02 38
       -4.0558425e-05 2.7259564e-05 -0.00016001333 3.106987e-05
0000e0 44 11 80 b8 7a ad d9 b8 c2 51 a1 37 86 46 13 39
       -6.1067316e-05 -0.00010379679 1.9230767e-05 0.00014045284
0000f0 f4 87 b6 b8 2b 0d 8e b9 4b f3 a0 39 4d 7b 09 b7
       -8.7037595e-05 -0.00027094161 0.00030698846 -8.1945445e-06
000100 80 8a d1 38 b1 92 87 37 62 35 45 b8 82 99 7d b8
       9.991694e-05 1.6161563e-05 -4.7018177e-05 -6.0462866e-05
000110 ac d8 8b 39 d1 98 6a 39 c5 00 15 b9 70 bc f3 b7
       0.0002667358 0.00022372908 -0.00014210034 -2.9055605e-05
000120 d5 59 27 37 b8 a3 26 ba c0 f7 a8 38 28 14 e1 36
       9.974891e-06 -0.00063567935 8.057011e-05 6.707869e-06
000130 a7 74 3a 38 4d ae 19 39 f8 5c ab 38 88 89 c2 b7
       4.4454497e-05 0.00014656149 8.171232e-05 -2.3190645e-05
000140 cf 55 9e b7 21 8f 23 b8 57 1b ca b8 3e 7e 13 39
       -1.8875025e-05 -3.8995528e-05 -9.637203e-05 0.00014066041
000150 13 22 f8 38 e3 0e 25 b9 40 3c d1 b8 58 be da b7
       0.00011831908 -0.00015741172 -9.977119e-05 -2.607626e-05
000160 f8 a1 ef b7 f7 8b 4d 38 4a 92 70 b7 e3 d5 96 b8
       -2.8566443e-05 4.900616e-05 -1.4339175e-05 -7.192397e-05
000170 1d 09 2c 38 a6 98 34 b8 c5 92 4a 39 0a da 3d b8
       4.1016483e-05 -4.305751e-05 0.00019318897 -4.5264176e-05
000180 f3 04 b3 b6 71 25 cd b7 d8 c6 0a b8 7f e1 b6 39
       -5.335192e-06 -2.445534e-05 -3.308695e-05 0.00034881753
000190 86 58 69 38 72 15 82 38 fc 6a f2 b9 4e 7a 2a 38
       5.5633973e-05 6.2028776e-05 -0.00046237546 4.0645064e-05
0001a0 3f 11 93 b5 e9 5f 04 b8 5c cb dc b8 82 a2 1c 38
       -1.0957373e-06 -3.1560576e-05 -0.00010528296 3.7344646e-05
0001b0 2c e3 64 37 d3 77 3c 38 49 68 2e b9 a1 5e b0 37
       1.3642752e-05 4.4934288e-05 -0.00016632782 2.10249e-05
0001c0 62 4b 61 37 f0 bd 8b 39 f4 9e b9 b8 6a 1c c9 b8
       1.34285965e-05 0.0002665366 -8.851095e-05 -9.5897194e-05
0001d0 04 72 bb b7 c9 eb 1b 38 a9 be 82 b9 d7 4b 50 b9
       -2.234523e-05 3.717447e-05 -0.00024937585 -0.00019864678
0001e0 47 42 0b 38 38 a2 77 37 13 fb 1e b8 42 21 e4 b8
       3.3201908e-05 1.4760117e-05 -3.7903967e-05 -0.00010878082
0001f0 f6 d9 6f b8 9d 37 aa b9 b0 1b 57 b7 9e 8c f5 b7
       -5.7185032e-05 -0.00032466362 -1.2821445e-05 -2.9271756e-05

exp_avg_sq f4 [128]
000000 84 82 33 33 6b 87 1d 34 d5 b5 5a 34 6c db 79 34
       4.179539e-08 1.4671029e-07 2.0368982e-07 2.3269757e-07
000010 77 eb 31 33 ce b6 62 33 f1 c6 a4 34 5d a6 51 34
       4.1425178e-08 5.2785985e-08 3.069213e-07 1.9525164e-07
000020 cd a7 b3 33 30 c2 93 33 6b cd a3 33 2d 41 cd 33
       8.36586e-08 6.8805434e-08 7.627644e-08 9.557912e-08
000030 74 9e 4f 34 68 f9 41 33 69 63 0e 34 fc f5 93 33
       1.9336022e-07 4.5163148e-08 1.3260946e-07 6.889965e-08
000040 b4 87 98 33 8e 9e d8 34 62 31 44 33 ce bd 0d 34
       7.102736e-08 4.03485e-07 4.567972e-08 1.3200699e-07
000050 00 34 3e 34 71 ef d8 33 44 e7 83 33 e7 3f 79 34
       1.7714046e-07 1.0101838e-07 6.14223e-08 2.321318e-07
000060 a6 35 0b 35 10 49 b8 32 6b b0 4d 35 f9 db 85 33
       5.1859604e-07 2.1453644e-08 7.6625173e-07 6.233308e-08
000070 b4 22 4d 34 9e ee b2 33 94 2b a1 34 fb 0d cd 32
       1.9104738e-07 8.332175e-08 3.0020294e-07 2.3871499e-08
000080 d2 23 14 34 4f 74 9e 33 dd 7b 30 34 01 82 0d 33
       1.3796605e-07 7.378605e-08 1.6436339e-07 3.294736e-08
000090 e0 f0 24 33 3f 6e c7 34 c1 46 57 33 18 6b 58 34
       3.84033e-08 3.7146853e-07 5.012294e-08 2.0155528e-07
0000a0 87 57 09 34 7b 7c 4b 35 23 93 56 34 fe a0 f3 34
       1.2790962e-07 7.5804536e-07 1.9983831e-07 4.5379414e-07
0000b0 73 81 2a 34 ae 85 3d 33 12 ff 4f 34 34 64 4d 32
       1.5879577e-07 4.4126573e-08 1.9371171e-07 1.1955354e-08
0000c0 7e 13 0a 34 0f 5b d5 34 15 86 17 35 35 90 aa 34
       1.2859343e-07 3.9740596e-07 5.6447e-07 3.1769892e-07
0000d0 ed ab c9 33 78 d8 fe 33 ab ff cf 33 a4 55 f5 34
       9.391065e-08 1.1867172e-07 9.6856944e-08 4.5697118e-07
0000e0 6e 11 7b 32 16 f8 6e 33 ac 1a 99 34 59 3e 62 34
       1.4614086e-08 5.5639326e-08 2.8517877e-07 2.1070572e-07
0000f0 25 2f 0b 34 9d d8 4c 34 b7 30 6c 35 36 40 5e 35
       1.2962535e-07 1.9077784e-07 8.798774e-07 8.2794884e-07
000100 d0 db b1 34 c3 ab d0 33 42 39 c7 33 2c 2a 58 33
       3.3128754e-07 9.716998e-08 9.277075e-08 5.0329774e-08
000110 b5 e1 ac 34 5f bf 59 34 47 72 88 34 43 19 21 34
       3.220172e-07 2.027932e-07 2.5415122e-07 1.5003484e-07
000120 8b c4 f7 34 37 32 7b 35 57 c7 68 34 ec ea 64 32
       4.615034e-07 9.357786e-07 2.1679203e-07 1.3324762e-08
000130 68 d1 1d 34 69 2e 44 34 d3 b7 50 34 43 f2 2f 34
       1.4697946e-07 1.8270806e-07 1.9438384e-07 1.638628e-07
000140 32 56 8f 34 0d 0f ec 32 7c 9d 99 34 6b 4a fe 33
       2.669854e-07 2.748086e-08 2.8613056e-07 1.1841333e-07
000150 2a 64 ad 33 c5 2a 84 34 a1 46 15 34 47 2f 84 33
       8.07416e-08 2.4618035e-07 1.3902401e-07 6.155329e-08
000160 77 17 e2 32 9f 67 06 34 5e b7 9f 32 1c 6b b3 34
       2.6320533e-08 1.251742e-07 1.8593422e-08 3.341928e-07
000170 41 0a 94 33 55 40 b7 32 cf 69 39 34 e4 96 40 34
       6.893652e-08 2.1333259e-08 1.726796e-07 1.7936287e-07
000180 e9 2c 89 33 a4 33 9f 34 79 78 04 34 b1 d2 dd 34
       6.387729e-08 2.965363e-07 1.2337286e-07 4.1317756e-07
000190 29 d1 5e 33 5e 16 66 33 ed 3c 0f 35 30 90 9f 33
       5.1878633e-08 5.357139e-08 5.336031e-07 7.430242e-08
0001a0 fa cc 84 33 60 34 2a 33 e1 f4 f0 33 93 89 ad 34
       6.184014e-08 3.9628844e-08 1.1220414e-07 3.232386e-07
0001b0 3d e6 e8 33 5c c1 7c 33 ac d8 00 34 fb 1f 9f 33
       1.0845222e-07 5.884918e-08 1.1999754e-07 7.409832e-08
0001c0 d0 cf 8a 34 56 7d 82 34 14 5b f6 33 f4 2f dd 34
       2.5855707e-07 2.430558e-07 1.1471835e-07 4.1199348e-07
0001d0 7d bc d1 32 25 09 7f 33 a1 d4 31 34 9c b3 43 34
       2.4416517e-08 5.938013e-08 1.6561764e-07 1.8226132e-07
0001e0 46 c0 a5 34 0e 0f 16 34 1b 1d 04 34 b2 b0 bc 33
       3.0873542e-07 1.3975315e-07 1.2304046e-07 8.786573e-08
0001f0 63 43 a2 33 84 fe 8d 34 6f c0 8d 33 e9 90 a7 33
       7.5559704e-08 2.644848e-07 6.6008276e-08 7.8029025e-08
