results/Run1/MoveThePlayer/MoveThePlayer-2499996.onnx (onnx, 72119 bytes, 5 tensors)

action_model._continuous_distribution.mu.weight f4 [1, 128]
0.01929584 0.042487193 0.030978223 -0.045647167 0.032647774 -0.04642375 -0.0041663633 0.01820055
-0.0026486502 0.010396346 -0.023548111 -0.014934472 -0.016076107 -0.020004198 0.005788649 -0.036030315
-0.015641877 0.014295889 0.01775246 -0.017296517 0.034319207 0.042980995 -0.019403167 -0.01566735
-0.030088 -0.019816786 0.01742346 -0.027127754 -0.015271124 0.0367629 -0.032801706 -0.021589229
-0.008295341 0.027636023 -0.03659052 -0.023924826 0.03361165 0.031107428 0.04855887 0.021185333
-0.015189485 -0.038925774 0.02378202 0.06083666 0.02819551 -0.05407795 -0.038866967 -0.01473507
0.016645795 -0.04228647 0.0032805277 0.018491948 -0.00790214 0.03294794 -0.00791422 0.0215358
0.03200263 -0.006234514 0.011123142 0.01651824 -0.03862266 0.045749277 -0.015643198 -0.028461257
0.026508244 0.08632479 0.0010522348 -0.040666778 -0.0035770384 -0.026511855 -0.009924921 0.016449373
0.028763741 -0.0032700407 -0.030413065 0.025331568 0.05133437 -0.0042875065 0.024921225 -0.016663259
0.044681184 -0.0032937466 -0.038403086 0.0013226564 -0.09215369 -0.03538049 0.016636634 0.007217878
-0.009233376 0.026918484 -0.0012198018 -0.05416453 -0.0012510678 0.034403473 -0.039723884 -0.04881927
-0.035098795 0.0027594855 -0.031232966 0.044985853 -0.022333298 0.0034813264 -0.0571226 -0.027332252
-0.01634473 -0.016376508 -0.034612942 0.015441019 -0.015015555 0.019476153 -0.0010449265 -0.025306754
-0.067750804 -0.040193185 0.028586566 0.021857535 -0.060879447 -0.028170073 -0.034663387 -0.0391811
0.0272859 0.011914681 -0.055440016 -0.01891655 0.05656055 -0.011796672 -0.04529094 -0.0237037
00000000: 4f12 9e3c 0d07 2e3d 0bc6 fd3c 86f8 3abd
00000010: acb9 053d d526 3ebd fd85 88bb 5219 953c
00000020: fa94 2dbb 7055 2a3c f8e7 c0bc b7af 74bc
00000030: 0ab2 83bc d8df a3bc b5ae bd3b 8694 13bd
00000040: 6523 80bc 4e39 6a3c 9b6d 913c 6db1 8dbc
00000050: 4c92 0c3d d70c 303d 64f3 9ebc d058 80bc
00000060: 1c7b f6bc d056 a2bc a5bb 8e3c 063b debc
00000070: bd33 7abc b294 163d 155b 06bd e5db b0bc
00000080: 2fe9 07bc f164 e23c f1df 15bd fffd c3bc
00000090: 5fac 093d 01d5 fe3c aae5 463d dd8c ad3c
000000a0: 51dd 78bc a270 1fbd 83d2 c23c dd2f 793d
000000b0: 45fa e63c d780 5dbd f832 1fbd 5d6b 71bc
000000c0: c35c 883c 9434 2dbd 1ffe 563b 6d7c 973c
000000d0: fa77 01bc 6bf4 063d a5aa 01bc d96b b03c
000000e0: 3115 033d e54a ccbb d73d 363c 4351 873c
000000f0: cb32 1ebd 9863 3b3d 2a26 80bc 9527 e9bc
00000100: d127 d93c 0dcb b03d 24eb 893a 3592 26bd
00000110: bf6c 6abb 642f d9bc 239c 22bc d6c0 863c
00000120: f0a1 eb3c 2e4e 56bb d224 f9bc 2684 cf3c
00000130: fd43 523d 367e 8cbb 9927 cc3c 6381 88bc
00000140: 9e03 373d e6db 57bb 8e4c 1dbd fc5c ad3a
00000150: 13bb bcbd 22eb 10bd 8d49 883c f383 ec3b
00000160: 9647 17bc 2784 dc3c c2e1 9fba a0db 5dbd
00000170: dffa a3ba a8ea 0c3d 83b5 22bd b7f6 47bd
00000180: c1c3 0fbd 7cd8 343b 47dc ffbc 1643 383d
00000190: 52f4 b6bc f726 643b 63f9 69bd e3e7 dfbc
000001a0: 62e5 85bc 0728 86bc 4dc6 0dbd 54fc 7c3c
000001b0: cd03 76bc 748c 9f3c eaf5 88ba 1c50 cfbc
000001c0: efc0 8abd 9ca1 24bd 602e ea3c 930e b33c
000001d0: ba5c 79bd edc4 e6bc 32fb 0dbd 5c7c 20bd
000001e0: ae86 df3c cb35 433c 1215 63bd e1f6 9abc
000001f0: 09ac 673d d446 41bc fe82 39bd 432e c2bc

network_body._body_endoder.seq_layers.0.bias f4 [128]
0.003954067 0.0016336654 -0.011301393 -0.027188638 0.012821206 0.005988516 -0.0018199019 -0.01163205
-0.012301456 -0.010783489 0.0068893125 0.020685658 0.0025072654 0.023115484 0.02455095 -0.0036944936
0.009070468 -0.004340329 0.011266646 -0.001614698 0.006592331 0.0051043998 -0.011814121 0.0067979437
-0.006617834 -0.010516448 -0.0076530976 -0.010429281 0.0036604817 -0.016582588 -0.0016467577 0.008602036
0.0080150375 -0.022717139 -0.004667346 -0.0053631556 0.02549875 -0.003543358 0.026604595 0.005660974
0.0075391526 0.0053648776 -0.0111929085 -0.0016728208 -0.0008058111 -0.014725751 -0.006028887 -0.007427652
-0.009710695 0.0022868353 -0.0002247549 0.029637096 -0.021857878 -0.019662559 -0.023025537 0.023741597
0.012953972 -0.010108299 0.03731851 0.0064389342 -0.0062796944 0.005223872 0.04226332 0.019454129
0.00010173872 0.03281803 -0.003504333 -0.007988281 0.018516662 -0.016044347 0.00828754 -0.007123582
0.02130066 0.019153148 0.01707238 -0.020106466 -0.012746481 -0.01965104 0.0131455995 -0.004186764
0.01199247 0.015926292 -0.042581536 -0.0019971435 -0.009693752 -0.00503393 0.082717806 -0.00040320633
-0.013870031 -0.004090906 -0.007023401 -0.01704018 -0.012365903 0.021423781 0.018636266 0.003839488
-0.01446737 0.034076802 -0.0011228912 -0.013427455 -0.01564062 -0.0003708056 0.035765447 -0.0028710044
-0.0033907478 0.006243023 0.020351646 0.0056322385 0.021712901 -0.00035007953 0.030639403 0.010926598
0.023658749 0.003736796 0.0013759219 0.01628958 -0.01570356 0.01674289 0.021784183 0.043834265
0.0262613 -0.010091725 0.0005830274 -0.024622086 -0.004663819 -0.012774089 -0.008630298 0.005668939
00000000: 1e91 813b b720 d63a 7a29 39bc b5ba debc
00000010: 0910 523c 503b c43b c689 eeba 5b94 3ebc
00000020: 0c8c 49bc 3bad 30bc bebf e13b f874 a93c
00000030: ef50 243b af5c bd3c 131f c93c 511f 72bb
00000040: 4d9c 143c 5239 8ebb bd97 383c 46a4 d3ba
00000050: 7b04 d83b cf42 a73b 0490 41bc 49c1 de3b
00000060: 6ada d8bb 2e4d 2cbc d6c6 fabb 93df 2abc
00000070: b1e4 6f3b 35d8 87bc 05d8 d7ba 8eef 0c3c
00000080: 8151 033c 4b19 babc 89f0 98bb 69bd afbb
00000090: c1e2 d03c af37 68bb e1f1 d93c b17f b93b
000000a0: ff0a f73b dbcb af3b 7662 37bc 8d42 dbba
000000b0: 113d 53ba 4744 71bc f88d c5bb a963 f3bb
000000c0: 9b19 1fbc bbde 153b 2fac 6bb9 7fc9 f23c
000000d0: 4b0f b3bc 6013 a1bc 0da0 bcbc bd7d c23c
000000e0: e63c 543c 479d 25bc 4bdb 183d b2fd d23b
000000f0: e5c5 cdbb 042d ab3b 4e1c 2d3d 445e 9f3c
00000100: 8f5c d538 336c 063d f4a8 65bb 47e1 02bc
00000110: 41b0 973c 6f6f 83bc 76c8 073c f06c e9bb
00000120: b97e ae3c 10e7 9c3c 60db 8b3c 51b6 a4bc
00000130: 9ed6 50bc 38fb a0bc a460 573c 1f31 89bb
00000140: 117c 443c db77 823c fa69 2ebd 82e2 02bb
00000150: 8bd2 1ebc aaf3 a4bb f467 a93d 7065 d3b9
00000160: 203f 63bc 020d 86bb 8f24 e6bb d997 8bbc
00000170: 5b9a 4abc ed80 af3c 15ab 983c eb9f 7b3b
00000180: 8c08 6dbc 1e94 0b3d fa2d 93ba d4fe 5bbc
00000190: c220 80bc af68 c2b9 ca7e 123d 7627 3cbb
000001a0: 4f37 5ebb 4692 cc3b 7fb8 a63c a48e b83b
000001b0: 41df b13c e18a b7b9 7cff fa3c 7905 333c
000001c0: fecf c13c 09e5 743b 4758 b43a ba71 853c
000001d0: c1a4 80bc 6328 893c be74 b23c 8f8b 333d
000001e0: f021 d73c c357 25bc 4ed6 183a 42b4 c9bc
000001f0: f3d2 98bb 6a4a 51bc 1866 0dbc 82c2 b93b

network_body._body_endoder.seq_layers.0.weight f4 [128, 6]
-0.46398753 -0.26556158 -0.8804808 0.34314957 0.16688016 0.8563566 0.14144899 -0.9752383
0.22712378 -0.45275244 -0.10089554 -0.52366644 -0.04448524 -0.385137 -0.21027148 0.4209341
0.44624794 -0.086204514 -0.14686827 0.41466445 -0.29982552 0.55091286 0.9437084 0.8744603
-0.32206374 -1.0481929 0.47411376 0.056667473 0.26095885 -0.34480858 -0.17230405 0.25859037
0.24331826 -0.6868025 -0.044180874 -0.39245138 -0.13556954 -0.3683158 0.18113105 0.14973752
-0.10673423 0.13252476 0.32680687 0.39636093 0.16781113 -0.6768433 0.049648255 0.07024768
-0.6564555 0.36392802 -0.5223598 -0.18602984 0.22370197 -0.22521871 0.24865204 -0.9161846
-0.30152184 0.22116113 -0.051925506 -0.020765506 -0.012203669 -0.6382038 -0.32681876 -0.17898974
0.14731589 0.5666888 0.21465471 0.64577806 0.26431412 0.07482089 0.4067164 -0.29492593
0.7067501 0.44109428 -0.4513083 0.062117185 -0.3633259 0.11162195 -0.11253342 -0.24978441
0.00052202423 0.52856207 0.50598454 0.24437895 -0.540588 -0.17197922 -0.21722624 0.55391777
0.5605711 -0.20201458 0.29033583 -0.03837918 0.07755285 -0.28769097 0.14918187 -0.53012514
-0.015457513 -0.022688424 -0.28569236 0.08685214 -0.66330117 0.2468187 -0.23476626 -0.10425824
-0.22789842 -0.08963641 -0.2691937 -0.24934639 -0.18090259 -0.13395631 0.6231095 -0.1755032
0.59182745 0.32440808 0.24021056 0.2000269 -0.10294985 0.0019855103 0.31612685 -0.007888397
0.47205278 0.19208755 0.13432398 -0.2359742 0.11385436 -0.46278682 0.7334007 -0.24128436
0.29998448 -0.13481128 -0.020719219 0.7255249 0.77010876 0.275202 -0.26170468 -0.34857675
-0.016088184 -0.091012746 -0.23521157 -0.6192078 0.14062817 0.3877677 0.23200598 -0.22065696
-0.24351846 0.97706586 -0.64330643 0.14399503 -0.046655744 -0.36141405 0.9051854 -0.089981094
-0.2883889 0.14805089 0.6063403 -0.85395706 0.073889196 0.29470095 0.3474637 -0.7678465
-0.38180622 0.101377435 -0.07161942 -0.13889235 0.34221247 -0.3023916 -0.19768816 -0.20381606
-0.055574317 0.082866095 0.053397354 0.4129458 0.067840956 -0.11460196 -0.28542677 0.08149946
-0.15942223 -0.028503435 -0.39821127 -0.29830387 0.26174855 -0.5408529 0.36959133 -0.113984324
-0.25896665 0.23266111 0.38683608 0.23766471 0.3970124 0.516262 0.5982448 0.2246269
-0.16371886 0.42020634 0.12652369 0.4532711 0.2849581 0.5982151 0.69665724 0.123064026
0.24805136 -0.21398492 0.13000473 -0.32107043 -0.6188227 -0.39877898 -0.16251995 0.14821596
-0.100109845 0.026020372 0.5986786 -0.60980606 -0.11588246 0.36967927 0.09846706 -0.11317225
0.26750034 -0.26574573 0.4813929 -0.056523226 -0.427342 -0.46649623 -0.47665492 0.5909406
-0.4060488 0.41873768 0.22195376 0.7035395 0.32287335 -0.1812628 0.20439471 0.26519954
-0.07913664 -0.05417984 0.11167336 0.36326644 0.32426473 -0.022190625 -0.6270636 0.3714058
0.31157735 0.08960075 0.3399592 0.20152353 -0.61119205 0.10017466 -0.14962782 0.64312387
-0.19544223 0.32644072 -0.2319106 0.49201795 -0.5759683 0.17520373 0.17407127 0.11590918
00000000: c68f edbe b0f7 87be 3167 61bf 4db1 af3e
00000010: a2e2 2a3e 303a 5b3f 01d8 103e 38a9 79bf
00000020: 2393 683e 2bcf e7be 52a2 cebd 010f 06bf
00000030: 2836 36bd ad30 c5be 6851 57be ad84 d73e
00000040: 9c7a e43e fe8b b0bd a364 16be e64e d43e
00000050: bb82 99be a008 0d3f e096 713f a1dc 5f3f
00000060: 8ae5 a4be 2f2b 86bf 0abf f23e 271c 683d
00000070: 669c 853e c08a b0be 7970 30be f565 843e
00000080: 6c28 793e 4ad2 2fbf 01f7 34bd 63ef c8be
00000090: bed2 0abe e393 bcbe 6b7a 393e cb54 193e
000000a0: 7a97 dabd 92b4 073e 3b53 a73e d2ef ca3e
000000b0: aed6 2b3e 9a45 2dbf f85b 4b3d 04de 8f3d
000000c0: 780d 28bf c654 ba3e 5fb9 05bf 9b7e 3ebe
000000d0: 2112 653e bc9f 66be a49e 7e3e 138b 6abf
000000e0: 1261 9abe 1078 623e d7af 54bd 6c1c aabc
000000f0: e6f1 47bc 5361 23bf ca54 a7be 1649 37be
00000100: fad9 163e 8412 113f 72ce 5b3e b651 253f
00000110: 2e54 873e b23b 993d 223d d03e 8800 97be
00000120: 93ed 343f 1cd7 e13e e211 e7be 976e 7e3d
00000130: da05 babe 0d9a e43d ec77 e6bd 7cc7 7fbe
00000140: 74d8 083a d84f 073f 3488 013f 7a3e 7a3e
00000150: fa63 0abf 521b 30be 8e70 5ebe 8ecd 0d3f
00000160: 9681 0f3f e9dc 4ebe e6a6 943e 7d33 1dbd
00000170: 07d4 9e3d 3b4c 93be 22c3 183e 48b6 07bf
00000180: 8241 7dbc 13dd b9bc 4546 92be 89df b13d
00000190: 1bce 29bf 0bbe 7c3e 9166 70be 5885 d5bd
000001a0: 345e 69be 4b93 b7bd c2d3 89be a954 7fbe
000001b0: 873e 39be d82b 09be 1b84 1f3f 1cb7 33be
000001c0: 0182 173f d118 a63e c2f9 753e dad3 4c3e
000001d0: 5fd7 d2bd 561f 023b 61db a13e 563e 01bc
000001e0: e7b0 f13e 99b2 443e 3a8c 093e 38a3 71be
000001f0: 7a2c e93d 65f2 ecbe 26c0 3b3f 3f13 77be
00000200: 9197 993e f80b 0abe 5abb a9bc 00bc 393f
00000210: d925 453f 47e7 8c3e 28fe 85be a778 b2be
00000220: 5ecb 83bc e464 babd 4ddb 70be 6784 1ebf
00000230: d500 103e 7d89 c63e fa92 6d3e e6f3 61be
00000240: e75c 79be fd20 7a3f bbaf 24bf 6f73 133e
00000250: 181a 3fbd 430b b9be 3bba 673f 0248 b8bd
00000260: b6a7 93be a79a 173e 1e39 1b3f ee9c 5abf
00000270: 3853 973d 0be3 963e c3e6 b13e 9791 44bf
00000280: 1b7c c3be f99e cf3d 34ad 92bd cc39 0ebe
00000290: 7936 af3e 12d3 9abe c46e 4abe 28b5 50be
000002a0: e5a1 63bd b3b5 a93d 2fb7 5a3d a26d d33e
000002b0: 33f0 8a3d 6fb4 eabd 7523 92be 30e9 a63d
000002c0: 953f 23be 0980 e9bc 59e2 cbbe 49bb 98be
000002d0: e803 863e 5675 0abf 133b bd3e 9d70 e9bd
000002e0: 4797 84be b73e 6e3e 610f c63e 615e 733e
000002f0: 3645 cb3e bf29 043f 9226 193f 9804 663e
00000300: eba5 27be 4925 d73e 6d8f 013e 2613 e83e
00000310: 07e6 913e a024 193f 2158 323f fe08 fc3d
00000320: 2d01 7e3e dd1e 5bbe f61f 053e 5863 a4be
00000330: 2a6b 1ebf c22c ccbe a16b 26be edc5 173e
00000340: 6406 cdbd ad28 d53c 0043 193f 401c 1cbf
00000350: c853 edbd 9a46 bd3e 19a9 c93d dac6 e7bd
00000360: cef5 883e d30f 88be 2179 f63e e684 67bd
00000370: 92cc dabe 98d8 eebe 1d0c f4be e247 173f
00000380: a1e5 cfbe c964 d63e d947 633e 2a1b 343f
00000390: a84f a53e f59c 39be d94c 513e 3cc8 873e
000003a0: 6412 a2bd aeeb 5dbd 01b5 e43d 0ffe b93e
000003b0: 0706 a63e 1dc9 b5bc 3d87 20bf e728 be3e
000003c0: 1187 9f3e 9980 b73d 220f ae3e 2f5c 4e3e
000003d0: 1577 1cbf 5f28 cd3d 0938 19be c4a3 243f
000003e0: 0222 48be 3d23 a73e f979 6dbe c7e9 fb3e
000003f0: a972 13bf 9b68 333e bd3f 323e cb61 ed3d

network_body._body_endoder.seq_layers.2.bias f4 [128]
-0.0029632305 0.022950562 0.0072984975 0.015601739 0.0039289915 0.012142539 -0.006152504 0.0047931527
-0.0131365545 0.0005286859 -0.0046777064 -0.0019009559 0.0008843318 -0.0041196 -0.0009955348 0.003299
-0.0021645315 -0.007989906 0.00066657056 -0.0049266596 0.0047629736 0.0056400574 0.0024975492 -0.0042737382
-0.0016586629 -0.014594628 -0.001220912 0.0068100644 0.009041735 0.0005856672 0.01937388 -0.0011296669
-0.014664288 0.0034732763 0.0067667165 -0.0038562515 -0.0021292788 0.0044185915 0.006636743 0.0017425747
-0.0018846827 -0.0036345497 -0.0025311643 0.013277517 0.0033920119 0.008693041 -0.0031138319 -0.009606323
-0.003061617 0.011414245 -0.0058110664 0.003902885 -0.005733329 0.010499087 -0.010082688 0.009272212
-0.0010973719 -0.008108976 -0.0039591794 -0.0083650425 0.0011159147 0.0052768425 -0.01039596 -0.00025467406
0.0035395545 0.007272596 -0.013964925 -0.0077605355 -0.0018641823 -0.0026380904 -0.0013103187 0.0028184168
0.0007375666 -0.010960024 -0.010396432 0.00017250954 0.007838911 -0.013439482 -0.0028038835 -0.0057442584
0.006187101 -0.010487083 0.0052622557 -0.02073914 -0.0038729652 -0.00084484706 0.0023984162 0.00033763098
-0.009792479 0.0108874645 -0.004973481 0.011918863 -0.023312481 0.0051437546 -0.0023385957 0.0022486018
0.02291139 0.0012146841 0.00016642793 0.0012739261 -0.005682217 -0.0051008007 -0.0055686217 -0.0056978613
-0.0017692931 -0.0011165662 -0.0085671665 0.0009590798 -0.008456122 0.00039934146 -0.012496775 -0.0043087425
0.0063505736 -0.0034695645 -0.004317547 0.011486115 0.0049079303 -0.003878822 0.011030146 0.0078934375
-0.011419274 -0.0016941674 -0.010015623 -0.0038937514 0.012688087 -0.007628374 0.003128568 -0.008561968
00000000: c232 42bb d102 bc3c 3c28 ef3b 709e 7f3c
00000010: c5be 803b 80f1 463c f29a c9bb e10f 9d3b
00000020: b43a 57bc 8397 0a3a 7247 99bb 7f29 f9ba
00000030: 81d2 673a b6fd 86bb 9b7c 82ba 0934 583b
00000040: d0da 0dbb 18e8 02bc cbbc 2e3a d16f a1bb
00000050: b812 9c3b 3bd0 b83b ecad 233b b70a 8cbb
00000060: 7e67 d9ba 4e1e 6fbc 0207 a0ba f626 df3b
00000070: c923 143c 7687 193a f9b5 9e3c 5511 94ba
00000080: 7b42 70bc e89f 633b 55bb dd3b 2ab9 7cbb
00000090: 5f8b 0bbb d5c9 903b 0979 d93b 1b67 e43a
000000a0: 7507 f7ba a031 6ebb e4e1 25bb f189 593c
000000b0: 844c 5e3b 426d 0e3c 6e11 4cbb d763 1dbc
000000c0: 69a5 48bb d002 3b3c c26a bebb 8bc7 7f3b
000000d0: a6de bbbb 5d04 2c3c dc31 25bc 7aea 173c
000000e0: b1d5 8fba 83db 04bc 01bc 81bb 880d 09bc
000000f0: e243 923a 5de9 ac3b d153 2abc c685 85b9
00000100: dff7 673b f54e ee3b 24cd 64bc 174c febb
00000110: 9457 f4ba d0e3 2cbb 00bf abba 30b5 383b
00000120: 4259 413a ac91 33bc cc55 2abc ade3 3439
00000130: c76e 003c 4631 5cbc 5cc1 37bb 553a bcbb
00000140: 2abd ca3b 04d2 2bbc 006f ac3b 21e5 a9bc
00000150: 93d1 7dbb ba78 5dba bf2e 1d3b 1004 b139
00000160: a270 20bc 5661 323c 95f8 a2bb 5647 433c
00000170: d1f9 bebc f18c a83b 2043 19bb 475d 133b
00000180: abb0 bb3c 0936 9f3a 2883 2e39 def9 a63a
00000190: e431 babb 9e24 a7bb fc78 b6bb 20b5 babb
000001a0: a0e7 e7ba bf59 92ba 4d5d 0cbc c26a 7b3a
000001b0: 8c8b 0abc b45e d139 46bf 4cbc 5a30 8dbb
000001c0: 7918 d03b a261 63bb 367a 8dbb 4230 3c3c
000001d0: b4d2 a03b d633 7ebb c9b7 343c 7a53 013c
000001e0: e817 3bbc d30e deba 9118 24bc 4f2e 7fbb
000001f0: b2e1 4f3c 70f7 f9bb a908 4d3b 7f47 0cbc

network_body._body_endoder.seq_layers.2.weight f4 [128, 128]
-0.07036774 -0.035240345 -0.059655897 0.07429249 -0.03874212 0.047881577 -0.028334904 -0.024240455
-0.0050305673 0.067930765 -0.078169905 -0.08618161 0.033041723 0.021296743 0.047532354 0.035920344
0.02708728 0.1894928 0.033899292 0.108079724 -0.117124334 -0.024499409 -0.06536911 0.015496786
0.14537945 0.1062518 -0.0844786 0.014129729 0.0036089106 -0.15074149 0.007857415 0.11923849
0.12898181 -0.012741014 0.11299024 0.04364367 0.07094325 0.07453334 -0.09302488 0.074360244
0.10701017 -0.1645856 -0.14445195 -0.1480043 0.10572423 -0.009067987 0.025440663 0.09262699
0.03424602 -0.00979894 0.093438305 -0.108639225 -0.14950624 0.07704819 -0.049579043 -0.07863908
0.008557772 -0.05147391 0.036989883 -0.06357573 0.019972602 -0.045247875 0.05337667 0.010630974
-0.114004 0.024542497 -0.07970727 -0.008645207 0.059192833 0.101201 0.022722648 -0.061085556
0.12704922 0.12894122 0.059123315 -0.0805973 0.07724359 -0.025175966 -0.0068486724 -0.064066544
0.04168578 0.042697135 0.07512822 -0.06607202 0.021715645 0.071370445 0.08546159 0.12074339
0.07061723 0.12130533 -0.13850921 -0.022052616 0.04587623 -0.07404113 -0.03860734 0.22270186
0.018700931 0.044108324 0.1454512 -0.00052122143 -0.15795064 -0.08568338 -0.026387028 0.1025293
0.12524892 0.098089285 0.007377889 0.10525744 0.04798439 0.05468798 -0.14576241 0.048516523
-0.08461489 -0.098802164 -0.022678472 0.048828226 0.0082430905 0.14532967 0.021484312 0.0051935404
0.13428417 0.14342552 0.04629644 -0.15855525 -0.08952236 0.15184832 0.01810597 -0.023773177
-0.0010718153 -0.024657736 -0.03710525 0.02783233 0.07862928 0.058835123 -0.11616255 0.022383371
-0.10021162 0.031290036 0.01316192 0.021915868 0.05622527 0.10256353 0.071346484 0.0059149377
-0.2452554 -0.08842562 0.06455129 -0.006656856 0.007863029 -0.08413898 -0.13069011 0.07042691
0.041387673 -0.00076195574 0.10610353 0.0067145606 -0.0070373043 0.043159362 -0.038295012 0.099649005
-0.0319807 0.07103424 -0.04476317 -0.0887645 0.068414226 -0.065137945 0.13216974 -0.2009154
0.19879273 -0.07179419 0.069022186 0.069911815 0.042381786 -0.09808558 0.06917403 0.045408294
-0.07331262 -0.083299525 0.04803651 -0.1838576 -0.19823274 -0.0691473 0.09135359 0.022155538
0.12602168 0.039699726 -0.16113923 -0.06137159 0.089327045 0.15485252 -0.15130901 -0.044863343
0.030951705 -0.021081317 -0.04673894 0.0018347639 -0.00053975644 -0.08896212 -0.013903816 0.13344711
0.030307868 0.032811776 0.10847706 -0.041230727 0.028209066 0.04039313 0.03956625 -0.122345224
-0.078971654 0.005176947 0.10448986 0.012587966 -0.16985004 -0.09372546 -0.046080515 0.010002968
0.05104896 0.0855012 -0.051436275 0.07967649 -0.0013631912 -0.03790379 -0.06775809 -0.028927848
-0.06287846 -0.061823633 -0.09720219 0.09066006 0.11197622 -0.072205715 0.03210359 0.003873427
-0.11878514 -0.07568691 -0.0152610885 -0.068931505 -0.089996696 0.09357767 0.22433814 -0.034351774
-0.11459227 -0.05898391 -0.0780275 0.122715086 -0.03527595 0.08997233 0.06413369 0.11680114
-0.15192717 0.010888644 -0.011899645 0.026860341 0.11066208 0.07550802 0.068885565 -0.03307619
00000000: f61c 90bd 2e58 10bd be59 74bd a926 983d
00000010: 0fb0 1ebd 791f 443d 9a1e e8bc eb93 c6bc
00000020: 75d7 a4bb 491f 8b3d 8b17 a0bd fc7f b0bd
00000030: c256 073d 8276 ae3c 49b1 423d 3621 133d
00000040: 25e6 dd3c 670a 423e fcd9 0a3d e758 dd3d
00000050: e2de efbd fcb2 c8bc 3de0 85bd 3be6 7d3c
00000060: 5ade 143e 8b9a d93d 1e03 adbd 6180 673c
00000070: 7983 6c3b fa5b 1abe 63bc 003c 4f33 f43d
00000080: cf13 043e b0bf 50bc 6d67 e73d b4c3 323d
00000090: b24a 913d f0a4 983d d483 bebd 2f4a 983d
000000a0: 2628 db3d 2189 28be 36eb 13be 708e 17be
000000b0: f285 d83d e591 14bc f068 d03c 38b3 bd3d
000000c0: 8e45 0c3d bc8b 20bc 955c bf3d 3e7e debd
000000d0: 2a18 19be 71cb 9d3d 6513 4bbd 870d a1bd
000000e0: e635 0c3c 4fd6 52bd b482 173d fe33 82bd
000000f0: 959d a33c d655 39bd 7fa1 5a3d 892d 2e3c
00000100: ee7a e9bd 590d c93c 913d a3bd a0a4 0dbc
00000110: 2f74 723d 7842 cf3d d924 ba3c d934 7abd
00000120: 3119 023e 2b09 043e 4a2b 723d 3210 a5bd
00000130: e331 9e3d d43d cebc d46a e0bb 5235 83bd
00000140: b5be 2a3d 31e3 2e3d d3dc 993d c450 87bd
00000150: 02e5 b13c ab2a 923d 7c06 af3d 4f48 f73d
00000160: c49f 903d ee6e f83d 5cd5 0dbe b0a7 b4bc
00000170: b7e8 3b3d e0a2 97bd bb22 1ebd f50b 643e
00000180: b232 993c eeaa 343d 29f1 143e 94a2 08ba
00000190: d0bd 21be c57a afbd 9c29 d8bc e2fa d13d
000001a0: 4141 003e 09e3 c83d 38c2 f13b 3691 d73d
000001b0: 488b 443d 8100 603d be42 15be 43b9 463d
000001c0: 924a adbd ca58 cabd 34c8 b9bc 1b00 483d
000001d0: 070e 073c 4dd1 143e deff af3c 932e aa3b
000001e0: ca81 093e 24de 123e 56a1 3d3d 4f5c 22be
000001f0: 8057 b7bd 207e 1b3e f952 943c f7bf c2bc
00000200: 277c 8cba 05ff c9bc adfb 17bd a000 e43c
00000210: 6308 a13d 19fd 703d a2e6 edbd 555d b73c
00000220: c03b cdbd fb29 003d 18a5 573c e888 b33c
00000230: 784c 663d d40c d23d 1b1e 923d 18d2 c13b
00000240: 3b24 7bbe 7e18 b5bd 7733 843d c121 dabb
00000250: efd3 003c 0f51 acbd a1d3 05be fc3b 903d
00000260: 1f86 293d fcbd 47ba cf4c d93d d105 dc3b
00000270: 3099 e6bb dfc7 303d 3bdb 1cbd c714 cc3d
00000280: 32fe 02bd 667a 913d 9659 37bd 2aca b5bd
00000290: c21c 8c3d 0b67 85bd 8157 073e c4bc 4dbe
000002a0: 5290 4b3e d508 93bd 815b 8d3d ed2d 8f3d
000002b0: 8698 2d3d 18e1 c8bd 1dab 8d3d 0cfe 393d
000002c0: ed24 96bd f198 aabd eec1 443d 2b45 3cbe
000002d0: 86fd 4abe 1a9d 8dbd 9717 bb3d 887f b53c
000002e0: d40b 013e 2e9c 223d af01 25be c760 7bbd
000002f0: 19f1 b63d a991 1e3e c0f0 1abe a0c2 37bd
00000300: 6e8e fd3c bab2 acbc 5571 3fbd 767c f03a
00000310: 717e 0dba c631 b6bd d5cc 63bc 5ca6 083e
00000320: 3548 f83c a465 063d 3929 de3d 8de1 28bd
00000330: b316 e73c 4473 253d 3810 223d 2290 fabd
00000340: e4bb a1bd 61a3 a93b c8fe d53d c23d 4e3c
00000350: 2bed 2dbe 22f3 bfbd ecbe 3cbd 7de3 233c
00000360: b718 513d 411b af3d d8ae 52bd 6d2d a33d
00000370: 1bad b2ba 0141 1bbd c1c4 8abd 18fa ecbc
00000380: 6cc6 80bd c73a 7dbd f111 c7bd fbab b93d
00000390: ca53 e53d 97e0 93bd 0e7f 033d 52d9 7d3b
000003a0: a045 f3bd bd01 9bbd a509 7abc f62b 8dbd
000003b0: 3050 b8bd a6a5 bf3d e6b8 653e 72b4 0cbd
000003c0: 5aaf eabd 1d99 71bd e2cc 9fbd 0c52 fb3d
000003d0: 847d 10bd 6a43 b83d 8658 833d 7035 ef3d
000003e0: cc92 1bbe 4866 323c bbf6 42bc 380a dc3c
000003f0: cda2 e23d f3a3 9a3d e013 8d3d e67a 07bd
