Assets/config10m.onnx (onnx, 273335 bytes, 5 tensors)

action_model._continuous_distribution.mu.weight f4 [1, 256]
00000000: faab c03d 0e38 03be 11cb babd 0d94 cebd
00000010: 76dc 4bbe 9c06 8e3d 6b10 01be 1f11 93bd
00000020: 6b66 c0bd 01ac 3cbc 6876 133d 08e3 edbc
00000030: c429 cbbd 4067 f53c 7644 4ebd 7527 5f3e
00000040: 0c0a 583b e9eb f23d 6d4f 7bbd 043a bbbd
00000050: 4810 8f3d f713 c53c f4f7 70bd c6a3 27bd
00000060: 49ed 8dbd aae5 38bd 3856 21bd fe81 a33d
00000070: 69ab 2a3d 2c69 f1bd 4a81 bebd 1a0e 88bd
00000080: f867 66bd 5544 9dbd a137 7dbd c035 23bc
00000090: 81a5 ab3d 4b51 cf3d 8685 9abd 62b4 0fbd
000000a0: 8685 8fbd 1985 163d 6bf7 32bd c471 8cbd
000000b0: 0ba4 d1bd f350 89bd 762d 85bd 837d 21bd
000000c0: d9e7 5fbd 9dc8 93bd 33ad 28bd 2dff da3c
000000d0: b3e4 813d b23a 64bd 5a96 afbd b1a2 d0bd
000000e0: 4074 bd3d 54f1 d2bc f045 37be 2190 e7bc
000000f0: 0c2f 233d 8975 c53c dc49 23bd 30c2 4bbd
00000100: 4487 c93c 2547 b3bd b8f6 1f3d fa6a cdbd
00000110: eeb2 c9bd 3822 e537 af83 35bd 2460 d3bd
00000120: 8a2f 2abd 0003 9cbd b918 353d 8f36 16bd
00000130: 2101 2fbd 1f51 dcbd 8817 233e 3e0a 13bc
00000140: b39b b5bd 3b2a c8bd 8920 3fbd 0f10 6e3d
00000150: bd8f b73d ce15 0dbd 6847 37be 8a90 9ebd
00000160: 900b 44bd ac45 c8bd 7861 12bd beb4 3ebe
00000170: 0db7 1cbe d47f 3ebc 8622 e8bd 8043 ddbd
00000180: 5c39 3dbd f2e1 cb3c 9458 4ebd 506e c5bd
00000190: f074 1c3e 0b04 d8bc 0fb3 febd 775f 12bd
000001a0: 1f56 d7bd a69b 9ebc fbce dfbd 5709 40bd
000001b0: 5663 693c 45b9 1bbe 5682 07be 20ed 97bc
000001c0: c391 c5bd ea45 b73c f697 50bd 7353 4ebd
000001d0: f44e 06bd 362a 4cbd f82e cbbc 2271 f0bd
000001e0: 9081 673d bf3a f3bd ac27 08be 5312 48be
000001f0: 4de5 b6bd e293 993d f630 3d3b 05a2 19bc
00000200: 9e31 e73d fa2d 0abe 8adf 8e3d 1c76 3fbd
00000210: 30df 3dbd 6787 a53d 699c 00bd 148b b5bd
00000220: 6ed5 64bd 3322 bb3d 5977 9fbe a918 2cbd
00000230: 3061 b33d d983 88bc 3d95 03bd 4f34 6fbd
00000240: 5dbe 133d e29b 78bd d9b2 563d 6e90 cdbd
00000250: ebc1 e6bd 38a2 9ebd 67c5 bebc f2c9 c5bd
00000260: 13c2 0ebd 3c23 0dbd ae20 dcbc ccd2 b6bc
00000270: aaba c4bd 1bf1 7a3d 6e73 9bbd 66ac 6bbd
00000280: c0f6 8bbc 1c81 a3bd c621 73bd f2a0 5bbd
00000290: 0d05 5fbd dc04 133d 7bd1 a8bc 76f8 d8bd
000002a0: bf51 6fbd bf24 aebd a610 31be ec26 75bd
000002b0: aff6 41bc 3a37 f93d 42e0 4bbd 1e2d 2c3e
000002c0: 9699 cdbd 8854 27be 4be3 73bd d260 30be
000002d0: 1856 99bd dd00 8fbd 7799 5fbd 6a13 94bd
000002e0: 6a32 6cbd 58d1 60ba abde 9abd 344d f1bd
000002f0: 1bec 733e d183 1d3d 1095 63bd 45ec 403d
00000300: dc6e 85bd ebbf 32bd 0b4b 6dbd 7ed7 10bd
00000310: 0f18 1b3e 16ed 6fbd 58c5 b2bd 4fe3 98bd
00000320: 56b6 3c3d 5358 7fbd c2dd 093e fb7b cdbc
00000330: 8551 33bd f852 84bd 6176 24bd 362f 8a3c
00000340: 5eda 66bd b725 99bd b0a9 8bbb ffa2 23bd
00000350: 124e a4bd 9685 81bd 06a8 8fbd c422 afbd
00000360: 8cbd cc3c 5e51 ac3d 7f1c 013d 6b37 3fbd
00000370: 69ce bebd 5517 a5bd aa73 bb3d f456 25be
00000380: 12db aa3b 4f44 213d 68d2 91bd f923 6c3c
00000390: 053c 91bd 48bb 5e3d 6dc5 0cbd 2adb 9bbd
000003a0: 1946 88bd fc8d 91bd 7311 0dbe 50c6 aebc
000003b0: 684d 163d e8a1 9f3d 555f 58bd 35c8 38be
000003c0: 62b8 333c 8cc3 59bd 6fbf d7bb b9ef 8a3d
000003d0: bb55 323d fcb2 94bd 9da9 59bd a1b2 973d
000003e0: 7943 803d da8d 2fbe f1a8 123e d040 03bd
000003f0: 8519 f83c 82c0 5abd a81a d13c af84 0cbd
0.09407802 -0.12814352 -0.09120763 -0.10086832 -0.19908318 0.069348544 -0.12603919 -0.07181
-0.09394535 -0.011515618 0.036001593 -0.029038921 -0.099200755 0.02995646 -0.05035826 0.21792395
0.0032964973 0.118614025 -0.061355043 -0.09141925 0.06985527 0.024057372 -0.058830217 -0.04092767
-0.06930024 -0.0451409 -0.039388865 0.079837784 0.041667376 -0.11787638 -0.09302004 -0.06643315
-0.056251496 -0.07679049 -0.06182063 -0.0099615455 0.08381177 0.10122927 -0.07544999 -0.035084136
-0.070078894 0.036748026 -0.043692987 -0.068576366 -0.10236367 -0.06704893 -0.065028116 -0.039426338
-0.054664467 -0.07215998 -0.0411808 0.026733005 0.06342449 -0.05572004 -0.08573599 -0.10187281
0.092506886 -0.02574984 -0.17897773 -0.028266968 0.03983979 0.024103897 -0.03986536 -0.04974574
0.024600632 -0.08753804 0.03905365 -0.1003017 -0.09848581 2.7314862e-05 -0.044315036 -0.10321072
-0.041549243 -0.0761776 0.04421303 -0.036673125 -0.042725686 -0.1075766 0.15926945 -0.00897461
-0.08867588 -0.0977368 -0.046661887 0.058120783 0.08962963 -0.034444623 -0.17898333 -0.077424124
-0.04786259 -0.09778914 -0.035737485 -0.18623635 -0.15304203 -0.011627156 -0.1133471 -0.1080389
-0.04619728 0.024888013 -0.050377443 -0.09640181 0.15278983 -0.026369115 -0.124364965 -0.035735574
-0.10514473 -0.019361328 -0.1092815 -0.046883907 0.014244875 -0.15207393 -0.13233313 -0.018545687
-0.096469425 0.022372205 -0.05092617 -0.050372552 -0.03279014 -0.049844943 -0.02480267 -0.11740328
0.056520045 -0.11876439 -0.13296384 -0.1953824 -0.089304544 0.074989095 0.0028868294 -0.009377007
0.112887606 -0.13494101 0.069762304 -0.046743497 -0.046355426 0.080824666 -0.031399164 -0.08864418
-0.055867605 0.09137382 -0.31145743 -0.042015705 0.087587714 -0.016664432 -0.032124747 -0.058399495
0.036070216 -0.060695536 0.052416656 -0.100373134 -0.11267456 -0.077457845 -0.023287488 -0.09657659
-0.034853052 -0.03445743 -0.026871052 -0.022317313 -0.09605916 0.061265092 -0.07590376 -0.05753746
-0.017085433 -0.0798361 -0.05935838 -0.053620286 -0.054448176 0.035893306 -0.0206077 -0.10594265
-0.05842757 -0.085031025 -0.17291507 -0.059851572 -0.011838599 0.12168737 -0.049774416 0.16814086
-0.1003906 -0.1634084 -0.059542935 -0.17224434 -0.07487124 -0.069825865 -0.054589715 -0.072302654
-0.057665266 -0.00085761165 -0.07562002 -0.117823035 0.23820536 0.038455788 -0.05556208 0.047100324
-0.065152854 -0.04364006 -0.057932895 -0.03536176 0.15145896 -0.058575712 -0.087290466 -0.07465231
0.046072327 -0.062340092 0.134635 -0.025083533 -0.043778915 -0.064611375 -0.040151957 0.016868215
-0.056360595 -0.07477897 -0.0042621717 -0.039950367 -0.08022703 -0.063243076 -0.0701447 -0.08551553
0.024992727 0.08413957 0.031521317 -0.04668371 -0.09316713 -0.08061091 0.091529205 -0.16146451
0.0052141035 0.039371785 -0.0712021 0.014412873 -0.07091526 0.054377824 -0.034367967 -0.076101616
-0.06653995 -0.071071595 -0.13776188 -0.021334797 0.036694914 0.07794553 -0.05282529 -0.18045123
0.010969253 -0.053165004 -0.0065841 0.06784005 0.04353879 -0.07260701 -0.05314027 0.07407118
0.062628694 -0.17143956 0.14322259 -0.032044232 0.030285606 -0.053406246 0.025525406 -0.034306224

network_body._body_endoder.seq_layers.0.bias f4 [256]
00000000: ba50 06bd 5394 253d bf5d 39be 0111 48be
00000010: 3c08 8fbd accd 8abc db81 99bc 5551 623c
00000020: 3b17 aebd 07cc 673e b3d3 793d 593b 6cbd
00000030: 938d c0bd 7c8a 763d acf2 0fbe c01e 483d
00000040: 555d 143e c8a8 063d 68bc 5dbe 7f37 59be
00000050: dcdb 04be 2a79 373d 0a1e a43d a6bf 5ebe
00000060: 68d5 f1bd 6a19 04be f432 50be 9d5c fe3d
00000070: e512 083d 41d5 ce3d 715f ecbd 026f 6ebd
00000080: a9d5 87be 0039 2dbe 4510 02be eaae 9bbd
00000090: fe16 21be 9b21 263e 4c71 38bd 9b90 b2bb
000000a0: 25aa 31be 1c75 cbbc 51c0 973e 3f3f f7be
000000b0: 45b3 59bd de6f 27bc ce97 c0bc ac3f 8cbe
000000c0: 0953 6cbe 334d 4e3e 2927 16be cb3d e9be
000000d0: de6a 9abd ce2d 89bd 2219 6ebe ef65 b83c
000000e0: e61e 8f3e db62 74bd 1a64 81be 900d d6bb
000000f0: c43c 93bd a3ca 98bb 3130 3e3d 0151 0fbe
00000100: 2d30 11be 38bd e9bd 7402 f1bd af02 bcbd
00000110: fa2b 8b3d 6902 8dbb 1ed6 09be 4ae3 21be
00000120: 29b6 473e 99c2 bcbc cee3 84be e6c6 db3d
00000130: 7581 3bbd 1f3c 3dbe 516b a43d cacf 50bd
00000140: 9f52 7abe 8d1c 823d de31 7cbd 4643 0abe
00000150: 9b54 b83d 421e 8bbd a246 28be 57f4 c83d
00000160: e637 39bd da50 a4be 3f8d cdbd 8ab3 aabc
00000170: 0b32 113d a6f3 5d3e 3fcd 7d3d b76a 73bd
00000180: 808e 62bd 2a03 3ebe b54c bc3c 99a1 09be
00000190: bde8 25be f340 3abe 09d3 33be c441 6fbd
000001a0: 12b7 21be e3d0 a53c 4639 f93d b86c 5dbe
000001b0: 80e2 82bd 0692 7fbc c1c2 2fbd f0f1 2a3e
000001c0: 7b62 de3d 8a76 b33d 50a9 d0bd cd68 31be
000001d0: fbe5 d9bc 3895 88be c25d 5ebe cd98 ff3c
000001e0: 7c75 93bc 441b dcbd 14c0 823d 569f 373c
000001f0: 75bd 25be f282 4b3e 6c8f 343b 313c 813d
00000200: 2da8 8ebc ee0b 553c 3725 2dbe 0ba8 b13b
00000210: 8401 0a3e b051 943d b6f2 72be f9a4 36be
00000220: 7dff 2c3e fe58 703e 18b4 773c 50d9 4bbe
00000230: c9f6 84be a854 07be 5356 17be 580f 703d
00000240: 9538 3abe ce22 753a 32c0 23bd 8e1b 0c3c
00000250: 4f7c e33b bf05 12be beaa 2dbd 6df3 753c
00000260: 5715 13be c7d0 8ebe f0c9 af3d d84d 1fbe
00000270: afe9 babd 41ab fd3d b24b 723d cb04 533e
00000280: c349 0c3e 98e5 b73d ce66 f7bd 5345 f9bc
00000290: 7800 b43c 96dc 1cbd aedb d63d 0077 63be
000002a0: 543a d6bd 8ff9 c0be 5bfd 573e 27b6 3e3c
000002b0: 85a6 14be 9d17 94be c1c4 9a3d 9ddb b43c
000002c0: 2d43 1dbd 0beb 2ebd 7006 b4bd 8df5 20be
000002d0: 9237 113b c3d1 2b3e 2d5f ed3d 237e 1abe
000002e0: d35a 3e3e f636 2c3d 0e59 c3bc 8290 00bc
000002f0: 51fc 32bd 7ec9 f2bd 4c18 70be 7d9f 02bd
00000300: bb23 86be 64de b93d 7f04 5abe 1219 04be
00000310: 2044 40bd 2dda 98be b3e9 09be d2e3 e1bc
00000320: 25d0 e5bd 25a8 a2bd 7a09 54bd 0a37 f8bd
00000330: 1355 84be b9de 69be b089 70bc c237 d63d
00000340: 2b8f c7bd 536b d9ba e75c 0abd 3c98 2cbe
00000350: 6786 62bd 5751 193c 2295 babc b8d2 55bd
00000360: 645d 473c 0969 66bd 39a1 c1be bbb9 aabe
00000370: 1a49 c13b b4fe 62bc 460a 3b3e adf2 753d
00000380: c47b 2bbe b4a7 18bd 02bd c0bd 711c 08bd
00000390: 71ab 01be 1f5c 4abd 65df 9ebd 7adc 0c3e
000003a0: 3bb1 953d 1a9b 77be 54d3 e1bc 03fe 15be
000003b0: ca28 0ebe 2db7 f7bd 9ae9 e03d 0e77 1b3e
000003c0: 2b2e 6bbe 63cd 193e cdd4 2abc b3ac ecbd
000003d0: 15c3 fc3c a01b 5abe 6802 0bbe aad3 9abd
000003e0: 22cd 8bbe bc42 433c a5e2 85bd 604a fbbd
000003f0: 1527 04be 5aff 79bd 8ba8 2cbe 666d 31bd
-0.03279183 0.040424656 -0.18102168 -0.19537736 -0.069839925 -0.016943775 -0.018738678 0.013813336
-0.085005246 0.22636424 0.060992908 -0.057673786 -0.09402003 0.060190663 -0.14057416 0.04885745
0.14488728 0.032875806 -0.21653903 -0.21212576 -0.12974495 0.044793285 0.08013542 -0.21752796
-0.11808282 -0.1290032 -0.20331937 0.12420008 0.033221144 0.10099269 -0.115416415 -0.058211334
-0.26530197 -0.16916275 -0.12701519 -0.076017216 -0.15731427 0.16223757 -0.045029923 -0.005449367
-0.17350061 -0.024836116 0.29638913 -0.4829044 -0.05314948 -0.010219542 -0.023509886 -0.27392328
-0.2307855 0.20146637 -0.14663376 -0.45554957 -0.075399145 -0.0669819 -0.23251775 0.022509543
0.2795326 -0.05966459 -0.25271684 -0.0065323785 -0.071893245 -0.004662828 0.046432678 -0.13995744
-0.14178534 -0.11413044 -0.11768046 -0.09180199 0.06795497 -0.004303266 -0.13460585 -0.1580936
0.19503082 -0.02304201 -0.2595505 0.10731296 -0.045777757 -0.18479966 0.080282815 -0.050979413
-0.2444558 0.06353102 -0.061570995 -0.13502225 0.09000512 -0.067928806 -0.16433194 0.09812229
-0.045219325 -0.32092935 -0.10036706 -0.020837564 0.035448115 0.21674976 0.061963316 -0.059427943
-0.05531168 -0.18555894 0.022985796 -0.13440551 -0.16202064 -0.18188839 -0.17560972 -0.05841233
-0.15792492 0.020241207 0.12169127 -0.21623504 -0.06390858 -0.01559878 -0.04291034 0.16693854
0.108586274 0.08762844 -0.10188544 -0.17325135 -0.026598921 -0.26676345 -0.21715453 0.03120079
-0.018000357 -0.10747388 0.06384292 0.011207422 -0.16185553 0.1987417 0.0027551306 0.06310309
-0.017414177 0.013003333 -0.16908728 0.0054216436 0.1347714 0.07242143 -0.237254 -0.1783637
0.16894336 0.23471448 0.015118621 -0.19907117 -0.25969532 -0.13215888 -0.14779024 0.058608383
-0.18185647 0.00093511946 -0.039978214 0.008551491 0.006942309 -0.14260004 -0.04239916 0.0150116505
-0.14363609 -0.2789366 0.085834384 -0.15557039 -0.09126603 0.1238618 0.05915422 0.20607297
0.13700013 0.089793384 -0.12080155 -0.030428564 0.02197288 -0.038296305 0.10491119 -0.22213364
-0.10460344 -0.37690398 0.21092741 0.011640108 -0.14516647 -0.28924266 0.07557059 0.022077376
-0.038394142 -0.042704623 -0.0879029 -0.1571867 0.0022158367 0.16779236 0.11590419 -0.1508718
0.18589334 0.042044602 -0.023846176 -0.007846953 -0.04369766 -0.11854838 -0.23446769 -0.03189038
-0.26199135 0.09075621 -0.21290778 -0.12900189 -0.04693997 -0.29853955 -0.13468055 -0.027574454
-0.11221341 -0.07942227 -0.05176685 -0.12119873 -0.25846156 -0.22838868 -0.014681265 0.10459854
-0.09744104 -0.0016587771 -0.033780005 -0.16854948 -0.055303957 0.009357772 -0.02277619 -0.05220291
0.012168262 -0.056252513 -0.37818316 -0.33344826 0.005898607 -0.013854671 0.18265638 0.060045887
-0.16746432 -0.03726931 -0.094110504 -0.03323025 -0.12663056 -0.04940426 -0.07757453 0.1375598
0.07309195 -0.2418026 -0.02756659 -0.14647679 -0.13882747 -0.12095485 0.10982056 0.15182135
-0.2296683 0.15019755 -0.010426712 -0.11556377 0.030854741 -0.212996 -0.13575137 -0.07559903
-0.2730494 0.011917766 -0.0653737 -0.12270045 -0.12905534 -0.061034538 -0.16861169 -0.04331722

network_body._body_endoder.seq_layers.0.weight f4 [256, 6]
00000000: 5b5d 9e3d 2947 223e a4c8 7b3e e134 0dbe
00000010: 3d1d bebe caa0 103f c77f 92be 73e1 18bf
00000020: 57b5 9a3e a310 b83d 44ba be3e f974 4f3e
00000030: 495a e53d 50b5 1b3f 03bb e13d 085f 473e
00000040: ed44 59be 2924 db3e c746 e7be 6cbc 53be
00000050: 8fb8 bfbe 62cc 523c bfed 15bf d4b6 ff3d
00000060: d43b cc3e a250 0e3f 906a 7c3e b695 73be
00000070: 6916 253f 0d35 d3be 3269 abbe 4ea9 9f3f
00000080: 7080 6cbe 70b1 223f f6cc f73d e0ef 2f3f
00000090: 8818 20be 9456 e0be 0795 c5be 1baf 2a3e
000000a0: c97c b6be 64c8 6ebe f478 1c3e 30fd 1bbe
000000b0: 2eaf 80bd 077c 10bf 73cc f5bc 3ae8 283d
000000c0: 6e66 49be ba53 753f 8eb6 2b3e 3806 09be
000000d0: d38f 0dbf 42db b5be 17a7 86be 0221 5cbf
000000e0: 6e39 90be 26b4 3a3f f4d2 aabd 10bf 933e
000000f0: 24a9 473d da10 3c3f 51ca 593c 34c7 aebe
00000100: 3b3e 32bf b178 9f3e dcb8 47be 575c 03bf
00000110: d3ed 74bf e789 a23b 5e88 8b3c 2f52 ad3e
00000120: 2aba 263d 6d2e 363f b4ae 723e 5a5e b03c
00000130: b0e9 e7bc 546b f5bd 1fad e23e 7afa 083e
00000140: 56de 8f3e 61f9 edbe a188 eb3e 1628 663e
00000150: b2c3 083c c813 d93e 11ef adbd f3fe 8c3e
00000160: f304 93be 9a45 813e 13a7 4abe eadb a8be
00000170: 7827 0dbf 1dc4 6b3e 94ae a3bd a76f 51bd
00000180: 897b c13e 98d9 2d3f 5449 8d3e 9f3f 19bf
00000190: 4907 ffbe 489c cebe e63d 263f 9c16 05be
000001a0: c58b 293d 918c 1fbf a629 033f 0405 d8be
000001b0: 3ea4 1f3e 9bba dabe dd27 8e3e e658 a03e
000001c0: 184c dabd f576 8ebf 6f9d edbe 1d0b 583f
000001d0: 7514 f63d 4bb7 903e 553b c5bd 7bf6 7b3e
000001e0: ae65 b23c e733 1bbf bd7d 753e fffc 303f
000001f0: 4efb a5be ed77 81bb e041 15be bff6 babe
00000200: 5f4f 9cbe 4a1b 003f 17ab 133e 3768 833e
00000210: c244 d63d 8f52 a5be 01dd 7dbe e19e 47be
00000220: d4a0 ed3e 61b2 82be 66b6 d63d 7476 b43e
00000230: 4eb9 b93e 0b58 2d3c c95f ccbb 65c2 d73e
00000240: de0f d83c 4a61 c63e 996a e43e 3f08 8b3d
00000250: 7108 99be 04be bcbc f1c1 483f 99fa 7b3d
00000260: b705 f73b fc98 28be 3e37 093f 5610 033f
00000270: 1f7a 3f3d 67e5 cfbc d4bb d53d 7db1 773d
00000280: 7aab 98be d432 2fbf 78de 20be 0bf5 d6be
00000290: 44bf 093e 5ef7 373d 8840 5f3e 6c07 a73f
000002a0: 5c12 a13c dc0a 353f 9cd8 233e 71c0 533f
000002b0: 5374 9fbd 754a a93d a73d bd3e c3c5 46bf
000002c0: 41a8 10bf f8f2 6abe 1e27 023f d3f1 d93e
000002d0: 428a 473f e3b4 88bf 8fdc 0d3f 5740 05bf
000002e0: 12f1 9cbe e85f c6bd f92b 35bf 4535 46bf
000002f0: 2a26 4b3e 0ab1 373f fe84 733d 9c8e 0b3f
00000300: b01e 463f 1f47 863d a4d7 f1be 8713 05be
00000310: 6e30 aebe 5016 ce3d c1c4 e53e 0898 183e
00000320: 84ea 9b3e c057 4abe 3de5 28bf 5456 1d3b
00000330: 217d e3bc 8a92 213f 28fb b4bd 715a 55bd
00000340: f7e2 ebbd a9d3 03be 7ec8 3e3e 49e3 f73e
00000350: 3de8 d63d eaab 81be d6c6 88be 7364 803e
00000360: 3dc7 21bd afa8 65be 1507 a53d 50fc 76be
00000370: 79c2 863e 929b b13e 330a 0a3e 4164 b1be
00000380: c554 2fbf 3f33 1cbf e033 bebe acec 4ebe
00000390: 25c0 373e e5f9 d53e 18fd a3be 447b eabd
000003a0: 5faa 47bf 9901 363d b80e 133f f6a6 5e3f
000003b0: a2ed a43e b67b 183f f7a0 b63f 7610 dabe
000003c0: 8745 c23e 0c54 4b3f 7d4c d9be ba27 5dbe
000003d0: ecb9 39bd cdf6 a23e b8e3 263e df06 8abf
000003e0: 9c6f 69be 33fc c63e 3611 8dbe 2af7 bf3c
000003f0: ef35 8abe 9723 cdbc 3683 603e 9614 673f
0.0773265 0.15847458 0.24588257 -0.13789703 -0.37131682 0.56495345 -0.2861311 -0.5971901
0.30216476 0.08987548 0.37251484 0.20259465 0.11198861 0.60823536 0.11021998 0.19469845
-0.212177 0.42801026 -0.45171186 -0.20677346 -0.37445495 0.0128661115 -0.58565897 0.124860436
0.39889395 0.55591786 0.24650025 -0.23787579 0.6448732 -0.41251412 -0.33478695 1.2473543
-0.2309587 0.63552 0.1209964 0.68725395 -0.15634358 -0.43816054 -0.3859026 0.1666836
-0.3564208 -0.2331863 0.15280515 -0.15233302 -0.06283413 -0.5643925 -0.030004716 0.041237094
-0.1966798 0.9583088 0.16768858 -0.13381279 -0.55297583 -0.35518843 -0.26299354 -0.85987866
-0.28168815 0.72931135 -0.08341017 0.28856707 0.04874529 0.73463213 0.013292865 -0.34136355
-0.69626206 0.31146768 -0.19504112 -0.51312774 -0.9567539 0.004960287 0.017032798 0.33851764
0.040704884 0.7116459 0.23699456 0.021529365 -0.028309673 -0.11983362 0.44272706 0.13376799
0.28099316 -0.46479324 0.46002677 0.22476229 0.008347439 0.42397904 -0.08492864 0.2753826
-0.28714713 0.25248414 -0.19790296 -0.3298028 -0.5513835 0.2302403 -0.079922825 -0.05113187
0.37789562 0.67910147 0.27595007 -0.59862703 -0.49810246 -0.40353608 0.649382 -0.12996906
0.04139306 -0.6232386 0.51235425 -0.42191327 0.15589997 -0.42720494 0.27764788 0.31317824
-0.10659045 -1.1130053 -0.46409175 0.8439196 0.120156206 0.2826484 -0.09630457 0.24605744
0.021777 -0.6062607 0.23973747 0.6913604 -0.32418293 -0.003951064 -0.1457591 -0.36516377
-0.30529305 0.5004164 0.14420734 0.25665447 0.10462333 -0.3228955 -0.24791338 -0.19494201
0.46411765 -0.25526717 0.104840085 0.35246623 0.3627419 0.010580073 -0.0062370044 0.421405
0.026374754 0.387461 0.44612578 0.06788682 -0.29889253 -0.023039825 0.7842093 0.061518285
0.007538523 -0.16464609 0.5359992 0.511968 0.046747323 -0.025377942 0.10436216 0.060472
-0.29818326 -0.6843693 -0.15709865 -0.41983828 0.13451868 0.044913642 0.2180196 1.304914
0.019662075 0.70719695 0.16000599 0.8271552 -0.07785859 0.08266155 0.369611 -0.7764551
-0.56506735 -0.22944248 0.5084094 0.4256731 0.7794534 -1.0680202 0.5541467 -0.520513
-0.30652672 -0.096862614 -0.7077022 -0.7742503 0.19838777 0.71754515 0.059453003 0.5451448
0.77390575 0.06556534 -0.47234833 -0.1299573 -0.34021324 0.100628495 0.44876674 0.14901745
0.3045236 -0.19760036 -0.6597479 0.0024007754 -0.027769627 0.63114226 -0.08836967 -0.052088205
-0.115178995 -0.1287371 0.18631169 0.48415592 0.10493515 -0.25326473 -0.267142 0.25076637
-0.03949665 -0.22427629 0.080579914 -0.24119687 0.26320246 0.34689003 0.13480453 -0.346468
-0.68488723 -0.61015695 -0.37148952 -0.2020747 0.17944391 0.41792217 -0.32029033 -0.11449292
-0.7799434 0.044435117 0.57444334 0.8697351 0.3221255 0.5956377 1.4267873 -0.42590684
0.3794367 0.7942512 -0.42441168 -0.21597186 -0.045343325 0.3182892 0.16297805 -1.0783347
-0.22796482 0.38864288 -0.27552193 0.023433287 -0.26994273 -0.025041385 0.21925053 0.90265787

network_body._body_endoder.seq_layers.2.bias f4 [256]
00000000: 3b0b 39bd 14c3 90bd 4e07 02be 43d2 4dbd
00000010: 0720 8bbd 40cd 87bd c41a 68bd d404 85bd
00000020: 11a1 55bd 695b 05be 40e4 08bd 0b91 2bbd
00000030: cf5a 59bd 7812 3abd 00d0 9abd 06d8 973c
00000040: 476d fabd c92a 37bd e358 9fbd 603b 00bd
00000050: 1db9 7dbd c5f9 27bd 4366 d7bd 6d9d adbd
00000060: c3d8 a0bb d800 fcbd 4da3 afbd 14c4 02bd
00000070: aa14 db3c e099 21bd 085a 20bd 8d96 95bd
00000080: 500f edbd ac1a 06bd 8613 6bbd 46ff c6bd
00000090: 90f4 3cbd 8118 83bd 547c a4bd 5033 b9bd
000000a0: 4c14 d9bd 2e9a 053c 7892 a7bd 3db2 88bd
000000b0: fe08 80bd f165 97bd 5332 acbd d362 fb3b
000000c0: fb85 88bd a202 a6bd 8ff6 edbd 3f45 a0bd
000000d0: 44fb 0b3c b57c a9bd 3625 92bd 7326 4ebd
000000e0: b70e 25bc 1826 f8bd 5cb3 853c ffc3 0ebd
000000f0: 72f3 9cbd bd79 b3ba 0d31 a8bd 18fe c43c
00000100: e928 82bd f99e 48bd 667f f2bc 0c8a 33bd
00000110: e593 29bd b915 45bd c881 f6bd d441 dbbc
00000120: 8ae7 d5bd b901 7cbd 4bfe 5ebd 771f 9cbd
00000130: b95d d4bd 42b8 83bd 19e4 b13c e1e3 76bd
00000140: c18e 43bd a872 ecbc 72ff fdbc e46b 773d
00000150: 0c54 723c 76cc c6bd 6ce6 9dbd 2f75 bdbd
00000160: a25b 9ebd 0999 9abd d699 f2bd 0439 b13c
00000170: 0cbb aabd dbfe 07be bcc4 90bd 0462 bbbd
00000180: ed8c cdbd b0a4 613c 6ebd b2bb f5c4 59bd
00000190: bd7e 8f3a 46a9 50bd d0c8 3abd c79a a0bd
000001a0: 201f 07bd 7a52 f2bd a79b 87bd 417f f2bd
000001b0: 4767 17bd 3caf 27bd 50bd 2ebd 1108 d4bd
000001c0: a44a 87bd 5e68 b2bc a81c 6ebc 1cd2 013d
000001d0: cda0 79bc 8bfa f0bd 4b7e 91bd 03a3 9cbd
000001e0: 0b11 e2bb 108e cebc 9c83 5cbd 96c0 103d
000001f0: f8e9 a5bd 9b3f 9f3c f20a 1cbe 43b3 03be
00000200: 4766 5d3c 80b2 bebc 2ab2 e1bb 7966 c1bd
00000210: 37ce b6bd f61b 09bd bcc6 3fbc 4252 95bd
00000220: 4ffd b5bd a2c8 4bbc 6f40 83bc df66 0abc
00000230: 1f0b 8cbd 633b 9abc 0ce6 aabd c978 573b
00000240: e16d 26bd bb28 b6bd 6e99 59bd 9c8d 99bd
00000250: 1250 80bd ba15 9cbd d885 d0bd ce89 2bbd
00000260: 6459 84bc 9a3d a1bd 92e3 d4bd 9eb0 ebbd
00000270: c4ba b5bc 379c bdbd 7d8d afbd d61e c5bd
00000280: ca87 6abd 84c7 50bd db66 c0bd 5a68 f1bd
00000290: 2fa6 bbbd 73e0 4fbd d4e0 e2bd 41d5 e4bc
000002a0: 386c f1bd 7e97 85bd 327a 99bc 3497 6bbd
000002b0: f08c 2bbe 8509 833c 684b 20bc 508c 8f3d
000002c0: b26d 43bd c872 2bbd 097b 9cbd fa93 a53c
000002d0: 7dc8 d0bd 7bc6 13bd d544 e6bc 2038 d4bd
000002e0: 7b0c 50bd 4d17 0bbe 0f98 f1bc 0ada 1fbd
000002f0: 6ae9 b2bd 6c5e b63c a043 33bc 5156 143d
00000300: ecff 01bd 66f2 8bbd d746 d3bd 4de4 96bd
00000310: a4f1 523b f9e7 70bc 7cf4 19bd 58a6 743c
00000320: 79a7 ccbd a7ad c3bd 0de3 b7bd f654 c6bc
00000330: c7d8 54bd 4059 70bd 8ae9 aebd 15db a4bd
00000340: d20d e1bd 06ae 86bc 6912 f4bd 52fd 81bc
00000350: 9274 66bd 1a90 e4bd 46ce 90bd 82b4 53bd
00000360: 7e58 c93c 7251 8ebc 746c 33bd 5e9e e8bd
00000370: 62dd c9bd 98b5 94bd 3d9f afbc 1529 b6bb
00000380: d3f7 1ebe 21dd 98bd e86e 043c 099b a4bd
00000390: 1ce2 c1bd 69b4 04bd 106b 06be b5ba a6bd
000003a0: d514 28bd 0ab8 95bd dd9f d6bb 4ccd 05be
000003b0: f566 d03b b00b a5bc 9d2b ddbd 396b 1fbd
000003c0: cb23 49bd ca72 b7bd 3b28 06be 3aa1 53bd
000003d0: 3dc4 aebd 1734 adbd abf0 a9bd c533 06bc
000003e0: 201a e6bd 0e53 babd fb06 1abc fc7f 0dbe
000003f0: a796 18bd 0d46 2ebd c4b3 833c 6459 00be
-0.045176726 -0.07068458 -0.12698099 -0.05024935 -0.06793218 -0.06630945 -0.05666615 -0.064950615
-0.052155558 -0.13023151 -0.0334208 -0.04188637 -0.053065117 -0.04542777 -0.07559204 0.018535625
-0.12227874 -0.044718537 -0.07780626 -0.031306624 -0.061944116 -0.041009683 -0.10517552 -0.08477292
-0.0049086525 -0.123048484 -0.08576069 -0.031925276 0.026743252 -0.039453387 -0.03914836 -0.07304106
-0.11575186 -0.03274028 -0.057391666 -0.09716658 -0.04613167 -0.06401158 -0.08031526 -0.0904299
-0.105995744 0.008154435 -0.081822336 -0.06674621 -0.06251715 -0.07392491 -0.08408036 0.007671693
-0.0666618 -0.08105971 -0.11619293 -0.07825708 0.008543793 -0.08275739 -0.07136004 -0.050329637
-0.010074309 -0.12116641 0.016320877 -0.034854885 -0.07663621 -0.0013692897 -0.08212481 0.024046943
-0.06355459 -0.048979733 -0.029601764 -0.043832824 -0.04140081 -0.04811642 -0.120364726 -0.026764788
-0.10444553 -0.06152508 -0.05444173 -0.07623189 -0.10369439 -0.06431629 0.02171521 -0.060275916
-0.047743563 -0.028863266 -0.031005595 0.060405627 0.014790546 -0.097069666 -0.07709965 -0.092508666
-0.07732321 -0.075487204 -0.11845748 0.021633632 -0.083364576 -0.13280813 -0.07068774 -0.09149554
-0.10036645 0.013772175 -0.0054547107 -0.05316635 0.0010947805 -0.05094268 -0.045601666 -0.078420214
-0.032988667 -0.118321374 -0.06621485 -0.11840678 -0.036963727 -0.0409386 -0.04266101 -0.10353101
-0.066060334 -0.021778282 -0.014533199 0.031694517 -0.015236092 -0.11766537 -0.071041666 -0.076482795
-0.0068990043 -0.025214225 -0.05383645 0.035339914 -0.081012666 0.01943951 -0.1523855 -0.12861352
0.013513154 -0.023278475 -0.006887694 -0.09443373 -0.08926051 -0.03347393 -0.011705097 -0.0729108
-0.088862054 -0.012437971 -0.016021935 -0.008447378 -0.06838059 -0.018827146 -0.08344659 0.003287839
-0.040632132 -0.088944875 -0.053124838 -0.07497713 -0.06265272 -0.076213315 -0.10181779 -0.041879468
-0.016155906 -0.07873078 -0.10394968 -0.115082964 -0.022183783 -0.09258311 -0.085719086 -0.09625022
-0.057258405 -0.050971523 -0.09394618 -0.117874816 -0.091625564 -0.05075116 -0.11078039 -0.027933719
-0.11788219 -0.065230355 -0.018735025 -0.057517245 -0.16752982 0.01599575 -0.009783603 0.07009184
-0.047712035 -0.04185751 -0.076406546 0.020212162 -0.1019449 -0.036077958 -0.028108994 -0.103622675
-0.050793152 -0.13583107 -0.029491453 -0.039026298 -0.087359264 0.02226182 -0.010941416 0.03621513
-0.031738207 -0.06833343 -0.10316246 -0.07367764 0.0032187486 -0.014703744 -0.037586674 0.014932238
-0.099928804 -0.09554606 -0.089788534 -0.024210434 -0.051964547 -0.058678865 -0.08540638 -0.08049599
-0.10988964 -0.016440403 -0.11917574 -0.015867863 -0.056263514 -0.11160298 -0.070705935 -0.051685818
0.02457833 -0.01737282 -0.0438046 -0.11358331 -0.098566785 -0.07261199 -0.021438235 -0.0055590966
-0.15524225 -0.07464052 0.008083083 -0.08037383 -0.09466955 -0.032398615 -0.13126779 -0.0814108
-0.041035492 -0.07310493 -0.006549819 -0.13066596 0.0063599297 -0.020147175 -0.10799334 -0.038920615
-0.0491064 -0.08957441 -0.13101284 -0.05166743 -0.08533523 -0.08457201 -0.08297857 -0.008191054
-0.11235452 -0.09097873 -0.009401078 -0.13818353 -0.03725305 -0.042547274 0.01607693 -0.125341

network_body._body_endoder.seq_layers.2.weight f4 [256, 256]
00000000: 44de 30bc 834f 0cbe 24cf 46bd 8706 71bd
00000010: da60 c1bd aba4 603d b1a9 4d3c 9e5d 60be
00000020: 6bb3 203e 1a1e 153e 60ba 763d 7f82 8f3d
00000030: 64b3 323e 3dbb 4bbe 6de9 9bbd 1940 ff3d
00000040: b874 003d 3016 a9bd 2b85 c43c ad12 b9bd
00000050: 8a1e 5fbd 457e 3fbe 1a0a 18be 431c a83d
00000060: 0705 5f3d 2d7e ddbd 4991 70bc e9a6 1bbb
00000070: 3904 5abe 4113 5cbd 90ef 993d 655f 663e
00000080: b216 a8bc 7d8f 943d 608c 0e3e 32bf 6b3d
00000090: 1e3b 1ebd 4d26 c6bc b7d8 72bc cc6b 3fbe
000000a0: f439 6a3d bd63 da3c 0052 3bbc a4e1 25be
000000b0: 2cfb 60be 50f1 2b3c 46e1 20be 1045 a4bd
000000c0: ce61 9dbd 455d e6bd 2037 babd dd6a 3bbd
000000d0: 2353 2ebc 546a 6abe d666 4ebd 1319 17bd
000000e0: d42c e33c 81b5 28be 4170 063d 86fe bd3c
000000f0: 521b 8abd 8af1 93bd c5f4 323c 1438 ba3b
00000100: c093 563d a4a1 00be f5d7 813c b1e0 e03d
00000110: 5ca5 2dbe be44 013d 8fe3 d1bc e0ee 053e
00000120: 463a 5dbd b3c2 e03c e51a 0abe 6ac8 47bd
00000130: 81c8 233e 9732 823d 815e 913d c392 533c
00000140: 3a3d 29be ed97 22be 454b a7be 6afc febd
00000150: 75b6 6f3c ba6f 6e3e d2fe 9ebd 7861 0dbd
00000160: fdd7 61be 790f a5bd 6fe6 15bd 804a 90bd
00000170: 0083 84be 990b 0bbe 80a0 dbbe 2726 2abe
00000180: 8cda 893c 5761 7ebe 826d f1bd 7ffb 6a3e
00000190: d4ae 07be 4063 123c f3c7 6fbe 7b95 833c
000001a0: 08a2 af3b 05d8 d1bd 3147 19bc c48b 16bd
000001b0: d010 c2bd fb1f a7bd cbd4 c4bd 26a8 eb3d
000001c0: 8813 45bc 9f7c 87bd 74ff 743b 74cd db3d
000001d0: a268 44be dd74 ccbd 00a0 fb3b af97 80bc
000001e0: b4b7 ba3d 63c5 0fbe a463 39be a986 18bd
000001f0: c238 06be bc68 ccbe 7cad 073e b465 93be
00000200: 16b8 8e3d a706 15be abb5 2fbc 94aa 103d
00000210: 7f29 bebe b9fe a23d c2a3 1dbd a35a 4abe
00000220: 6c34 65be 7e76 183d 1ed8 de3b 5d67 b43c
00000230: b20c 683d 4687 ae3d f76b f73b cd34 5f3d
00000240: be80 a03d c2d9 85bc 1ea7 c23d 7323 ffbd
00000250: 74c0 37bd 8d54 ba3d 47ab d0bd 28d2 ecbd
00000260: 0fb0 40bb 739c 2dbe 42bb 93bd dc8c 02bd
00000270: fa0c bbbd 1556 b0be 684a 4fbe 92e0 5f3d
00000280: e56d 9bbd da93 34be 95af 70be 43f5 4dbe
00000290: 4324 863d 062e 06be da74 cdbe 5da2 05be
000002a0: 5a5e 2c3e 3d96 7ebd 58d5 06be 3c13 b33d
000002b0: 2703 2b3e 840f 93bd 9fa1 8b3d f74d 4bbe
000002c0: 5599 883d fc11 8cbd 15e9 6bbd 6bcd debc
000002d0: 8c0d 81bd 4325 dbbe 4bcd 963d 55c1 08be
000002e0: 0abe a13d c943 96be 2dfd b6be 435d e03d
000002f0: 2d84 523d 6d21 f73d c78c 93ba 38e3 82be
00000300: bbff abbd 187a 5bbb 806f 763d ccf8 b5bc
00000310: 824f 0e3c 9f2b 6a3c 6bf7 803d 0ac0 c63d
00000320: fea6 7bbc 8af0 1ebe a762 db3c e0a6 0bbe
00000330: bd73 04be 78e5 423d d9ad 7a3d 7fb5 273d
00000340: 0860 e2bd 1d8e 98bd 43e1 64bd c8d5 da3b
00000350: 54c3 34be 9b32 653e 9360 aebd 8c3c 87bd
00000360: 1bcf 78be c4fc b33b cba8 48bd e74c 2abe
00000370: 9c18 ac3d cde8 91bd e8bd 94be da90 d7bd
00000380: fe02 8e3c e055 49be ee98 943d 6433 a63d
00000390: ae86 6cbe 8452 283c 8b5d d9bc 2131 28be
000003a0: 6392 d33d 6d32 7fbc e997 8e3d 79f1 293d
000003b0: 4a39 bebc 9be9 28be a5d1 c03d a229 a9be
000003c0: 6d6b 813b bb19 c7be 316e 9bbd 07ca 00bd
000003d0: d1cd 5dbe 41ee 093d 40e3 1c3d 1450 64be
000003e0: 1698 84bd 5f2d d23c c4b6 88be 4f3e 8cbc
000003f0: c4be 41be 24be 013d d21b 253b b5b9 be3d
-0.01079518 -0.13702206 -0.04853739 -0.058844116 -0.09442301 0.05484454 0.012552665 -0.21910712
0.15693443 0.14562264 0.060236335 0.07007312 0.17451245 -0.19895644 -0.07612882 0.124633975
0.03136131 -0.08256185 0.02398928 -0.09036765 -0.054472484 -0.18700512 -0.14847603 0.082085155
0.054448154 -0.10815082 -0.014683076 -0.002375061 -0.21290673 -0.0537293 0.07516396 0.22497328
-0.020518634 0.07253931 0.13920736 0.057555385 -0.038630597 -0.024188185 -0.014822177 -0.18693465
0.057184175 0.026658887 -0.011433125 -0.16199356 -0.21970814 0.010494545 -0.15710935 -0.08020985
-0.076846704 -0.112482585 -0.090925455 -0.04575621 -0.0106399385 -0.22892123 -0.05039104 -0.036889147
0.027731337 -0.16475488 0.032821897 0.023192655 -0.06743492 -0.07223804 0.010922615 0.0056829546
0.052387 -0.12561661 0.015850047 0.109803565 -0.16957611 0.0315597 -0.025621204 0.13079405
-0.054010652 0.02743659 -0.13486822 -0.048775114 0.15994455 0.063573055 0.07098103 0.012913409
-0.16527262 -0.15878268 -0.32674614 -0.12450488 0.0146309035 0.23284808 -0.07763447 -0.03451678
-0.22055049 -0.08059592 -0.03659671 -0.0704546 -0.25881195 -0.13578643 -0.4289589 -0.16616116
0.016827844 -0.2484182 -0.11788465 0.229475 -0.13250285 0.008934796 -0.23416118 0.016062489
0.005359892 -0.102462806 -0.009355352 -0.036754385 -0.09475863 -0.08160397 -0.096108995 0.11506681
-0.012028582 -0.066155665 0.0037383707 0.107325464 -0.19180539 -0.099832274 0.0076789856 -0.015697328
0.0911707 -0.14040141 -0.18104416 -0.037237797 -0.13107589 -0.39923656 0.13249773 -0.2878853
0.06968705 -0.14553319 -0.010724465 0.035318926 -0.37141034 0.07958741 -0.03848625 -0.19761138
-0.22383279 0.037222378 0.0068006655 0.022021944 0.056652732 0.08521895 0.007550712 0.054493714
0.078370556 -0.016339187 0.09504531 -0.12457933 -0.044861272 0.09098158 -0.101889186 -0.115635216
-0.0029401814 -0.16954212 -0.07213451 -0.031872615 -0.091333345 -0.34440675 -0.20243227 0.054657526
-0.0758932 -0.17634526 -0.23504479 -0.20113091 0.06549885 -0.13103494 -0.40128213 -0.13050218
0.16832867 -0.062154997 -0.13167322 0.08743903 0.16700421 -0.07180694 0.06817936 -0.1985396
0.06669871 -0.06839368 -0.05759533 -0.02719756 -0.06301412 -0.42801866 0.07363375 -0.13355
0.07897575 -0.2934859 -0.35740033 0.10955288 0.051395584 0.12066922 -0.0011257165 -0.2556398
-0.08398386 -0.0033489522 0.06016493 -0.022213362 0.008685948 0.014292627 0.06297191 0.09704597
-0.015359638 -0.15521446 0.02678044 -0.13637877 -0.12934776 0.04758212 0.06120095 0.040944573
-0.11053473 -0.07448981 -0.05587889 0.0066783167 -0.17652637 0.22382586 -0.08514514 -0.06603345
-0.24297754 0.0054927785 -0.0489891 -0.16630898 0.08403131 -0.07124481 -0.29051137 -0.10525675
0.017335411 -0.19661665 0.072557315 0.08115271 -0.23098251 0.0102735795 -0.026533863 -0.16424991
0.103306554 -0.015575987 0.06962568 0.041490052 -0.023220677 -0.16495363 0.094149865 -0.33039576
0.0039495737 -0.38886818 -0.07589377 -0.03144267 -0.21660544 0.033674482 0.03830266 -0.22296172
-0.064743206 0.0256564 -0.2670194 -0.017119555 -0.18920428 0.031675473 0.0025193584 0.093127646
