Assets/Easy.onnx (onnx, 273335 bytes, 5 tensors)

action_model._continuous_distribution.mu.weight f4 [1, 256]
00000000: 6697 063a 0b7e 6ebc 9e12 ac3b 50c0 8cbb
00000010: fcc6 93bb 1100 55bb 55da 6bbc 665a f2bb
00000020: 2aff e53c b1e7 313c a626 afbc c924 693a
00000030: f2f8 eb3a 1f05 0a3b 9647 ccbb aff0 c1bc
00000040: 58bd 063c 53cc 22ba cac1 57bb 8555 a0bb
00000050: 56f1 8bb9 9371 cc3b b1fe 803c 52ad 84bc
00000060: 4e15 0cbb 01f8 3f3c 8c4d ad3b 440a 4f3c
00000070: 73f2 c13a dd4f 0abb a10b b63a 8a29 b43b
00000080: 7a9b 9b3c 3b8b 953c f965 a138 0b6d 493c
00000090: 0c41 a93c 9130 c63c 76bd 8ebc 0b70 60bc
000000a0: 04b7 073a 7cce aeba 3cd9 46bc 76a1 e13b
000000b0: 5c29 c33c a283 b4bb 9b03 86bc 1bdf 3d3c
000000c0: ed2e 0cbb 6b71 733c ab1d 50bc de6e fdbb
000000d0: 98bc 123c 21ac a2bb 14f7 733c 9c76 693b
000000e0: a75c 6cba 7642 24bc 52f3 013c 898c 513c
000000f0: fd89 a23b eb76 3d3b e92b 35bb 86ab 75bb
00000100: 9dd2 e63c 9c95 9e3b 3c8a 823c 5fb0 f1bb
00000110: 2c16 e43b adf7 0bbc 733f 203c 4054 e939
00000120: 5034 ecbb f93a 89ba 53e4 b33b 0b44 b9bb
00000130: 263d 243c 5314 b53c b33d 383c a03b a33b
00000140: 33d6 283c 5d0e c23c 30bf 6b3c 4c85 ac3b
00000150: 3d6c ccbb 4daa 95bb ec39 e33c e450 0f3a
00000160: 27b3 79b9 93dc a73c 71a6 0cbc ec5b 26bb
00000170: b643 9fbc 0a99 e63b 2066 51bb 13c3 603c
00000180: fe7a cb3b 3d2d 0abc 6dda d8bc 4111 ca3b
00000190: c1a7 1fbc f250 38bc 4cb8 9ebc a245 d1bb
000001a0: fe4f 063d 8591 1c3a 9cbb d8bb fb1b a63b
000001b0: bf51 223a 11c2 b03c f0dd ecbb 5f4d 503c
000001c0: 7970 9b3b 9d5f 633c 332d f2ba 4cea 213b
000001d0: ea13 cfbc 8c11 e53c 49eb c63b 5df6 f6bb
000001e0: ea1c 0abc 432b 813b 5bbb 67ba f572 a4bc
000001f0: 0ad4 a63b 37a2 103b 79d2 0e3c 7c1f 1fbb
00000200: 677b dfbc 3462 45bc 2a93 e53c 4b30 4ebc
00000210: 64a6 c33b 0d79 473c 4624 b43a b54f 8eb9
00000220: ed05 bc3b 44f8 923b 85ee 6dbc 4761 e4bb
00000230: 516a ba3a 607d 12bc eda6 2a3c ed31 023d
00000240: 1d37 5dba d60c f1bb c08e a0bc 095f a53c
00000250: 93f4 80bc 3599 28bc 7e00 d4bc fc7c 6c3c
00000260: 8484 9cbc 5e3b 36bc 6cdf 82bc c566 96ba
00000270: 4b7c b6bb b1ed 5b39 06c0 c238 a21f 88b9
00000280: 0287 d33b 45d0 af3b e268 93ba cb02 073b
00000290: 7320 09bb 1078 f73b dc9d d139 0582 47bc
000002a0: 69f4 3cba daac 48bc 4cbb 953c 9149 d7ba
000002b0: a790 bb3c 1472 533c 86eb 17bb ab57 ebbc
000002c0: f06c 95bc 415a 21b9 ca2b 40bc c9ec e5bb
000002d0: 392e 2bbc a96b 733c b052 243a 8528 923c
000002e0: 50c1 89bc dedc 9cbc 4ea8 933b 43dd 3dbb
000002f0: 4706 903b 484f d63b 64d3 e93b c7be 0ebc
00000300: 732b d63b 17ab 0d3b faa2 3f3b a60b 64bc
00000310: 0cd3 813a 19e1 5b3c 890e 8e3b 9395 acba
00000320: abe5 41bc 3786 ae3b f9dc d7bb 9056 21b9
00000330: fec4 543c 3021 fbbb ab4a 4aba 8e6b 87bc
00000340: f892 343c 2d79 c9bc cf12 b1bb 1123 053b
00000350: dbf7 0ebc 4c95 a93c 7af3 e73b d74c 233c
00000360: 0596 813c 6071 1c3c 6924 dcbc 6e5b 6ebb
00000370: b771 e7bb 56d7 393b 8541 303c 2566 9fbc
00000380: 307a 7bba 082b 223c aa1e 2cba ac64 faba
00000390: 3aae 76bc ea2b 15bc 26b0 303c e89a 8a3c
000003a0: bfba 673c 1f31 ccbc 3c87 59bb fa66 96bc
000003b0: 9678 1e3c b00e 1bba ac65 5f3c 78ad 20bc
000003c0: e631 26bb ef26 afbb 2aa9 263c d505 813b
000003d0: db02 2dbb 91fa 33b7 c54b f0bc 0f45 ee3b
000003e0: d987 a03b 0f20 83bb cd07 3f3b 13e3 a83c
000003f0: cc03 99bc bd2d 1c3b 20fb b1bb 0164 0dbc
0.00051342545 -0.014556418 0.005251243 -0.0042953864 -0.004509805 -0.003250126 -0.014395316 -0.0073960302
0.028075773 0.010858462 -0.021380734 0.0008893726 0.0018003269 0.0021060181 -0.0062341196 -0.023674337
0.008223854 -0.0006210256 -0.0032921904 -0.004893007 -0.00026691955 0.006239125 0.015746446 -0.016195927
-0.0021375003 0.011716844 0.0052887853 0.012636725 0.0014796987 -0.002110473 0.0013888964 0.005498116
0.018995035 0.018254867 7.696072e-05 0.012294064 0.0206609 0.02419308 -0.017424326 -0.013698588
0.0005177113 -0.0013336684 -0.012136754 0.0068857027 0.023823433 -0.005508856 -0.016359141 0.011588837
-0.0021390275 0.014858584 -0.012702386 -0.0077341637 0.008956097 -0.004964367 0.014890451 0.0035623675
-0.0009016492 -0.010025611 0.007931547 0.012789854 0.004960297 0.0028909992 -0.002764458 -0.003748627
0.0281766 0.004839612 0.015935056 -0.0073757614 0.006960651 -0.008542937 0.0097807525 0.00044503994
-0.0072083846 -0.0010469846 0.005489865 -0.0056538633 0.010024345 0.022104418 0.011245179 0.004981473
0.010304975 0.02368849 0.014388844 0.0052649137 -0.006238489 -0.0045674206 0.02773758 0.0005467071
-0.0002381323 0.02049092 -0.008584605 -0.002538438 -0.019441467 0.0070372866 -0.003195174 0.013718384
0.00620973 -0.008433637 -0.026471341 0.0061666076 -0.0097445855 -0.011249768 -0.019374989 -0.0063864747
0.03279113 0.0005972612 -0.0066141617 0.0050692535 0.00061919907 0.021576913 -0.0072286054 0.012713759
0.0047436324 0.013877776 -0.0018476605 0.0024706302 -0.02527805 0.027962469 0.0060705286 -0.007536693
-0.008429745 0.003941925 -0.0008839869 -0.020074347 0.005091195 0.0022069344 0.008717173 -0.002428024
-0.027280523 -0.012047339 0.028024275 -0.012584756 0.005970763 0.012174857 0.001374372 -0.00027143737
0.005738011 0.004485162 -0.0145221995 -0.006969604 0.0014222359 -0.008941025 0.010415775 0.031785894
-0.00084386935 -0.0073562665 -0.019599319 0.020186918 -0.015741622 -0.010290434 -0.025879141 0.0144340955
-0.019106157 -0.011122553 -0.015975676 -0.001147472 -0.005569016 0.00020974014 9.286408e-05 -0.0002596351
0.006455303 0.005365404 -0.0011246467 0.002060103 -0.0020923882 0.0075521544 0.000399812 -0.012176995
-0.0007208051 -0.012248242 0.018277787 -0.0016425123 0.022896124 0.012905616 -0.0023181154 -0.028728327
-0.018240422 -0.00015387779 -0.01172919 -0.0070167524 -0.010448032 0.014857211 0.0006268425 0.017841587
-0.016815811 -0.019148286 0.0045061475 -0.0028970994 0.0043952796 0.006540213 0.0071357954 -0.008712477
0.0065359413 0.002161687 0.0029241429 -0.013918793 0.0009904816 0.013420367 0.004335229 -0.0013167135
-0.011834542 0.0053260582 -0.0065876213 -0.00015386404 0.01298642 -0.0076638684 -0.0007716815 -0.016530778
0.011021368 -0.024593914 -0.0054038535 0.002031509 -0.008726086 0.020701073 0.007078585 0.0099670505
0.015818605 0.009548515 -0.02687283 -0.0036370414 -0.0070631164 0.002835711 0.010757809 -0.019457886
-0.00095930975 0.009897955 -0.00065658486 -0.0019103489 -0.015056187 -0.009104708 0.010784185 0.016919568
0.014143645 -0.024925767 -0.0033192178 -0.01835965 0.009672305 -0.00059149694 0.01363508 -0.009806983
-0.0025359332 -0.0053452174 0.010172168 0.003937463 -0.0026399407 -1.0727571e-05 -0.029333005 0.007271416
0.004899007 -0.0040016244 0.0029148937 0.02061609 -0.018678568 0.0023830973 -0.0054315478 -0.0086298

network_body._body_endoder.seq_layers.0.bias f4 [256]
00000000: 2906 5b3a 291e 573b 008a 00bc 588f f5bb
00000010: 20d5 0d3b 1ace 10bb 1ab6 163c 55f5 9dbb
00000020: f96e d739 bf2f a0bb 06ef 99ba 8629 a4bb
00000030: 1b16 d639 a915 40ba 7673 9c39 f8a5 92bb
00000040: 8c97 87bb 5725 9abb 7cbf 253b 9ba3 a6bb
00000050: b5f0 0bbc 31da f9bb f9cc fdb9 23c1 d3ba
00000060: befa b7bb 1f4d eabb 50f6 a53b 0c57 e0ba
00000070: 0da9 863b bce0 773b 1176 1ebb 033a 82bb
00000080: 8b5a 35bb 5882 adba 3e8d 1f3b 9612 cbbb
00000090: 64d9 a6b8 2d36 343b 1dd3 693b c053 07bc
000000a0: d643 c23b 4e8b 543b f198 6fbb 0a57 a33a
000000b0: 5e69 14bc 822e ea3b 006b 8f3a 4703 f139
000000c0: 2eba 6bbb 1c27 55bc 0803 48ba d07b a4bb
000000d0: 8204 02bb d770 33bc e9a7 673b 2705 50ba
000000e0: 0b2a 4b3b fc9a e3b7 a5b0 c53a d8e2 263b
000000f0: 37e9 cb3b dc2b 0fbb feb9 93bb 837b 4839
00000100: fc63 fcba c1a7 9d3b 8069 adbb b481 78bb
00000110: 3e6e f8ba 832b abbb ac94 1e3a fdcf 71ba
00000120: 0316 a3bb ba4d 02bc 208b d3bb b0f9 50ba
00000130: f09f 4bb7 c6a5 4fbb 0f6e 9cbb 33be 08bb
00000140: 3411 16bb 322d c7bb fa8f 92ba 17df 47b9
00000150: dd3e 05bb def7 52ba a399 983a 9303 b2ba
00000160: a3e9 853b dac3 76bb 0853 c7ba 09cc 373c
00000170: 28f2 d2bb 8587 f3ba 2f96 b7bb 0173 d2ba
00000180: e0b9 9dbc 415c 26bc ea11 e9bb a56d 0f3b
00000190: eb68 153c 5eab d9bb 6765 11bb 6433 e2bb
000001a0: 6708 a03a 35d3 87b7 2d74 8bbb 6f8d aaba
000001b0: 0a08 863b 1293 273b 7591 7abb 3c00 70bb
000001c0: 1848 893a feb6 893b 1705 1b3a e268 18ba
000001d0: f04a 67bb bbee d93b 60d2 2439 d297 3fb9
000001e0: ff76 90bb 5146 153b c3b9 453a a61e ec3a
000001f0: 52f4 be39 221a e9bb b312 aabb 9272 373b
00000200: 71fd 543a 2639 8f3b 0ff9 34bc 72e7 913b
00000210: bd75 823b 6dd9 1aba 7ee9 45bb 23c9 8fb9
00000220: 3498 56bb 5ed8 7dbb 3bd6 943a 3ea7 efba
00000230: e2a3 c83b c40a 54b9 da30 9cbb 8f6b 81bb
00000240: 293d 3dbb 04b8 bb3a fed2 54ba 2040 5cbb
00000250: ad39 143b 5002 4fb9 217c d3ba c70a 20bc
00000260: bb9e d1bb fa82 a63b 2d5a b93a a4a3 87bb
00000270: 3ff3 91bb f04a ffba 1a50 fbbb d372 c9bb
00000280: ee2d 07bc f0ef 52ba 376b f5bb 64bb 1dbb
00000290: a783 88ba bb47 34bc 3233 123b a9ac 9d3b
000002a0: c5e9 813b f44f 9d39 1352 0e3c e36e 2d3b
000002b0: 5fa3 52bb e5c4 31bb 8860 21bb 62a5 643b
000002c0: a680 733a 90b8 84bb 8dea e2ba 61b5 69ba
000002d0: 7f79 df3b f927 14bc 45f3 d53a f13e c3bb
000002e0: 1e50 bc3b 44a0 50bb 5bce 49bb 229f 2eba
000002f0: f2a3 cdba a685 98bb a8ce 5dbc a441 adba
00000300: 6789 5abc bfdc eebb 38a5 1dbb 1383 f73a
00000310: 64e7 3ebb ec7e 08bb eed8 ceb9 2ccf c7bb
00000320: 0e25 9bba fa11 69bb e4b3 d5bb f6ac 37bc
00000330: ba14 8f3b 5397 603a 0b4a 29bb a5e7 5cba
00000340: a644 763b 9515 3abb 8d68 3a3a 3c7e 4dba
00000350: da66 05ba 47a2 e3bb 1674 1e3b e80d 3f3b
00000360: fb31 063c a0df 043b abc7 61ba ef98 4bbb
00000370: bdd0 863a e59f b338 7710 3c3b de99 11bc
00000380: f262 a3bb 6aca c8bc 369d 23bc 9df7 b4b6
00000390: b6a9 3cba 6bbd 00bb 5c2d 123b 019c f7bb
000003a0: 07c5 00bb cb83 d939 cee9 93bb 6571 90bb
000003b0: 829a 413b 21ce e9ba 1e63 a7ba f3c5 013a
000003c0: 3870 31bb f6ac 493a c6a2 1c3b 3207 16bc
000003d0: fda9 ec39 efeb 33bc 2596 42bb 8c64 a0bb
000003e0: dc68 a0ba a651 d3ba 1696 3eba 670f 113a
000003f0: 3947 e3bb c20a 8d3b bca8 9bba ff67 67bb
0.0008355105 0.0032824373 -0.007845402 -0.0074938945 0.0021641925 -0.0022095502 0.00919869 -0.0048205056
0.00041090677 -0.0048885043 -0.0011744208 -0.005009833 0.0004083373 -0.00073274464 0.00029840664 -0.0044753514
-0.004137939 -0.0047041583 0.0025291136 -0.0050854213 -0.008541276 -0.0076248874 -0.00048408637 -0.0016155582
-0.0056146076 -0.007150307 0.005064763 -0.0017115786 0.004109508 0.003782316 -0.002417926 -0.0039742007
-0.0027672376 -0.0013237698 0.0024345662 -0.006197284 -7.955989e-05 0.0027498112 0.0035678812 -0.008259714
0.005928497 0.0032431665 -0.0036559666 0.0012461853 -0.009058325 0.0071466574 0.0010941923 0.00045969544
-0.0035969126 -0.013009813 -0.0007629846 -0.0050196424 -0.0019839113 -0.010952196 0.0035347885 -0.0007935338
0.0031000401 -2.7132679e-05 0.0015082551 0.00254648 0.0062228697 -0.002184621 -0.004508256 0.00019119498
-0.0019255872 0.0048112576 -0.0052921176 -0.0037919106 -0.0018953753 -0.005223693 0.00060493755 -0.0009224413
-0.0049769892 -0.007953102 -0.006455794 -0.00079717766 -1.2136981e-05 -0.0031684502 -0.004773862 -0.002086532
-0.0022898437 -0.0060783857 -0.0011181824 -0.00019061226 -0.002033166 -0.00080477993 0.0011642467 -0.0013581387
0.0040866896 -0.0037653358 -0.001520724 0.011218079 -0.0064375587 -0.0018579817 -0.00560262 -0.0016056002
-0.019253671 -0.010153831 -0.007112731 0.0021885422 0.009119253 -0.006642743 -0.0022185685 -0.006903099
0.0012209535 -1.6191605e-05 -0.0042557926 -0.0013012121 0.004090314 0.0025569838 -0.0038233672 -0.0036621233
0.0010473756 0.0042027226 0.0005913539 -0.00058139686 -0.003529247 0.0066507733 0.0001571863 -0.00018271737
-0.0044087167 0.0022777508 0.0007542634 0.0018014505 0.00036421657 -0.007113711 -0.0051902174 0.0027991873
0.0008124924 0.0043708263 -0.011045708 0.0044526393 0.0039813207 -0.0005907033 -0.0030198987 -0.00027424944
-0.0032744529 -0.0038733701 0.001135535 -0.0018284095 0.006123052 -0.00020221906 -0.0047665657 -0.0039495896
-0.0028875566 0.0014321809 -0.00081185985 -0.0033607557 0.0022617385 -0.0001974192 -0.0016135016 -0.0097681945
-0.006397096 0.0050815316 0.0014141254 -0.0041393805 -0.004454046 -0.0019477289 -0.007669461 -0.0061477213
-0.008250697 -0.0008046618 -0.0074895876 -0.0024067992 -0.0010415212 -0.01100343 0.0022308347 0.0048118425
0.003964635 0.00030004943 0.00868656 0.0026463799 -0.0032140834 -0.0027125415 -0.0024624187 0.0034888615
0.00092888845 -0.004050322 -0.0017312333 -0.0008915272 0.0068199034 -0.009042733 0.001632311 -0.005958431
0.0057468554 -0.0031833807 -0.0030793163 -0.0006661286 -0.0015689118 -0.004654604 -0.01353804 -0.0013218415
-0.013338423 -0.0072894986 -0.0024054777 0.0018883668 -0.0029129619 -0.0020827604 -0.00039453007 -0.006097695
-0.0011836605 -0.0035563693 -0.006521689 -0.011210671 0.0043664845 0.0008567471 -0.0025831487 -0.0008426852
0.0037577539 -0.0028394212 0.0007110916 -0.000783894 -0.00050888734 -0.006946835 0.002417808 0.0029152576
0.008190627 0.0020274892 -0.00086128217 -0.0031066497 0.0010285598 8.565168e-05 0.0028696337 -0.008886782
-0.0049861604 -0.024510581 -0.0099862125 -5.393244e-06 -0.000719692 -0.0019644152 0.0022304868 -0.007556439
-0.0019648687 0.0004148766 -0.0045139557 -0.004408049 0.0029541557 -0.001783792 -0.0012770628 0.0004950456
-0.0027074944 0.00076933147 0.0023900731 -0.009156989 0.0004514008 -0.010981544 -0.0029691544 -0.0048947986
-0.0012238282 -0.0016122356 -0.00072702894 0.0005533606 -0.0069359806 0.004304261 -0.0011875848 -0.003530979

network_body._body_endoder.seq_layers.0.weight f4 [256, 6]
00000000: 8571 223e 5825 0e3f ffc5 e6be 5545 343e
00000010: 4e8c 93be 11ff 00bf 8ed1 ecbe 940e c23e
00000020: 71c9 ae3e 656f e7bc aa0c 983e 60ec fb3d
00000030: 2828 683f dcd7 273f 0d5e 0f3d 8d94 f03d
00000040: b9c4 eb3e 000f ecbe 5ef3 703d ecd3 4e3f
00000050: 07e7 9dbe edf1 6d3e 67a2 40bd 4633 863e
00000060: 5c1c 853e 94f3 75be 5042 973e e47a 68bf
00000070: 91ec aa3e 5f4e a2bd 901d 823f 5cc0 dd3e
00000080: 74d4 c53e 0b1d 2e3e db11 1fbe f50b c13e
00000090: adc5 acbe deea d1be 83f0 173e 2e13 d43e
000000a0: 9cfa d63e 2489 ba3e 81bb 20be cf18 ddbe
000000b0: 4ce6 37bc 2f2d 953e a7e4 463e 1e0c 3abe
000000c0: 4c74 cc3e 10ad 333f 056a 9ebb da6b a43e
000000d0: 2a8b 283f 7e59 68bf 07fa 0abd e47e c1be
000000e0: 8904 5b3e 0632 d03c 1f66 6fbe 115b 13be
000000f0: b509 a73e acd8 b6be 0973 dc3a 8403 163e
00000100: 5954 fbbe 5523 b5bd 2a6e a23e b872 573e
00000110: 6813 6a3f 5515 7cbf bf04 1fbe 581f b33d
00000120: ba6c 3c3e aa72 d93c a9df fa3d f586 2c3d
00000130: 2c14 4abf e68f 83bc bfdf 56bd 80b4 2fbf
00000140: b2dd 533e 852a c43e 2243 4bbc a699 1c3f
00000150: 8e38 ea3d 172e 943e e2cc 133e 6b73 dcbd
00000160: d66d bd3b 49a2 bfbd 43ac 463e 173d 18bf
00000170: 7313 703d 86e9 f83e b9d3 03be a6bc b23d
00000180: 1ec1 7abf d834 323d 13e0 58bd dd75 8abe
00000190: 327b efbe b7ef 99be 5b70 23bf 3893 04bf
000001a0: 918e 943e fc79 2abe 6675 f23e bc8d 543f
000001b0: 9432 00be 020e d03e 151b 9f3d 4b47 20bf
000001c0: 8c58 65be d6b4 b6be 6e4f 7ebe 7533 9d3e
000001d0: 43d7 af3d 5f13 febd 0559 5cbe 2ddd 993e
000001e0: fd4b 72bd 68e9 a73d f3a3 cdbd 0fd3 ee3a
000001f0: f1d4 a8bc 08c5 46bd f19e 24bf ce8e 8abf
00000200: 432f 14bf 6f5a adbe 63da 4ebe 013f b23e
00000210: c13c d5be e1fd 6ebb f15c 41bd 014c f9be
00000220: 4d2b a0be 2830 bf3d 3ef3 94bd cb54 0f3f
00000230: 4122 babd de1a 44be 408e 7dbd 0544 3cbe
00000240: 0569 713e c40a d5be 4798 7a3e 218d d73d
00000250: b00e 75bc 18a6 9d3e 3e37 913e 5142 0bbf
00000260: 1a3c eb3e f9ea b63e d987 f1bd 1173 453f
00000270: b47b 7cbe d38f acbe 2931 91be b52f 3c3f
00000280: 3b42 10bd 5b10 ef3e 6dbd 983d cd05 9fbe
00000290: dc8a c7be 6f6c 7cbf f8f3 58bd b430 27be
000002a0: d6b5 24be 5fa3 6bbe e290 97bd 47ea 4ebe
000002b0: 8a58 753e 35d7 a93f 04ae bcbd c50a e03d
000002c0: ecab 87be 9285 993d d657 aebd 5129 adbe
000002d0: 4b72 043f 5949 47be e00d db3d d1f0 d83e
000002e0: ec03 7abc c14f 91bd 893a aebe 91be bd3d
000002f0: def2 813e a30a debe e932 8e3d ca8e 47bf
00000300: 1a46 97be 5242 1b3e 43ff 05bf aecc 3cbe
00000310: 980e f6bd 6519 91be 3e06 aebe e83b c5be
00000320: 6325 26bd 7f52 313e f508 b73d a164 2f3e
00000330: 04af 1fbf 204b 95bd 9a2a 243e 6b46 bbbe
00000340: 1c43 c5bd 296f ac3d 6806 9bbe e005 69be
00000350: 4f22 783d 9a06 62be ffc5 f6be 732d fbbe
00000360: 9d3a 103f 4686 99be da66 373f 24bb 283f
00000370: fdae 7e3e b086 7e3e 4c1f 07be 40d3 db3e
00000380: b9f7 a73e be49 dabc 695e ecbe 136a 1dbe
00000390: f7ec c3be 3f47 acbd 6251 00bf 24a1 0e3e
000003a0: f858 5d3d 9f39 46bd 32b1 a93e 9255 393f
000003b0: ea38 74bf 85b5 d13e 495e 95bc 5689 e53e
000003c0: 2b26 d8be 5b77 453e dfe3 f4bd 05ea 643f
000003d0: 8bf7 4dbf 9e47 a9be f6f9 9a3e 0056 2d3f
000003e0: 8be8 78be 49de e03e 75fb 463e be33 203f
000003f0: aae2 83bd 00c6 b4bd 7718 8d3d 6826 533e
0.15863617 0.5552573 -0.45072934 0.17604573 -0.2881798 -0.503892 -0.46253628 0.37901747
0.34138063 -0.02825136 0.29697162 0.12300944 0.90686274 0.6556375 0.035001803 0.11747084
0.46048525 -0.46105194 0.058825843 0.8079212 -0.30840322 0.23236819 -0.04702988 0.26210994
0.259982 -0.24018699 0.2954278 -0.90812516 0.3338361 -0.07925104 1.0165272 0.4331082
0.3863865 0.17003267 -0.15534155 0.37704435 -0.33744565 -0.40999502 0.14837842 0.41420883
0.41988075 0.36432755 -0.15696527 -0.4318299 -0.011224341 0.29136035 0.19423161 -0.18168685
0.39932477 0.7018595 -0.004834416 0.32113534 0.6583735 -0.90761554 -0.03392985 -0.37792122
0.21388449 0.025414478 -0.233788 -0.14390208 0.32624593 -0.35712183 0.0016818951 0.14649779
-0.4908779 -0.0884463 0.31724674 0.21039855 0.9143586 -0.9847005 -0.15529154 0.08746213
0.18400851 0.026543934 0.12249691 0.042120893 -0.7893703 -0.016059827 -0.052459475 -0.68634796
0.20690039 0.3831369 -0.012406142 0.6117195 0.11436568 0.28941414 0.14433625 -0.10764202
0.0057809157 -0.09357125 0.1940165 -0.59468216 0.0586123 0.48615664 -0.12873735 0.08727388
-0.97950923 0.043507427 -0.05294807 -0.27043048 -0.46773678 -0.300657 -0.63843316 -0.5178714
0.2901502 -0.16648096 0.47355193 0.8302877 -0.12519294 0.40635687 0.07768837 -0.62608784
-0.22397059 -0.35684842 -0.24834988 0.3070332 0.0858598 -0.124060385 -0.21518333 0.30051556
-0.0591545 0.081988156 -0.100410365 0.0018220859 -0.02060935 -0.048527747 -0.64305025 -1.082483
-0.57884616 -0.33858058 -0.20200495 0.34813693 -0.41647914 -0.0036467242 -0.047207776 -0.486908
-0.31283036 0.09335357 -0.07272957 0.5598876 -0.09088565 -0.19150874 -0.06190324 -0.18385322
0.23575218 -0.41609776 0.24472152 0.10524965 -0.014957115 0.30790782 0.2836246 -0.54398066
0.4594429 0.35726145 -0.11793489 0.771287 -0.24656564 -0.3370348 -0.2835782 0.73510295
-0.035219412 0.46692166 0.07458005 -0.31059113 -0.3897313 -0.98602957 -0.05296704 -0.16327173
-0.1608499 -0.2301154 -0.07400681 -0.20206557 0.23959556 1.3268801 -0.09212878 0.10939554
-0.26498353 0.0749618 -0.08512847 -0.33820584 0.517369 -0.19461574 0.10696006 0.42371228
-0.015259724 -0.0709529 -0.34029034 0.09264863 0.25380605 -0.4336749 0.06943304 -0.77952254
-0.2954567 0.15162018 -0.52342623 -0.18437454 -0.12014502 -0.28339687 -0.33989137 -0.38522267
-0.040563 0.17316626 0.08937255 0.1712823 -0.6237643 -0.072897196 0.16031876 -0.36577162
-0.09631941 0.084196396 -0.30278325 -0.22756147 0.060579594 -0.22072831 -0.48197934 -0.49058113
0.56339437 -0.29985255 0.71641314 0.65910554 0.2487144 0.24856067 -0.13195533 0.42934608
0.32806185 -0.026646491 -0.4616578 -0.15372495 -0.38266727 -0.084120266 -0.5012418 0.13928658
0.054039925 -0.048394796 0.33143002 0.72396195 -0.95399344 0.409588 -0.018233435 0.44831342
-0.4221662 0.19283812 -0.119575255 0.89419585 -0.80455846 -0.33062452 0.3026883 0.6770935
-0.24307458 0.4391959 0.1943186 0.6257895 -0.06439717 -0.08826828 0.06889432 0.2062012

network_body._body_endoder.seq_layers.2.bias f4 [256]
00000000: ea71 58bc 3b9b 723b dc90 bfba 511c 1fbb
00000010: 0648 a4ba 537c 85ba 2e63 1f3b 6a0a cd38
00000020: 7d1f 713b 832b adbb 8b75 c1bb 1628 96bb
00000030: 6a55 33bb e04d 90bb 2e95 eb3a 15d6 d23a
00000040: 96ff 4ebb bfc9 2fbb 02a8 2abb 57da 2fbb
00000050: b0bf 39bb 1713 f3ba bf2e 4cba fa0b 90ba
00000060: 2e38 823a 2a69 4abb 964a b3ba 068e 57bb
00000070: 6169 8ebb c402 47bb 7506 3fbb 3114 f2bb
00000080: 736f ddba 4e16 b5ba 82b5 bcbb 9b76 2bbb
00000090: 4d11 86bb cbfa ec3a ba96 f33a f88f 743a
000000a0: 73d2 acbb 59b7 2fbb 4258 74bb 5598 0cbb
000000b0: 0426 0dbb 50c2 14ba fc0d 5cba 440c 89bb
000000c0: de99 89bb b412 faba 6918 cabb d9bf adb9
000000d0: bdb3 81ba 09d6 16b9 5e61 073b 5fc6 31bb
000000e0: 862a 83bc 1c02 3a3a 8fb2 22ba 97dd 22bb
000000f0: 7655 8a39 dd98 5bbb 9fb4 9339 ef9f 34bb
00000100: 059d 7139 4fa4 8fbb bde5 a93b fa43 55ba
00000110: 43df 34bb e747 77bb 6623 88bb 7465 04bc
00000120: 232e 3b3a 1447 5cba 2eda 28bb e204 6e3b
00000130: 898e 8bbb 7536 50bb a1b3 e4b8 1e79 a2bb
00000140: af56 61bb 2a56 29bb c3f7 22bb 3ffc 31bb
00000150: ea38 d339 6ddb abbb 6392 f7ba f978 81bb
00000160: cf62 efbb ece9 b2bb cd8e edba 0fc3 a5bb
00000170: bddf 74bb 850f 8eba 8cda edba bf23 94bb
00000180: 8a25 8c3a dc9a 8c39 1c56 073b b5c8 adbb
00000190: 223f bdba 2fd7 2e3a 65c3 97ba aadc 4aba
000001a0: de42 b3bb cd35 4eba 39db a63a 97a8 86bb
000001b0: b903 9ebb 21e3 a33b b5fb 5939 15b5 33bb
000001c0: f908 72bb 9fe3 ffba a826 3abb d970 d6ba
000001d0: 7467 b63a c1fb beba 9b47 82bb 58ec 9139
000001e0: af50 5abb 3499 fa3a 2bca 93bb 3532 3839
000001f0: 9d72 d6bb c21d 3ebc bf06 80bb d1bf d7ba
00000200: cb19 5fbb 49eb 92bb b0b2 04bb 0e5a 093b
00000210: 1c15 08bb 1453 aeba 82cb a5bb 6692 9cb8
00000220: 1d24 0abb c8c2 68bb 60b9 c63b f038 08bb
00000230: df6d cebb 5c76 d139 e940 b5b9 52d2 4a39
00000240: 7e03 8abb 16ab 7abb e91d cb39 ecfe d8bb
00000250: cedc 32bb c18d 293a fbc6 86ba 5209 ebba
00000260: 3bf3 6bba 7a42 4bba 5f34 013b 1170 bbbb
00000270: ce90 00bc ce0f 2abc 83b6 fcbb 7729 21bc
00000280: 731e 41bb a028 05bb 8f98 76bb c34b 92bb
00000290: 610d c7bb 9eb2 a3bb 93fa edbb e026 f33a
000002a0: 8dad f7ba b371 54ba 4001 b8bb 1be3 2abb
000002b0: ecf9 0fbb 172b 6fbb 5dfc 9fbb b968 1e3b
000002c0: 2c5a ca3a 1783 edba db66 aeb9 c417 bfbb
000002d0: 706d 68b8 f0b5 34bb 3158 68ba 52eb 0fbb
000002e0: 2b17 10ba 80da 023b 0fa5 edbb 3527 89ba
000002f0: 35cd 5ab9 1990 8ebb 439a 25bb 8c77 93ba
00000300: 1979 82bb 9b7e 9cbb b736 6ebb 8333 c93a
00000310: 85f8 c5bb c4c2 3ebb 90d8 dcba 8917 4fbb
00000320: ca72 34bb ca88 28bb 52cf 21bb 2a56 12bc
00000330: abb2 61bb 55a7 1239 527d 86bb 22ae f2b8
00000340: 8e66 9fbb 21d8 33bb 464e 22ba 1566 60bb
00000350: b051 89ba f8b6 c239 cd23 57bb ba34 7dbb
00000360: 5928 943a 8a78 76bb 2249 9b3b 4fcf 81b9
00000370: 6555 20bb 179e 53bb c1fb 97bb e177 c539
00000380: 8799 8fbb 5b85 19ba ba1c 47bb 2dcf 41bb
00000390: 1a23 81bb 6550 82ba ebdb b0ba 1a59 c4bb
000003a0: f435 1abb 94e0 a43b 0b9d 20bc 1a3a c8ba
000003b0: d1aa 6f3b 8adb 9cbb cef2 34bb 8f28 f9b9
000003c0: ea9e 1aba 0f4c 19bb 7a41 06bb 46f6 8bbb
000003d0: d315 5cbb 2905 efbb 77e6 e4b9 8f13 8ebb
000003e0: 8795 51bb f8ef e2b9 0b32 51bb dd49 43ba
000003f0: 9b7b d93a 2e9b 97bb f2f3 07bb 9570 e13a
-0.013210753 0.0037018794 -0.0014615315 -0.0024278353 -0.0012533672 -0.0010184146 0.002432059 9.7771015e-05
0.003679245 -0.005284728 -0.005903905 -0.0045824153 -0.0027364143 -0.0044038147 0.0017973536 0.001608553
-0.0031585447 -0.002682313 -0.0026040082 -0.0026833022 -0.0028343014 -0.0018545118 -0.0007788948 -0.0010989897
0.0009934956 -0.0030885437 -0.0013678845 -0.003289105 -0.0043460582 -0.0030366639 -0.0029148136 -0.007387661
-0.0016894176 -0.0013815851 -0.005758942 -0.0026163224 -0.004091418 0.0018080113 0.0018584349 0.00093293143
-0.005274111 -0.0026812165 -0.003728405 -0.0021453102 -0.0021537552 -0.0005674707 -0.0008394418 -0.0041823704
-0.0041992506 -0.001907906 -0.0061674607 -0.0003314007 -0.0009895485 -0.00014384849 0.00206574 -0.0027126295
-0.016011488 0.0007095651 -0.0006206417 -0.0024851316 0.00026385084 -0.0033507862 0.00028172598 -0.0027561148
0.00023042045 -0.004383601 0.0051848576 -0.00081354345 -0.0027598895 -0.0037732066 -0.0041546104 -0.008080829
0.0007140359 -0.00084029255 -0.002576481 0.0036318828 -0.004258935 -0.003177074 -0.00010905346 -0.004958286
-0.0034383943 -0.0025838711 -0.0024866916 -0.0027158407 0.0004028746 -0.0052446635 -0.0018888231 -0.0039511886
-0.00730548 -0.0054600146 -0.0018124223 -0.005058653 -0.0037364804 -0.0010838365 -0.0018146797 -0.004520863
0.001069234 0.0002681826 0.002065069 -0.005303467 -0.0014438371 0.0006669638 -0.0011578618 -0.000773857
-0.0054706177 -0.00078662933 0.0012730128 -0.004109453 -0.004822221 0.005001441 0.00020788501 -0.0027421166
-0.0036931618 -0.0019522792 -0.0028404389 -0.0016360536 0.001391633 -0.0014570878 -0.003975821 0.00027832645
-0.0033312251 0.0019119144 -0.0045101843 0.00017566311 -0.0065444247 -0.0116037745 -0.003907054 -0.0016460364
-0.0034042473 -0.0044836146 -0.0020248108 0.0020958218 -0.0020764535 -0.0013299906 -0.0050596604 -7.4659285e-05
-0.0021078654 -0.003551649 0.006064579 -0.002078589 -0.0062997187 0.0003995177 -0.00034571372 0.00019342572
-0.004211842 -0.0038248948 0.00038741462 -0.006622186 -0.0027292254 0.00064679614 -0.001028269 -0.0017931855
-0.0009000783 -0.0007753741 0.0019715053 -0.0057201465 -0.007847024 -0.010379745 -0.007712187 -0.009836546
-0.0029467612 -0.0020318404 -0.0037627553 -0.004464598 -0.006074593 -0.004995658 -0.007262537 0.0018551014
-0.0018896327 -0.00081041007 -0.0056153834 -0.0026075307 -0.0021969033 -0.003649419 -0.004882379 0.0024171306
0.001543825 -0.0018120733 -0.000332645 -0.0058316905 -5.5415032e-05 -0.0027574264 -0.0008863239 -0.002196033
-0.00054966164 0.0019966662 -0.0072523425 -0.0010463955 -0.00020866546 -0.004350674 -0.002526895 -0.0011250838
-0.003981721 -0.0047758347 -0.003634853 0.0015350435 -0.0060415887 -0.0029107789 -0.0016849209 -0.0031599721
-0.002753424 -0.0025716298 -0.0024690223 -0.008931676 -0.003443877 0.00013985981 -0.004104295 -0.00011571894
-0.0048645204 -0.0027442055 -0.0006191473 -0.0034240533 -0.0010476615 0.00037138886 -0.0032827735 -0.0038636164
0.0011303528 -0.0037608468 0.0047389427 -0.00024759254 -0.0024464962 -0.0032290274 -0.0046381657 0.00037664085
-0.0043823156 -0.00058563583 -0.0030382113 -0.002957295 -0.003940952 -0.0009942172 -0.0013493275 -0.005992067
-0.0023530694 0.0050316546 -0.009803067 -0.0015276105 0.003657032 -0.0047869133 -0.0027610543 -0.000475232
-0.0005898314 -0.0023391282 -0.0020485804 -0.0042713014 -0.0033582344 -0.0072943163 -0.00043659259 -0.0043358277
-0.0031979994 -0.0004328487 -0.0031920697 -0.0007449666 0.0016592623 -0.004626653 -0.0020744768 0.001719969

network_body._body_endoder.seq_layers.2.weight f4 [256, 256]
00000000: a317 033e d363 8e3d 14d8 54be 0001 3f3d
00000010: bcea 333d 7716 88bb 2262 bfbd 8013 0a3e
00000020: 4b6f f53c 2711 d5bc 1273 aebc f840 9cbc
00000030: f93c a63c 07dc 933c a7de d9ba 827f 27bc
00000040: 5545 9bbd a628 463c 25f0 cbbd edba e03d
00000050: aaa5 a53b 9516 bdba a176 493d 4993 da3c
00000060: c31a 1fba 8243 3f3d e609 61bd 1b82 313d
00000070: b93f afbd 734b 9a3d 162d c0bd ce15 7f3b
00000080: 6e13 ea3c 5267 06be 8b5b 6c3d 1ef0 043e
00000090: aff8 c73d b6d8 04be b73b ecba 2553 f0bc
000000a0: c29f 273d cc0a a83a 241d 943d b6e0 bfbd
000000b0: 277b 8ab8 0fa9 47bb 48ba 453c 4819 acbc
000000c0: 27a3 99bd 1033 afbc d949 a8bd 03d3 b13d
000000d0: 5e38 003c 6ff4 6a3d b86b 943c 7678 b9bd
000000e0: c8f6 babc 5b14 123d 6c9b cdbd 92ff 9ebd
000000f0: 4d99 8ebd 92f0 9f3d 8978 efbd 9ac8 e43b
00000100: f411 6f3d ab28 a6bd 1498 dd3b 4d09 3e3c
00000110: 9c0a 293e 7839 073d e143 0ebe 7393 a33b
00000120: 2e19 4a3d 3c31 efbc 5bd7 9d3d d9a4 b73c
00000130: 190e 0fbe 106a 7abb 3e69 8fbd c016 b23a
00000140: 203c bfbc 1c6e b63c 43d5 f43d aada f8bc
00000150: e833 de3c f741 22bd 83fa acbd 9415 043e
00000160: 5244 6dba af13 4b3d 5059 ae3d 2a14 7d3d
00000170: da1a 30bd 52fc d1bb 705f 22bd e7c2 82bb
00000180: fd04 0f3d d04b bb3b c74e 10bd d9a2 9ebd
00000190: 569b 793c fa06 13bd 2a63 bcbd 23bb eabc
000001a0: 791f 0a3d 122b 4bbd a959 0abd 9a6b d7bd
000001b0: 345a d43c 2db7 3c3d 6800 c63c d531 34bb
000001c0: bfb9 6bbd 1565 0dbe b7a4 5abb 0eef 94bd
000001d0: dd4f ef3c ce42 33bd c178 2fbd 7724 6dbd
000001e0: 5a2e 213d 70f8 953c 9397 acbc 887c 01bd
000001f0: a5cd 223d 0ebd 2fbc 4606 debc 7613 5e3d
00000200: 3c3b b7bc cd06 feba a00b a43d df01 76bd
00000210: f4a9 0e3d dc7a 893c 6e95 4cbd bc00 0ebd
00000220: dc59 9d3d 3e15 c6bc 845f 813d 5097 eabc
00000230: 36bf 63bb 8e88 24bd 318e 23bd f1b0 393c
00000240: 1f8b 893b 81a1 343a 1e11 edbc 2d73 153c
00000250: e63a 2f3d 14a9 c7bd 1718 e5bd ebb8 9dbd
00000260: 7052 403c 2a75 d33b b7b9 9abd ba79 68bc
00000270: 135e c9bc 1c48 0ebd ea00 283d 1ea5 07be
00000280: ed96 fb3d 1f9c bebd c2e8 41be 4e91 513d
00000290: 71e1 bf3d 8b3c 313d 79dd 17bd ce52 cdbc
000002a0: 65ae 2abd d1d5 45bd c8bb 99bd d269 b03b
000002b0: 2205 ddbc 503f c4bd b5cc a5bd d27c 41bd
000002c0: 9749 1a3d 1ed2 f23c 9da1 433d 1a7d 6c3c
000002d0: ec7d 22bd ab57 19bd bfab b7bd 6699 7f3d
000002e0: 695c 6abd e0e5 4ebe 85f2 2e3d 8920 7c3c
000002f0: 070a 3e3c 7c57 853d 9a74 743d 7421 82bd
00000300: 32d6 de3d e023 6b3d 6b91 793d 3330 573d
00000310: 2038 b63c 1d9c b23d 097c c83c 086a fbbc
00000320: 1199 1f3d b090 e0bd 8341 1abd c906 b13d
00000330: 1ade 243a 37be 953d eef8 763c a859 fe3c
00000340: 9dfc 8dbc 3080 8d3d f9e3 89bd a2cd 1abd
00000350: 853a 1abd b9d0 6fbd 07f7 f0bb 1032 243d
00000360: e767 0fbd 3dcc 0f3d 0440 80bd 47c2 cebd
00000370: 9446 c2bc d5f8 79bc 8569 503d 2e9c 1a3b
00000380: 1ed3 cabd 2107 1d3d 8e42 b93d c716 0e3c
00000390: 4c3c 26bd 6720 ffbd e129 103e 78c0 553d
000003a0: 438b 573d c423 103d 393c 23bd 62f7 b6bc
000003b0: bd6d a3bc 5750 5a3d 8361 8bbd 0693 1e3c
000003c0: 03c7 afbc 68ea 4fbd 8e85 a53c 2b5a c4bd
000003d0: 9d85 723d fd68 07be d00a 41bd 3511 6fbc
000003e0: bdde c8ba 6d34 3c3d 2ed1 debc d3b5 3d3b
000003f0: 8115 9a3d ea89 e8bd c155 c23d 31a8 60bc
0.12801985 0.06952634 -0.20785552 0.046631813 0.043925032 -0.0041530686 -0.09344889 0.13484001
0.029960295 -0.026009155 -0.021295104 -0.019073948 0.020292746 0.018049253 -0.0016622142 -0.010223271
-0.075815834 0.012094652 -0.09957913 0.10973153 0.005055149 -0.0014426286 0.0491854 0.02668156
-0.00060693565 0.04669524 -0.05494108 0.04333697 -0.08557076 0.07533922 -0.093835995 0.0038922909
0.028573718 -0.13125351 0.05770449 0.12982222 0.097642295 -0.12973294 -0.0018023168 -0.029336521
0.04092384 0.00128206 0.07232121 -0.09369032 -6.603292e-05 -0.0030465757 0.012068339 -0.021008149
-0.07501822 -0.021386653 -0.0821721 0.086828254 0.007825939 0.057362016 0.01811777 -0.09056179
-0.022822753 0.035663944 -0.1003941 -0.0776359 -0.069628336 0.07809557 -0.11692912 0.0069819214
0.05836673 -0.081132255 0.006762514 0.011598897 0.16507953 0.03301379 -0.13893081 0.0049919426
0.04934042 -0.029198281 0.077070914 0.022417473 -0.13970222 -0.003821019 -0.07002495 0.0013587102
-0.0233441 0.022269301 0.11954739 -0.030377705 0.02712436 -0.03961369 -0.08446219 0.12898856
-0.0009051013 0.04957932 0.08513129 0.061786808 -0.042994358 -0.0064082528 -0.039641798 -0.0039905193
0.034916867 0.0057158247 -0.035231378 -0.077459045 0.015234789 -0.035895325 -0.091986015 -0.028653687
0.03372142 -0.049601622 -0.033776913 -0.1051857 0.025921918 0.046073128 0.024170116 -0.0027495523
-0.05755019 -0.13808091 -0.0033362338 -0.072721586 0.029212886 -0.04376488 -0.04283977 -0.057896104
0.039350845 0.01830694 -0.02106837 -0.031612903 0.0397469 -0.0107262265 -0.0271026 0.05421778
-0.022367112 -0.0019380689 0.0801003 -0.06006038 0.03483005 0.016782217 -0.049947195 -0.03466867
0.07683155 -0.024180051 0.06317046 -0.028636605 -0.0034751422 -0.04016929 -0.039930526 0.01133369
0.0041974927 0.0006890521 -0.028938826 0.009121698 0.04278078 -0.09749046 -0.111862354 -0.07701286
0.011738405 0.006453176 -0.075549535 -0.014189178 -0.02458099 -0.034736738 0.041016497 -0.13246581
0.12284646 -0.093071215 -0.18936446 0.051163964 0.093691714 0.04327063 -0.037076447 -0.025063898
-0.04167022 -0.048299614 -0.075065196 0.0053837085 -0.026979987 -0.095823884 -0.080956854 -0.04723818
0.037667837 0.029641207 0.04776155 0.014434123 -0.03967087 -0.037437122 -0.08968305 0.06240215
-0.057217035 -0.20204878 0.042711753 0.015388616 0.01159907 0.06510827 0.059681512 -0.06354037
0.10880698 0.05740726 0.060929697 0.0525362 0.02224356 0.087211825 0.024473207 -0.030690208
0.038964335 -0.10965097 -0.037660133 0.08643872 0.0006289199 0.07311671 0.015073998 0.03104861
-0.01733237 0.069092155 -0.067329355 -0.037793763 -0.037653465 -0.058548663 -0.0073536667 0.040086806
-0.0350112 0.035106886 -0.0626221 -0.10095649 -0.023715295 -0.01525708 0.05088188 0.0023591626
-0.09903549 0.038336877 0.090458974 0.008672423 -0.040584847 -0.12457352 0.14078476 0.052185506
0.052623045 0.03519036 -0.039852355 -0.022334758 -0.019949788 0.053299274 -0.06805708 0.009678608
-0.0214572 -0.050760657 0.020205285 -0.09587511 0.059209455 -0.13223644 -0.047129452 -0.014591505
-0.001532517 0.045948435 -0.027199354 0.0028947487 0.07523633 -0.1135443 0.094890125 -0.013711975
