results/Run1/config/config-8499948.onnx (onnx, 273335 bytes, 5 tensors)

action_model._continuous_distribution.mu.weight f4 [1, 256]
0	0x3dbf8069	0.09350664
1	0xbe01d58e	-0.12679121
2	0xbdbbd2be	-0.09171055
3	0xbdb5cc2b	-0.088768326
4	0xbe467803	-0.19381718
5	0x3d8c4d06	0.068506286
6	0xbdfb84aa	-0.12281163
7	0xbd8be347	-0.06830459
8	0xbdce096b	-0.1006039
9	0xbb2455b2	-0.0025075492
10	0x3d232620	0.03983128
11	0xbcd89a95	-0.026440898
12	0xbdb309af	-0.087420814
13	0x3ce42495	0.027849475
14	0xbd4a636a	-0.049411215
15	0x3e58be85	0.21166427
16	0xba1bde8e	-0.0005945944
17	0x3df1fd5a	0.11815901
18	0xbd824a37	-0.063618116
19	0xbda8d69e	-0.0824406
20	0x3d90e8e0	0.070756674
21	0x3cae1990	0.021252424
22	0xbd5adc95	-0.05343302
23	0xbd002ab2	-0.031290717
24	0xbd98b3b4	-0.07456151
25	0xbd3b2a88	-0.045694858
26	0xbd1f5d40	-0.03890729
27	0x3d97b569	0.07407648
28	0x3d2748ac	0.04084079
29	0xbdecfa2c	-0.11571154
30	0xbdb634f3	-0.08896818
31	0xbd89d974	-0.06730929
32	0xbd27bf34	-0.04095383
33	0xbd802370	-0.06256759
34	0xbd3a2cd6	-0.045452915
35	0xbc11211b	-0.008857991
36	0x3d9e93e7	0.07743054
37	0x3dccfc23	0.10009029
38	0xbd7f7549	-0.06236771
39	0xbcce640a	-0.025194187
40	0xbd50dccb	-0.050991815
41	0x3d19fa5b	0.037592273
42	0xbd188c7b	-0.037243348
43	0xbd83f284	-0.064427406
44	0xbdccca03	-0.09999468
45	0xbd815cd6	-0.06316535
46	0xbd50be48	-0.050962716
47	0xbd184a3a	-0.037180163
48	0xbd5b7c57	-0.053585377
49	0xbd8b5305	-0.06802944
50	0xbd0d4947	-0.03449371
51	0x3cd04af6	0.02542637
52	0x3d7abeff	0.061217304
53	0xbd7f0ac8	-0.06226614
54	0xbd96f437	-0.07370799
55	0xbdba056f	-0.090830676
56	0x3dbdef1f	0.09274124
57	0xbc9444aa	-0.018099148
58	0xbe2b1920	-0.16708803
59	0xbcec4b64	-0.028844543
60	0x3d2344dd	0.039860595
61	0x3cca47e6	0.024692487
62	0xbd45ba3d	-0.048273314
63	0xbd4f98f1	-0.050682966
64	0x3cd43613	0.02590469
65	0xbd9d2a9d	-0.076741435
66	0x3d01a4e3	0.03165139
67	0xbdc6e704	-0.097120315
68	0xbdc8b22f	-0.09799611
69	0xbb42517f	-0.0029650626
70	0xbd1b64c0	-0.03793788
71	0xbdbf7677	-0.09348767
72	0xbd095b66	-0.03353443
73	0xbd940801	-0.07228089
74	0x3d3cccc4	0.046093717
75	0xbd18858a	-0.037236728
76	0xbd02c67d	-0.031927574
77	0xbdd61d6b	-0.1045483
78	0x3e22dcab	0.1590449
79	0xba454368	-0.0007524998
80	0xbd9d71e0	-0.076877356
81	0xbdc59bc4	-0.096488506
82	0xbd509f24	-0.05093302
83	0x3d74a3e0	0.059726596
84	0x3dae1737	0.08500522
85	0xbcfe679c	-0.031055264
86	0xbe2e52da	-0.17023793
87	0xbd820bbc	-0.063498944
88	0xbd32d5c8	-0.04366091
89	0xbdbdf80f	-0.09275829
90	0xbcc9e326	-0.024644446
91	0xbe3e67a9	-0.1859423
92	0xbe1851bd	-0.1487493
93	0xbc817664	-0.015803523
94	0xbddd14f7	-0.10795014
95	0xbdd3d053	-0.10342469
96	0xbd2a0488	-0.041508228
97	0x3ccd9eac	0.025100075
98	0xbd58f2e9	-0.052966032
99	0xbda69a9f	-0.081349604
100	0x3e1d493b	0.15359966
101	0xbcbe62df	-0.023240505
102	0xbdec97f2	-0.11552419
103	0xbd158ec8	-0.03651312
104	0xbdcdae7f	-0.10043048
105	0xbc6f0553	-0.014588672
106	0xbde20d97	-0.11037748
107	0xbd0f8a2c	-0.03504388
108	0x3c959eb3	0.01826415
109	0xbe1cd69a	-0.15316239
110	0xbdea003a	-0.114258245
111	0xbc9350f6	-0.017982941
112	0xbdacc500	-0.08436012
113	0x3cb119e5	0.021618793
114	0xbd68a0f7	-0.056794133
115	0xbd4ac5f5	-0.049505193
116	0xbd1a82d9	-0.037722442
117	0xbd0c8b5a	-0.034312584
118	0xbcc998be	-0.024608966
119	0xbded8921	-0.11598421
120	0x3d612568	0.054967314
121	0xbdef2451	-0.11676849
122	0xbe0290ec	-0.12750596
123	0xbe48d132	-0.19611052
124	0xbdb0f68a	-0.086407736
125	0x3d9a2a0f	0.07527553
126	0xba27e901	-0.0006405265
127	0xbc13bb1f	-0.009016781
128	0x3de8bfcb	0.113647066
129	0xbe01a0e3	-0.1265903
130	0x3d91b76a	0.071150616
131	0xbd2406ac	-0.040045425
132	0xbd29d014	-0.041458204
133	0x3db64931	0.08900679
134	0xbd045684	-0.03230907
135	0xbdb49aaf	-0.08818566
136	0xbd35c2e7	-0.044375326
137	0x3db75c26	0.08953123
138	0xbe996f91	-0.2996793
139	0xbd2e9d07	-0.04263022
140	0x3d9a15db	0.075237
141	0xbc8cfc30	-0.017210096
142	0xbd108ed0	-0.035292447
143	0xbd6ec1b5	-0.058290202
144	0x3d25aeab	0.04044978
145	0xbd745134	-0.059647754
146	0x3d217280	0.039415836
147	0xbdb913e5	-0.09036998
148	0xbde1cf2b	-0.11025842
149	0xbd77b82f	-0.060478386
150	0xbca83034	-0.020530798
151	0xbdc0df7a	-0.09417625
152	0xbd17e4b6	-0.03708335
153	0xbd076da2	-0.03306354
154	0xbcf8b021	-0.030357422
155	0xbc478dc9	-0.0121798
156	0xbda040fc	-0.07824895
157	0x3d6296f4	0.05531974
158	0xbd7a32ce	-0.061083607
159	0xbd48ee52	-0.049055405
160	0xbc1cbce2	-0.009566518
161	0xbdac8155	-0.084231056
162	0xbd3db654	-0.04631646
163	0xbd230c45	-0.039806623
164	0xbd66d0a4	-0.05635132
165	0x3d115fa3	0.035491597
166	0xbc802bea	-0.01564594
167	0xbdd05f53	-0.10174432
168	0xbd3e619d	-0.04647981
169	0xbd9fe304	-0.07806972
170	0xbe254d59	-0.16142787
171	0xbd8070e6	-0.06271534
172	0xbc2fb8a0	-0.01072517
173	0x3df7f8d7	0.12108009
174	0xbd5fe7bb	-0.054664355
175	0x3e2dc96a	0.16971365
176	0xbdb9b600	-0.09067917
177	0xbe25f7a4	-0.16207749
178	0xbd8086e6	-0.0627573
179	0xbe2a2c99	-0.16618575
180	0xbd8308d5	-0.06398169
181	0xbd80d2b2	-0.06290187
182	0xbd55a0e4	-0.05215539
183	0xbd6d3386	-0.057910465
184	0xbd4ad564	-0.04951991
185	0xbbbae85f	-0.0057039703
186	0xbd9a3d01	-0.07531167
187	0xbde61257	-0.11233967
188	0x3e718525	0.23585947
189	0x3d233da2	0.0398537
190	0xbd69ee6b	-0.05711214
191	0x3d242586	0.040074848
192	0xbd82cbd5	-0.06386534
193	0xbd1c6b13	-0.03818805
194	0xbd3f4b68	-0.046702772
195	0xbce3bfe3	-0.02780146
196	0x3e1698dd	0.1470675
197	0xbd6cf339	-0.057849143
198	0xbdae2126	-0.08502416
199	0xbd980111	-0.074220784
200	0x3d3b09c4	0.04566361
201	0xbd3ab62d	-0.045583893
202	0x3df9551e	0.12174438
203	0xbc9a2fc0	-0.018821597
204	0xbd2526bd	-0.040320147
205	0xbd8ffe3c	-0.07030913
206	0xbd3bfdea	-0.04589645
207	0x3c5b9f61	0.013404698
208	0xbd310390	-0.043216288
209	0xbd9d446f	-0.07679068
210	0xba0e908f	-0.0005438411
211	0xbd2c1314	-0.04201038
212	0xbd953228	-0.07284957
213	0xbd402cd8	-0.046917766
214	0xbd6d11d4	-0.05787833
215	0xbda107a4	-0.078627855
216	0x3cc56242	0.024094705
217	0x3da8edff	0.08248519
218	0x3cdda7b9	0.027057515
219	0xbd1ca82d	-0.038246322
220	0xbdb74842	-0.08949329
221	0xbd8ee5b5	-0.06977407
222	0x3db6942d	0.08914981
223	0xbe278b4a	-0.16361728
224	0x3c1ae106	0.009453064
225	0x3d1837d4	0.037162617
226	0xbd8f799a	-0.070056155
227	0x3c728d26	0.01480416
228	0xbd6832e6	-0.056689166
229	0x3d5ebcc3	0.054379236
230	0xbcbeceb4	-0.023291923
231	0xbd9ea879	-0.07746977
232	0xbd7bc99c	-0.061471567
233	0xbd78fbd8	-0.060787052
234	0xbe0b802e	-0.13623115
235	0xbcb9489d	-0.022617633
236	0x3d162cac	0.036663696
237	0x3da84185	0.08215622
238	0xbd22637a	-0.03964565
239	0xbe326b7a	-0.17423812
240	0x3c4b580c	0.012411129
241	0xbd3ac38b	-0.04559664
242	0xbc0d7c0a	-0.00863553
243	0x3d860a7d	0.06544969
244	0x3d1e4260	0.03863752
245	0xbd6165e6	-0.05502882
246	0xbd4c9e54	-0.04995568
247	0x3d9b7163	0.07589986
248	0x3d6fd405	0.058551807
249	0xbe2514eb	-0.16121261
250	0x3e0debeb	0.13859527
251	0xbccd2a90	-0.02504471
252	0x3cfddbd2	0.030988608
253	0xbd3edfd8	-0.046600193
254	0x3ce30e2b	0.027716717
255	0xbcdb1823	-0.026744908

network_body._body_endoder.seq_layers.0.bias f4 [256]
0	0xbcfd5a91	-0.030926974
1	0x3d264e56	0.04060205
2	0xbe391e33	-0.18077926
3	0xbe48b6d2	-0.1960099
4	0xbd85a2c5	-0.065251864
5	0xbc842d5a	-0.016134907
6	0xbcaf75c7	-0.021418465
7	0x3c6f7717	0.014615796
8	0xbdadc8ac	-0.08485541
9	0x3e659a2e	0.22422096
10	0x3d7cd9ac	0.061731026
11	0xbd7bbe05	-0.061460514
12	0xbdc01b72	-0.09380235
13	0x3d81b03b	0.063324414
14	0xbe114be4	-0.14189106
15	0x3d38215c	0.04495369
16	0x3e17d369	0.1482674
17	0x3d055e76	0.032560788
18	0xbe60ec8c	-0.21965235
19	0xbe571594	-0.21004325
20	0xbe05cc23	-0.13066153
21	0x3d3597a8	0.044334084
22	0x3da6eda5	0.08150796
23	0xbe5b3520	-0.21406984
24	0xbdf4b927	-0.119493775
25	0xbe0335cb	-0.12813489
26	0xbe50303f	-0.20330904
27	0x3dfbe5ee	0.12299715
28	0x3d031afc	0.032008156
29	0x3dc98bc5	0.09841112
30	0xbdf072bf	-0.11740636
31	0xbd822bbd	-0.06355999
32	0xbe86c885	-0.2632486
33	0xbe2bcfd5	-0.167785
34	0xbe01c043	-0.12670998
35	0xbd904afa	-0.07045551
36	0xbe225a43	-0.15854745
37	0x3e2744cc	0.16334838
38	0xbd37296d	-0.04471724
39	0xbb1c4feb	-0.0023851346
40	0xbe2c329d	-0.16816182
41	0xbcf0d819	-0.029399918
42	0x3e95f4f5	0.2928845
43	0xbef5850b	-0.47953066
44	0xbd6723c5	-0.056430597
45	0xbc263af0	-0.010145888
46	0xbcb4142b	-0.021982273
47	0xbe8d2d61	-0.27573684
48	0xbe6982e4	-0.22803837
49	0x3e4b707f	0.19867133
50	0xbe18857a	-0.14894667
51	0xbee8db95	-0.45480028
52	0xbd9f7940	-0.077867985
53	0xbd834d3b	-0.06411215
54	0xbe69adca	-0.22820202
55	0x3cac47fe	0.021030422
56	0x3e8b798e	0.27241176
57	0xbd75fcb6	-0.060055457
58	0xbe819a23	-0.2531291
59	0xbc0d2f7f	-0.008617281
60	0xbd8f32a0	-0.06992078
61	0xbb0eb1aa	-0.0021773377
62	0x3d4b1dbf	0.049588915
63	0xbe0e7a77	-0.13913904
64	0xbe0d903d	-0.13824554
65	0xbde4a6de	-0.1116464
66	0xbdee533b	-0.11636969
67	0xbdb187fa	-0.086685136
68	0x3d89fdf8	0.06737894
69	0xbbfa16d3	-0.0076321154
70	0xbe0acba3	-0.13554244
71	0xbe238629	-0.15969147
72	0x3e42fd11	0.1904185
73	0xbc8a4a5e	-0.016881164
74	0xbe855bcf	-0.26046607
75	0x3dd2ef29	0.102995224
76	0xbd3c5548	-0.045979768
77	0xbe3be3b8	-0.18348587
78	0x3d9f7f50	0.07787955
79	0xbd552995	-0.05204161
80	0xbe7b4d03	-0.24541096
81	0x3d811a22	0.063038126
82	0xbd7bba2e	-0.06145685
83	0xbe0c53b6	-0.13703808
84	0x3db7e660	0.089794874
85	0xbd877c90	-0.06615555
86	0xbe26e06b	-0.16296546
87	0x3dc983a3	0.09839561
88	0xbd3378b9	-0.043816302
89	0xbea36fd3	-0.31921253
90	0xbdcc5f18	-0.09979075
91	0xbca0f7e1	-0.019649448
92	0x3d086e18	0.03330812
93	0x3e623ed4	0.2209428
94	0x3d735579	0.059407685
95	0xbd723829	-0.05913559
96	0xbd67a32a	-0.05655209
97	0xbe3d9878	-0.18515193
98	0x3cbe4f17	0.023231072
99	0xbe0d9377	-0.13825785
100	0xbe27ae1b	-0.1637501
101	0xbe3bc639	-0.18337335
102	0xbe345fed	-0.17614718
103	0xbd7ab400	-0.061206818
104	0xbe1ffe69	-0.15624394
105	0x3ca1a655	0.019732634
106	0x3defc66b	0.11707767
107	0xbe5c54e6	-0.21516761
108	0xbd7b72f0	-0.06138891
109	0xbc8c381a	-0.017116595
110	0xbd3e8b14	-0.046519354
111	0x3e27b07a	0.16375914
112	0x3dd8e3fb	0.10590359
113	0x3da3d831	0.080002196
114	0xbdc7cbcd	-0.09755669
115	0xbe3113d1	-0.17292716
116	0xbce2fcac	-0.027708374
117	0xbe872d8f	-0.26401946
118	0xbe5e2eb9	-0.21697511
119	0x3ce88af1	0.028386565
120	0xbc8835d4	-0.01662723
121	0xbdde9e34	-0.108700186
122	0x3d880a87	0.06642633
123	0x3c4282e1	0.011872024
124	0xbe27ff23	-0.1640592
125	0x3e4c8f17	0.1997646
126	0x3a6119aa	0.0008586893
127	0x3d836d39	0.06417317
128	0xbca47444	-0.020074971
129	0x3c390d46	0.011294669
130	0xbe2ef8c0	-0.17087078
131	0x3acb83d3	0.0015526958
132	0x3e09f685	0.13472946
133	0x3d8c70de	0.06857465
134	0xbe712e8b	-0.23552911
135	0xbe3aac8e	-0.18229887
136	0x3e2f4dc9	0.17119516
137	0x3e69bf6b	0.22826926
138	0x3c8d179a	0.017223168
139	0xbe50d4af	-0.20393632
140	0xbe86ba40	-0.26313972
141	0xbe038c40	-0.1284647
142	0xbe1939c4	-0.14963442
143	0x3d71f508	0.05907157
144	0xbe394904	-0.1809426
145	0x3b3ebc2e	0.0029103863
146	0xbd1969be	-0.03745436
147	0x3c28ea11	0.010309712
148	0x3c03add4	0.008037049
149	0xbe0c99b0	-0.13730502
150	0xbd41bb9c	-0.04729806
151	0x3c5bb072	0.013408767
152	0xbe136ec3	-0.14397721
153	0xbe8d9b60	-0.27657604
154	0x3db54f1f	0.08852982
155	0xbe1f79d1	-0.15573813
156	0xbdbb2222	-0.0913737
157	0x3dfefde8	0.124507725
158	0x3d73bd7f	0.05950689
159	0x3e4eabd9	0.20182742
160	0x3e0f0ba9	0.13969292
161	0x3db39760	0.08769107
162	0xbdf787d5	-0.12086455
163	0xbcfbcdd6	-0.030737799
164	0x3cb58e7f	0.022162674
165	0xbd290d62	-0.04127253
166	0x3dcfb13f	0.10141229
167	0xbe620195	-0.22070916
168	0xbdd47baf	-0.10375153
169	0xbebe66f1	-0.37187913
170	0x3e581c2d	0.21104498
171	0x3c2298dc	0.00992414
172	0xbe12bb8d	-0.14329357
173	0xbe937861	-0.2880278
174	0x3d978b98	0.07399672
175	0x3cad6d19	0.021170186
176	0xbd29a8dd	-0.041420806
177	0xbd28d825	-0.041221756
178	0xbdba1312	-0.090856686
179	0xbe1e972b	-0.15487354
180	0x39cba222	0.00038839976
181	0x3e289cf3	0.16466121
182	0x3de624ff	0.11237525
183	0xbe1bf041	-0.15228368
184	0x3e39a1a2	0.18128064
185	0x3d2e6e12	0.04258544
186	0xbcacd961	-0.021099748
187	0xbc045150	-0.008076027
188	0xbd344fee	-0.04402154
189	0xbdf29892	-0.11845507
190	0xbe6cf443	-0.23140053
191	0xbcf0f4cd	-0.029413605
192	0xbe840cb5	-0.25790945
193	0x3dbc6cb9	0.09200425
194	0xbe583826	-0.21115169
195	0xbe04934a	-0.12946811
196	0xbd357e73	-0.044310044
197	0xbe987958	-0.29780078
198	0xbe0a29dd	-0.13492532
199	0xbcc5496c	-0.024082862
200	0xbddcc666	-0.10780029
201	0xbda6500f	-0.08120739
202	0xbd54166a	-0.05177919
203	0xbdf4e802	-0.119583145
204	0xbe859b98	-0.2609527
205	0xbe6786cb	-0.22610013
206	0xbc7ced1c	-0.015437391
207	0x3ddac365	0.106818
208	0xbdcb4259	-0.09924764
209	0xba5d55d0	-0.0008443268
210	0xbd10aba3	-0.035319936
211	0xbe303e20	-0.17211199
212	0xbd5cbb84	-0.053889766
213	0x3c2797a0	0.010229021
214	0xbc9c38f3	-0.019070124
215	0xbd5a0933	-0.05323143
216	0x3c5aa414	0.013344783
217	0xbd685d9c	-0.056729898
218	0xbec17071	-0.37781098
219	0xbeab600e	-0.3347172
220	0x3bd6af9b	0.0065516955
221	0xbc55c569	-0.0130475545
222	0x3e3c4f42	0.1838961
223	0x3d7c5ca8	0.0616118
224	0xbe27f5e8	-0.164024
225	0xbd1a03ef	-0.037601408
226	0xbdc39439	-0.095497556
227	0xbd0f0797	-0.034919348
228	0xbe0088bf	-0.12552164
229	0xbd373b56	-0.04473432
230	0xbd984347	-0.07434707
231	0x3e08150d	0.1328928
232	0x3d974aac	0.073872894
233	0xbe73df59	-0.23815669
234	0xbcf522fb	-0.029923907
235	0xbe187fd7	-0.14892517
236	0xbe0ff67d	-0.14058872
237	0xbdf04f0a	-0.117338255
238	0x3de0ae3f	0.10970735
239	0x3e15b3c5	0.14619358
240	0xbe6ad7e0	-0.22933912
241	0x3e19a23b	0.15003292
242	0xbc4dcde1	-0.012561292
243	0xbdeae171	-0.11468781
244	0x3cf04630	0.029330343
245	0xbe5a18fd	-0.21298595
246	0xbe064f8c	-0.13116282
247	0xbd9ca94e	-0.0764948
248	0xbe8c3d7f	-0.27390668
249	0x3c54c031	0.012985275
250	0xbd82f30a	-0.06394012
251	0xbdfec135	-0.12439195
252	0xbe039e1c	-0.12853283
253	0xbd77481b	-0.0603715
254	0xbe29db08	-0.1658746
255	0xbd2d3193	-0.042283606

network_body._body_endoder.seq_layers.0.weight f4 [256, 6]
0	0x3d98395a	0.07432814
1	0x3e209ff1	0.15686013
2	0x3e7bc8a4	0.24588257
3	0xbe0ed6a6	-0.1394907
4	0xbebe6b6c	-0.3719133
5	0x3f10a0ca	0.56495345
6	0xbe938857	-0.28814957
7	0xbf182ac1	-0.5944024
8	0x3e9ab557	0.30216476
9	0x3db12795	0.08650128
10	0x3ebef286	0.37294406
11	0x3e4f74f9	0.20259465
12	0x3decace3	0.11556413
13	0x3f1a9859	0.60388714
14	0x3de1bb03	0.11021998
15	0x3e492539	0.19643106
16	0xbe5a2cad	-0.21306105
17	0x3edb2429	0.42801026
18	0xbee6cda8	-0.45078778
19	0xbe554d5a	-0.20830289
20	0xbebfb88f	-0.37445495
21	0x3c8d589e	0.01725417
22	0xbf14d783	-0.58141345
23	0x3dffb6d4	0.124860436
24	0x3eccef86	0.40026492
25	0x3f0e0600	0.55477905
26	0x3e7c6a90	0.24650025
27	0xbe726bb0	-0.23673892
28	0x3f25a1f6	0.6470026
29	0xbed3350d	-0.41251412
30	0xbeac3c11	-0.33639577
31	0x3f9f9718	1.2467985
32	0xbe6c8070	-0.2309587
33	0x3f22595d	0.6341761
34	0x3df16188	0.11786181
35	0x3f2fefe0	0.68725395
36	0xbe2366f0	-0.15957236
37	0xbedfe9c9	-0.4373305
38	0xbec59507	-0.3859026
39	0x3e2abae2	0.16672853
40	0xbeb256c3	-0.3483182
41	0xbe6ec864	-0.2331863
42	0x3e1a8d9d	0.15093084
43	0xbe209059	-0.15680064
44	0xbd80af2e	-0.06283413
45	0xbf1052ed	-0.56376535
46	0xbcf48790	-0.029849797
47	0x3d28e83a	0.041237094
48	0xbe4ca724	-0.19985634
49	0x3f746367	0.95464176
50	0x3e2bb68e	0.16768858
51	0xbe09c5f3	-0.13454418
52	0xbf0ddb26	-0.5541252
53	0xbeb5db42	-0.35518843
54	0xbe85bb93	-0.2611967
55	0xbf5b3dcd	-0.85641176
56	0xbe90396e	-0.28168815
57	0x3f3c1cc4	0.7348139
58	0xbd9c0f21	-0.07620073
59	0x3e93bf10	0.28856707
60	0x3d382298	0.044954866
61	0x3f3ae37a	0.7300335
62	0x3c59ca51	0.013292865
63	0xbeaf3c77	-0.3422582
64	0xbf335660	-0.7005367
65	0x3e9f78b1	0.31146768
66	0xbe4665a1	-0.19374706
67	0xbf030963	-0.511862
68	0xbf74edd3	-0.9567539
69	0x3c0a612a	0.008446017
70	0x3ca2dbbf	0.019880174
71	0x3ead522f	0.33851764
72	0x3d13037c	0.035891995
73	0x3f354b9c	0.70818496
74	0x3e72aeb4	0.23699456
75	0x3c88ce23	0.016699856
76	0xbd08ab67	-0.033366587
77	0xbdf56b54	-0.11983362
78	0x3ee36a37	0.44416973
79	0x3e08bbff	0.13352965
80	0x3e8fde56	0.28099316
81	0xbeec5a2d	-0.4616255
82	0x3eed0566	0.4629318
83	0x3e662816	0.22476229
84	0x3c465ed5	0.012107571
85	0x3ed63a13	0.41841182
86	0xbdadef11	-0.08492864
87	0x3e8f9e12	0.28050286
88	0xbe92348d	-0.28555718
89	0x3e81459a	0.25248414
90	0xbe4a1a2c	-0.19736546
91	0xbea957e2	-0.33074862
92	0xbf0d2778	-0.5513835
93	0x3e687e9d	0.22704549
94	0xbd9a1b71	-0.07524765
95	0xbd516fa7	-0.05113187
96	0x3ebedfb2	0.3728004
97	0x3f2d3055	0.67651874
98	0x3e8d4954	0.27595007
99	0xbf1a771d	-0.60338
100	0xbeffb4d9	-0.49942663
101	0xbece9c48	-0.40353608
102	0x3f260f07	0.6486668
103	0xbe04c256	-0.12964758
104	0x3d298bc5	0.04139306
105	0xbf1f97d3	-0.6234104
106	0x3f043490	0.51642704
107	0xbed80504	-0.42191327
108	0x3e20b800	0.1569519
109	0xbeda5c6e	-0.42648643
110	0x3e8e27dd	0.27764788
111	0x3e9e0090	0.30859804
112	0xbdeabd82	-0.11461927
113	0xbf8e76f5	-1.1130053
114	0xbeedac92	-0.46420723
115	0x3f590baf	0.8478345
116	0x3df61475	0.120156206
117	0x3e912061	0.28345016
118	0xbdc62b94	-0.096762806
119	0x3e7bf67b	0.24605744
120	0x3cc67b12	0.024228606
121	0xbf1b0bcd	-0.6056488
122	0x3e757dbd	0.23973747
123	0x3f30b763	0.69029826
124	0xbea8d667	-0.32976076
125	0xbb8177ed	-0.003951064
126	0xbe1692d0	-0.14704442
127	0xbeb9702b	-0.3621839
128	0xbe9c4f5f	-0.30529305
129	0x3efef11c	0.49793327
130	0x3e164e42	0.1467829
131	0x3e836837	0.25665447
132	0x3dd30fe7	0.103057675
133	0xbea3e574	-0.32010996
134	0xbe7ddd01	-0.24791338
135	0xbe4cb6e1	-0.19991638
136	0x3eefdbb3	0.46847305
137	0xbe82b261	-0.25526717
138	0x3ddb3f83	0.10705473
139	0x3eb355f1	0.35026506
140	0x3eb9b94e	0.3627419
141	0x3c33859f	0.010957151
142	0xbbd52f61	-0.006505892
143	0x3ed7c265	0.421405
144	0x3ce39cd6	0.027784746
145	0x3ec3dcc4	0.38254368
146	0x3ee46a99	0.44612578
147	0x3d927a13	0.0715219
148	0xbe9877fc	-0.2977904
149	0xbcbcbe04	-0.023039825
150	0x3f48fd90	0.78511906
151	0x3d86aa0f	0.06575405
152	0x3bf705b7	0.007538523
153	0xbe27e4c5	-0.16395862
154	0x3f09e4ab	0.53864545
155	0x3f031056	0.511968
156	0x3d3dd4cc	0.046345517
157	0xbcfccca4	-0.030859299
158	0x3dd5bbd4	0.10436216
159	0x3d8108b8	0.06300491
160	0xbe97f376	-0.29677933
161	0xbf2f32d4	-0.6843693
162	0xbe20bf74	-0.15698034
163	0xbed52a93	-0.41634044
164	0x3e09bf44	0.13451868
165	0x3d30ee6e	0.043196134
166	0x3e603fec	0.21899384
167	0x3fa7076c	1.304914
168	0x3cb5a49e	0.022173222
169	0x3f33ff34	0.70311284
170	0x3e23d89c	0.16000599
171	0x3f540d8c	0.8283317
172	0xbd9e8e9b	-0.077420436
173	0x3da94a75	0.08266155
174	0x3ebc3f5e	0.36767095
175	0xbf4581ff	-0.77151483
176	0xbf10a841	-0.56506735
177	0xbe718898	-0.23587263
178	0x3f02a49f	0.5103244
179	0x3ed9f1d3	0.4256731
180	0x3f46f9d8	0.7772498
181	0xbf890fc4	-1.0707936
182	0x3f0ddc8f	0.5541467
183	0xbf064536	-0.5244936
184	0xbe9b4908	-0.30329156
185	0xbdc65fe8	-0.096862614
186	0xbf352eea	-0.7077471
187	0xbf45f85c	-0.7733209
188	0x3e4b262a	0.19838777
189	0x3f3710ae	0.71509826
190	0x3d81653e	0.063181385
191	0x3f0b8e9c	0.5451448
192	0x3f46a157	0.77589935
193	0x3d8b4c20	0.06801629
194	0xbef1d7a4	-0.47234833
195	0xbe03700c	-0.12835711
196	0xbeae8623	-0.34086713
197	0x3dce1650	0.100628495
198	0x3ee5b0f8	0.4486158
199	0x3e17057b	0.14748184
200	0x3e9bea84	0.3045236
201	0xbe4650cc	-0.19366759
202	0xbf28a54d	-0.6587723
203	0x3b1d5654	0.0024007754
204	0xbcfd19d0	-0.030896097
205	0x3f214a3a	0.63003886
206	0xbdb4fb28	-0.08836967
207	0xbd5a6145	-0.05331542
208	0xbdf55bd3	-0.11980405
209	0xbe03d3a9	-0.1287371
210	0x3e3c18af	0.18368791
211	0x3ef8250b	0.48465762
212	0x3dd6e83d	0.10493515
213	0xbe829727	-0.25505945
214	0xbe8b079b	-0.2715424
215	0x3e806473	0.25076637
216	0xbd1ef49d	-0.0388075
217	0xbe6127e7	-0.21987878
218	0x3da50715	0.080579914
219	0xbe76fb04	-0.24119192
220	0x3e867c34	0.26266634
221	0x3eb19b92	0.34689003
222	0x3e0a2f4e	0.13494608
223	0xbeb5239e	-0.35378736
224	0xbf2f54c5	-0.68488723
225	0xbf1b7404	-0.607239
226	0xbebea710	-0.37236834
227	0xbe4eecac	-0.2020747
228	0x3e369a5e	0.17832324
229	0x3ed57805	0.4169313
230	0xbea3fd18	-0.32029033
231	0xbde7d119	-0.11319179
232	0xbf480ace	-0.78141487
233	0x3d360199	0.044435117
234	0x3f14022a	0.578158
235	0x3f5eb509	0.8699499
236	0x3ea4eda2	0.3221255
237	0x3f18daf9	0.59709126
238	0x3fb6796b	1.4255804
239	0xbeda1076	-0.42590684
240	0x3ec5acbf	0.38608357
241	0x3f4acd38	0.7921939
242	0xbed94c7d	-0.42441168
243	0xbe520b89	-0.20512213
244	0xbd3e0c3f	-0.046398398
245	0x3ea2f6cd	0.3182892
246	0x3e283441	0.16426183
247	0xbf894f61	-1.072735
248	0xbe696f9c	-0.22796482
249	0x3ec67a08	0.38764977
250	0xbe8cffa9	-0.27538803
251	0x3cbff72a	0.023433287
252	0xbe891f77	-0.26781818
253	0xbcd0a0a2	-0.02546722
254	0x3e608336	0.21925053
255	0x3f6788ac	0.9044292

network_body._body_endoder.seq_layers.2.bias f4 [256]
0	0xbd37a487	-0.04483464
1	0xbd978d2e	-0.07399975
2	0xbdfebc92	-0.12438311
3	0xbd722e1b	-0.059126
4	0xbd90da7e	-0.07072924
5	0xbd89579d	-0.06706164
6	0xbd5bcbf9	-0.05366132
7	0xbd8d0b9e	-0.068869814
8	0xbd39997d	-0.045312393
9	0xbe0629d4	-0.13101894
10	0xbd089153	-0.033341717
11	0xbd3eb246	-0.046556734
12	0xbd79b9d0	-0.06096822
13	0xbd358e7f	-0.044325348
14	0xbd8dc2fa	-0.069219545
15	0x3c933499	0.017969416
16	0xbdfa37c1	-0.122176655
17	0xbd36e282	-0.04464961
18	0xbd9d83b4	-0.07691136
19	0xbd073dfe	-0.033018105
20	0xbd7259c3	-0.059167635
21	0xbd15b4b0	-0.03654927
22	0xbddef336	-0.108862326
23	0xbdaf8e4a	-0.08572061
24	0xbb041f56	-0.002016028
25	0xbdfaedd2	-0.12252392
26	0xbdaffa05	-0.08592609
27	0xbd1f949a	-0.038960077
28	0x3ccd6609	0.025073068
29	0xbd14d003	-0.036331188
30	0xbd2180b9	-0.0394294
31	0xbd940329	-0.07227165
32	0xbe05fbdd	-0.1308436
33	0xbd39fe3d	-0.045408476
34	0xbd9653ea	-0.07340224
35	0xbdcafb5a	-0.09911223
36	0xbd4923aa	-0.049106278
37	0xbd867efc	-0.06567189
38	0xbdbe30cf	-0.09286653
39	0xbdb85203	-0.090000175
40	0xbdff9710	-0.12479985
41	0x3c00c98b	0.007860552
42	0xbdb0fd5c	-0.086420745
43	0xbd8716dc	-0.06596157
44	0xbd8301c7	-0.063968234
45	0xbd8e1516	-0.069376156
46	0xbdc8501b	-0.09780904
47	0x3baee5b6	0.0053374423
48	0xbd88e09b	-0.06683465
49	0xbdb11701	-0.08646966
50	0xbdf9c062	-0.12194897
51	0xbd962b2f	-0.07332455
52	0x3bf62c9e	0.007512643
53	0xbdaf173b	-0.08549353
54	0xbda2a5d9	-0.07941789
55	0xbd592610	-0.053014815
56	0xbbe684d1	-0.007034876
57	0xbe037d89	-0.12840857
58	0x3c81bd63	0.015837377
59	0xbd1b6076	-0.03793379
60	0xbd9ea640	-0.077465534
61	0xba20bbd6	-0.00061315054
62	0xbd8c2df5	-0.06844703
63	0x3cb41f39	0.021987544
64	0xbd80af2f	-0.062834136
65	0xbd6ebcae	-0.058285408
66	0xbd1dcbbb	-0.03852437
67	0xbd24efd5	-0.040267784
68	0xbd20c035	-0.039245803
69	0xbd3556cd	-0.044272233
70	0xbe01916f	-0.12653135
71	0xbcd96222	-0.026536051
72	0xbde6152d	-0.11234508
73	0xbd853f44	-0.065062076
74	0xbd4fe5fc	-0.05075644
75	0xbd997f26	-0.07494955
76	0xbde408d5	-0.11134497
77	0xbd77067b	-0.060308915
78	0x3cbab92a	0.022793371
79	0xbd873cae	-0.066033706
80	0xbd5241d4	-0.05133231
81	0xbcf13231	-0.029442878
82	0xbd13356f	-0.03593963
83	0x3d7655e7	0.060140517
84	0x3c875acb	0.016522786
85	0xbdcd6644	-0.10029271
86	0xbda175c0	-0.07883787
87	0xbdd99faf	-0.1062616
88	0xbd9ea247	-0.07745796
89	0xbd91a412	-0.07111372
90	0xbe009830	-0.12558055
91	0x3c9ebaa6	0.01937611
92	0xbda6eb0b	-0.081503
93	0xbe06ebd7	-0.13175903
94	0xbd90b4eb	-0.07065757
95	0xbdb6a5a5	-0.08918313
96	0xbdcdbdd9	-0.10045976
97	0x3c59a5fb	0.013284202
98	0xbbe4870d	-0.006974107
99	0xbd89735b	-0.067114554
100	0x3b4d1262	0.0031291475
101	0xbd5f386c	-0.054497167
102	0xbd5f508a	-0.054520167
103	0xbd9f4137	-0.077761106
104	0xbcfbb766	-0.0307271
105	0xbdfacbc9	-0.122459
106	0xbd888f6e	-0.06667982
107	0xbe0408b0	-0.12893939
108	0xbd20a890	-0.039223254
109	0xbd1c0e08	-0.03809932
110	0xbd3faf27	-0.046797898
111	0xbdd1e7ab	-0.10249265
112	0xbd939fd1	-0.07208217
113	0xbcb90835	-0.022586921
114	0xbc6ea2e0	-0.0145652
115	0x3cfd3b85	0.03091217
116	0xbc351fd3	-0.011054951
117	0xbe07fc8e	-0.13279936
118	0xbd90460c	-0.070446104
119	0xbd977dc0	-0.07397032
120	0xbc4da0eb	-0.012550573
121	0xbcf81793	-0.030284679
122	0xbd598d29	-0.053113136
123	0x3d1461a8	0.036225945
124	0xbda7d9ca	-0.08195837
125	0x3c791a50	0.015204027
126	0xbe1bedaa	-0.1522738
127	0xbe03a14e	-0.12854502
128	0x3c7f8333	0.015595245
129	0xbcc01101	-0.023445608
130	0xbbfcb116	-0.00771154
131	0xbdc73653	-0.097271584
132	0xbdbabf81	-0.09118558
133	0xbd0c5c5d	-0.034267772
134	0xbc1b5b7e	-0.009482263
135	0xbd954a90	-0.07289612
136	0xbdcd22e4	-0.100164205
137	0xbc6e20b2	-0.014534162
138	0xbc82b247	-0.01595415
139	0xbc06d3d2	-0.008229213
140	0xbd965e2c	-0.073421806
141	0xbca15339	-0.019693004
142	0xbda44e71	-0.08022774
143	0x3bfa9c17	0.007648002
144	0xbd1ed577	-0.038777795
145	0xbdafb498	-0.085793674
146	0xbd67afa1	-0.056563977
147	0xbd97586e	-0.073899135
148	0xbd809c8b	-0.06279858
149	0xbdbe7fdb	-0.0930173
150	0xbdd108b6	-0.102067396
151	0xbd2e207d	-0.042511452
152	0xbc1f292a	-0.009714404
153	0xbda0e4fd	-0.07856176
154	0xbdcd905d	-0.10037301
155	0xbdfa6898	-0.12226981
156	0xbcf25191	-0.02957991
157	0xbdc73d1c	-0.097284526
158	0xbdca01bc	-0.09863612
159	0xbdd5ed14	-0.1044561
160	0xbd70f520	-0.05882752
161	0xbd23f1fd	-0.0400257
162	0xbdda3e63	-0.106564306
163	0xbe06721c	-0.13129467
164	0xbdb78ba8	-0.08962184
165	0xbd5e940b	-0.054340404
166	0xbdec2c0e	-0.1153184
167	0xbcc7f256	-0.024407547
168	0xbe04c1b9	-0.12964524
169	0xbd8f0414	-0.069832
170	0xbcaa63de	-0.020799574
171	0xbd6b3bfd	-0.057430256
172	0xbe2ba7d3	-0.16763239
173	0x3c2a9301	0.010411025
174	0xbbe9a33a	-0.007130054
175	0x3d8e5f18	0.069517314
176	0xbd533ec7	-0.05157354
177	0xbd262482	-0.04056216
178	0xbd95ed79	-0.07320685
179	0x3cbb919d	0.022896582
180	0xbde6b854	-0.112656265
181	0xbd1376c1	-0.036001924
182	0xbce08bac	-0.02741035
183	0xbdf1666e	-0.11787115
184	0xbd5939ac	-0.053033516
185	0xbe0acb12	-0.13554028
186	0xbcf4e8b8	-0.029896125
187	0xbd1f871a	-0.038947202
188	0xbdb13afe	-0.0865383
189	0x3c96daef	0.018414943
190	0xbbc1e667	-0.0059173587
191	0x3d07afad	0.03312652
192	0xbd06ebb8	-0.032939643
193	0xbd9224b9	-0.071359105
194	0xbde9877f	-0.11402797
195	0xbd9906fa	-0.07472034
196	0x3b0751d4	0.0020648139
197	0xbc8ebec4	-0.017424949
198	0xbd1e0e74	-0.038588002
199	0x3c705aa9	0.014670053
200	0xbdd73f83	-0.10510161
201	0xbde54e54	-0.111965805
202	0xbdb59342	-0.08865978
203	0xbcfdf3b6	-0.031
204	0xbd43691a	-0.047707655
205	0xbd674f99	-0.056472395
206	0xbda3f3ff	-0.08005523
207	0xbda3d524	-0.07999638
208	0xbdfb52a1	-0.122716196
209	0xbc2b2822	-0.01044658
210	0xbdf408c0	-0.119157314
211	0xbc564f6f	-0.013080462
212	0xbd844fa6	-0.06460504
213	0xbe02236e	-0.12708828
214	0xbdaf62ec	-0.0856379
215	0xbd43b11f	-0.047776338
216	0x3cbca6a3	0.023028677
217	0xbcd8a5a1	-0.026446166
218	0xbd334d13	-0.043774676
219	0xbdf5541c	-0.11978933
220	0xbdccbcf7	-0.0999698
221	0xbd9c937b	-0.07645317
222	0xbcc1274e	-0.023578312
223	0xbb1488ae	-0.0022664475
224	0xbe1d06fe	-0.15334699
225	0xbd95323c	-0.07284972
226	0x3bd77d69	0.0065762294
227	0xbda39e50	-0.0798918
228	0xbdde8c89	-0.10866649
229	0xbd1f1609	-0.038839374
230	0xbe0dde72	-0.13854387
231	0xbd9a3377	-0.075293474
232	0xbd4524bb	-0.048130732
233	0xbda005b4	-0.07813588
234	0xbb8363d0	-0.0040097013
235	0xbe0443ef	-0.1291654
236	0x3a171944	0.0005763958
237	0xbc70e77e	-0.01470363
238	0xbdf66d3d	-0.12032554
239	0xbd1d1744	-0.038352266
240	0xbd4b72ff	-0.049670216
241	0xbdbc462e	-0.09193073
242	0xbe05e071	-0.13073899
243	0xbd7422f1	-0.059603635
244	0xbdaf92e7	-0.08572941
245	0xbdd0bf72	-0.10192765
246	0xbdabdeb1	-0.083920844
247	0xbc19647f	-0.009362339
248	0xbdeea661	-0.11652828
249	0xbdb93854	-0.09043947
250	0xbc1abb49	-0.009444066
251	0xbe117ad6	-0.14207014
252	0xbd260775	-0.040534455
253	0xbd49edd6	-0.049299084
254	0x3c4fe4d3	0.012688833
255	0xbe0455b9	-0.12923326

network_body._body_endoder.seq_layers.2.weight f4 [256, 256]
0	0xbc0f14cd	-0.008732987
1	0xbe085ee9	-0.13317455
2	0xbd42d4c1	-0.04756618
3	0xbd6e69ed	-0.058206487
4	0xbdc18907	-0.09449964
5	0x3d612e33	0.0549757
6	0x3c9172c6	0.017754924
7	0xbe5827c5	-0.21108921
8	0x3e229ce7	0.15880166
9	0x3e16422d	0.14673682
10	0x3d7e6174	0.062104657
11	0x3d9600fc	0.073244065
12	0x3e33f311	0.17573191
13	0xbe4b280d	-0.19839497
14	0xbd996e67	-0.07491761
15	0x3e0272c1	0.12739088
16	0x3d06363b	0.032766562
17	0xbda8d24b	-0.08243235
18	0x3cc690e1	0.024239006
19	0xbdb3f1ce	-0.08786355
20	0xbd56b746	-0.052420877
21	0xbe3ecaee	-0.18632099
22	0xbe183a39	-0.1486596
23	0x3da9ee39	0.082973905
24	0x3d654d78	0.055982083
25	0xbdde9022	-0.10867335
26	0xbc4d0be4	-0.012515042
27	0xb9ef9e51	-0.00045703587
28	0xbe59dafb	-0.2127494
29	0xbd67351e	-0.05644714
30	0x3d9b5fe7	0.07586651
31	0x3e6b07b0	0.22952151
32	0xbca2738e	-0.019830491
33	0x3d97216d	0.07379422
34	0x3e101d10	0.14073586
35	0x3d719865	0.058983225
36	0xbd1c483e	-0.038154833
37	0xbc97a0f2	-0.018509362
38	0xbc579f83	-0.013160589
39	0xbe424289	-0.18970694
40	0x3d6d931d	0.058001626
41	0x3ce2e702	0.027698044
42	0xbbf1beac	-0.007377466
43	0xbe25ce86	-0.16192064
44	0xbe57fd6d	-0.21092768
45	0x3c5ddcd4	0.013541419
46	0xbe1a8e9e	-0.15093467
47	0xbda44cb6	-0.08022444
48	0xbd9de316	-0.07709329
49	0xbde0126e	-0.10941015
50	0xbdb734e0	-0.08945632
51	0xbd3916f6	-0.045187913
52	0xbc1bd709	-0.009511718
53	0xbe7a1880	-0.24423409
54	0xbd4853ba	-0.048907973
55	0xbd117453	-0.035511326
56	0x3d03ed30	0.03220862
57	0xbe23e5ae	-0.16005585
58	0x3d09b336	0.033618174
59	0x3cef5faa	0.02922042
60	0xbd819ef0	-0.06329143
61	0xbd967f08	-0.07348448
62	0x3c8e8267	0.017396165
63	0x3c0449a5	0.008074199
64	0x3d5e95d3	0.054342102
65	0xbe0a3db0	-0.13500094
66	0x3c902036	0.017593484
67	0x3de3092f	0.11085736
68	0xbe2c2ca1	-0.168139
69	0x3d1597ff	0.036521908
70	0xbca58c86	-0.020208608
71	0x3e04dd50	0.12975049
72	0xbd535034	-0.05159016
73	0x3cec4470	0.028841227
74	0xbe07e098	-0.1326927
75	0xbd4254ef	-0.04744428
76	0x3e265369	0.16242756
77	0x3d86aedf	0.06576323
78	0x3d963d03	0.07335856
79	0x3c473ed9	0.01216098
80	0xbe2444cc	-0.16041869
81	0xbe1fd4cf	-0.15608524
82	0xbea26e10	-0.31724596
83	0xbe03318f	-0.12811874
84	0x3c8eaa9d	0.01741534
85	0x3e6ef865	0.23336942
86	0xbd9abe51	-0.07555831
87	0xbcfc0093	-0.030761993
88	0xbe64963b	-0.22322933
89	0xbda2ce99	-0.079495616
90	0xbd08d42b	-0.033405464
91	0xbd82d359	-0.063879676
92	0xbe826960	-0.2547102
93	0xbe09791e	-0.13425109
94	0xbede074a	-0.43364936
95	0xbe325db2	-0.17418554
96	0x3cd00c0c	0.02539637
97	0xbe78db00	-0.24302292
98	0xbde020f7	-0.109437875
99	0x3e6e9f10	0.23302865
100	0xbe0321d8	-0.12805879
101	0x3c18c81b	0.009325053
102	0xbe698c8d	-0.22807522
103	0x3c891614	0.01673416
104	0x3bb9e988	0.005673591
105	0xbdba0f66	-0.09084968
106	0xbbe5b4a6	-0.0070100604
107	0xbd12e6d9	-0.035864685
108	0xbdc4b17b	-0.09604164
109	0xbda2cfaa	-0.07949765
110	0xbdc2f0f0	-0.095186114
111	0x3df130aa	0.1177686
112	0xbc22fcd4	-0.009947974
113	0xbd837de5	-0.06420497
114	0x3bf0e1e4	0.007351147
115	0x3dd6e77f	0.10493373
116	0xbe431b30	-0.1905334
117	0xbdcaf454	-0.09909883
118	0x3c138e6d	0.009006125
119	0xbc764e60	-0.0150333345
120	0x3db9a193	0.09064021
121	0xbe14e940	-0.14542103
122	0xbe32a23d	-0.17444701
123	0xbd0911ae	-0.033464126
124	0xbe01201a	-0.12609902
125	0xbec30c83	-0.38095483
126	0x3e06b63d	0.13155456
127	0xbe8e08b1	-0.27741006
128	0x3d918037	0.07104533
129	0xbe1214ab	-0.14265697
130	0xbc889252	-0.016671333
131	0x3d158103	0.03649999
132	0xbebdeecf	-0.3709626
133	0x3da6d474	0.08145991
134	0xbd1b33a1	-0.037891034
135	0xbe4a893c	-0.19778913
136	0xbe63fc22	-0.2226415
137	0x3d23a781	0.039954666
138	0x3c25b382	0.010113599
139	0x3cb2a07e	0.021805044
140	0x3d6e2ced	0.058148313
141	0x3dbbbce3	0.09166887
142	0x3c1d1509	0.009587535
143	0x3d7467b9	0.05966923
144	0x3da2c52d	0.079477645
145	0xbc0f543c	-0.00874811
146	0x3dc750ae	0.09732185
147	0xbdf446a8	-0.11927539
148	0xbd3463c9	-0.044040475
149	0x3dbcf3e5	0.09226207
150	0xbdce0307	-0.10059171
151	0xbde3be5c	-0.111202925
152	0xba072486	-0.0005155284
153	0xbe2e2a69	-0.17008366
154	0xbd93c776	-0.072157785
155	0xbce66531	-0.028124424
156	0xbdbe1924	-0.09282139
157	0xbeab936b	-0.33510908
158	0xbe4f5e3a	-0.20250788
159	0x3d640c6c	0.05567591
160	0xbd9305a0	-0.07178807
161	0xbe323c2a	-0.17405763
162	0xbe6c0e6c	-0.23052377
163	0xbe501437	-0.20320211
164	0x3d8c35a5	0.068461694
165	0xbe03b8a0	-0.12863398
166	0xbecea668	-0.40361333
167	0xbe007508	-0.12544644
168	0x3e2d9b20	0.16953707
169	0xbd7fa688	-0.062414676
170	0xbe032aca	-0.12809291
171	0x3dc0647b	0.09394165
172	0x3e2d140d	0.1690218
173	0xbd98d5d7	-0.07462662
174	0x3d97261d	0.073803164
175	0xbe3fb6ab	-0.18722026
176	0x3d8b6579	0.06806464
177	0xbd8be816	-0.06831376
178	0xbd7c1137	-0.061539855
179	0xbce56440	-0.028001904
180	0xbd7ed861	-0.062218074
181	0xbedf0177	-0.43555805
182	0x3d9c7258	0.07638997
183	0xbe0c5558	-0.13704431
184	0x3dab8082	0.0837412
185	0xbe94cc07	-0.2906191
186	0xbeb8a2f7	-0.36061832
187	0x3de38699	0.11109657
188	0x3d6036b2	0.05473966
189	0x3df5836b	0.119879566
190	0xba19f70e	-0.0005873301
191	0xbe7f508d	-0.24933071
192	0xbdad166e	-0.08451544
193	0xbab58fb4	-0.0013852031
194	0x3d7a238a	0.06106905
195	0xbcb3f5fd	-0.021967882
196	0x3c1df9f1	0.00964211
197	0x3c6cde2f	0.01445727
198	0x3d84d15b	0.06485244
199	0x3dcb01e6	0.099124715
200	0xbc6a32c7	-0.014294333
201	0xbe1b2a32	-0.15152815
202	0x3ce77a9c	0.028256707
203	0xbe04a5b3	-0.12953834
204	0xbe022b1c	-0.12711757
205	0x3d4904a1	0.04907668
206	0x3d7e44a8	0.062077194
207	0x3d3c18ca	0.04592208
208	0xbddb6cbc	-0.10714099
209	0xbd94004e	-0.072266206
210	0xbd5c8e7d	-0.053846825
211	0x3b565a1d	0.003270752
212	0xbe2fd4a8	-0.17170966
213	0x3e6be662	0.23037103
214	0xbda8bd97	-0.082392864
215	0xbd802464	-0.06256941
216	0xbe6d677e	-0.2318401
217	0x3ba92835	0.0051622638
218	0xbd43e12a	-0.047822155
219	0xbe2aa2d2	-0.16663674
220	0x3db2543a	0.08707471
221	0xbd87305f	-0.06601023
222	0xbe8f63f1	-0.28005937
223	0xbdce6418	-0.10077685
224	0x3ca0f18e	0.019646432
225	0xbe43b0c2	-0.19110397
226	0x3d9946b9	0.074841924
227	0x3da7d8b5	0.081956305
228	0xbe64e648	-0.2235347
229	0x3c438898	0.011934422
230	0xbcd5a7a3	-0.026080912
231	0xbe1f7ea9	-0.15575661
232	0x3dd87ce3	0.10570695
233	0xbc70e4e0	-0.014703006
234	0x3d90d6ae	0.07072197
235	0x3d1bec94	0.038067415
236	0xbcb8301d	-0.02248388
237	0xbe244ff3	-0.16046123
238	0x3dccc8c8	0.099992335
239	0xbea3569f	-0.31902024
240	0x3b75f1de	0.0037528197
241	0xbec7fd38	-0.39060378
242	0xbd940215	-0.072269596
243	0xbcf45916	-0.029827636
244	0xbe5c3acd	-0.21506806
245	0x3d0f38a8	0.03496614
246	0x3d1d19ea	0.03835479
247	0xbe6a81eb	-0.22901122
248	0xbd7ca1ce	-0.061677746
249	0x3ce5affe	0.028038021
250	0xbe8c1237	-0.27357647
251	0xbc287714	-0.010282297
252	0xbe3c7d51	-0.1840718
253	0x3d04fa8c	0.032465503
254	0x3b6e8fb0	0.0036401562
255	0x3dc32a95	0.09529606
