results/Run1/config/config-817046.onnx (onnx, 273335 bytes, 5 tensors)

action_model._continuous_distribution.mu.weight f4 [1, 256]
00000000: 9a83 a8ba 8026 a63b 218b d2bb 12d2 06bd
00000010: 50f4 0b3d 11b2 8bbc f1a2 bd3c cd9b 7e3c
00000020: c29d 35ba bada a8bb 3290 1abd b878 39bb
00000030: 8558 0a3d 6aff c638 0006 5dbd f2e5 3dbd
00000040: dabe fcbb f980 93bb 1c10 f9b9 e7fa 37bc
00000050: f1cd 69bb 211b 0ebd 0172 8aba c1d4 8c3d
00000060: 3adb 5dba 3b7f fcba 10e3 093c 77a8 953a
00000070: d544 22bb 2100 a83b 626f e0bb 4dfd d3bc
00000080: 2402 e8b9 fc45 24bb a48a 68bb 722d 04bb
00000090: 66f2 003a 2ba8 d1bd 42e9 fcbc 1096 bcb9
000000a0: 7c44 ffbc 681d 80bd 20fb ddba 43c2 10bb
000000b0: 8979 91bd ff62 b6b8 bf31 953d bdf4 183d
000000c0: cdc9 b23c 45c2 9f3a 7922 c1bd b2e1 093d
000000d0: 5b7a 44bb fffb b5bd 7088 caba fa90 36bb
000000e0: 29dd b83c 5c09 213d d3bd 6c3d f140 aa3c
000000f0: 4844 21bc bceb 62bc ce1c 74bb 8e51 f0ba
00000100: 2e10 2136 6789 83ba 01cb b8ba cc4a 9eb9
00000110: ba7e 583d 071b cc3b 140f b0bb 031e 5ebb
00000120: 2e12 72bd 1485 02bd 687f a3ba 5bac 90ba
00000130: f305 acba cff7 8d3c d561 9dba 983c 94bd
00000140: 8a3d b939 cc15 a939 551d 32ba 6b49 163d
00000150: 260f a3ba 5901 26bd 3cc2 883d b22d 2cbb
00000160: 3c54 7a39 447b 38ba 7681 d33d 9218 f0b8
00000170: d737 f7bb a717 88ba 6e1a 3c3d cd1c 21bb
00000180: ef8b 6cbb 3099 1fbc da91 903c 8d0f 64bd
00000190: 6e64 093b 5263 ab3d 7ac5 e1bc ecf7 073d
000001a0: be14 a1bc 7316 8cbc 350e 59bb 31d5 6d3b
000001b0: 144b e73b c4eb 76bb 1017 b0ba 8f38 0dbd
000001c0: 92e3 bb3c 55e4 13bb 8ee9 d5bc 9164 3b3d
000001d0: d388 87bb 9300 a33d 27be 6fb8 3b86 15ba
000001e0: 68fa cdbb 9b57 66ba 1d8a 66bc 42d6 9d3c
000001f0: 74ac 06bd 8f91 463a 4fd8 8b3a 8538 87ba
00000200: 1e3b b0ba a284 64bb 40ab 3b3d 8a90 65bc
00000210: c928 37bb b892 51ba 723c 0c3d e3f6 83ba
00000220: 4810 e9bc bd7a d7bc bcfd babc 3407 48bb
00000230: fd58 aab9 c090 9a3b c432 0f3d cdee 473d
00000240: 505e 8e39 e344 eb3b 6e0e 03bb a378 f239
00000250: b23e 89bb b231 ff38 3eed 4aba 58d4 6dbb
00000260: d07d 48bd 815c 0fbb 47ca dc3c c767 6dba
00000270: a69b 17bb ae38 0e3d 9795 d5bc d2b2 263c
00000280: 3793 02bb 2f08 daba c64a 3c3d 3601 293d
00000290: e56d 89bc 213e 41ba b348 29bb 61ea bf3a
000002a0: b5b2 09bd 135d 9bba 16fe 3e3c c70f 78bd
000002b0: 2cdf 49ba 693a 59bd a766 d13a ab0d 7039
000002c0: 400f ae39 25f4 823b 5240 6bbd 34a4 1537
000002d0: 5bf3 813b 2ba1 88b9 160f 21bb f607 1cbb
000002e0: ee5a 83ba a015 efbc abb2 cbb9 4324 dd3c
000002f0: cbff 43bb 731e ff3b f15e 02bd f683 adbc
00000300: 70be 72ba 1451 2d3d df4d 00bd f413 7e3c
00000310: 9614 783c 43b1 023a 1471 dfba b3b8 22bb
00000320: a3ba 18bb aef5 0fbb 4025 3abb 08b3 ddbc
00000330: ca96 0fba 28f5 773c 61aa 823c a744 343a
00000340: ec3c 6eba 5f76 4a3b f0b3 91bd 364c 993c
00000350: 8f6a abba 389e cdba 80e5 87ba 06d3 a7bc
00000360: 8c50 f0bc c1be 313d 7087 66bb 871e 97ba
00000370: 67a3 4539 8441 ad39 d017 a9bc fce9 2d3c
00000380: d526 3bbb b538 34ba 471a 0dbb 65d6 fa3c
00000390: be50 be3c 1545 80bc 87d8 ad3d 2c4f 1abb
000003a0: 3eab b0ba 1b24 e43c 7ea1 9abb fb6a 623c
000003b0: a5b7 c93b c4c6 29bc 9106 e1bd 7435 273d
000003c0: 11d4 d0ba 8eb1 71bd 9f47 b2ba 6da7 453d
000003d0: 2759 84bc 0c30 283c b3af acbd 570f d4bc
000003e0: e3db a13c 5eff cebc a242 923a f8b7 0bbd
000003f0: aed1 c8b9 6e06 683c 8b65 2d3b 7ada 42bb
-0.0012856603 0.0050705075 -0.006425277 -0.032915182 0.03416854 -0.017052682 0.023148986 0.0155400755
-0.000692811 -0.0051530274 -0.03773517 -0.0028300714 0.033775825 9.48895e-05 -0.0539608 -0.04636187
-0.007713181 -0.0045014587 -0.00047504983 -0.011229253 -0.003567573 -0.03469384 -0.001056254 0.06876517
-0.0008463148 -0.0019263992 0.008415952 0.0011418004 -0.0024760265 0.0051269685 -0.0068492154 -0.02587762
-0.00044252083 -0.0025066128 -0.0035483027 -0.002016869 0.00049189327 -0.102371536 -0.030872945 -0.0003596996
-0.031160586 -0.06255609 -0.0016935803 -0.0022088445 -0.07103259 -8.696876e-05 0.07284879 0.037342776
0.021824742 0.0012188634 -0.09430403 0.033662505 -0.0029980156 -0.08885955 -0.0015452038 -0.002785741
0.022566395 0.039315566 0.057798218 0.02078292 -0.00984294 -0.013850149 -0.0037248614 -0.0018334852
2.4000287e-06 -0.0010035456 -0.0014098586 -0.00030191836 0.05285523 0.006228808 -0.005372891 -0.00338924
-0.05909937 -0.031865194 -0.0012473883 -0.0011037694 -0.0013124332 0.017330078 -0.0012007306 -0.0723812
0.000353318 0.00032250432 -0.0006794532 0.03669111 -0.0012440428 -0.04052863 0.06677672 -0.0026272354
0.00023873238 -0.0007037411 0.10327427 -0.000114486684 -0.0075444984 -0.0010383026 0.045923643 -0.0024583817
-0.003609415 -0.009741113 0.017647672 -0.055678893 0.0020964402 0.08368553 -0.027559984 0.03319542
-0.019663211 -0.017100548 -0.003312004 0.0036290402 0.0070585106 -0.0037677148 -0.0013434608 -0.034477767
0.022935662 -0.0022566516 -0.026112344 0.045750204 -0.0041361838 0.07959094 -5.7159134e-05 -0.0005703901
-0.0062859543 -0.0008786858 -0.014071015 0.019267205 -0.032879308 0.00075747905 0.0010669323 -0.0010316527
-0.0013445353 -0.0034869094 0.045817614 -0.014011512 -0.0027947894 -0.000799458 0.034237333 -0.0010068085
-0.028450146 -0.026303643 -0.022826068 -0.0030521872 -0.00032491228 0.0047169626 0.034960523 0.048811723
0.0002715462 0.007179843 -0.0019997614 0.00046247718 -0.004188382 0.00012168604 -0.00077410403 -0.0036289897
-0.04894811 -0.0021875205 0.026951922 -0.00090562965 -0.0023133545 0.034722023 -0.026072307 0.01017447
-0.0019924173 -0.0016634519 0.045969747 0.04126092 -0.016776035 -0.00073716237 -0.0025830686 0.0014641994
-0.033617694 -0.00118533 0.0116572585 -0.06056192 -0.00077007967 -0.05303422 0.0015976027 0.00022893275
0.00033199228 0.0039963895 -0.057434388 8.919324e-06 0.003965778 -0.0002606002 -0.0024575642 -0.0023808456
-0.0010021606 -0.029185116 -0.00038852295 0.02699483 -0.0029907103 0.0077856123 -0.031828824 -0.021181088
-0.0009259945 0.04231365 -0.031324264 0.015507687 0.015141627 0.00049855205 -0.001704725 -0.0024829328
-0.0023304604 -0.0021966505 -0.002840355 -0.027062908 -0.00054774864 0.015134133 0.015950384 0.0006876685
-0.00090880576 0.0030893309 -0.071143985 0.018713098 -0.0013078022 -0.0015687412 -0.0010368079 -0.020486366
-0.029335283 0.043394808 -0.0035175942 -0.0011529484 0.00018848256 0.00033045944 -0.020641237 0.010614868
-0.0028557081 -0.0006874905 -0.0021530555 0.03061981 0.02323186 -0.01565794 0.08488565 -0.0023545725
-0.0013478769 0.027849248 -0.0047189584 0.013819451 0.0061559253 -0.010362331 -0.109875806 0.04082246
-0.0015932341 -0.05900722 -0.0013601667 0.048255373 -0.016155792 0.0102653615 -0.084319495 -0.02588622
0.01975817 -0.025268253 0.0011158774 -0.034110993 -0.00038303196 0.014161689 0.002645823 -0.0029732273

network_body._body_endoder.seq_layers.0.bias f4 [256]
00000000: e8c9 ecbc cd98 e63c 31ab 203d 3537 83bd
00000010: 53c9 903b b05c 3fbd a490 abbc c23f 89bc
00000020: 4d4b 19bd ec0c a5bd 5452 b43d 96a9 9bbc
00000030: 90fa f3bb 2ce9 f7bc f4a4 4cbd c2e0 c1bd
00000040: 4f87 6d3d c71f 13bd 804b 8b3c 3261 13bd
00000050: 803c acbd bcb3 76bc af58 0bbd fa9d 7cbd
00000060: 06b3 0dbd d689 88bd a7bd 003d 50d0 d6bc
00000070: f467 25bc 237b 143c c7d6 cb3c 29d6 0a3d
00000080: e5d1 aa3d 02f3 c5bc 1947 183c 8801 83bd
00000090: 8960 893a c69f 81bc d848 4f3d 7bba 933d
000000a0: 0114 03bd ba54 78bc 6fb9 16bc 2cee 56bd
000000b0: e443 dc3c 193b 04bd b9b5 b8bd e30e 053c
000000c0: 2765 e83c fe13 92bd e8db 3fbd 2d3f 5bbb
000000d0: b08c 29bd 2bca 3a3d 3b4a 64bc eaa4 0abd
000000e0: 1979 84bd e679 a4bc d589 c63c 34ac 3ebd
000000f0: 5fd5 e73b 110f 163d 422e f2bb c145 07bd
00000100: a4da 4abd 6903 d9bc 6440 d4bd bb17 3fbc
00000110: 09be 523c c8e7 3cbd b3b2 edbc 0bbb 713d
00000120: fe82 e83c fc9e 8cbc 2c7c eebb 2fd1 c1bd
00000130: 1863 05bd ba4f 3cbd 1139 353d 3017 28bd
00000140: fa85 9a3d 9ce6 25bd b5aa 04bd 4738 2bbd
00000150: a656 31bd 987f a63c f1b3 dcbc 3d54 bcbb
00000160: 9e33 c3bc 6fdb 7bbc 4864 abbd 00c3 dbbc
00000170: 3111 53bd 5895 53bd 75e5 843d 9cc0 06bd
00000180: 9b78 403c 36d8 ecbc 8740 7fbd 54ba b23c
00000190: 150b 04ba 769c 0ebd 5a79 c1bc d369 213d
000001a0: 993f 5cbd 4a8f 17bc 461a b43b 982f c8bc
000001b0: 5172 59bd 67c0 19bd 1812 873c 5893 3bbd
000001c0: e46f 6fbc 197d 643d f15e b73c 37cd 8bbc
000001d0: a878 79bd 4da4 15bd 6d6b b7bc 8833 8c3a
000001e0: a9af 57bd a71a 8c3b fc1b 8dbd ee6a 1f3c
000001f0: acb6 adbc 42dc 603d 14ce 14bd 31cc a23a
00000200: c423 d23d 8ead 87bc 2bd5 16bd f07e 64bd
00000210: 6e30 afbd 413f 16bd ccd9 7439 513e 5fbd
00000220: 2280 d5bb ac65 58bb cd44 11bd ec95 bcbc
00000230: 2727 edbb 7df5 4e3d 2444 45bd 1dc6 7ebd
00000240: 387a 013c 6e70 00bd 6523 1e3d 633f fe3c
00000250: 2292 2d3c c172 f13c 9874 a3bc 35ff 8bbc
00000260: eed3 0e3d 9cda f23c ed78 aebd e6e2 67ba
00000270: 80d3 3bbd 14ea 52bd 09e4 033d bc09 cb3c
00000280: de2b 57bd 361e 40bd b063 a83a 3445 b23c
00000290: 3fd1 afbc 176e 9b3c 9282 d1bc c6aa b8bc
000002a0: d92e a0bd 80ba 0dbd 7c70 54bd 04ac 453c
000002b0: d22e debc 2405 923c 0f51 2ebc 9bb9 e5bd
000002c0: 42d7 b4bc 4e5b 98bd ac87 3cbd 0f28 81bb
000002d0: bcd0 cfbc d993 87bb 68af 0bbd 3300 44bd
000002e0: 33c9 89bd 63a2 863d 19f6 2fbd 4b80 12bd
000002f0: 1bd3 a8bc d016 68bd 197c e5ba 281a 503c
00000300: 7081 71bc c630 283c 28c0 a4ba 60c5 4fbd
00000310: dba3 36bd 1f04 b8bd 0f58 cc3c c712 b4bc
00000320: f709 e9bd 8397 c73b d788 aebb 768f 73bd
00000330: 7674 0a3b 74ea 003d a058 06bd fef2 03bd
00000340: 22dd 513b e7d9 46bd d1b9 fcba 81cc 4dbd
00000350: a569 3cbd 253d c6bc 21e1 a23c cd11 99bd
00000360: d286 1abd 0e2a 51bd adaa 49bd 5cff 0bbd
00000370: a208 df3c f496 0ebd 744b cebd a84b d6ba
00000380: 41d7 a7bc d1e5 4ebc 1286 15bd 432b 6bbd
00000390: 4569 043d 23f0 34bd 2337 df3c 09f8 903c
000003a0: cfdb b0bd d365 3dbd 29eb 6ebd 3af2 50bc
000003b0: a4a5 e8bc 8938 0abd 626d bfbd 9d1b 5d3d
000003c0: fa9f 98bc 1973 4d3d 82b7 b4bd 405f e23c
000003d0: 28a3 95bd cd4b 1ebd 374a 14bd 7e74 29bd
000003e0: 59ba 08bd 3c1b 9cbb 6ca3 ccbc b94f aabd
000003f0: 5a09 b2bc fad3 1c3c 72e9 4f3d c155 10bd
-0.02890487 0.028149033 0.03922576 -0.06407014 0.004418531 -0.046719253 -0.020942993 -0.016754035
-0.037425328 -0.08059105 0.08804765 -0.019001763 -0.007445641 -0.030262552 -0.049962 -0.09466697
0.05799037 -0.035918977 0.017003775 -0.035981365 -0.08409977 -0.0150575 -0.034020122 -0.061674096
-0.03459456 -0.06666915 0.031430867 -0.026222378 -0.010095585 0.009062561 0.024882687 0.033895645
0.083408155 -0.024163727 0.009294295 -0.063967764 0.001048104 -0.015823256 0.05060658 0.07213303
-0.0320015 -0.015156919 -0.009199484 -0.052473232 0.026887842 -0.032282922 -0.09019036 0.008121225
0.028368546 -0.071327195 -0.04684058 -0.0033454404 -0.041393936 0.04560296 -0.013933714 -0.03384868
-0.0646841 -0.020077657 0.024235645 -0.046550944 0.0070749964 0.036635462 -0.0073907683 -0.033025507
-0.04952492 -0.026490884 -0.10363844 -0.011663373 0.012862691 -0.04611948 -0.029015874 0.05901627
0.028382774 -0.017165653 -0.007277986 -0.09463727 -0.032565206 -0.04597447 0.044243876 -0.04103774
0.07545085 -0.04050313 -0.03238936 -0.041801717 -0.043295525 0.020324513 -0.026941271 -0.0057473467
-0.023828324 -0.015372141 -0.083687365 -0.026826382 -0.051530067 -0.051656097 0.06489078 -0.03289853
0.011747505 -0.028911691 -0.062317397 0.021817364 -0.0005037052 -0.03481718 -0.023617435 0.039407562
-0.05377159 -0.009250471 0.005496296 -0.024436757 -0.053087536 -0.037537005 0.01648812 -0.045794815
-0.014614079 0.055783365 0.022384139 -0.017065628 -0.060906082 -0.036533643 -0.022390092 0.001069651
-0.052657757 0.004275638 -0.06890103 0.009730084 -0.021205269 0.054897554 -0.036329344 0.0012420473
0.10260728 -0.01656225 -0.036824387 -0.05578512 -0.08554159 -0.036681417 0.00023350789 -0.05450279
-0.0065155188 -0.0033019586 -0.035466004 -0.023020707 -0.0072373333 0.050527085 -0.048160687 -0.062200654
0.007902674 -0.03135722 0.038607974 0.031036085 0.010593923 0.029473664 -0.019953057 -0.017089466
0.03487008 0.029645257 -0.085191585 -0.0008845761 -0.045856 -0.051492766 0.032199893 0.024784915
-0.05253207 -0.04690381 0.0012847092 0.021761514 -0.021462081 0.018973393 -0.025574956 -0.022542369
-0.078214355 -0.03460169 -0.051865086 0.0120649375 -0.027121935 0.017824717 -0.010639443 -0.11217042
-0.0220753 -0.0743929 -0.046027824 -0.003941543 -0.025368087 -0.004137498 -0.034102827 -0.047851752
-0.06727829 0.065739416 -0.042959306 -0.03576688 -0.020608475 -0.05666238 -0.0017508297 0.012701549
-0.014740333 0.010265535 -0.0012569474 -0.05072534 -0.04458986 -0.08985161 0.024944333 -0.02198161
-0.11378854 0.0060910597 -0.005326371 -0.059462987 0.0021126545 0.031473592 -0.032799363 -0.032214157
0.0032022675 -0.04854765 -0.0019281452 -0.05024386 -0.045999188 -0.024199078 0.01988274 -0.07474098
-0.03772623 -0.051065497 -0.049235035 -0.034179077 0.027225796 -0.03481193 -0.10072985 -0.0016349452
-0.020488383 -0.012628035 -0.036504813 -0.057414304 0.032326955 -0.044174325 0.02724797 0.017696397
-0.08635675 -0.046239685 -0.058329735 -0.012753064 -0.028399296 -0.033745322 -0.09347035 0.053981412
-0.01863097 0.050158594 -0.08824064 0.02763331 -0.0730651 -0.038646508 -0.03620359 -0.04137086
-0.03338084 -0.004763989 -0.02498027 -0.08315987 -0.021732975 0.0095720235 0.05075974 -0.03523803

network_body._body_endoder.seq_layers.0.weight f4 [256, 6]
00000000: 74c9 c1bb fe87 debd 49d9 83be 96a2 41bf
00000010: 5b6f 9fbd 0a2a 343f 447f 81bb 030f 22bf
00000020: 5c3a 39be 4296 f23d f9d9 ebbe 301a 963e
00000030: 4705 a43d f6c8 fd3b 407b 003f 7e47 c9bd
00000040: 6a5e 193f e654 753d 477d 913f 0689 d0bc
00000050: c7a6 31be 57be 313e 1384 c0be 196f 3abe
00000060: 6d28 40bb a3ea 9a3e 723a 64bf 56e8 a43e
00000070: 9ea6 41bc e683 de3e 0585 e6be c177 0e3f
00000080: 6e33 c2be 65a5 a1bd 027f 13be 6903 9c3e
00000090: c4d5 48bc 4fc5 973d e5f8 d83e 6116 30bd
000000a0: 442a 473e a848 85be 8ce7 2ebd 660e fc3e
000000b0: 0f01 663f 33e7 35bf aabc d6be ad32 2dbf
000000c0: 1d2f e6be 4e39 973d 9980 16be 9cb8 cc3d
000000d0: 8ea3 283f 8538 01bf ac58 cebe 1306 87be
000000e0: dc96 24bf 88e0 c8bd 1639 5fbd 981e d23e
000000f0: a959 55bd 1f03 fe3e 5450 b13e 563e 283f
00000100: d035 553e 3e5e 2fbf 3f14 07be baec 81be
00000110: 0ae1 f5be 51c9 fabd 1443 aebe b4db 6d3e
00000120: f174 5dbe d5aa cc3d aa35 553c e809 513e
00000130: 9d67 12bd 42b7 65be 787c c73e c7bb 82be
00000140: 9e97 f0bd b5aa 773f 789a a5be 5454 fbbe
00000150: 0b31 0e3e 5ba6 2f3f eadb 923c 61da 9b3f
00000160: 2db8 44bf 3da4 d83e 291e 3c3f 9e30 993e
00000170: 15b1 19be a973 4c3e d211 03bf d06c cbbc
00000180: 6a4d a13e f2c6 d4be ee73 3ebe d815 cdbe
00000190: ca6b a23e c563 dc3e c276 a33e ebe9 87bc
000001a0: a9c3 113b abb3 25bc 9162 033f 40ff 95be
000001b0: c1cc 16bd 3c33 de3e 15d7 e23d 7d19 89be
000001c0: f414 c03e ede0 b9be 95f4 5a3e e1fb 08be
000001d0: ea11 0c3f 9532 993d 5314 8f3c e9ee c5be
000001e0: 704b 0fbf 0c0b fc3e dcb3 c9be e47d 5a3e
000001f0: 3eec 0dbe 357e cb3e e48e 2ebc c4ee 0ebe
00000200: 62a3 9fbf 69e2 f2bd f77b 90bb bae7 c6bd
00000210: 8ae5 ca3e 9eb1 b6be 4274 f7be 7890 fbbd
00000220: 194b 0fbf 1544 d0be de78 513f 8046 1cbf
00000230: 15a0 9ebe b24d 8fbd fdcd 473e 2348 a8be
00000240: 3c9e c4be 1351 fe3d 0df6 4bbf d14e 1d3e
00000250: 8267 ebbe 8c27 723e afba b23e 9510 c03e
00000260: c5c1 47bf 99a2 2d3e 44b3 abbe d526 3f3e
00000270: 2541 7d3d ed4f 0f3d c3e6 f0be 5008 0fbe
00000280: 9076 b83e 85c2 1bbf 2e6b 0e3f 6074 913e
00000290: 0fdb c33e 0edc bdbe 711b cdbe ba1d 7abe
000002a0: 25a0 acbd 0e32 70bc a1dd b2be 648c 34bf
000002b0: 4bc2 033f 7c4f 17bf 8279 00be 10d3 69be
000002c0: c163 ffbd 179f 3e3f b22f 62be 9f91 2fbf
000002d0: db9d ebbe 7f0c 1b3d 1206 e03d 7e5e 1c3f
000002e0: cbe3 843c 1cb4 34be 9f9a 7f3c a368 b8bd
000002f0: d529 173f 5d8f b6be f89a d53e a860 b83e
00000300: 0331 79be fbf9 f13e 3bf1 71bf 44d5 063f
00000310: 5a96 3cbf 34c1 353f b62c 66be d9d6 5ebd
00000320: 0cbf ae3e 0764 5dbe 9833 a13e 6362 41bd
00000330: 2d63 82bc 2141 e73c aa91 b4be dd00 4bbe
00000340: 87b4 da3e f5f3 c43e 79f1 b63e a67d ec3e
00000350: 3142 1abe 4dab b2be 0911 f53d 9d3f 953e
00000360: 6597 433d 68f2 3f3f 7273 d03e f019 853e
00000370: 9e17 cfbe a37a a9bd a89a 813e fca3 1abf
00000380: 2f85 7dbe 16c8 b93e 060e c83e 5dc3 e9be
00000390: ec31 13bd c03b 493f 4391 563d 07f4 afbe
000003a0: 0c53 0d3f 8455 47bf d0a8 75be 8761 24bf
000003b0: 1284 a03e 5fca 383f db59 423b 7869 033f
000003c0: 8c14 f03e 4a19 373d 2ac3 cdbe fb09 e0be
000003d0: 0441 523e b3a2 8b3e 84e9 1ebf b2ca 8c3e
000003e0: 81bd 57bf e7d9 213f a9f1 7dbc d4eb c03e
000003f0: 3104 0e3e 519a 0ebe 2690 f5be aafc cabe
-0.0059139077 -0.10865782 -0.25751713 -0.7563871 -0.07784911 0.70376647 -0.003951939 -0.63304156
-0.18088669 0.11845066 -0.46064737 0.29316854 0.08008819 0.0077449037 0.50188065 -0.09828089
0.5990969 0.05989542 1.1366357 -0.025455963 -0.17348777 0.17357765 -0.37600765 -0.18206443
-0.002932097 0.3025714 -0.8915168 0.32208508 -0.01181951 0.43460006 -0.4502336 0.5565148
-0.37929863 -0.07892875 -0.14403918 0.30471352 -0.012257997 0.074106805 0.4237739 -0.042990092
0.19449717 -0.26031995 -0.04270129 0.49229735 0.89845365 -0.71055907 -0.41940814 -0.6765545
-0.4495782 0.07383977 -0.14697494 0.09996149 0.65874565 -0.50476867 -0.40302026 -0.26371822
-0.64292693 -0.09808451 -0.0544978 0.41038966 -0.05208746 0.49611756 0.34631598 0.6572012
0.20821309 -0.6850318 -0.13191317 -0.2537592 -0.48023254 -0.12245429 -0.34035552 0.23228341
-0.21626641 0.09993521 0.013013283 0.20413935 -0.035743345 -0.22433189 0.3896215 -0.25533888
-0.11747669 0.96744853 -0.32344413 -0.49087775 0.13885896 0.68613213 0.017927129 1.2176019
-0.7684353 0.42312804 0.7348352 0.29919904 -0.15008958 0.19965996 -0.51199067 -0.02483216
0.31504375 -0.41558033 -0.18598911 -0.40055728 0.31722862 0.43044868 0.31926543 -0.016591033
0.0022241867 -0.010113637 0.51322275 -0.29296303 -0.036816362 0.43398464 0.1107618 -0.2677726
0.37515986 -0.36304417 0.21382363 -0.13377334 0.54714835 0.07480351 0.017465746 -0.38658836
-0.55974483 0.49227178 -0.39395034 0.21337086 -0.1385965 0.39744726 -0.010654185 -0.1395827
-1.2471735 -0.118595906 -0.004409309 -0.09712167 0.3962825 -0.35682386 -0.48330885 -0.122834146
-0.55973965 -0.40676942 0.81825054 -0.61045074 -0.30981508 -0.06997241 0.19512172 -0.32867536
-0.38401973 0.124178074 -0.7967232 0.15362097 -0.45977408 0.23647898 0.34908053 0.3751265
-0.78030044 0.16956557 -0.33535206 0.18667157 0.061829705 0.034988333 -0.47051057 -0.13968015
0.36027956 -0.6084369 0.55632293 0.284091 0.38253066 -0.3708195 -0.4006 -0.24425402
-0.08428983 -0.0146603715 -0.34934714 -0.7052672 0.5146834 -0.5910566 -0.12546352 -0.2283442
-0.124701984 0.744615 -0.22088507 -0.68581575 -0.46018872 0.037853714 0.10938658 0.61081684
0.016221901 -0.17646831 0.015600829 -0.09004333 0.59048206 -0.35656253 0.41719794 0.36011243
-0.24335103 0.47261032 -0.94508713 0.5266917 -0.7366692 0.7099793 -0.22477993 -0.054404113
0.34130132 -0.21620189 0.31484675 -0.04721297 -0.015916431 0.028229298 -0.35267383 -0.19824548
0.42715856 0.38467374 0.35731104 0.46189612 -0.15064313 -0.34896317 0.1196614 0.29150096
0.047751803 0.7497926 0.40713078 0.2599635 -0.40447706 -0.08275344 0.25313306 -0.6040647
-0.24757837 0.36285466 0.390732 -0.45656863 -0.03593628 0.78606796 0.052384626 -0.34365866
0.55204844 -0.7786486 -0.23990178 -0.64211315 0.31350762 0.72183794 0.0029655609 0.5133281
0.46890676 0.044701852 -0.4018796 -0.43757614 0.20532614 0.27272567 -0.62075067 0.27498394
-0.84273535 0.6322312 -0.015499511 0.37679923 0.13868786 -0.13926055 -0.4796154 -0.39645892

network_body._body_endoder.seq_layers.2.bias f4 [256]
00000000: 05be 7ebd ecf9 8cbc 68f3 23bd 4a79 f4bb
00000010: 6ae4 82bc 4aa2 2dbd ecaf 1bbc e376 61bc
00000020: f623 c5bc 3bfe bcbc 4888 8fbc 4d4a 10bd
00000030: 6729 9fbb 3c17 01bd c007 b33b af92 cd3b
00000040: b617 e5bc 72c2 afbc 7564 49bd 190b 8cbc
00000050: c217 14bd ab0e 44bc 8910 13bd 1cb4 5b3a
00000060: 349b 2cbd 71bb 02bd 5a18 cebc 58ef 17bd
00000070: 0799 50bd 71f1 90bc 7b0d 96bc 8bf1 36bc
00000080: 178d 7fbc 9bbd 19bd 0833 10bd 0fc7 0dbd
00000090: be53 56bd 00dc b23c ab3b 7bbc 09d8 63bd
000000a0: 7bbc 9cbc f790 82bb 41d4 3dbd 41af 0cbd
000000b0: b6fc 0abc a624 1bbd 05c0 933c c9ed 81bc
000000c0: f497 6d3a 807f 33bd c07a a93c 0d41 0bbc
000000d0: f672 45bd df6b 363c 6c64 18bd aa6d 17bd
000000e0: fa7e bb3b d338 0ebc 447f 003c b77b 913b
000000f0: 3455 51bc 2589 8abc 7533 acbc 5b52 32bd
00000100: 9646 78bd 8890 bebc f64c 72bd cc66 efbc
00000110: 8a29 64bc de5a fcbc b5d6 19bc 69a2 51bd
00000120: df3d 4bbc aca2 15bd 4e97 fdbc 035f e3bc
00000130: d8af 45bd 9aa7 f0bc d584 69bd 67d7 083c
00000140: 4c7f 0bbd c093 43bd ee74 03bd 08cd dcbb
00000150: e7fc 50bd 75a2 36bc c52a 9dbc 7d4f cebc
00000160: 3c6f 9abc 1888 38bd c7d4 523b 27b5 71bd
00000170: 6615 47bd 6608 16bd f77d 6a3c 750f 2cbd
00000180: dbb1 19bd 192d 00bd c5f6 d6ba 38da 94bb
00000190: b0aa 1dbd 6784 223c 556b aaba b831 0bbc
000001a0: 238a b33b 0060 73bc e5d2 a4bb 324f 2cbd
000001b0: 2db4 23bd 64b4 21bd 04e4 32bd 4789 05bb
000001c0: 3ff5 0b3c 710e cfbc 2691 0dbc 25a0 6739
000001d0: 0314 dabc 43e6 843c 74ed 2ebd 1465 33bd
000001e0: 2330 01bd a5bc 32bd 6cc0 a3bc 79e6 8ebc
000001f0: 85dd 70bc 5342 10bd e7c1 58bd 9a75 17bd
00000200: 6975 2bbd c7b2 cabc bbf7 25bc 135f 983b
00000210: 2a36 2fbd 6f3f 1dbd 4475 44bc 2932 31bd
00000220: 4b12 34bc 1846 43bc 81c9 c6bc 2191 6abd
00000230: 457c 80bd 4683 a7bb 4a3b e7bc 211b 42bb
00000240: cad8 67bd 8baa 42bb 8ab0 b1bc 59b0 2cbd
00000250: e4d2 1dbd 30f7 5bbd b8b8 28bd 0315 24bd
00000260: 46da 93bc a4c0 dbbc eae4 3ebb 911c 51bd
00000270: eb60 28bd 93db 853b c62c 09bb 3701 a1bc
00000280: 38bf 95bd fcbc 2bbd 53b8 7cbc 5cb4 ab3b
00000290: e257 d6bc e8e6 43bd 2f50 68bc 9613 4cbc
000002a0: 0a71 42bc 58b5 d0bc 70c1 dbbc 3e46 e6bb
000002b0: 44a6 8fbd e6bd 18bb 1410 10bd 1927 18bd
000002c0: a76f 3ebd ba1c 9abc 27a8 a93a 751e 15bd
000002d0: 4c85 f3bc d269 73bd 8136 07bd 1127 04bd
000002e0: 932d 65bd 1d4a 93bc 8eaa 84bd 2269 12bc
000002f0: 1f3d 37bd 3844 00bd 7de3 f8bb f809 c8ba
00000300: bdb6 49bd a7f4 823b c79e 48bc 16d9 89bc
00000310: 84a2 6abc 8cd7 3bbd 9d50 10bd 4f4e 21bd
00000320: 7360 35bd 1a97 ccbc 808e c5bc 62e3 a0bb
00000330: e55a 46bd f763 11bd def3 eebb 9d12 1ebd
00000340: 4ff1 4dbd c7b0 56bc 3f0f adbc 2606 9bbb
00000350: de32 13bd ae12 32bd 03e1 22bd 49ef e0bb
00000360: 683e 9ebc 0935 983b e7e8 4cbd 8eb2 59bd
00000370: 47af 7fbc 0a0f 65bd c56c 8dbc 539a 2fbd
00000380: 26c4 dabc 931f 41bd 0889 60bc 6a0c cebc
00000390: 336c 0ebc 7507 42bc 10b3 e83c c272 49bd
000003a0: fc97 a5bc 904e 54bc fa76 78bc 9c85 14bc
000003b0: 4e43 c5bc e8b2 1abd 1f0f 483c c910 50bc
000003c0: 3df3 26bd e145 d5bc b032 22bd 9577 0bbc
000003d0: 2d2e 88bc 343a 32bb be09 703c 2fd3 02bd
000003e0: d25f ddbc 4658 bf39 da23 35bd d3b0 19bc
000003f0: 6ee1 3bbd 5f88 c5ba 8753 87bc 31f9 14bd
-0.062192935 -0.017209016 -0.040027052 -0.007460748 -0.015978057 -0.0423911 -0.009502392 -0.013761255
-0.024065 -0.023070445 -0.017521039 -0.03522711 -0.0048572305 -0.0315163 0.0054635704 0.0062735896
-0.027965408 -0.021455023 -0.04916807 -0.017095136 -0.03615547 -0.011966388 -0.03590444 0.00083810254
-0.0421402 -0.03191704 -0.025158096 -0.03709349 -0.05092719 -0.017693253 -0.018316975 -0.011165987
-0.015597603 -0.037534337 -0.035204917 -0.034613665 -0.052325957 0.02183342 -0.01533405 -0.05562595
-0.019132843 -0.0039845663 -0.046345 -0.034346823 -0.008483103 -0.037876748 0.018035898 -0.015860455
0.00090634753 -0.043822765 0.020688415 -0.008499396 -0.04820534 0.011134117 -0.037205145 -0.03696982
0.005721924 -0.00868054 0.0078428425 0.004439797 -0.012776662 -0.016911099 -0.02102063 -0.04353557
-0.06061419 -0.023262277 -0.059155427 -0.029223822 -0.013925919 -0.030805048 -0.009389569 -0.051180277
-0.012404888 -0.03653209 -0.030955937 -0.027755266 -0.0482634 -0.029376794 -0.057011444 0.008352137
-0.034056947 -0.047748327 -0.032093935 -0.006738309 -0.051022436 -0.011147131 -0.019185433 -0.025184387
-0.018851869 -0.045051664 0.0032170282 -0.05901065 -0.04860439 -0.036629103 0.014312259 -0.04200693
-0.03752313 -0.03129301 -0.0016400447 -0.0045426153 -0.03849286 0.0099192625 -0.0013001958 -0.008495741
0.0054791137 -0.014854431 -0.0050300234 -0.042067714 -0.03996675 -0.039478675 -0.043674484 -0.0020376013
0.008542358 -0.02527544 -0.008640563 0.00022089535 -0.02662087 0.016223079 -0.04270692 -0.043797567
-0.031540047 -0.043636937 -0.019989215 -0.017443882 -0.014701252 -0.0352195 -0.052919295 -0.036977388
-0.041860018 -0.02474345 -0.010129864 0.0046500056 -0.042776264 -0.038390573 -0.011990849 -0.043260727
-0.0109906895 -0.011918567 -0.024266006 -0.057267312 -0.062737025 -0.0051120846 -0.028226513 -0.002961822
-0.05660323 -0.0029703702 -0.021690626 -0.042160366 -0.0385312 -0.053702533 -0.041191787 -0.0400591
-0.018048417 -0.026825257 -0.0029128143 -0.051052634 -0.041108053 0.004085013 -0.0020931228 -0.0196539
-0.07311863 -0.041928276 -0.015424806 0.0052400064 -0.026164953 -0.04782763 -0.0141792735 -0.0124558415
-0.011867771 -0.025477096 -0.026825637 -0.0070274165 -0.070141345 -0.0023306548 -0.035171583 -0.03714666
-0.0464932 -0.018812526 0.001294379 -0.036406 -0.029726647 -0.05942709 -0.033010963 -0.03226382
-0.055951666 -0.017979676 -0.06477843 -0.008936198 -0.044736024 -0.03131506 -0.007595478 -0.001526176
-0.04924654 0.00399645 -0.012244887 -0.016827147 -0.014320973 -0.04585986 -0.03523313 -0.03938132
-0.044281434 -0.024974395 -0.0241158 -0.0049099186 -0.048426528 -0.035495725 -0.007292255 -0.03859197
-0.050278958 -0.01310367 -0.021125434 -0.0047309576 -0.035937183 -0.043474846 -0.03976537 -0.0068644625
-0.019316867 0.004644994 -0.0500268 -0.0531488 -0.015605754 -0.055922545 -0.01726378 -0.042871784
-0.026704859 -0.047149252 -0.013704546 -0.025152404 -0.008692789 -0.011842598 0.028405696 -0.049181707
-0.020214073 -0.012958184 -0.015165085 -0.009065058 -0.024079945 -0.037768275 0.012210636 -0.012699314
-0.040759314 -0.026034297 -0.03959912 -0.008512397 -0.01662358 -0.0027195336 0.01465076 -0.03193968
-0.02702323 0.00036496128 -0.044223644 -0.009380537 -0.045869283 -0.0015070549 -0.016519321 -0.03637046

network_body._body_endoder.seq_layers.2.weight f4 [256, 256]
00000000: cf62 ec3c 8a08 4dbd c3f8 903c f21f e6bd
00000010: 35d8 01be d4fd cb3c 2ec3 5ebd 6cd2 54bc
00000020: 4312 38bd 0a96 d4bd 96d5 c6bc 2b7f 8b3d
00000030: 6194 e7bb 3151 1a3c 6770 3c3d c88a cb3d
00000040: 9805 953d cec3 013b 820f 08bc a5b8 37bd
00000050: 7d10 46bd 7e3b 12be 651e 38bd 8e38 9ebc
00000060: eb63 053d 1224 96bd 5079 86bd 59ad aabb
00000070: 058c 72bd edf2 303c 487c 93ba d72c 47be
00000080: 8129 c8bc b363 9fbd 5c5b e2bd 5231 8fbd
00000090: 1769 3abc e131 833d 8dc7 06be a29f 34bd
000000a0: 90ea 1c3d 59dc de3c 6d9a 05bd 123b 1cbd
000000b0: cb5c d3bb 9b95 91bc c097 5cbc 9431 013d
000000c0: 5e1c 5e3d 1a3a 0a3b e71b 3fbd 27a4 613d
000000d0: 2be5 1d3c a6cb b0bd 04e0 f43d 8af8 03bd
000000e0: da08 d3bd f53b 75bd da7e 5bbd 6c6c 90bd
000000f0: a551 bfbc d606 32bd b618 8e3d 5782 2a3e
00000100: 7db5 bf3d 11b3 0f3d b471 37bd d76b a7bd
00000110: 9a63 39bc 61f1 3fbd eb02 e53d 0c5e 52bd
00000120: 77d8 d43d 0630 3b3c 47ee 4bbd acf5 cabd
00000130: f3d6 fd37 649c 9ebc fd76 9dbd a89a 053e
00000140: 80eb 2abd be01 113d b800 2fbd d6f9 88bc
00000150: f07f 05be de9a ae3c 4539 22bc e826 3ebc
00000160: abf0 48bd 1a80 7f3d 6db7 8b39 fc54 debd
00000170: 1245 013e c022 973b 38c9 43bc edca 6d3c
00000180: 36d2 f5bd d390 6e3d d9aa 32bd d331 20be
00000190: 852a bbbd 9855 a7bd 1409 a0bd 0c29 74bb
000001a0: 625c 853b 1ca8 97bc 1e9b 3bbd 142a 6cbc
000001b0: a06b 9ebd 3391 67bd a752 b13c 8867 a1ba
000001c0: 7de3 973c d9e5 e83c 34ea cebd f3aa 053c
000001d0: d814 513d e5eb ca3b 2ba9 12be 816f a13b
000001e0: 881c 163b f540 ebbc 9064 193d 1ecc a7bd
000001f0: ebcb e9bd 8aea d5bc 2d5b b9bc 3622 de3c
00000200: 86ec f1bd 1367 b3bc 5a3b d03d 6f3d 85bd
00000210: 23af da3a 4696 5dbd 4e38 54bd b54a f9bc
00000220: 8d34 fdbd 87f6 dcbc d8a9 56bc b671 bebd
00000230: 3e77 f4bd fe06 da3c 93f9 a5bd d0f7 1cbd
00000240: eb05 0ebe 171e c1bd 7dab 36bd f3a5 00bc
00000250: 5d2e 0fbe 1841 04bd cdf3 573c ad17 543d
00000260: b896 00bd 3354 27bc 7391 ccbd 10e3 50bd
00000270: cb99 d7bc 6e4e 30bd 4ba9 60bc a272 b93b
00000280: d04c 633d 7b89 94bc da12 d73a 6f3b 0d3d
00000290: b723 c3bd cc07 a9bd 1ca8 92bc ec87 00be
000002a0: c9ed 94bd 226c 31bd 7d51 fcbd 792a b4bd
000002b0: 774b a6ba a9f5 9fbd f9da 08bd aefd 20be
000002c0: 81ce 36bd a885 f83c 2be6 9cbd 1867 f4bd
000002d0: 6aa1 f839 4cde 41bd 4e34 9cbd 9e59 36be
000002e0: 6862 c1bd d95b f4bb 6595 9a3d 4682 afbd
000002f0: 2b60 e13c da90 31bd 1f46 0dbd 9250 963d
00000300: 848e 2abd 0ef4 36bc d6f7 d43b ec73 f33c
00000310: 26e5 57bd 8a7f 4e3b 85a4 f1bd 51bf 90bc
00000320: fbf2 96bb 8931 4a3e 42d0 59bd 4018 8cbd
00000330: b0f2 9ebc ad5d 50bb 8bb9 aebc 9794 183d
00000340: ec21 ebbd fe74 b2bc 6cc2 cc3c 08cd 943c
00000350: 77e8 23be 1e8b d33d cca5 6cbe 6f56 bebc
00000360: 380d ff3c 7838 533d ce15 22be 7bc1 a2bd
00000370: 7302 7d3b 3321 633d 22a3 07bc dada 7a3c
00000380: f007 8d3c b332 d43c 442d cfbc 1746 44bd
00000390: 2f21 d7bd 5141 3dbd fd09 7cbd b3a6 dd3b
000003a0: 6d70 e53a a3c4 94bd d67c cfbc e069 803d
000003b0: aeca f3bc bdd5 44be 2ce0 aabd 7a96 a8bc
000003c0: aafb 69bd fed0 f4bc 99c1 293d 75ac 9cbc
000003d0: 35e2 d6bc 8edc 1bbd c0e1 27bc 3056 bebd
000003e0: 6ec0 23bd 2652 653d ca05 28be 8bed 99bd
000003f0: e589 e0bd aa78 1dbd 23e8 62bd 645e 69bd
0.02885571 -0.05005697 0.017696744 -0.11236562 -0.12680133 0.024901308 -0.054385357 -0.012989622
-0.04493929 -0.1038018 -0.024271768 0.06811365 -0.0070672487 0.009418772 0.046005633 0.0993858
0.072764575 0.0019800547 -0.008304479 -0.044853825 -0.04835557 -0.14280507 -0.04495086 -0.019314077
0.032565992 -0.073310986 -0.06566107 -0.005208653 -0.059215564 0.0108001055 -0.0011252249 -0.19450699
-0.024433853 -0.07782688 -0.11052582 -0.06991829 -0.011377594 0.06405998 -0.1316206 -0.04409755
0.038309634 0.02720468 -0.032617975 -0.03814227 -0.006450271 -0.017771533 -0.013463914 0.031541422
0.05422627 0.002109176 -0.04665747 0.05508819 0.009637157 -0.08632593 0.1195679 -0.032219447
-0.10304423 -0.059871633 -0.053587772 -0.0705193 -0.02335436 -0.04346355 0.06938307 0.16651283
0.09360788 0.03508288 -0.04478617 -0.08174866 -0.011315251 -0.046861056 0.11182197 -0.05135922
0.1039285 0.011425024 -0.049787786 -0.099101394 3.0260044e-05 -0.019361682 -0.07688711 0.13047278
-0.041728497 0.035402052 -0.042725295 -0.016720694 -0.13037086 0.02131408 -0.009901349 -0.011605956
-0.049057644 0.062378027 0.0002664881 -0.10856053 0.12624004 0.004612297 -0.01194983 0.014513713
-0.12002985 0.058243584 -0.043619964 -0.15644006 -0.09138969 -0.081706226 -0.078142315 -0.003725591
0.004069851 -0.018512778 -0.04580223 -0.014414329 -0.077353716 -0.056534957 0.021645857 -0.001231418
0.018541092 0.028429912 -0.101032645 0.008158433 0.05104527 0.0061926716 -0.14322345 0.0049266224
0.002290519 -0.028717497 0.03744942 -0.08193229 -0.114158474 -0.026112814 -0.022626484 0.027115922
-0.118126914 -0.021899736 0.101675704 -0.06505858 0.0016684275 -0.05409839 -0.05181151 -0.03043113
-0.12363539 -0.026973022 -0.013102017 -0.092990324 -0.11936806 0.026614662 -0.08104243 -0.03832227
-0.13869445 -0.09429567 -0.044597138 -0.007852065 -0.1398253 -0.03228864 0.013180685 0.05178039
-0.031393737 -0.010212946 -0.0998868 -0.050997794 -0.026318451 -0.043043546 -0.013712238 0.0056594172
0.055493176 -0.018131962 0.0016408816 0.03448051 -0.095282964 -0.0825344 -0.017902426 -0.1255185
-0.072719164 -0.043316014 -0.1232023 -0.087971635 -0.0012687285 -0.07810528 -0.033411954 -0.15721771
-0.04463053 0.03033717 -0.076610886 -0.11933726 0.0004742251 -0.04733114 -0.07627164 -0.17807624
-0.09442598 -0.007457238 0.07548026 -0.085697696 0.027511677 -0.04335103 -0.0344907 0.07339586
-0.04163982 -0.011166586 0.006499271 0.029718362 -0.052708767 0.0031509125 -0.11798958 -0.017669352
-0.0046066022 0.19745459 -0.053177126 -0.06840563 -0.019402832 -0.0031794116 -0.021328708 0.03725108
-0.114810795 -0.021784302 0.024995051 0.018164173 -0.16006647 0.10329269 -0.23110121 -0.023234574
0.031134233 0.051567525 -0.1582863 -0.0794706 0.0038606196 0.055451583 -0.00827864 0.015310967
0.017215699 0.025903082 -0.025290139 -0.047918405 -0.10504376 -0.04620487 -0.061532963 0.006764257
0.0017504819 -0.07264068 -0.025328081 0.06270194 -0.029759731 -0.1922216 -0.08343539 -0.020579565
-0.05712477 -0.029884811 0.041444395 -0.019125203 -0.02623091 -0.038052134 -0.010246694 -0.09293783
-0.039978437 0.055986546 -0.16408458 -0.07516011 -0.10963801 -0.038445152 -0.055397164 -0.056974784
