results/Run1/config/config-9499964.onnx (onnx, 273335 bytes, 5 tensors)

action_model._continuous_distribution.mu.weight f4 [1, 256]
000000 39 00 c0 3d e0 bf 04 be 16 49 bc bd 0e c3 cc bd
       0.093750425 -0.1296382 -0.091936275 -0.09998141
000010 21 4a 4c be 77 02 8f 3d 85 0a 02 be c2 8a 94 bd
       -0.19950153 0.06982892 -0.12699325 -0.072530285
000020 bd d6 c4 bd 50 c7 27 bc 66 00 16 3d 78 80 ed bc
       -0.096112706 -0.010240391 0.036621474 -0.028991923
000030 58 c7 c9 bd 48 a2 de 3c 0f 48 53 bd 0c f4 5e 3e
       -0.09852475 0.027176991 -0.051582392 0.21772784
000040 a5 dd 15 3b b0 b8 f5 3d 31 54 82 bd a1 68 ba bd
       0.0022867706 0.11998117 -0.063637145 -0.09101988
000050 62 bf 8c 3d 7d f9 cc 3c e7 55 70 bd 40 ca 21 bd
       0.06872441 0.025021309 -0.058675673 -0.03949952
000060 22 61 8f bd 5e ae 3b bd c7 03 1b bd ac c5 a4 3d
       -0.070009485 -0.045820586 -0.0378454 0.080455154
000070 2f 8b 2c 3d aa 0b f1 bd 6a ea b9 bd 89 70 89 bd
       0.042124923 -0.11769803 -0.09077914 -0.067109175
000080 6c 98 62 bd 06 f4 99 bd 19 99 76 bd 4e f5 13 bc
       -0.055321142 -0.07517247 -0.0602046 -0.009030653
000090 d7 63 af 3d d8 aa c8 3d 55 d5 98 bd c4 dd 0d bd
       0.08563965 0.09798211 -0.07462565 -0.03463532
0000a0 a1 eb 8c bd 67 0b 19 3d cc 16 2b bd 63 c4 89 bd
       -0.0688088 0.03736439 -0.041769788 -0.06726911
0000b0 00 cb d2 bd 41 f9 87 bd 9c 43 83 bd 18 ba 23 bd
       -0.102926254 -0.06639338 -0.0640938 -0.039972395
0000c0 5d 1b 59 bd c7 23 93 bd 61 9f 31 bd 16 78 d6 3c
       -0.05300461 -0.07184558 -0.043364886 0.026180308
0000d0 28 dc 81 3d 12 f5 6c bd 78 b1 ad bd 52 d4 ce bd
       0.063408196 -0.057850905 -0.08481115 -0.10099091
0000e0 15 e5 c0 3d 98 38 c1 bc 72 52 37 be 23 13 eb bc
       0.09418694 -0.023586556 -0.17902544 -0.028695649
0000f0 97 a7 24 3d 10 3c cb 3c 0c bd 2c bd 6d 82 4f bd
       0.04019889 0.024808913 -0.042172477 -0.050661493
000100 e8 27 c4 3c 16 e5 b1 bd 30 52 1d 3d 0b 50 cf bd
       0.02394481 -0.08686273 0.03840846 -0.10122689
000110 66 05 cb bd 5c 9f b9 ba b1 06 40 bd dc fd d0 bd
       -0.09913139 -0.0014161873 -0.04688138 -0.1020467
000120 75 f9 28 bd e1 65 a1 bd b0 fc 31 3d ca 77 12 bd
       -0.041253526 -0.0788076 0.043453872 -0.03575877
000130 ee 05 2a bd 51 e7 d7 bd 79 ce 22 3e de 9e 0a bc
       -0.04150956 -0.10542167 0.15899076 -0.008460728
000140 50 c5 b3 bd 32 8b ca bd f6 76 40 bd 25 7c 71 3d
       -0.08777869 -0.09889831 -0.04698845 0.058956284
000150 a7 20 b7 3d 0c 9e 0e bd ff 0f 37 be f2 43 9c bd
       0.08941775 -0.034818694 -0.17877196 -0.07630147
000160 06 9b 3f bd 6a 70 c8 bd da c7 0d bd 58 73 3f be
       -0.0467787 -0.09787066 -0.03461442 -0.18696344
000170 3c b1 1c be 3b d8 6d bc 29 f9 e6 bd 4f 94 dc bd
       -0.15301985 -0.014516885 -0.11277992 -0.10770475
000180 68 aa 38 bd bb 03 db 3c ec c7 4d bd 3c 06 c3 bd
       -0.045084387 0.026735177 -0.05023949 -0.095226735
000190 5d b1 1a 3e 72 18 e5 bc dc 33 fe bd 61 da 0e bd
       0.15106721 -0.027965758 -0.12412235 -0.03487623
0001a0 f9 83 d7 bd 32 91 96 bc da ef e2 bd 8c 9b 3b bd
       -0.10523219 -0.018379781 -0.11080904 -0.045802638
0001b0 5c 63 6d 3c 6c 7c 1d be 31 21 05 be 7b da 8d bc
       0.014489021 -0.15379494 -0.13000943 -0.017316094
0001c0 0e d6 c3 bd 18 20 bf 3c 5a 2a 58 bd 76 79 51 bd
       -0.09562312 0.023330733 -0.052774765 -0.051141225
0001d0 4d f0 06 bd 44 da 46 bd b8 b1 c3 bc a4 ab f1 bd
       -0.032944012 -0.048547998 -0.023888454 -0.11800316
0001e0 37 13 6c 3d cf ab f4 bd 8a 43 07 be 53 2a 49 be
       0.057635512 -0.119468324 -0.13209358 -0.19645052
0001f0 62 97 bb bd 5f 4e 99 3d 5e c5 e0 3a 46 4e 15 bc
       -0.09159733 0.07485651 0.0017148664 -0.0091129
000200 5e b9 e3 3d 84 ca 09 be 68 d6 8d 3d 0f b4 43 bd
       0.1111934 -0.1345616 0.0692566 -0.04777914
000210 e2 b6 39 bd bf c3 a5 3d fe 1c 06 bd ea 20 b3 bd
       -0.045340426 0.08093976 -0.032742493 -0.08746512
000220 c9 23 61 bd d4 3b ba 3d b0 2b 9f be cb 86 33 bd
       -0.054965768 0.090934426 -0.31088018 -0.04382972
000230 c6 f3 b5 3d 26 99 94 bc fb 5f 05 bd 0b 53 71 bd
       0.08884387 -0.018139433 -0.032562237 -0.058917087
000240 95 71 11 3d b4 dc 72 bd 68 9d 50 3d 03 96 cb bd
       0.03550871 -0.05929251 0.050931364 -0.09940722
000250 cb 82 e6 bd ce c3 9b bd 81 32 b7 bc 3f 39 c0 bd
       -0.112554155 -0.07605706 -0.02236295 -0.09385919
000260 2d ca 15 bd 8b e4 0a bd 20 4a db bc 8b 9b b4 bc
       -0.036569763 -0.03390936 -0.026768744 -0.022046825
000270 b2 3d c2 bd 94 43 70 3d 0b 7a 99 bd 82 4d 69 bd
       -0.09484424 0.058658198 -0.07493981 -0.056958683
000280 8b 9a 86 bc 8d 9f a6 bd 8c 68 6e bd ee 91 61 bd
       -0.016431114 -0.08135901 -0.058205172 -0.05507081
000290 56 1e 63 bd 5a 74 0d 3d fb a5 a7 bc eb 35 da bd
       -0.055448852 0.03453479 -0.020464888 -0.10654815
0002a0 4c 2c 6b bd b6 91 b3 bd bc 84 30 be 18 6b 75 bd
       -0.05741529 -0.087680265 -0.17238134 -0.059916586
0002b0 53 a8 40 bc 3a bd f8 3d 8b e8 4e bd 28 90 2c 3e
       -0.011758882 0.12145467 -0.05051474 0.16851866
0002c0 b2 fd ca bd 21 d4 27 be 1c 34 74 bd 15 62 30 be
       -0.0991167 -0.16389515 -0.059620008 -0.17224915
0002d0 8c af 97 bd 14 e2 8c bd 07 3c 60 bd 1e 5d 91 bd
       -0.0740653 -0.068790585 -0.054744747 -0.07097839
0002e0 a8 cf 65 bd 7b 53 3a bb 04 13 9b bd a9 65 f0 bd
       -0.05610624 -0.0028431106 -0.07571986 -0.1173814
0002f0 b0 ca 72 3e 9f 7d 1d 3d 32 20 6b bd 40 42 40 3d
       0.23710132 0.03844988 -0.05740375 0.04693818
000300 2a 3c 83 bd 12 b3 2f bd 8b d2 6c bd 24 90 11 bd
       -0.0640796 -0.042895384 -0.057817977 -0.035537854
000310 ad 95 1b 3e 80 ea 70 bd 55 ee b1 bd 10 18 98 bd
       0.15193816 -0.058817387 -0.08688036 -0.074264646
000320 83 91 3c 3d a9 7e 7a bd 45 ff 05 3e a8 1e d6 bc
       0.04603721 -0.06115595 0.13085659 -0.026137665
000330 be 6e 37 bd d6 eb 88 bd 7c fa 2c bd 11 69 82 3c
       -0.044783346 -0.06685607 -0.042231068 0.01591924
000340 ce 10 62 bd 34 3f 98 bd 53 9c 69 bb 93 76 23 bd
       -0.055191807 -0.0743393 -0.0035646155 -0.039908003
000350 84 87 a1 bd 33 e8 7d bd 2b f4 8e bd 5c 10 b0 bd
       -0.07887176 -0.06198902 -0.06980165 -0.0859687
000360 4e 75 d3 3c a9 f8 ad 3d bc b0 03 3d 7f fc 3c bd
       0.025812771 0.08494694 0.03215097 -0.046139237
000370 21 ce be bd d9 50 a3 bd 1a cf ba 3d 18 94 25 be
       -0.0931666 -0.07974405 0.09121533 -0.16169775
000380 67 b5 a9 3b aa 08 27 3d 1e df 92 bd 25 dd 48 3c
       0.0051790955 0.040779747 -0.071714625 0.012259756
000390 58 4c 8f bd af 62 63 3d 9f cb 08 bd 34 00 9e bd
       -0.06996983 0.055514034 -0.033397313 -0.077148825
0003a0 3b 7c 87 bd 9a 8d 90 bd e3 c3 0c be 54 ca b4 bc
       -0.06615492 -0.07058258 -0.137466 -0.022069134
0003b0 5c ad 14 3d 01 a2 9e 3d e6 6e 52 bd 99 4a 38 be
       0.03629814 0.077457435 -0.051375292 -0.17997207
0003c0 79 87 0d 3c 4b 66 57 bd f1 b3 03 bc 2e b0 88 3d
       0.008638256 -0.05258779 -0.008038507 0.066742286
0003d0 62 a5 2a 3d 4c fe 91 bd 5c 74 57 bd 7d b0 96 3d
       0.041661628 -0.071285814 -0.052601203 0.07357881
0003e0 f5 59 7d 3d 02 f5 2e be b1 80 12 3e d5 8c 0d bd
       0.061853368 -0.1708565 0.14306904 -0.034558136
0003f0 30 2a f8 3c 2b dd 5e bd b7 b0 d6 3c 89 f6 07 bd
       0.030293554 -0.05441014 0.026207311 -0.0331941

network_body._body_endoder.seq_layers.0.bias f4 [256]
000000 39 71 06 bd 4f 8a 24 3d 04 eb 39 be 03 cd 48 be
       -0.03282282 0.040170964 -0.18156058 -0.19609456
000010 c3 17 8a bd 68 78 89 bc d1 ec 9c bc 29 5e 5e 3c
       -0.067428134 -0.016781047 -0.019155892 0.013572254
000020 5d 66 ae bd d5 97 67 3e a6 6f 7b 3d 01 5a 6f bd
       -0.08515618 0.22616513 0.061385773 -0.058435444
000030 ab 77 be bd 1d 3d 7f 3d e4 72 11 be 6e 02 45 3d
       -0.093001686 0.06231414 -0.14203984 0.04809802
000040 89 9f 14 3e f1 76 0c 3d 09 bb 5d be 14 0a 59 be
       0.14513983 0.03429312 -0.2165338 -0.21195251
000050 b3 90 05 be a1 79 36 3d 54 85 a5 3d de e6 5d be
       -0.1304348 0.044549588 0.08082071 -0.216701
000060 81 5c f5 bd 9c 99 02 be 8b 91 51 be 67 12 fd 3d
       -0.11980534 -0.1275391 -0.20465676 0.123570256
000070 f7 46 08 3d 1b 6e ce 3d 8e d6 ed bd ea 37 71 bd
       0.033270802 0.10079595 -0.11613189 -0.058891214
000080 77 0f 87 be 42 d9 2c be ef 76 00 be 83 95 9a bd
       -0.26378986 -0.16879752 -0.1254537 -0.07548048
000090 fc 13 22 be ac 9b 25 3e e0 d3 3b bd aa 5a 85 bb
       -0.15827936 0.16172665 -0.045856357 -0.004069646
0000a0 e9 dc 2f be c9 8e d5 bc 91 53 97 3e 86 43 f7 be
       -0.17174114 -0.026069062 0.29555944 -0.48293704
0000b0 2c 92 56 bd 25 3b 28 bc b7 e7 c5 bc 61 6b 8c be
       -0.052385494 -0.010268007 -0.024158342 -0.27425674
0000c0 dd 33 6a be 38 38 4e 3e f1 86 14 be 42 9f e8 be
       -0.22871347 0.20138633 -0.14504601 -0.45434004
0000d0 bf 96 98 bd 02 1d 8a bd 66 4a 6e be 4e f1 ac 3c
       -0.074506275 -0.06743814 -0.23270568 0.021111157
0000e0 ab fc 8e 3e 50 39 77 bd d8 07 81 be 65 5c f0 bb
       0.27927145 -0.06035739 -0.25201297 -0.007335233
0000f0 4c dc 94 bd f6 89 91 bb b9 6b 3e 3d 60 c8 0f be
       -0.07268581 -0.004441495 0.04648945 -0.14041281
000100 0e 31 11 be 85 79 e9 bd 27 25 f1 bd fa a5 b7 bd
       -0.14178869 -0.11400131 -0.11774664 -0.089672044
000110 24 f3 8a 3d 48 0a 98 bb 48 6d 0a be 22 f2 22 be
       0.06784657 -0.0046398975 -0.1351825 -0.15912679
000120 ec 81 46 3e a4 1f b6 bc 3d 0c 85 be c7 41 da 3d
       0.19385499 -0.022231884 -0.259859 0.10657077
000130 9d 4a 3e bd d6 b1 3d be 80 53 a2 3d 72 84 52 bd
       -0.046457876 -0.1852487 0.079260826 -0.05139584
000140 44 18 7b be c5 69 7d 3d fe b3 7f bd f8 06 0a be
       -0.24520975 0.061868448 -0.062427513 -0.13479221
000150 d7 34 b9 3d cc 54 88 bd b8 02 29 be 38 56 c9 3d
       0.090432815 -0.06656799 -0.16504943 0.09830898
000160 10 1a 3a bd 57 f0 a3 be 56 e3 ce bd f0 74 b2 bc
       -0.04543501 -0.32019302 -0.10101955 -0.021784276
000170 c8 02 0a 3d 68 62 60 3e 83 2c 7c 3d 50 ce 73 bd
       0.03369406 0.21912539 0.061565887 -0.059522927
000180 5f 6d 67 bd f5 df 3e be 47 11 b6 3c 36 25 0a be
       -0.05650079 -0.1864012 0.022225035 -0.13490757
000190 a4 76 26 be bb 4f 3a be b9 34 33 be 3a 05 6d bd
       -0.16256195 -0.18194477 -0.17500581 -0.057866313
0001a0 db ea 21 be d1 bd 9f 3c 12 d9 f5 3d 59 9b 5d be
       -0.15812247 0.019499691 0.120042935 -0.21641292
0001b0 c6 fe 82 bd 84 b4 81 bc 10 f1 33 bd 2b d1 2b 3e
       -0.063962504 -0.015833147 -0.043931067 0.1677901
0001c0 22 d8 da 3d d7 a1 ad 3d 99 db ce bd 20 8c 30 be
       0.10685755 0.08478134 -0.10100479 -0.17240953
0001d0 f8 39 e1 bc a4 e1 87 be 8f b3 5f be 2b 3d f8 3c
       -0.027493462 -0.26539338 -0.2184584 0.030302605
0001e0 b8 67 94 bc 68 df dd bd 21 6b 83 3d c5 ea 34 3c
       -0.018115863 -0.10833627 0.064169176 0.011042302
0001f0 a8 09 25 be 66 55 4a 3e e3 02 f9 3a 85 59 80 3d
       -0.16116965 0.1975914 0.0018998053 0.062670745
000200 1c c0 9a bc 0e b8 55 3c a9 0b 2d be 07 7d b3 3b
       -0.018890433 0.01304437 -0.16898979 0.005477551
000210 73 97 09 3e a0 df 94 3d bf 28 74 be 93 fe 35 be
       0.1343668 0.072692156 -0.23843668 -0.17772894
000220 04 28 2d 3e 09 b0 70 3e e7 57 89 3c de 2e 4b be
       0.16909796 0.23504652 0.016765548 -0.19842097
000230 c9 98 85 be bd 1f 08 be f7 bd 16 be 47 29 76 3d
       -0.26093128 -0.13293357 -0.14720903 0.06009796
000240 57 74 38 be bd c2 a6 b9 ee 7a 21 bd a5 61 0f 3c
       -0.1801313 -0.0003180708 -0.039423876 0.008751308
000250 94 4b d7 3b e5 bb 11 be 9b 84 2b bd a9 92 6a 3c
       0.006570289 -0.14231832 -0.04187451 0.014317193
000260 61 3f 13 be c2 9c 8e be ff fa af 3d bc c7 1f be
       -0.14379646 -0.27853972 0.085927956 -0.15603536
000270 4f 91 b9 bd cf 03 ff 3d 04 f2 6e 3d ff 2c 53 3e
       -0.090609185 0.12451898 0.058336273 0.20622633
000280 20 bc 0c 3e 7e 33 b7 3d 3b 6c f8 bd 52 cc fb bc
       0.13743639 0.08945368 -0.12130018 -0.030737076
000290 d9 c8 b5 3c 78 83 1d bd df 9c d5 3d d0 67 65 be
       0.022190498 -0.038455456 0.104303114 -0.22402883
0002a0 9a e9 da bd d2 7f c0 be 7b 52 59 3e 5c fe 2c 3c
       -0.10689087 -0.3759752 0.2122287 0.010558691
0002b0 f8 71 14 be 83 90 93 be d9 09 9b 3d c5 bb ac 3c
       -0.144966 -0.2882119 0.07570238 0.02108563
0002c0 fa 94 1a bd 0b 4d 2b bd 06 12 b6 bd 88 56 1f be
       -0.03773973 -0.04182152 -0.088901564 -0.15560353
0002d0 42 c8 a1 3a 33 62 2a 3e 60 09 ec 3d 01 21 1b be
       0.0012343007 0.16639023 0.11525226 -0.15149309
0002e0 3d 48 3e 3e eb 83 29 3d 25 e8 c0 bc 0e b3 0f bc
       0.18582244 0.041385572 -0.023548195 -0.008770717
0002f0 73 34 31 bd e6 5f f5 bd e2 7f 6e be 1e b4 03 bd
       -0.04326291 -0.11981182 -0.23290971 -0.032154195
000300 07 c0 85 be 92 5a b9 3d 4c a6 58 be 63 4a 03 be
       -0.26123068 0.09050478 -0.21157187 -0.12821345
000310 fb 8f 45 bd d9 cc 99 be 35 06 0a be e2 56 de bc
       -0.048233014 -0.300391 -0.1347893 -0.027141038
000320 5f c5 e0 bd 7a 88 a3 bd 2e aa 4e bd 07 d7 f8 bd
       -0.109751455 -0.07985015 -0.050455265 -0.12150388
000330 c7 2e 84 be 3c f2 67 be c2 c0 6e bc 30 3b d6 3d
       -0.25816938 -0.22650999 -0.014572324 0.10460508
000340 47 c6 c9 bd 77 07 a4 ba 38 76 0e bd b1 e0 2c be
       -0.098522715 -0.0012514432 -0.03478071 -0.16882588
000350 cd c4 62 bd 62 2b 14 3c c6 9b a7 bc 2a 9f 53 bd
       -0.055363465 0.009043546 -0.02046002 -0.051665463
000360 88 7d 49 3c b6 69 65 bd 31 c3 c0 be c9 d5 aa be
       0.012297995 -0.056009017 -0.3764892 -0.3336623
000370 2d 3b ae 3b 9d 6d 63 bc d9 ff 3a 3e 69 67 73 3d
       0.005317113 -0.013881114 0.1826166 0.05942479
000380 ba 6e 2c be cf aa 1c bd d4 75 c2 bd 02 77 0a bd
       -0.16839114 -0.038248833 -0.0949513 -0.0338049
000390 78 39 02 be 5d 5e 48 bd af 0c 9b bd 12 e9 0b 3e
       -0.12717235 -0.048918117 -0.075707786 0.13663128
0003a0 e9 43 93 3d b3 8b 75 be e1 c5 df bc f7 37 15 be
       0.07190687 -0.23979072 -0.027316036 -0.1457213
0003b0 2c 8b 0d be c1 36 f9 bd 15 72 de 3d 70 8f 1a 3e
       -0.13822621 -0.121686466 0.10861603 0.1509378
0003c0 90 dc 6a be f8 ab 19 3e 37 b0 36 bc 95 8f ea bd
       -0.229357 0.15007007 -0.011150411 -0.11453167
0003d0 19 2c f7 3c 33 99 59 be 11 e1 0b be 4c bc 9b bd
       0.030172395 -0.21249847 -0.13660075 -0.07604274
0003e0 bb e0 8b be f5 6f 39 3c b3 cb 82 bd c2 14 ff bd
       -0.27319893 0.011318197 -0.06386509 -0.12455131
0003f0 2d 1c 05 be 35 66 74 bd 55 ff 2c be 68 99 32 bd
       -0.1299903 -0.059667785 -0.16894276 -0.04360333

network_body._body_endoder.seq_layers.0.weight f4 [256, 6]
000000 de 17 9c 3d 26 e2 21 3e a4 c8 7b 3e 6f d4 0d be
       0.0762174 0.15808925 0.24588257 -0.13850568
000010 2c 9a bd be ca a0 10 3f 79 56 92 be c5 36 19 bf
       -0.37031686 0.56495345 -0.28581598 -0.59849197
000020 57 b5 9a 3e 85 cc b8 3d e5 4b be 3e f9 74 4f 3e
       0.30216476 0.09023384 0.37167278 0.20259465
000030 c1 81 e6 3d 0f 64 1b 3f 03 bb e1 3d 5e da 46 3e
       0.11255217 0.6069955 0.11021998 0.19419238
000040 c0 b5 59 be 29 24 db 3e 6a ef e6 be 13 da 53 be
       -0.21260738 0.42801026 -0.45104533 -0.20688657
000050 8f b8 bf be 09 20 5b 3c f4 fb 15 bf d4 b6 ff 3d
       -0.37445495 0.013374337 -0.58587575 0.124860436
000060 6f 81 cd 3e 57 5a 0e 3f 90 6a 7c 3e c4 f0 71 be
       0.40137812 0.556066 0.24650025 -0.23627001
000070 04 15 25 3f 0d 35 d3 be a1 e7 aa be f0 c3 9f 3f
       0.6448519 -0.41251412 -0.33379844 1.248167
000080 70 80 6c be 97 ce 22 3f 8e 8c f5 3d e0 ef 2f 3f
       -0.2309587 0.6359648 0.11989699 0.68725395
000090 66 97 1f be 33 26 e0 be 07 95 c5 be 18 07 2b 3e
       -0.15585098 -0.43779144 -0.3859026 0.16701925
0000a0 18 4e b6 be 64 c8 6e be 0f 8b 1b 3e 37 bf 1b be
       -0.35606456 -0.2331863 0.15189765 -0.15209661
0000b0 2e af 80 bd 8d 96 10 bf 05 26 f4 bc 3a e8 28 3d
       -0.06283413 -0.5647972 -0.029803285 0.041237094
0000c0 04 76 49 be a2 a4 75 3f 8e b6 2b 3e 90 09 09 be
       -0.19673926 0.95954335 0.16768858 -0.13382554
0000d0 1f 45 0d bf 42 db b5 be 6a 41 87 be 4d e5 5b bf
       -0.55183595 -0.35518843 -0.26417094 -0.8589676
0000e0 6e 39 90 be 72 d5 3a 3f ed d4 ad bd 10 bf 93 3e
       -0.28168815 0.7298194 -0.08487878 0.28856707
0000f0 c6 15 44 3d 00 31 3c 3f 51 ca 59 3c a9 2b af be
       0.047872327 0.7351227 0.013292865 -0.34212998
000100 c1 de 31 bf b1 78 9f 3e 95 63 47 be 55 97 03 bf
       -0.6948052 0.31146768 -0.19471581 -0.5140279
000110 d3 ed 74 bf 59 d6 bf 3b 9b 63 86 3c 2f 52 ad 3e
       -0.9567539 0.0058544097 0.016404917 0.33851764
000120 05 79 23 3d 2d 54 36 3f b4 ae 72 3e 1e be a6 3c
       0.039910335 0.7122219 0.23699456 0.020354327
000130 2a 17 e2 bc 54 6b f5 bd 7a a5 e3 3e 7a b8 09 3e
       -0.027598936 -0.11983362 0.44462186 0.13449278
000140 56 de 8f 3e 61 4e ed be ed 5d eb 3e 16 28 66 3e
       0.28099316 -0.4634886 0.45970097 0.22476229
000150 d6 3f 0e 3c 11 4d d8 3e 11 ef ad bd 19 89 8c 3e
       0.008682212 0.42246297 -0.08492864 0.27448347
000160 25 fb 92 be 9a 45 81 3e c9 68 4a be bc 39 a9 be
       -0.28707233 0.25248414 -0.19766535 -0.3305186
000170 78 27 0d bf 24 66 6b 3e 31 0c a3 bd a7 6f 51 bd
       -0.5513835 0.22988182 -0.0796131 -0.05113187
000180 25 f3 c0 3e 9f f7 2d 3f 54 49 8d 3e 86 83 19 bf
       0.37685505 0.67955965 0.27595007 -0.59966314
000190 71 7b fe be 48 9c ce be ee 8c 26 3f a6 90 04 be
       -0.49703553 -0.40353608 0.6505879 -0.12945804
0001a0 c5 8b 29 3d 16 58 1f bf aa 0d 03 3f 04 05 d8 be
       0.04139306 -0.62243783 0.51192725 -0.42191327
0001b0 08 6b 21 3e 60 e0 d9 be dd 27 8e 3e f3 a4 a0 3e
       0.15763485 -0.42553997 0.27764788 0.31375846
0001c0 7d 4e dc bd f5 76 8e bf da 5e ed be 1b 40 58 3f
       -0.10757158 -1.1130053 -0.46361428 0.8447282
0001d0 75 14 f6 3d 0b 00 91 3e de 2f c5 bd 7b f6 7b 3e
       0.120156206 0.28320345 -0.096282706 0.24605744
0001e0 76 75 b0 3c 01 dc 1a bf bd 7d 75 3e 51 21 31 3f
       0.021540385 -0.6049195 0.23973747 0.6919146
0001f0 09 d2 a6 be ed 77 81 bb 50 96 16 be 8e 72 ba be
       -0.3258212 -0.003951064 -0.14705777 -0.36415523
000200 5f 4f 9c be 44 26 00 3f 82 33 13 3e 37 68 83 3e
       -0.30529305 0.5005839 0.14375117 0.25665447
000210 a5 49 d6 3d 1a 40 a6 be 01 dd 7d be ce 2f 47 be
       0.10463265 -0.3247078 -0.24791338 -0.1945183
000220 ef 83 ed 3e 61 b2 82 be d8 e5 d7 3d 9e 43 b4 3e
       0.4638972 -0.25526717 0.10541886 0.35207838
000230 4e b9 b9 3e bd 8c 22 3c 0a 38 d1 bb 65 c2 d7 3e
       0.3627419 0.00992125 -0.006384854 0.421405
000240 0f 1e d4 3c 9b 42 c5 3e 99 6a e4 3e 74 a0 89 3d
       0.02589324 0.38527378 0.44612578 0.06720057
000250 d0 42 98 be 04 be bc bc a9 1f 49 3f 46 d3 7e 3d
       -0.29738474 -0.023039825 0.78563935 0.062213205
000260 b7 05 f7 3b 37 a0 28 be 82 2b 09 3f 56 10 03 3f
       0.007538523 -0.16467367 0.5358201 0.511968
000270 22 57 3f 3d 53 a6 e0 bc d4 bb d5 3d df b9 75 3d
       0.046713956 -0.02742306 0.10436216 0.059991714
000280 fb 3f 98 be d4 32 2f bf 96 90 20 be 33 9a d7 be
       -0.29736313 -0.6843693 -0.15680155 -0.42109832
000290 44 bf 09 3e 1e ca 39 3d ed 9c 5e 3e 6c 07 a7 3f
       0.13451868 0.04535877 0.2173955 1.304914
0002a0 5f 21 a9 3c c0 2b 35 3f 9c d8 23 3e 7d 9b 53 3f
       0.020645795 0.7076988 0.16000599 0.8265913
0002b0 ec c9 a2 bd 75 4a a9 3d ef 2e bd 3e 52 cd 46 bf
       -0.0794867 0.08266155 0.3694987 -0.77657044
0002c0 41 a8 10 bf 49 02 6c be f5 29 02 3f d3 f1 d9 3e
       -0.56506735 -0.23047747 0.5084527 0.4256731
0002d0 b1 5f 47 3f 55 c5 88 bf 8f dc 0d 3f da 85 05 bf
       0.7788039 -1.0685221 0.5541467 -0.52157366
0002e0 1a 11 9d be e8 5f c6 bd 7d 38 35 bf ef 63 46 bf
       -0.3067711 -0.096862614 -0.7078932 -0.77496237
0002f0 2a 26 4b 3e c6 8f 37 3f 24 93 74 3d 9c 8e 0b 3f
       0.19838777 0.71703756 0.059710637 0.5451448
000300 ed 7e 46 3f 6c 03 87 3d a4 d7 f1 be da 83 05 be
       0.77537423 0.065924495 -0.47234833 -0.13038579
000310 1d c5 ae be 50 16 ce 3d 4c dc e5 3e 33 fb 16 3e
       -0.3413476 0.100628495 0.44894636 0.14744262
000320 84 ea 9b 3e 74 1d 4b be 2e 19 29 bf 54 56 1d 3b
       0.3045236 -0.19835454 -0.66054046 0.0024007754
000330 9b 85 e6 bc 8a f6 21 3f 28 fb b4 bd 76 d6 5a bd
       -0.02813988 0.63266814 -0.08836967 -0.053427182
000340 f8 6d ea bd a9 d3 03 be 9c db 3d 3e 81 12 f8 3e
       -0.11446756 -0.1287371 0.18540806 0.48451617
000350 3d e8 d6 3d 08 56 82 be 1a 80 88 be 73 64 80 3e
       0.10493515 -0.25456262 -0.26660234 0.25076637
000360 86 46 24 bd 79 e6 64 be 15 07 a5 3d a6 12 76 be
       -0.04010632 -0.22353543 0.080579914 -0.24030551
000370 8a 42 86 3e 92 9b b1 3e 51 27 0a 3e 98 f1 b0 be
       0.2622264 0.34689003 0.1349156 -0.3455932
000380 c5 54 2f bf 61 33 1c bf ef 3d be be ac ec 4e be
       -0.68488723 -0.610159 -0.37156627 -0.2020747
000390 e1 e6 36 3e 0d b7 d5 3e 18 fd a3 be 2f 00 ec bd
       0.17861511 0.4174122 -0.32029033 -0.115234725
0003a0 b6 5b 47 bf 99 01 36 3d bf 72 13 3f d3 c9 5e 3f
       -0.77874315 0.044435117 0.57596964 0.8702671
0003b0 a2 ed a4 3e 77 7e 18 3f 52 9f b6 3f 76 10 da be
       0.3221255 0.5956797 1.4267371 -0.42590684
0003c0 8e 30 c3 3e cc 63 4b 3f 7d 4c d9 be a0 5f 5c be
       0.38122982 0.7944915 -0.42441168 -0.21520853
0003d0 8d ec 38 bd cd f6 a2 3e d9 c8 26 3e c6 d1 89 bf
       -0.045147467 0.3182892 0.16287555 -1.0767143
0003e0 9c 6f 69 be 71 0f c7 3e 00 7c 8d be 2a f7 bf 3c
       -0.22796482 0.38878968 -0.27633667 0.023433287
0003f0 87 ed 89 be 62 13 da bc 36 83 60 3e 00 39 67 3f
       -0.2693903 -0.02662057 0.21925053 0.9032135

network_body._body_endoder.seq_layers.2.bias f4 [256]
000000 5c a3 36 bd e7 e7 8f bd b9 d9 00 be c6 7d 4f bd
       -0.044589385 -0.07026654 -0.12583055 -0.050657056
000010 34 2f 87 bd 84 d2 86 bd 7c 01 64 bd 94 12 86 bd
       -0.066008 -0.065831214 -0.055665478 -0.06546512
000020 12 57 54 bd 0c 91 05 be 21 a6 08 bd d7 30 30 bd
       -0.05184085 -0.13043612 -0.033361558 -0.043015327
000030 47 45 57 bd e7 dd 46 bd 59 68 9a bd 0d f5 95 3c
       -0.052556302 -0.048551466 -0.07539434 0.018305326
000040 ce 7e fa bd 80 2e 33 bd 73 eb 9a bd 71 4f 05 bd
       -0.12231217 -0.043745518 -0.075644396 -0.032546464
000050 e4 5c 81 bd 48 80 23 bd fe 6c d7 bd a8 c6 ae bd
       -0.063165456 -0.03991726 -0.105188355 -0.085339844
000060 13 43 8b bb c8 9e fa bd bf db b1 bd 28 d9 00 bd
       -0.004249939 -0.12237316 -0.08684491 -0.031457096
000070 c6 c7 db 3c 14 c3 20 bd 8c 7f 2b bd b4 44 94 bd
       0.026828658 -0.03924854 -0.041869685 -0.072396666
000080 59 ee ee bd 9e 46 0b bd d9 90 71 bd 50 da c8 bd
       -0.11666555 -0.034002893 -0.058976028 -0.09807265
000090 bf c5 37 bd c9 41 88 bd 65 e5 a5 bd 4c 88 b9 bd
       -0.04486632 -0.066531725 -0.08100394 -0.090592
0000a0 0e a3 db bd 8e 8d 03 3c d6 d9 aa bd 85 3c 8b bd
       -0.107244596 0.008029355 -0.0834233 -0.067986526
0000b0 88 8d 7e bd 8d e2 98 bd bc 10 ae bd 65 87 03 3c
       -0.062146693 -0.07465086 -0.084992856 0.008027886
0000c0 2e 45 8a bd 99 7a a6 bd 2b a8 e9 bd f2 06 a2 bd
       -0.06751476 -0.081288524 -0.114090286 -0.07911481
0000d0 c5 a0 08 3c 99 ea a8 bd d1 dd 91 bd e3 d6 51 bd
       0.008339112 -0.08247871 -0.07122386 -0.051230323
0000e0 05 54 fc bb a8 86 fc bd 90 f3 8b 3c 1f c6 0f bd
       -0.0077004456 -0.12330371 0.017083913 -0.035101052
0000f0 f0 c0 9c bd 5a 55 c3 ba 77 60 a4 bd 88 43 c6 3c
       -0.076539874 -0.0014902756 -0.08026212 0.024202123
000100 6e 89 83 bd 44 79 49 bd 55 98 fc bc a8 4f 2e bd
       -0.06422697 -0.049187914 -0.030834356 -0.042556435
000110 c5 0e 26 bd 22 11 3f bd fd 47 f1 bd d7 15 dc bc
       -0.04054143 -0.0466472 -0.11781309 -0.026865883
000120 f3 8b d6 bd 0b 2e 71 bd 59 ab 5c bd 53 4f 9c bd
       -0.10475912 -0.0588818 -0.053874347 -0.076323174
000130 1b 8a d6 bd a9 1d 86 bd af cd b0 3c 3e c5 75 bd
       -0.1047556 -0.06548626 0.021582453 -0.060002558
000140 57 ed 47 bd 93 58 eb bc 26 c3 02 bd 18 f3 76 3d
       -0.04881033 -0.028728759 -0.03192439 0.060290426
000150 10 7e 79 3c f9 18 c6 bd d7 11 a0 bd 68 a2 bf bd
       0.01522781 -0.09672732 -0.07815903 -0.093571484
000160 35 8d a0 bd 5d 37 99 bd e9 96 f4 bd 9e 68 b9 3c
       -0.07839433 -0.07481263 -0.11942846 0.022632893
000170 ca b8 aa bd e6 66 07 be ec 15 91 bd be 1a bb bd
       -0.08336027 -0.13222846 -0.070842594 -0.0913596
000180 71 f5 ce bd 03 dd 6f 3c 9b 8a 9c bb 9c a8 5d bd
       -0.10105408 0.014640096 -0.0047772652 -0.054115877
000190 ed 3d 34 3a f0 7d 4b bd cf be 3c bd db 60 a2 bd
       0.0006875683 -0.04968065 -0.046080407 -0.0792863
0001a0 5e 01 0a bd b4 45 f4 bd 56 06 84 bd fa a3 f4 bd
       -0.03369271 -0.11927357 -0.06446521 -0.119453385
0001b0 70 19 19 bd 6d 57 24 bd cf aa 35 bd df da d4 bd
       -0.037377775 -0.04012244 -0.04435235 -0.10393309
0001c0 c6 7c 88 bd d5 7c ac bc e2 0e 62 bc ee 0f 06 3d
       -0.06664424 -0.021055618 -0.013797494 0.032730035
0001d0 8e 8e 74 bc 6d 9d f3 bd a8 82 93 bd ec 9d 9c bd
       -0.014926566 -0.11895261 -0.07202655 -0.07647309
0001e0 51 cb ce bb 5b 5e d5 bc 36 aa 5d bd 68 81 10 3d
       -0.0063108583 -0.026045969 -0.054117404 0.03527966
0001f0 e4 a0 a0 bd 2c 23 9c 3c 50 16 1c be 0c bc 03 be
       -0.078431875 0.01905974 -0.15242887 -0.12864703
000200 7a fc 51 3c 19 b2 b9 bc dc 3c e4 bb dd 5f bf bd
       0.012816543 -0.022667931 -0.006965263 -0.09344456
000210 b8 35 b9 bd 14 95 07 bd 1d 07 2a bc 08 c2 95 bd
       -0.09043449 -0.033101156 -0.0103776725 -0.07312399
000220 4b d6 b7 bd a4 25 4a bc 48 2c 82 bc df 00 f8 bb
       -0.0897642 -0.012338076 -0.015890256 -0.007568463
000230 1e b9 88 bd 7e 02 92 bc ca 02 aa bd 64 d5 96 3b
       -0.06675933 -0.017823454 -0.08301313 0.004603075
000240 87 b5 26 bd 7d bf b7 bd 6e 4f 56 bd 02 ce 9a bd
       -0.04070046 -0.0897207 -0.052321844 -0.07558824
000250 bc 3b 7d bd b1 e7 9e bd 31 0f d2 bd 7b b9 30 bd
       -0.061824545 -0.077590354 -0.10256804 -0.043145638
000260 01 1e 80 bc 42 39 a0 bd 78 15 d5 bd 7f 2c ec bd
       -0.015639307 -0.07823421 -0.104044855 -0.115319245
000270 9a b2 b9 bc 0c a2 c1 bd 18 64 b0 bd 72 4b c6 bd
       -0.022668172 -0.09454736 -0.08612841 -0.09682359
000280 7b 35 6e bd 36 11 49 bd 49 bf c2 bd 34 5f ee bd
       -0.05815647 -0.04908868 -0.09509141 -0.11639252
000290 43 8f b9 bd 8a c1 51 bd 88 34 e3 bd 01 94 d8 bc
       -0.09060528 -0.051209964 -0.11094004 -0.026437761
0002a0 45 7d f3 bd 37 23 80 bd e7 a1 96 bc 6a b7 6d bd
       -0.11889128 -0.06256717 -0.018387748 -0.058036245
0002b0 fd 93 2b be d9 26 85 3c ec fb 14 bc 02 dd 8e 3d
       -0.16755672 0.016253876 -0.009093266 0.06975748
0002c0 81 ff 4c bd 90 b0 2b bd 1d 55 9c bd c5 0f a9 3c
       -0.050048355 -0.04191643 -0.076334216 0.020637402
0002d0 26 63 d2 bd fe f8 16 bd b0 7c e2 bc 9e e5 d6 bd
       -0.10272817 -0.03685855 -0.027647346 -0.10493015
0002e0 79 2e 5a bd a3 0b 0b be 4a 00 f7 bc 1a 78 1f bd
       -0.053266976 -0.13578658 -0.030151505 -0.038932897
0002f0 c9 c5 b1 bd 99 cc ac 3c 16 ed 1a bc 39 28 11 3d
       -0.08680303 0.021093654 -0.00945594 0.03543875
000300 e0 ac 06 bd 89 b4 8b bd fa 7b d3 bd 67 01 96 bd
       -0.03287971 -0.06821544 -0.10326381 -0.07324486
000310 9f 7a 82 3b 90 16 75 bc 64 2c 1a bd 02 ff 6d 3c
       0.0039819027 -0.014958993 -0.03763999 0.014526131
000320 85 98 cc bd e5 10 c6 bd 93 09 bb bd ac 20 c8 bc
       -0.09990028 -0.09671191 -0.091326855 -0.024429642
000330 ef e6 4e bd 6f 66 67 bd 8a b1 aa bd 58 d1 a7 bd
       -0.050513204 -0.056494173 -0.08334644 -0.08194226
000340 9b 6a e3 bd 21 4a 84 bc 72 4d f5 bd 6a f5 82 bc
       -0.11104318 -0.016148629 -0.11977662 -0.015986163
000350 30 ae 6d bd 96 18 e7 bd b6 38 92 bd be 9f 52 bd
       -0.058027446 -0.11283986 -0.07139723 -0.051421873
000360 c7 9b c9 3c 78 d1 8e bc 20 cb 2a bd cf 94 e9 bd
       0.024610413 -0.017433867 -0.04169762 -0.11405336
000370 2e 4d c9 bd 76 cc 95 bd 02 f8 ab bc a5 c6 90 bb
       -0.09829174 -0.073143885 -0.020992283 -0.0044182115
000380 22 f5 1e be ea 83 98 bd 03 9e 04 3c 3f 0e a9 bd
       -0.15523198 -0.074470356 0.008094314 -0.0825467
000390 8f bc c3 bd af 7b 00 bd fe 45 07 be 9d ae a5 bd
       -0.09557449 -0.031367954 -0.13210294 -0.080899455
0003a0 6e 78 29 bd 9f a4 93 bd 49 17 ce bb 4f 16 05 be
       -0.041374616 -0.07209133 -0.006289397 -0.12996791
0003b0 62 be bd 3b 8c ac 96 bc ad 18 e0 bd 44 04 22 bd
       0.0057905177 -0.018392824 -0.109422065 -0.03955485
0003c0 20 ed 54 bd fc 47 ba bd b9 07 06 be 5b d5 55 bd
       -0.051983953 -0.09095761 -0.13088883 -0.052205425
0003d0 27 4d b0 bd 6a e0 af bd 00 d5 a8 bd e1 63 0d bc
       -0.08608466 -0.085877255 -0.082437515 -0.00862977
0003e0 78 c7 e7 bd 77 12 bb bd cb 1a 14 bc 9f 52 0b be
       -0.113173425 -0.09134381 -0.009039591 -0.13605736
0003f0 0f c5 18 bd 19 18 2f bd 10 73 85 3c 05 10 01 be
       -0.037297305 -0.04274759 0.016290218 -0.12603767

network_body._body_endoder.seq_layers.2.weight f4 [256, 256]
000000 41 0c 2b bc 4a 4a 0e be 0d f2 46 bd 6e dd 74 bd
       -0.010439933 -0.13895527 -0.04857068 -0.059781484
000010 7d cc c1 bd 06 d1 5a 3d ee 6b 6d 3c c7 64 5e be
       -0.09462831 0.053421997 0.0144910645 -0.21718131
000020 88 69 20 3e 28 d4 16 3e 75 e3 76 3d 26 1e 8d 3d
       0.15665257 0.14729369 0.060275514 0.06890516
000030 cb 5b 32 3e 49 66 4b be 54 e8 9b bd fb f5 ff 3d
       0.17417829 -0.19863237 -0.076126724 0.12498089
000040 e9 47 01 3d 07 ab a7 bd 66 57 d4 3c 6b 1a bb bd
       0.03156272 -0.08186918 0.025920581 -0.09135898
000050 fc 6e 56 bd 1f 24 3e be 7d bd 18 be bf bd a7 3d
       -0.052351937 -0.18568467 -0.14916034 0.08190488
000060 46 01 5f 3d 96 85 dc bd 4c 73 63 bc 6b 50 6e bb
       0.054444574 -0.10767667 -0.013882469 -0.003636385
000070 92 13 5a be 60 ca 55 bd 28 24 9d 3d 20 c5 65 3e
       -0.21296528 -0.052194953 0.07672912 0.22438478
000080 db 5b a3 bc 16 ae 95 3d b6 2d 0e 3e 3a 0e 6c 3d
       -0.019941261 0.07308595 0.13884625 0.057630755
000090 91 a3 21 bd b9 e3 b5 bc cf fc 6c bc c4 f3 3f be
       -0.03946263 -0.022203313 -0.014464571 -0.18745333
0000a0 5c 4d 6a 3d 2b 3b ee 3c e0 75 23 bc 5a 7a 26 be
       0.057202682 0.029080948 -0.009976834 -0.16257611
0000b0 9e a3 61 be 0d 80 fc 3b 41 91 1f be 43 55 a6 bd
       -0.22035071 0.0077056945 -0.15582754 -0.08121731
0000c0 b7 b9 9b bd 25 d2 e3 bd 61 fa ba bd 0d c9 39 bd
       -0.07603782 -0.11124066 -0.09129787 -0.045357753
0000d0 8f 7c 39 bc 1a 19 6b be 90 d2 4b bd 81 cc 1c bd
       -0.011321201 -0.22958794 -0.049761355 -0.038280968
0000e0 61 f5 f0 3c df 12 29 be a7 e5 05 3d d0 1a c4 3c
       0.02941388 -0.16511105 0.032689717 0.023938566
0000f0 74 ad 8a bd 32 0f 94 bd d4 b8 66 3c 61 7c 95 3b
       -0.06771365 -0.07229461 0.014082152 0.0045619463
000100 8d 73 59 3d b5 62 ff bd a7 09 81 3c e7 94 e0 3d
       0.053088713 -0.12469999 0.015751673 0.10965901
000110 1d 27 2e be de 9c 06 3d 0e 18 d2 bc d8 81 05 3e
       -0.17007108 0.032864444 -0.025646236 0.13037813
000120 80 5b 61 bd a1 2d e1 3c 05 49 0a be ed 3b 49 bd
       -0.0550189 0.027487578 -0.13504417 -0.049129415
000130 2b b1 23 3e 4a 25 82 3d 5a 8d 94 3d 9a e8 46 3c
       0.15985553 0.063547686 0.07253523 0.0121404175
000140 bf 93 29 be a8 35 23 be a1 e5 a5 be 8e 2f fb bd
       -0.16560267 -0.15938437 -0.32401755 -0.1226493
000150 48 3a 79 3c 6c 6f 6d 3e 84 39 9e bd 99 43 0a bd
       0.015211649 0.23187035 -0.07725814 -0.033755872
000160 c0 5c 61 be d2 0a a7 bd 25 bc 15 bd b7 29 8c bd
       -0.22008038 -0.08156361 -0.03655638 -0.06843894
000170 02 3c 84 be c2 4e 0a be cf c0 db be 3a f2 2a be
       -0.25827032 -0.13506606 -0.4292054 -0.16693965
000180 b1 7f 96 3c be 6b 7b be e2 89 f0 bd 86 d0 6a 3e
       0.018371435 -0.24552819 -0.11745049 0.22931108
000190 c8 64 08 be 0c ee 0c 3c 67 d4 6d be 40 8c 89 3c
       -0.13319695 0.008601677 -0.23225556 0.01679051
0001a0 03 8b be 3b bc 16 cf bd 8e 7b 00 bc 46 b8 15 bd
       0.0058149113 -0.10111758 -0.007841958 -0.03655269
0001b0 91 ee c2 bd 00 35 aa bd 26 4b c6 bd 46 59 ed 3d
       -0.09518159 -0.0831089 -0.09682302 0.11589293
0001c0 fc af 4e bc de ce 84 bd 07 a2 00 3b d6 57 dd 3d
       -0.0126152 -0.06484769 0.0019627826 0.10807769
0001d0 9a 37 42 be 82 58 cc bd 83 39 0e 3c 23 5a 7f bc
       -0.18966523 -0.09977819 0.008680704 -0.015585455
0001e0 90 54 be 3d cf aa 0f be 40 96 37 be fb 80 15 bd
       0.09293473 -0.14030002 -0.1792841 -0.03649996
0001f0 9d ce 05 be 89 4f cc be 80 1d 07 3e 64 a3 92 be
       -0.13067098 -0.3990443 0.13194847 -0.28640282
000200 af 93 90 3d 50 98 14 be cd cd 3c bc 67 e1 14 3d
       0.070594184 -0.14511228 -0.011523676 0.036347773
000210 b4 f4 bd be 0d e5 a5 3d ed 9b 18 bd c8 2d 4a be
       -0.37100756 0.081003286 -0.037258077 -0.19744027
000220 19 2e 66 be b8 82 21 3d ab 69 ec 3b 73 0f af 3c
       -0.22478522 0.039431304 0.007214745 0.021369671
000230 b3 2a 66 3d 9d c9 ae 3d 8c 68 d9 3b e5 11 59 3d
       0.056193065 0.085345484 0.0066347774 0.05299558
000240 bf fd a1 3d a6 bf 65 bc 0e 71 c5 3d 1c 1e fd bd
       0.07909726 -0.014022743 0.09640704 -0.123592585
000250 e2 7d 30 bd 73 85 bb 3d fc 69 ce bd 4a 4b ea bd
       -0.0430888 0.09156313 -0.10078809 -0.114401415
000260 7e be 1f bb 22 70 2d be 7e 30 95 bd 12 fc 01 bd
       -0.0024375017 -0.16937307 -0.0728464 -0.031734534
000270 73 c7 ba bd bb d5 af be 61 a7 4d be cc 19 63 3d
       -0.09120073 -0.3434275 -0.20083381 0.055444524
000280 0d 57 9f bd 4a 74 33 be c4 27 72 be fc 0a 4d be
       -0.077802755 -0.1752483 -0.23647982 -0.20023721
000290 d0 4c 87 3d af b3 04 be 85 b1 cd be b1 cc 05 be
       0.06606448 -0.12959169 -0.401745 -0.13066365
0002a0 f6 8b 2d 3e ee cc 7e bd 6a fd 05 be 07 80 b6 3d
       0.16947922 -0.062207155 -0.13084951 0.08911138
0002b0 82 d8 2a 3e 4c 43 92 bd d8 95 89 3d 63 de 49 be
       0.16684154 -0.07141742 0.067180336 -0.1971374
0002c0 b2 ba 87 3d 97 5e 8e bd 9c de 63 bd 46 08 d3 bc
       0.06627406 -0.06951635 -0.05563222 -0.025760781
0002d0 fe df 80 bd 2e 52 db be 48 aa 94 3d 65 59 07 be
       -0.06292723 -0.42836136 0.07259041 -0.13217695
0002e0 6c 7a a2 3d c4 73 95 be bb e6 b6 be 4c 12 e1 3d
       0.07933506 -0.29189885 -0.35722908 0.10989818
0002f0 8a 02 5b 3d 15 16 f6 3d 40 0c a4 b8 0b 5f 82 be
       0.05346922 0.120159306 -7.822411e-05 -0.25463137
000300 fb f2 aa bd 7d 69 95 bb f8 72 79 3d 99 d7 ac bc
       -0.08347126 -0.0045596943 0.06090066 -0.021098899
000310 d8 f5 23 3c ff c6 86 3c 16 33 82 3d 12 49 c7 3d
       0.010007344 0.01645231 0.063574 0.09730734
000320 54 9c 78 bc bf df 1c be 66 57 d8 3c e9 9f 09 be
       -0.01517399 -0.15319727 0.026408862 -0.13439907
000330 ea 48 04 be b7 8c 48 3d 36 09 77 3d cb 71 2d 3d
       -0.1291844 0.04896232 0.06031152 0.04234485
000340 10 8b e1 bd 54 bb 9c bd c5 a9 60 bd dd c0 a6 3b
       -0.11012852 -0.076529175 -0.054849405 0.005088909
000350 95 ed 33 be a6 49 67 3e 56 a2 ae bd 50 3e 87 bd
       -0.17571099 0.22586688 -0.08527057 -0.06603682
000360 c1 7d 7a be f4 eb b0 3b 8c 69 45 bd 90 4f 2a be
       -0.24462034 0.0053992216 -0.04819636 -0.16631913
000370 b1 5c ae 3d e9 34 95 bd ae 84 95 be b7 bf d5 bd
       0.08513773 -0.072854824 -0.2920279 -0.10436957
000380 1b 83 90 3c 77 cd 48 be 62 80 93 3d c9 e5 a9 3d
       0.017640641 -0.19609629 0.072022215 0.08295781
000390 5f 04 6a be be 83 29 3c 80 e0 d4 bc 3f e0 26 be
       -0.2285323 0.010346351 -0.025985956 -0.1629648
0003a0 7e df d3 3d 0d 1a 81 bc 88 b1 8c 3d 76 c1 31 3d
       0.10345362 -0.015759492 0.06869799 0.04339739
0003b0 b7 2d d6 bc 86 6a 2a be a6 de c2 3d 8c 4b a8 be
       -0.026144845 -0.16642198 0.09515123 -0.32870138
0003c0 25 36 2f 3b 8b 88 c7 be 15 39 9c bd 99 66 01 bd
       0.0026735154 -0.38971362 -0.07628075 -0.031591985
0003d0 c2 0a 5e be 11 cf 0b 3d 73 33 24 3d 42 c2 62 be
       -0.21683791 0.03413302 0.04008813 -0.22144416
0003e0 ff e9 84 bd ef 96 d2 3c 0e db 88 be b5 30 82 bc
       -0.06489944 0.025706736 -0.26729625 -0.015892366
0003f0 43 ae 40 be 14 59 fc 3c 4e 57 4a 3b 51 b0 bc 3d
       -0.18816476 0.030804195 0.0030874792 0.09213317
