results/Run1/config/config-499982.onnx (onnx, 273335 bytes, 5 tensors)

action_model._continuous_distribution.mu.weight f4 [1, 256]
00000000: 579f d0ba 41d2 2d3c 47c5 8abb ef56 0fbd
00000010: c448 1b3d c43d b0bc 024a d03c c58b 8b3c
00000020: cd51 9abb a6f3 26bb c4f3 99bc d315 e63a
00000030: f400 1d3d e421 efbb ac17 5fbd 0d00 13bd
00000040: 571e bd38 6f93 e23a 2cb7 14bb 2428 bbbc
00000050: ceac b3bb d352 babb 2403 943a ca4e 8d3d
00000060: 1fcf 0fbb 35ab b1ba 82c7 66b7 3154 8fba
00000070: 1696 93bb fcfc 863c 5a8c e7bb 3cf5 00bd
00000080: 4b37 7838 3b66 28bb d097 bfbb 9d58 823a
00000090: d2fc 0f39 2513 adbd 8bc1 e4bc 4ea1 96ba
000000a0: 819d 07bd a525 5bbd fd7f 28bb 9fd0 f7bb
000000b0: cc93 83bd be15 82ba 618e 8d3d ed56 033d
000000c0: 60bc b83c da14 2c3a 55f5 9cbd 1bed 0b3d
000000d0: 5682 053a b24c 8abd 2f4f abba 69f4 81b9
000000e0: 662a a53c 2064 0d3d c413 3a3d c8ff b43c
000000f0: 4594 91bc 472e 91bc 295f b239 071c 07bb
00000100: 229e 55ba cced 79bb 3c2d 6eba 6758 133b
00000110: 7be8 393d 9c19 033b 0f2e 69bb 5944 92bb
00000120: f94c 4bbd 4681 2fbd e20c 163b f333 e23b
00000130: 3369 afba 0a4f eaba c095 3d3a 924f 6fbd
00000140: 1b2e a839 71d2 233c 2dec d239 41f1 0b3d
00000150: d09d 7c38 d971 25bd 721a 703d 9b8e 91bb
00000160: 7da9 86bb b40e 1a38 990a c13d fda7 2fba
00000170: ee3a f5bb 0cf8 2fbb 9703 223d bc5a b9ba
00000180: 8223 f7ba 01e8 cf3a 6ab8 8c3c 7893 5cbd
00000190: 5817 b6b9 8566 ad3d f377 a9bc 1a74 ea3c
000001a0: 473c 85bc c03c bfbb 248e 77b9 cb4b 183a
000001b0: 3da5 a93b 73da 3a3c fd3c f639 bb97 06bd
000001c0: b9ac 833c 2cbe 1bbc ded1 ecbc 8c0f 393d
000001d0: bb76 ad3a e9c4 8e3d d8a4 c6b8 ad5c 10bb
000001e0: 657a 473b 23dd b6b9 24f7 99bc 3721 ad3c
000001f0: 9ac9 f3bc 2e62 02ba 60cb 2f3a 4c6b c7ba
00000200: 9c9b 633a 9380 50ba b33e 123d f513 90bc
00000210: 5f28 783a b892 fc3a 71ab de3c f9a6 e2ba
00000220: 2819 bbbc 04b3 e6bc df71 4bbc ccc0 6abb
00000230: c315 b0ba 4f8a dc3b a04b 863c 2a50 463d
00000240: 8c3d 25ba 7936 363c c438 863a b7fe 263b
00000250: 9c4f 20bb b26c c238 f658 37ba bee7 4cbb
00000260: 9ccc 20bd ddb2 c03a 6d95 eb3c 9a23 b4ba
00000270: 716e 063b c41b de3c e0a9 a6bc 2417 803c
00000280: 82bc 7bbb 6819 2cb9 022c 2b3d 3db0 2e3d
00000290: d405 e3bc 3c20 95ba 9675 f7ba 96c4 dbbb
000002a0: a704 cdbc c075 06bb 7f44 543c a0b3 3dbd
000002b0: fcfe 96ba 047c 48bd ad1e b1ba 137b 84bb
000002c0: 3baf 4b3a 1bbc c93b 640d 7fbd 77c8 e2ba
000002d0: a9c0 73bb 4f9a 40ba ddc8 b83b 39b6 1e39
000002e0: 5f96 e53a 9f69 00bc e1ea f7b9 3f37 903b
000002f0: dc78 52bb 2824 b8ba 442b e0bc 625d dbbc
00000300: 0231 b739 5353 2b3d 1e6f 3bbc 2e44 9c3b
00000310: 0f09 653c 87c2 26bb aa2b 08b9 56f7 49ba
00000320: a9d0 08bb 2b71 29bc df95 353b ed5e abbc
00000330: b2a8 07ba ab7e 653b c770 b83c c06a 043c
00000340: 657b 46ba 3469 8b3b 2fe3 78bd c536 653c
00000350: 4ac4 4abb d262 02bb 9c43 a93a b23b 01bd
00000360: 588d eebc 7b03 143d 6161 50bb d32c 9939
00000370: 89f0 90bc c8d4 6d39 e2c5 e8bc 0c37 e73a
00000380: f813 6a3b d5a9 15b9 0029 0a3b 04e0 d73c
00000390: c4f2 723c 6a7c afbc f6d6 b33d e22d be39
000003a0: 578e 663a d56c 013d 3e94 503b 87a3 803c
000003b0: 3714 223c e166 003a 72bc adbd 768f 053d
000003c0: 8597 c838 8dc8 3abd aeda a53a 7ba2 433d
000003d0: 33bc 03bc 694a 763c 46e6 89bd 4c5c c7bc
000003e0: 068c 203c 8790 42bc 4692 843b 36db 1ebd
000003f0: be61 e13a c74e 7d3c 24e1 33bb 8aff 92bb
-0.0015916628 0.0106092105 -0.004234943 -0.034995016 0.03791119 -0.021513827 0.025425915 0.01703442
-0.0047094584 -0.0025474816 -0.018792994 0.0017554112 0.038330987 -0.0072977412 -0.054465935 -0.03588872
9.0178735e-05 0.001728637 -0.0022692187 -0.022846289 -0.0054832464 -0.005686143 0.001129244 0.068997934
-0.0021943522 -0.0013555052 -1.375552e-05 -0.0010935125 -0.0045039756 0.016478054 -0.0070662918 -0.031483874
5.9179303e-05 -0.00256957 -0.005846955 0.0009944622 0.00013731726 -0.08450917 -0.02792432 -0.0011492164
-0.03310919 -0.053502697 -0.0025711053 -0.0075627114 -0.064246744 -0.0009924693 0.06911922 0.03206532
0.022550762 0.00065643864 -0.07663981 0.03416167 0.0005092969 -0.0675291 -0.0013069863 -0.00024786897
0.020161819 0.034519315 0.045429006 0.022094622 -0.017770896 -0.017722262 0.00034021706 -0.002061607
-0.0008148869 -0.0038136123 -0.000908572 0.0022483112 0.045387726 0.0020004278 -0.0035580432 -0.004463714
-0.049633954 -0.042847894 0.0022895862 0.0069031655 -0.0013382792 -0.0017876339 0.00072320923 -0.058425494
0.00032077808 0.009998904 0.00040230286 0.034165625 6.0228456e-05 -0.040391777 0.05861897 -0.0044420487
-0.00410956 3.6730155e-05 0.094258495 -0.00067007524 -0.0074838316 -0.0026850728 0.039554205 -0.0014141421
-0.0018855187 0.0015861989 0.01717778 -0.053851575 -0.00034731138 0.0846682 -0.020687079 0.028619815
-0.016264094 -0.0058360994 -0.00023608707 0.0005809634 0.0051771686 0.011404621 0.00046966216 -0.032859545
0.016073572 -0.00950579 -0.028908666 0.045180842 0.0013234237 0.069711514 -9.47208e-05 -0.0022027895
0.0030437943 -0.00034878505 -0.018794604 0.021134002 -0.029759217 -0.00049737364 0.00067060255 -0.0015214472
0.00086825504 -0.00079537294 0.035704326 -0.017587641 0.0009466465 0.00192698 0.027181359 -0.0017292193
-0.022839144 -0.028161533 -0.012417286 -0.0035820482 -0.001343422 0.006730355 0.016393483 0.048416294
-0.00063034217 0.011121386 0.0010240306 0.0025481412 -0.0024461513 9.270887e-05 -0.0006994152 -0.0031266059
-0.03925763 0.0014701743 0.028757775 -0.001374352 0.0020512606 0.027112849 -0.020344675 0.015636034
-0.003841192 -0.00016412663 0.041790016 0.042648543 -0.02771274 -0.0011377404 -0.0018879648 -0.0067067845
-0.025026632 -0.0020516962 0.012955784 -0.046313882 -0.0011520083 -0.048946396 -0.001351317 -0.004042992
0.0007769947 0.006156457 -0.06226863 -0.0017302175 -0.0037193692 -0.00073472125 0.005639179 0.00015135937
0.0017516128 -0.007837682 -0.0004728651 0.004401117 -0.0032115495 -0.0014048861 -0.02736438 -0.026777927
0.00034940994 0.04182751 -0.011440067 0.00476887 0.0139792105 -0.0025445537 -0.00012986237 -0.00077043974
-0.0020876324 -0.010341923 0.0027707738 -0.020919288 -0.0005174979 0.0035018127 0.022514714 0.008082092
-0.0007571488 0.0042544845 -0.060763534 0.013990109 -0.0030939751 -0.0019895327 0.0012913826 -0.03155107
-0.029120132 0.03613613 -0.0031796324 0.0002921583 -0.017692821 0.00022681348 -0.02841467 0.0017640307
0.0035717469 -0.00014273015 0.0021081567 0.026351936 0.014828388 -0.02142163 0.08781235 0.0003627381
0.0008795014 0.03159793 0.003182664 0.015702976 0.009892515 0.00048981427 -0.08483209 0.032607518
9.564966e-05 -0.045601416 0.0012653673 0.047762375 -0.008040476 0.015032389 -0.06733374 -0.024336003
0.009799009 -0.011875278 0.0040457575 -0.038783275 0.0017195267 0.0154606765 -0.0027447427 -0.004486029

network_body._body_endoder.seq_layers.0.bias f4 [256]
00000000: fac5 9bbc 0976 cf3c fe8e 043d 95c0 0dbd
00000010: cc54 ae3b acf9 26bd 1f48 8bbc f9c7 8fbc
00000020: 1c73 e2bc c7b3 92bd f6e2 8b3d e45c 23bc
00000030: e844 c5bb 60c2 82bc 9994 2fbd 6e92 afbd
00000040: 4269 403d 14c4 14bd 33e7 733c 7364 f2bc
00000050: 29df 88bd bdc6 13bc 9aaf ccbc 63ee 5ebd
00000060: f35a f9bc d713 62bd 51fb cd3c 24e5 90bc
00000070: 6c71 7cba c167 193c ad62 b33c f9aa f13c
00000080: 53c9 823d 3dce b9bc 6cf6 2b3c 68dc 79bd
00000090: bffd ed3b abbe 26bc 340f 543d ad68 913d
000000a0: 87c3 e6bc 2dc2 ecbb c6c8 43bc c79a 32bd
000000b0: 5d83 043d 1d2b d1bc 0d67 adbd f284 b03b
000000c0: a02f bb3c 8e00 80bd 43c3 0cbd 7467 82b9
000000d0: 46e9 1cbd 93c7 253d 8414 43bc ba4b b6bc
000000e0: d9a8 78bd a297 5abc 1a5f bc3c c42c 2ebd
000000f0: 6e1a 493c 293c 083d bf0d 533a 4de1 ddbc
00000100: 822f 59bd 94c7 7fbc ae8b b5bd 5a5e c7bb
00000110: 687f cf3b dbdf 06bd 68b5 ccbc 501a 523d
00000120: 0b16 c23c 27df 20bb c877 3fbc d7bc 9dbd
00000130: a4b9 a8bc 8152 59bd 01b1 303d 5f0b 2bbd
00000140: 7427 323d cb97 e1bc d4f1 7abc 1fbc 1bbd
00000150: 1034 25bd 54da bb3c 9259 a5bc a60a f6bb
00000160: 9d37 30bc b43e 6abc 602a 95bd 1aed 75bc
00000170: 7713 4fbd 7494 0ebd ee88 853d c13b c3bc
00000180: 0ed8 603c 6422 95bc 70a0 66bd a545 ab3c
00000190: acb6 80bb 22d8 14bd 75fd dbbc 1b3d 3d3d
000001a0: aff3 1ebd cc82 1abc 41ea 373b 68e5 bcbc
000001b0: ab78 35bd d58a 0cbd 8c65 ce3b 6462 c9bc
000001c0: 9718 18bc d9a7 5c3d a862 683c 8f8e 97bc
000001d0: a518 59bd c02b dfbc dc98 a7bc 17fb adbb
000001e0: 86d3 dcbc 8546 b8ba 77f9 3ebd b3a7 eb3b
000001f0: 8412 1ebc 5526 203d 4077 e8bc a6fc 963c
00000200: a550 863d 3b71 79bc a81a 12bd 83d3 33bd
00000210: 1b87 91bd a182 11bd 2540 d6bb 18e2 69bd
00000220: c5a9 16bc 6f62 8abb bf8b bbbc 9fb0 45bc
00000230: b8c0 83bb 3449 363d 0def 17bd 54ae 3fbd
00000240: 891d 053c 1f25 b8bc f52f b03c 573e fc3c
00000250: 1244 133c 4619 bc3c 60ec 6abc 50e2 8dbc
00000260: ab57 403c 72a4 943c f3b4 89bd 0606 a0bb
00000270: abea 13bd 01df 16bd f873 ea3c 2c02 ad3c
00000280: 314d 56bd 2ba3 03bd 41c3 223c 6000 893c
00000290: 3305 33bc b05b 813c ba78 91bc abcc 99bc
000002a0: b5ab 96bd 9af7 f2bc 4e0e 2abd 18cb 773c
000002b0: 473a bdbc 491f c13b e828 07bc 4d85 bfbd
000002c0: 4617 94bc e0b0 58bd 6f4f 1bbd fc68 38bc
000002d0: 21d6 b9bc a1f0 4fbc 2145 04bd dd9a 18bd
000002e0: f51a 83bd 8732 603d 5255 2dbd 5da9 dcbc
000002f0: 72c4 a2bc c15a 33bd fb96 e53b f3af 513c
00000300: e2f6 6cbc 1287 acba 04ce 47bb 5bbf 30bd
00000310: 5c14 10bd 4248 8dbd 89b1 6f3c 9ff0 46bc
00000320: 770d d9bd b799 2b3c 2fcc 8dbc c908 46bd
00000330: 6701 e9b8 6ba7 b33c bb4f 0abd 2dcf dcbc
00000340: ca2b 213c 76b1 34bd 9106 df3a 734f 2bbd
00000350: c6f2 15bd edaf 78bc 5094 b93c c4b9 7bbd
00000360: af05 0fbd 1e40 3dbd 90cd 32bd 78b2 11bd
00000370: d817 c73c 9470 b2bc 81a6 a3bd d5ec 6cb9
00000380: d9f0 8fbc 7dcb 76bc 6a64 e4bc 7245 1cbd
00000390: 73ee 083d 4850 19bd 4de1 cc3c 7ec0 c23c
000003a0: 5032 99bd e637 3ebd c49c 55bd 81cc 17bc
000003b0: 7cff ddbc 58c5 bcbc 634e a7bd 674f 5a3d
000003c0: 3cd7 77bc f715 373d 117d 86bd 54ea 873c
000003d0: 222f 7ebd fe98 01bd f898 f2bc f9c2 66bd
000003e0: dd2a 1abd aa42 8dbb 5db5 a7bc 22b6 8dbd
000003f0: 00f8 c7bc a491 a73b 699f 353d 3d39 d0bc
-0.019015301 0.025324838 0.03236293 -0.03460749 0.005320167 -0.04076545 -0.017002163 -0.01755141
-0.027642779 -0.07163196 0.06830399 -0.009970877 -0.006020177 -0.015961826 -0.042866323 -0.08572851
0.04697538 -0.036319807 0.014886665 -0.029588914 -0.066831894 -0.009019551 -0.024986077 -0.054426562
-0.030438876 -0.055194702 0.025144251 -0.017687388 -0.0009629938 0.009363116 0.021897638 0.029500471
0.06386056 -0.02268135 0.010495763 -0.06100121 0.007262915 -0.010177295 0.05177231 0.071000434
-0.028169407 -0.007225296 -0.011949724 -0.04360464 0.03235184 -0.025533253 -0.08466921 0.005386942
0.022849858 -0.06250106 -0.034365904 -0.0002487261 -0.038308404 0.040473532 -0.011906747 -0.022252906
-0.0607079 -0.013341816 0.022994567 -0.04252316 0.012274368 0.0332605 0.00080510596 -0.02708497
-0.053023823 -0.015611548 -0.088645324 -0.0060842456 0.0063323267 -0.03292833 -0.024988845 0.051294625
0.023692152 -0.0024547072 -0.011686273 -0.07702034 -0.020596333 -0.053057197 0.043137554 -0.04175889
0.043494657 -0.0275382 -0.015316445 -0.038021203 -0.040332854 0.022931255 -0.020184312 -0.0075085936
-0.010755447 -0.014297176 -0.07283473 -0.015010143 -0.050555672 -0.034809545 0.06520258 -0.023832204
0.013723386 -0.018204875 -0.05630535 0.020907233 -0.003928026 -0.036338933 -0.026854256 0.046200853
-0.038806614 -0.0094305985 0.002806321 -0.023058608 -0.04430453 -0.034312088 0.0062987264 -0.02458305
-0.009283206 0.05387101 0.014183678 -0.018500594 -0.05300202 -0.027242541 -0.020458631 -0.0053094733
-0.026956331 -0.0014059102 -0.046624627 0.007191622 -0.009647969 0.039099056 -0.028377175 0.018431019
0.065583505 -0.01522475 -0.035669953 -0.043902885 -0.071058474 -0.035524968 -0.0065384083 -0.057100385
-0.00919575 -0.00422316 -0.022893785 -0.0120660355 -0.0040207766 0.044503406 -0.03709321 -0.04679711
0.0081247175 -0.022478638 0.021507243 0.030791445 0.008988397 0.02296127 -0.014338583 -0.017319828
0.011739652 0.01814482 -0.067239664 -0.0048835305 -0.03611247 -0.036833767 0.028619751 0.0211192
-0.05231971 -0.03213803 0.0099342475 0.016723812 -0.010926533 0.01579079 -0.017757762 -0.018774351
-0.07356969 -0.029659081 -0.04151755 0.015124105 -0.023099078 0.005893622 -0.008249499 -0.09351597
-0.018077504 -0.052903056 -0.03791755 -0.011255499 -0.022685112 -0.012691648 -0.03229249 -0.037257064
-0.06401626 0.054735687 -0.042317696 -0.026936227 -0.019869063 -0.04378772 0.0070065237 0.012798297
-0.014463158 -0.0013162813 -0.0030487785 -0.04315124 -0.035175666 -0.06898548 0.01462973 -0.0121423295
-0.10598271 0.01047366 -0.017309276 -0.048348222 -0.00011110567 0.021930417 -0.033767443 -0.026954258
0.0098371 -0.044114552 0.0017015507 -0.041823816 -0.03660848 -0.015178663 0.022653729 -0.061456457
-0.03491753 -0.046203725 -0.04365307 -0.03557059 0.024303362 -0.021782197 -0.079907425 -0.0002259494
-0.0175709 -0.015063164 -0.027879912 -0.038152166 0.033430528 -0.037430078 0.025009776 0.023773428
-0.074802995 -0.046440028 -0.052151456 -0.009265066 -0.027099364 -0.02304332 -0.08169248 0.05329838
-0.0151269995 0.04469868 -0.06566823 0.016591229 -0.062056668 -0.031640045 -0.029613957 -0.056338284
-0.037638534 -0.0043109255 -0.020472223 -0.06919505 -0.024410248 0.0051137973 0.04434148 -0.025417918

network_body._body_endoder.seq_layers.0.weight f4 [256, 6]
00000000: 589d 00bd 19eb babd 49d9 83be 088e 40bf
00000010: e403 a4bd 0a2a 343f 6575 7a3b ba33 26bf
00000020: 5c3a 39be c9e1 ef3d e7c3 ecbe 301a 963e
00000030: ae31 9a3d 332f bd3c 407b 003f 3a26 cbbd
00000040: 7345 163f e654 753d cd41 953f 18fc 3cbd
00000050: c7a6 31be 7d89 403e 00d3 c2be 196f 3abe
00000060: dc4c 593c 6654 963e 723a 64bf 7472 9f3e
00000070: 073b 13bc e683 de3e dc6b e9be 372a 0e3f
00000080: 6e33 c2be 6ecc b1bd 5455 0abe 6903 9c3e
00000090: 075c 6abc d681 803d e5f8 d83e 58e4 3ebd
000000a0: fa33 413e a848 85be 0069 5fbd 85da 003f
000000b0: 0f01 663f b201 37bf 04f9 d1be ad32 2dbf
000000c0: 9f02 ecbe 7843 853d 9980 16be 5b67 bb3d
000000d0: c400 253f 8538 01bf cb96 d2be 8d5a 81be
000000e0: dc96 24bf 02f3 bfbd e3bf 29bd 981e d23e
000000f0: 5b12 e2bc fbd8 033f 5450 b13e 3a3a 283f
00000100: 85f4 4f3e 3e5e 2fbf 19a8 0ebe 3850 86be
00000110: 0ae1 f5be 12a1 f9bd cee3 b0be b4db 6d3e
00000120: 1f02 61be 102c aa3d aa35 553c deb1 4f3e
00000130: 1749 12bd 42b7 65be fb06 d23e e054 83be
00000140: 9e97 f0bd 981b 773f e426 a7be 5454 fbbe
00000150: a8b9 243e 06de 2c3f eadb 923c 5381 9b3f
00000160: dfa4 42bf 3da4 d83e 4c50 3e3f f7b2 923e
00000170: 15b1 19be f9a5 633e 5702 00bf d06c cbbc
00000180: ffb5 a03e 5a78 d8be ee73 3ebe d91e cbbe
00000190: 3043 9d3e c563 dc3e bb5b a23e 03d6 b1bc
000001a0: a9c3 113b 11d6 85b9 faeb 063f 40ff 95be
000001b0: 3175 6cbd 1bb1 d33e 15d7 e23d ec3f 8dbe
000001c0: 24f4 bf3e ede0 b9be 7ad0 5f3e a9b8 0dbe
000001d0: ea11 0c3f 9d29 913d 6a22 b43c e9ee c5be
000001e0: 447b 13bf a983 f63e dcb3 c9be 29df 4e3e
000001f0: 9e5b 0bbe 357e cb3e e723 2cbc 919c 02be
00000200: 62a3 9fbf 5e79 f2bd c83b 4dbc bae7 c6bd
00000210: c20d ce3e ddb1 babe 4274 f7be 9ba5 0abe
00000220: 761b 10bf 1544 d0be 0b52 533f 860e 1cbf
00000230: 15a0 9ebe b077 84bd 3c85 473e 2348 a8be
00000240: 025f c6be 584f dc3d 0df6 4bbf 8980 1c3e
00000250: 8c8d eabe 8c27 723e 6cdb b73e 13ea bd3e
00000260: c5c1 47bf 9246 433e fd13 a9be d526 3f3e
00000270: 4eea 643d dbf4 2f3d c3e6 f0be dd70 10be
00000280: e3dc b13e 85c2 1bbf 8686 103f c81d 883e
00000290: 0fdb c33e 87ab b9be 0556 c4be ba1d 7abe
000002a0: 0bcd d8bd 9791 853b a1dd b2be 11a2 33bf
000002b0: 2f32 023f 7c4f 17bf a298 ffbd f5d7 78be
000002c0: c163 ffbd 37bc 393f e52d 63be 9f91 2fbf
000002d0: 0138 f3be a40a 183c 1206 e03d b268 173f
000002e0: ceee c33a 1cb4 34be 6e27 9a3a d7fa 8abd
000002f0: d529 173f 488a b2be 8f61 ce3e a860 b83e
00000300: 0ea5 83be 6be5 e43e 3bf1 71bf 650a 013f
00000310: 6907 3dbf 34c1 353f 3f12 71be 2939 14bd
00000320: 0cbf ae3e 28ed 5abe ab67 9c3e 6362 41bd
00000330: 8b4e eebc 7821 333d aa91 b4be 4bd5 4bbe
00000340: eb38 d23e f5f3 c43e 51f5 b63e 7bca e53e
00000350: 3142 1abe 6b88 b0be 3d08 0f3e 9d3f 953e
00000360: c60d 703d a2b7 3a3f 7273 d03e 180f 853e
00000370: 3f54 cdbe a37a a9bd 0247 8c3e 6eaf 15bf
00000380: 2f85 7dbe 31da b63e 4c8d c73e 5dc3 e9be
00000390: c8d9 51bd 29a7 423f 4391 563d ce77 b2be
000003a0: b045 0d3f 8455 47bf 733f 80be 3bf1 28bf
000003b0: 1284 a03e 467e 313f 3a97 98bc 7869 033f
000003c0: 32ab ef3e 256c 213d 2ac3 cdbe 7bb4 dabe
000003d0: cf02 603e b3a2 8b3e 20f6 21bf 8d00 823e
000003e0: 81bd 57bf e3ed 1d3f 06cd acbc d4eb c03e
000003f0: 76ac 1c3e 9aca 0abe 2690 f5be 278e c5be
-0.031400055 -0.091268726 -0.25751713 -0.7521672 -0.080085546 0.70376647 0.0038216945 -0.6492268
-0.18088669 0.11712987 -0.46243212 0.29316854 0.07529007 0.023093795 0.50188065 -0.099194005
0.5869972 0.05989542 1.1660706 -0.046138853 -0.17348777 0.18802448 -0.38051605 -0.18206443
0.013262954 0.29361266 -0.8915168 0.31142008 -0.008986241 0.43460006 -0.45590103 0.55533165
-0.37929863 -0.0868157 -0.13509113 0.30471352 -0.014304168 0.06274764 0.4237739 -0.046604484
0.18867484 -0.26031995 -0.054543495 0.50333434 0.89845365 -0.7148696 -0.41010296 -0.6765545
-0.4609575 0.06507009 -0.14697494 0.09150573 0.64454293 -0.50476867 -0.4113067 -0.25264397
-0.64292693 -0.09372522 -0.041442763 0.41038966 -0.027596643 0.5150296 0.34631598 0.65713847
0.2030812 -0.6850318 -0.13931312 -0.26233077 -0.48023254 -0.12188925 -0.345488 0.23228341
-0.21973465 0.083091855 0.013013283 0.20282695 -0.035714235 -0.22433189 0.4102095 -0.25650692
-0.11747669 0.9652648 -0.3264686 -0.49087775 0.16086447 0.6752628 0.017927129 1.2148842
-0.76032823 0.42312804 0.74341273 0.28652164 -0.15008958 0.22231282 -0.5000357 -0.02483216
0.31388852 -0.4227932 -0.18598911 -0.39671972 0.30715322 0.43044868 0.3171061 -0.021708494
0.0022241867 -0.0002552723 0.5270382 -0.29296303 -0.05772895 0.41346058 0.1107618 -0.2758783
0.37490952 -0.36304417 0.21856871 -0.13839974 0.54714835 0.07088015 0.021989066 -0.38658836
-0.57609963 0.48147324 -0.39395034 0.20202316 -0.13609168 0.39744726 -0.010506607 -0.12755038
-1.2471735 -0.11839555 -0.01252646 -0.09712167 0.4024487 -0.36463824 -0.48330885 -0.13539736
-0.562919 -0.40676942 0.8254706 -0.6095966 -0.30981508 -0.06468141 0.19484419 -0.32867536
-0.3874436 0.10757321 -0.7967232 0.15283407 -0.45811117 0.23647898 0.35909593 0.37092647
-0.78030044 0.19069889 -0.33023062 0.18667157 0.055887513 0.04295812 -0.47051057 -0.14105554
0.34738836 -0.6084369 0.56455266 0.2658522 0.38253066 -0.36263677 -0.38346878 -0.24425402
-0.10585984 0.0040761936 -0.34934714 -0.7016917 0.50857824 -0.5910566 -0.12480284 -0.24301131
-0.124701984 0.7255282 -0.22185476 -0.68581575 -0.47503665 0.009279881 0.10938658 0.5914413
0.0014948489 -0.17646831 0.0011761019 -0.06786125 0.59048206 -0.34871125 0.40308806 0.36011243
-0.25711864 0.44706282 -0.94508713 0.50406486 -0.7383943 0.7099793 -0.23542117 -0.036187325
0.34130132 -0.2137953 0.30547842 -0.04721297 -0.029090187 0.04373309 -0.35267383 -0.19905584
0.4105905 0.38467374 0.35734037 0.44881043 -0.15064313 -0.3447908 0.13967986 0.29150096
0.058606885 0.7293645 0.40713078 0.25988078 -0.40103337 -0.08275344 0.27397925 -0.5847081
-0.24757837 0.35713342 0.38974988 -0.45656863 -0.051233083 0.76036316 0.052384626 -0.3485703
0.5518446 -0.7786486 -0.25048408 -0.6599309 0.31350762 0.693333 -0.018626798 0.5133281
0.468103 0.039409775 -0.4018796 -0.4271582 0.21876071 0.27272567 -0.6326618 0.25391045
-0.84273535 0.6169111 -0.021093857 0.37679923 0.15300164 -0.13553849 -0.4796154 -0.38585016

network_body._body_endoder.seq_layers.2.bias f4 [256]
00000000: 1ee2 38bd f473 34bc eb49 02bd 86f9 0abb
00000010: c426 72bc 0a61 d5bc 55aa 47bb b7db 3ebc
00000020: e1ad 79bc 479f a2bc 829d 9ebc 3463 d4bc
00000030: 96e3 6dbb d7c7 91bc ac6b b539 b6fb 8d3b
00000040: 7b96 febc d986 48bc 2d8d ffbc 54a9 4ebc
00000050: 861a bcbc 1f64 4dbc b35f 50bc 3609 8a3b
00000060: d528 d5bc 8b64 b6bc 2d25 85bc 3aa0 c8bc
00000070: b23b 10bd 3977 91bc 2966 8fbc 4160 08bc
00000080: 3b49 74bc fb8b abbc c3eb bcbc ff65 98bc
00000090: 9b01 0ebd f5af 4b3c aced 96bc 296d 15bd
000000a0: 54f8 60bc fdcc ddbb f9a9 f9bc a109 47bc
000000b0: 220c 7fbb 2a61 b4bc 0559 973c 1b50 82bc
000000c0: 50e2 0b39 3bb4 d8bc 73a2 4a3c 4880 77bb
000000d0: 120f 13bd 73fd 963b a7c1 b4bc b4ca b8bc
000000e0: 5155 523b 02d3 f1bb 10e7 403b 6067 8e3a
000000f0: 9945 22bc b01a 75bc 5af1 85bc 8827 e5bc
00000100: f46a 10bd 53c8 b5bc ea88 28bd bc94 88bc
00000110: 1257 7ebc 905b 43bc 0cd8 24bc cd1a 14bd
00000120: 6c1f 59bc af3d debc 6783 f3bc e1a3 a0bc
00000130: a87a f5bc 077a dcbc 7cdc 1fbd a970 453a
00000140: fba4 b6bc eaff fbbc 5f38 a5bc 5f38 15bb
00000150: 6505 1dbd 161b aebb 33af 9abc f84d 98bc
00000160: e08d f9bb 96aa cfbc 6839 b03b 07d4 1bbd
00000170: bb5c 1bbd 3a82 e6bc 3582 003c 341a eabc
00000180: ee54 9bbc 4cd2 ebbc 2bb9 02bc 7be7 a7bb
00000190: da74 cdbc b9ab 4d3c 74b5 0dba eacb 4dbc
000001a0: f493 523a 6bd7 6abc 82fe 32bc 96c0 ccbc
000001b0: 6afa 04bd a306 0cbd 7e29 c9bc 389c c13b
000001c0: fb66 363a c3e2 16bc 9455 d4bb 4411 c0ba
000001d0: f3bc 98bc 63db 7f3c a361 d0bc 5ae9 bfbc
000001e0: 804d 9ebc 090d cfbc e008 81bc b97e d8bc
000001f0: ec0d 26bc 768c 83bc 6560 12bd da92 85bc
00000200: edc1 9dbc 62f9 aabc df96 89bc 1c8a adba
00000210: 153f ebbc bb35 b3bc 1a1f 81bc 2b0b e2bc
00000220: fedc 66bc 32c0 ddbb ab98 d2bc 1587 29bd
00000230: e5c1 31bd 9660 01bc 8fec 01bd 7215 8c3b
00000240: 4970 24bd 0fb3 d5ba 6492 1bbc d254 f5bc
00000250: 6e7e e3bc 31db 02bd 2c46 e4bc b618 dcbc
00000260: dcc8 89bc 7c13 43bc 5685 0fbc b0ba efbc
00000270: 9598 8ebc fdef 19bb 3b05 d3ba b09c abbc
00000280: b6a4 73bd 8e7a edbc 2aa5 8cbc 64de 513c
00000290: 41f0 b9bc 6ec6 01bd 8a47 7bbc 145d 0cbc
000002a0: 2870 9ebc 7757 87bc a3ee 84bc 5936 59bc
000002b0: 8dea 58bd 2e6d 92ba 45d3 9fbc a36d e0bc
000002c0: 8fec c3bc c6b9 24bc 8671 dc3b e941 b4bc
000002d0: 324a 7bbc ff6c 30bd 3343 d7bc 82fd 95bc
000002e0: 9cc1 21bd 0307 afbc 2750 4bbd def3 21bd
000002f0: 462e 05bd bdca f2bc 49ff c5bb 0d47 8a3b
00000300: b6c0 11bd 1183 a03b a830 23bc 4a3b 47bd
00000310: f942 b9bc f616 d7bc 0011 6ebc 5140 ecbc
00000320: ea8a 0cbd 016b 8abc 128a 33bc 391f e9bb
00000330: 5eb1 f9bc 077d e5bc 6e6a dcbb ee9e cbbc
00000340: 2783 0bbd ea46 61bc f308 92bc e8eb 07bc
00000350: 7a73 98bc cfd6 a5bc 4810 bdbc 5202 c6b9
00000360: 14b2 7abc c201 ae3b a950 12bd ca6f 0abd
00000370: 6b4c c6bb f4fb 0fbd 22ef 83bc 999a 14bd
00000380: d763 68bc d7ad 06bd 44a3 d0bb 2fd4 bcbc
00000390: 0b6b 09bc 5795 3abc 1507 d23c e252 06bd
000003a0: 3d02 04bc 8969 71bc fe0f 03bc 8407 92bb
000003b0: 482a 9dbc e4f8 02bd 1bbb 823c c399 87bc
000003c0: c8d4 afbc 0a5a b8bc 4120 b7bc 5596 1fbb
000003d0: 4427 60bc 0376 0e3c 04f6 043c 34b2 e0bc
000003e0: 50b1 01bd 38c7 b9bb e77e c9bc a01e 21bc
000003f0: 8d5d 17bd 6ba5 db3b 142e ecb9 455b c5bc
-0.045137517 -0.0110139735 -0.031808775 -0.0021205856 -0.01477975 -0.026047248 -0.0030466516 -0.011649064
-0.01523921 -0.01985134 -0.019362215 -0.02592621 -0.0036298982 -0.017795486 0.00034603232 0.004332985
-0.031077614 -0.012239181 -0.031195248 -0.012613613 -0.022961866 -0.012536078 -0.012718129 0.004212524
-0.026020447 -0.02226474 -0.016253078 -0.024490464 -0.03521318 -0.017757045 -0.017504768 -0.00832373
-0.014910038 -0.020940771 -0.023061639 -0.018603323 -0.0346695 0.012432088 -0.018423878 -0.036481056
-0.013731081 -0.0067688213 -0.030476557 -0.012148292 -0.0038917144 -0.022018988 0.018475065 -0.015907338
0.00013340381 -0.026453128 0.0123678325 -0.003776567 -0.035903044 0.00460785 -0.022064997 -0.022557594
0.003209431 -0.0073798904 0.00294346 0.0010864548 -0.009904289 -0.014959976 -0.016350437 -0.027972952
-0.03525825 -0.022190249 -0.041146196 -0.016672485 -0.015523689 -0.011923686 -0.010061275 -0.03615837
-0.01325212 -0.027129022 -0.029725743 -0.019609394 -0.029965714 -0.026913656 -0.03902863 0.0007531741
-0.022295466 -0.030761678 -0.020168481 -0.0022769195 -0.038335223 -0.0053132875 -0.01888237 -0.018591866
-0.00761579 -0.025349896 0.005377937 -0.038044002 -0.03793023 -0.028138269 0.007843544 -0.028576948
-0.018961396 -0.0287868 -0.007978718 -0.00512403 -0.025080133 0.012553149 -0.0005405762 -0.012560824
0.0008032911 -0.014333586 -0.010924937 -0.024994176 -0.032465376 -0.034186017 -0.024555918 0.0059085153
0.00069580943 -0.009209338 -0.0064799283 -0.0014653583 -0.018644786 0.015616271 -0.025437182 -0.0234267
-0.019324064 -0.02527477 -0.015751302 -0.026427614 -0.010135155 -0.016058188 -0.03573646 -0.016305376
-0.01925751 -0.020870868 -0.016795574 -0.0013240012 -0.028716603 -0.021876207 -0.0157619 -0.027593216
-0.014090775 -0.006767296 -0.025707563 -0.04138859 -0.043397803 -0.007896563 -0.03171974 0.0042750174
-0.040146146 -0.0016303974 -0.009495351 -0.029947672 -0.027770247 -0.03194732 -0.027865492 -0.026867252
-0.01681941 -0.011906501 -0.008759817 -0.029263824 -0.017406741 -0.0023488991 -0.0016099581 -0.020948738
-0.059483252 -0.028989103 -0.0171686 0.01280937 -0.02269757 -0.031683378 -0.01533688 -0.008567113
-0.01934059 -0.016521199 -0.016227072 -0.013257586 -0.05295806 -0.0011171454 -0.01950992 -0.027396029
-0.02391651 -0.010054057 0.0067274002 -0.022004085 -0.015337514 -0.043072697 -0.02627716 -0.018309359
-0.03949128 -0.021365648 -0.049636986 -0.03953921 -0.032514833 -0.029637689 -0.0060423953 0.0042198957
-0.035584174 0.004898437 -0.009960331 -0.048640527 -0.022614943 -0.026256066 -0.01453042 -0.028839262
-0.034312166 -0.016896727 -0.0109582115 -0.0071143177 -0.030480083 -0.02801372 -0.0067265546 -0.024856057
-0.034060623 -0.013749817 -0.017826533 -0.0082959905 -0.018609751 -0.02024403 -0.023079053 -0.00037767232
-0.015301246 0.005310268 -0.035721455 -0.033798017 -0.00605159 -0.03515239 -0.016105238 -0.03628025
-0.01418396 -0.03288063 -0.006367119 -0.023050396 -0.008387337 -0.011388144 0.025638143 -0.032793887
-0.008057174 -0.014734634 -0.007999418 -0.0044564623 -0.0191852 -0.03197564 0.01595836 -0.016552811
-0.021463767 -0.022503871 -0.022354247 -0.002435108 -0.013681237 0.008695128 0.008115295 -0.027428724
-0.03166324 -0.0056695007 -0.024596645 -0.009833962 -0.03695445 0.006703069 -0.0004504776 -0.024091372

network_body._body_endoder.seq_layers.2.weight f4 [256, 256]
00000000: f405 183d d2ba 43bd e12c 143d 4732 cdbd
00000010: 7603 01be 1c90 163d 1ea6 31bd 7fea 7638
00000020: bc2d 16bd 34a9 c1bd 71f2 abbc 233f 983d
00000030: 6d09 7bbb 3b4b 973c cecc 3e3d aa2c e03d
00000040: 6382 bc3d 6472 823c a18d 33b8 81fe 04bd
00000050: 8f93 18bd 2552 0cbe f027 07bd 72d8 9abb
00000060: 867b 2e3d 00f9 8abd dd99 3ebd 8b65 cd3b
00000070: cf06 53bd 3e2e 503c 8580 aa3b 7c6f 39be
00000080: 7997 2fbc bf65 8fbd 786e c4bd 9b1b 6ebd
00000090: eeb0 3bbc 8571 9f3d 4ca4 f7bd 414e 10bd
000000a0: 22ee 5e3d 1b60 123d c230 b6bc fc05 f0bc
000000b0: 9e4e afba 48c0 75bc e970 dbbb 61db 313d
000000c0: f054 7c3d 3f6f 243c e1d7 10bd 7060 893d
000000d0: dad5 a93c a154 b3bd ef63 083e 22aa aabc
000000e0: f38f c5bd 49b0 57bd 87f5 25bd 94f2 7fbd
000000f0: be7d 49bc ed65 11bd a6d3 aa3d 1a8a 353e
00000100: 3260 d43d 1f2d 413d 83d8 02bd 583a 98bd
00000110: b43c 08bc 456d 0cbd 461e f43d 2f9f 34bd
00000120: b1cc f93d 87df d23c 68c5 1dbd 546a b5bd
00000130: 9800 2a3c 2404 4fbc 8f92 81bd 222b 103e
00000140: 4534 10bd d307 313d 98b5 08bd 2e7f b6bb
00000150: c465 f4bd 8e65 db3c a5b2 c2bb 7e04 0ebc
00000160: 4867 3abd 99ff 8f3d 0a99 3a3c 720e c9bd
00000170: 0976 073e 054d 4a3c 492c 1abb 4e19 ed3c
00000180: c472 d1bd c910 8b3d 4105 eebc 31ec 17be
00000190: 6393 abbd 0fea 8ebd de49 83bd f211 973b
000001a0: 45a0 453c 1b63 afbb 471c 0abd 9379 edba
000001b0: ec7d 8dbd 3f30 2dbd 1ed5 173d f7e8 203c
000001c0: 836a a13c d68f 353d f9f9 c1bd 289a a73c
000001d0: 559e 673d ec7c 913c d81f 07be 0c9a a93c
000001e0: 395b 2c3c cfa9 47bc c2b0 3d3d 3cf6 8cbd
000001f0: 832b d5bd 1005 2bbc 36fa 74bc 3c9f 1c3d
00000200: d6e2 d2bd 7e5a bbbb 0114 e23d 7c28 62bd
00000210: cc95 413c 3f67 2fbd 3fcb 36bd 451f f1bc
00000220: 2489 e3bd d232 3ebc 36f2 07bb ec48 b1bd
00000230: 29f5 e6bd e796 0e3d 893b 93bd 7390 dfbc
00000240: d82f fbbd 4ad6 adbd 2e70 04bd 67a6 dc3b
00000250: fae2 02be c716 dcbc d731 b13c d29c 8c3d
00000260: 2fe1 8cbc 7c02 32bc 252a ccbd 1ab9 28bd
00000270: 60f0 85bc 17e9 03bd 938b 813b 3258 d63b
00000280: 7395 8a3d 74ce 40bc 0852 293c f867 183d
00000290: 135c bdbd 8ae5 9abd 0130 b7bb 75ca ecbd
000002a0: dc17 76bd 4ba6 06bd ffba e7bd e566 a2bd
000002b0: 3547 a43b d2e4 72bd ccc6 13bd fb93 15be
000002c0: 2ffc 15bd a032 293d 2bf9 85bd c053 d8bd
000002d0: 4ed7 fe3b debe 2cbd f2da 7cbd 460a 33be
000002e0: b6c0 b2bd 32ad 2b3c 2c78 be3d e0df 91bd
000002f0: 083f 0e3d bb49 08bd 9f46 eabc b62d b43d
00000300: 82c0 ccbc 7064 47bc b725 6e3c ef2a 1f3d
00000310: b60a 2bbd 95a3 383c aa7b f3bd 2ebd a2bb
00000320: 1be7 e33b 2f5e 513e b4f9 50bd dc2c 5dbd
00000330: f81e 57bc d65e 4e3c dd9c 89bc fa70 523d
00000340: 87ea dabd a6c8 67bc a9bb eb3c 7bbb ef3c
00000350: 9dce 17be 6745 ed3d cef8 66be c7c4 12bc
00000360: d869 1b3d e3ed 633d 02eb 16be 0132 92bd
00000370: ea46 943c aa0f 6b3d 8109 233b 1fde da3c
00000380: a479 f73c 5e93 263d 5b3d 56bc deb4 13bd
00000390: 1596 d0bd 7561 0fbd a002 59bd cfaf 983c
000003a0: b758 033c 9769 8bbd 9855 5cbc 67c5 913d
000003b0: 6657 b6bc 2d49 39be ec0a 95bd 4690 60bc
000003c0: 7f56 42bd 22f7 b4bc 4958 563d cd14 30bc
000003d0: d9a1 75bc c765 f8bc 6bef 39bb e697 b3bd
000003e0: 159b b9bc 6835 863d e3b4 1cbe 10cf 81bd
000003f0: 5042 cebd f5f1 02bd c3ae 31bd acf1 3fbd
0.037115052 -0.047785588 0.036175612 -0.10019355 -0.12598976 0.036758527 -0.043371312 5.8869362e-05
-0.03666471 -0.09456101 -0.020989629 0.074339174 -0.0038305179 0.01846849 0.046582036 0.10946019
0.09204557 0.015923686 -4.2808828e-05 -0.032469276 -0.037250098 -0.1370321 -0.03299707 -0.0047255093
0.04259827 -0.06785774 -0.046533454 0.0062682084 -0.051520165 0.0127063375 0.005203309 -0.18108934
-0.010717266 -0.070018284 -0.09591383 -0.058131795 -0.011455758 0.07785324 -0.12091884 -0.03523088
0.05442632 0.035736185 -0.022240046 -0.029299729 -0.001337487 -0.014999457 -0.0066968095 0.043422107
0.06160444 0.010036289 -0.03536213 0.06707847 0.020731855 -0.08756376 0.13319372 -0.020833079
-0.09646597 -0.052658353 -0.040517356 -0.0624872 -0.012298046 -0.035497595 0.0834115 0.17728463
0.1036991 0.04716217 -0.031944763 -0.07433003 -0.008315254 -0.034283895 0.11919837 -0.04409712
0.12197245 0.025741352 -0.03851834 -0.08858171 0.010376118 -0.012635265 -0.06326782 0.14078954
-0.035206098 0.043220352 -0.033376306 -0.00556936 -0.11933473 0.026781823 -0.0059417062 -0.008668063
-0.045508653 0.07031173 0.011389026 -0.09817208 0.1322862 0.012347464 -0.0023524931 0.02894273
-0.10226968 0.06790311 -0.02905524 -0.14836194 -0.08377721 -0.06978237 -0.064105734 0.0046102935
0.012062137 -0.0053523905 -0.033718374 -0.0018117897 -0.06908783 -0.04228234 0.03706848 0.009821168
0.019704109 0.044326626 -0.094715066 0.02045925 0.05654748 0.017759763 -0.13195741 0.020703338
0.010519796 -0.012186482 0.046311148 -0.06882903 -0.1040869 -0.010438219 -0.014952233 0.038237795
-0.10297172 -0.0057175746 0.11038972 -0.05521439 0.0118154995 -0.042823073 -0.044627424 -0.029433856
-0.11110142 -0.011608796 -0.0020743734 -0.08656487 -0.11277229 0.03481188 -0.0718909 -0.027290558
-0.12264985 -0.08488138 -0.032333545 0.006733704 -0.12781897 -0.02686633 0.02163021 0.068658486
-0.01719722 -0.01086485 -0.09968976 -0.04119215 -0.016349971 -0.032204714 0.003953406 0.0065412754
0.067667864 -0.011767972 0.010334499 0.037208527 -0.092460774 -0.07563312 -0.0055904393 -0.11562053
-0.060081348 -0.032873433 -0.113149635 -0.07929782 0.0050133714 -0.05930025 -0.03607826 -0.14607231
-0.036617454 0.041308045 -0.06541666 -0.10562849 0.007777131 -0.042174213 -0.06173224 -0.17484388
-0.08728163 0.010478305 0.09300265 -0.07122779 0.03472808 -0.03327344 -0.028598128 0.08797781
-0.024994139 -0.012169942 0.014535359 0.038859304 -0.04175826 0.01126947 -0.118888214 -0.0049663996
0.00695504 0.20446084 -0.051019385 -0.05399786 -0.013129942 0.012595853 -0.016798431 0.051377274
-0.10689264 -0.014146959 0.028776007 0.029264202 -0.1482491 0.11585503 -0.22555849 -0.008958048
0.037942737 0.05564679 -0.14738086 -0.07138444 0.01810022 0.057387985 0.002487749 0.026717244
0.03020937 0.040667884 -0.013076152 -0.03606116 -0.10184876 -0.03500505 -0.05298102 0.01863852
0.008016757 -0.06807249 -0.0134481415 0.0711773 -0.022258472 -0.1809432 -0.07277474 -0.0137062725
-0.04744577 -0.022090498 0.05233029 -0.010747147 -0.014992201 -0.030321969 -0.0028371464 -0.08769207
-0.022656957 0.06553155 -0.15303378 -0.06338322 -0.10071242 -0.03196903 -0.043379556 -0.046861336
