results/1/MoveThePlayer/MoveThePlayer-1212.onnx (onnx, 72119 bytes, 5 tensors)

action_model._continuous_distribution.mu.weight f4 [1, 128]
0	0x3a83963f	0.0010039284
1	0xbc02e861	-0.007989974
2	0xbcc9938c	-0.024606489
3	0x3b5b8e17	0.003350144
4	0xbc8e4ab4	-0.017369606
5	0x3ca67b5a	0.02032249
6	0x3bb27bb3	0.005446875
7	0x3bba9f3e	0.0056952527
8	0x3cd472f7	0.025933726
9	0xbbee0b7f	-0.007264554
10	0xbce4d52f	-0.027933685
11	0x3a341402	0.00068694365
12	0x3c689d10	0.014197603
13	0x3c2b0f6e	0.01044069
14	0x3bf59b6b	0.007495334
15	0xbd00cbc1	-0.031444315
16	0x3c38a33f	0.01126939
17	0xbb062ab0	-0.002047222
18	0x3ae8ef98	0.00177716
19	0x3ca84123	0.020538872
20	0x3d05972b	0.032614868
21	0xbc605a30	-0.013693377
22	0xbcb99072	-0.022651885
23	0xbbbf1f8e	-0.005832619
24	0x3cbaca8b	0.022801658
25	0x3cc013fc	0.02344703
26	0x3b9c9879	0.0047789183
27	0xbc320d60	-0.010867447
28	0x3b4dbe88	0.0031394083
29	0x3c7ec925	0.015550886
30	0x3b4bfdd1	0.0031126628
31	0xb84bfec1	-4.863623e-05
32	0x3d4cd468	0.050007254
33	0xbd03266f	-0.032019075
34	0xbbf4031a	-0.007446659
35	0x3cafba0f	0.021451024
36	0xbcf99ef7	-0.030471308
37	0x3c8e060e	0.017336871
38	0x3bca54af	0.006174646
39	0x3be35d6b	0.0069386265
40	0xbce0ed7f	-0.027456997
41	0xbc119316	-0.008885166
42	0xbc5e2dad	-0.013560695
43	0x3d221002	0.039566047
44	0x3c6449bd	0.013933596
45	0x3be836a8	0.0070865937
46	0xbbb27241	-0.005445749
47	0x3cc8ea3e	0.024525758
48	0x3c96c1fb	0.018403044
49	0xbb2deaaf	-0.0026537587
50	0x3c19ec8e	0.009394778
51	0xbc5b1f63	-0.013374182
52	0x3ccd33d8	0.025049135
53	0xbc5368e5	-0.012903427
54	0x3c3ba453	0.011452752
55	0xbb3027c8	-0.002687918
56	0x3c305566	0.010762548
57	0xba1263c2	-0.0005584323
58	0xbd33bf58	-0.04388365
59	0x3b00b7cc	0.0019640801
60	0xbc336f5b	-0.010951842
61	0x3d19ce14	0.037550047
62	0xbb19d117	-0.0023470575
63	0x3d092db3	0.033490848
64	0x3ce40fba	0.02783953
65	0xbc1078a3	-0.008817825
66	0x3cb00e9f	0.021491347
67	0xbd26c7e3	-0.04071797
68	0x3d0aa178	0.033845395
69	0xbc103ae9	-0.008803108
70	0x3c698ac3	0.014254275
71	0x3c19446f	0.009354695
72	0x3c8f51cf	0.017495064
73	0xbcd02f95	-0.025413314
74	0x3c0ccb1f	0.00859335
75	0xbb34a7f3	-0.0027565926
76	0x3d29b1f9	0.041429494
77	0x3bdb6b8d	0.0066961707
78	0xbc9418be	-0.018078204
79	0xbd1a1761	-0.037619952
80	0xbc8f02a5	-0.017457316
81	0x3b932593	0.004490563
82	0x3ac7d874	0.0015247003
83	0xbae9238b	-0.0017787082
84	0x3c47b118	0.0121882185
85	0x3cd1c688	0.025607362
86	0x3ca27e34	0.019835569
87	0x3bdb7122	0.006696836
88	0x3d0a4431	0.03375644
89	0xbcea9303	-0.028634554
90	0x3c038b95	0.008028884
91	0xbab8970f	-0.0014083105
92	0x3cbf5233	0.023354625
93	0x3c630277	0.013855568
94	0x3cbd30de	0.02309459
95	0xbb7bc842	-0.0038418924
96	0xbbd60ff0	-0.0065326616
97	0x3c978f7b	0.018501034
98	0xbc8e59f2	-0.017376874
99	0xbc2bb4f3	-0.010480153
100	0xba5b75d3	-0.0008371744
101	0x3c3c3c77	0.011489025
102	0x3bf5b91a	0.0074988725
103	0x3c1dce0f	0.009631648
104	0xbb806766	-0.003918576
105	0xbad1df32	-0.0016011952
106	0x3c1b723f	0.009487688
107	0x3d0fa226	0.035066746
108	0xbd299952	-0.041405983
109	0xbba8da09	-0.005152945
110	0xbb88689b	-0.0041628606
111	0x3caf069e	0.02136546
112	0x3caffd19	0.021482991
113	0x3bbbcc92	0.005731174
114	0xba536a80	-0.0008064881
115	0xbc570b8b	-0.013125311
116	0xbcbed58f	-0.023295192
117	0x3cb51849	0.022106307
118	0x3ca99e95	0.0207055
119	0xbb953433	-0.004553342
120	0xbca1cb81	-0.019750359
121	0xbcebca1b	-0.028782895
122	0xbca9c1fb	-0.02072238
123	0x3b44f0c9	0.0030050746
124	0xbcf45522	-0.02982575
125	0x3c95f103	0.0183034
126	0x3c8627d3	0.016376412
127	0xbcc50ca3	-0.024053877

network_body._body_endoder.seq_layers.0.bias f4 [128]
0	0x00000000	0.0
1	0x00000000	0.0
2	0x00000000	0.0
3	0x00000000	0.0
4	0x00000000	0.0
5	0x00000000	0.0
6	0x00000000	0.0
7	0x00000000	0.0
8	0x00000000	0.0
9	0x00000000	0.0
10	0x00000000	0.0
11	0x00000000	0.0
12	0x00000000	0.0
13	0x00000000	0.0
14	0x00000000	0.0
15	0x00000000	0.0
16	0x00000000	0.0
17	0x00000000	0.0
18	0x00000000	0.0
19	0x00000000	0.0
20	0x00000000	0.0
21	0x00000000	0.0
22	0x00000000	0.0
23	0x00000000	0.0
24	0x00000000	0.0
25	0x00000000	0.0
26	0x00000000	0.0
27	0x00000000	0.0
28	0x00000000	0.0
29	0x00000000	0.0
30	0x00000000	0.0
31	0x00000000	0.0
32	0x00000000	0.0
33	0x00000000	0.0
34	0x00000000	0.0
35	0x00000000	0.0
36	0x00000000	0.0
37	0x00000000	0.0
38	0x00000000	0.0
39	0x00000000	0.0
40	0x00000000	0.0
41	0x00000000	0.0
42	0x00000000	0.0
43	0x00000000	0.0
44	0x00000000	0.0
45	0x00000000	0.0
46	0x00000000	0.0
47	0x00000000	0.0
48	0x00000000	0.0
49	0x00000000	0.0
50	0x00000000	0.0
51	0x00000000	0.0
52	0x00000000	0.0
53	0x00000000	0.0
54	0x00000000	0.0
55	0x00000000	0.0
56	0x00000000	0.0
57	0x00000000	0.0
58	0x00000000	0.0
59	0x00000000	0.0
60	0x00000000	0.0
61	0x00000000	0.0
62	0x00000000	0.0
63	0x00000000	0.0
64	0x00000000	0.0
65	0x00000000	0.0
66	0x00000000	0.0
67	0x00000000	0.0
68	0x00000000	0.0
69	0x00000000	0.0
70	0x00000000	0.0
71	0x00000000	0.0
72	0x00000000	0.0
73	0x00000000	0.0
74	0x00000000	0.0
75	0x00000000	0.0
76	0x00000000	0.0
77	0x00000000	0.0
78	0x00000000	0.0
79	0x00000000	0.0
80	0x00000000	0.0
81	0x00000000	0.0
82	0x00000000	0.0
83	0x00000000	0.0
84	0x00000000	0.0
85	0x00000000	0.0
86	0x00000000	0.0
87	0x00000000	0.0
88	0x00000000	0.0
89	0x00000000	0.0
90	0x00000000	0.0
91	0x00000000	0.0
92	0x00000000	0.0
93	0x00000000	0.0
94	0x00000000	0.0
95	0x00000000	0.0
96	0x00000000	0.0
97	0x00000000	0.0
98	0x00000000	0.0
99	0x00000000	0.0
100	0x00000000	0.0
101	0x00000000	0.0
102	0x00000000	0.0
103	0x00000000	0.0
104	0x00000000	0.0
105	0x00000000	0.0
106	0x00000000	0.0
107	0x00000000	0.0
108	0x00000000	0.0
109	0x00000000	0.0
110	0x00000000	0.0
111	0x00000000	0.0
112	0x00000000	0.0
113	0x00000000	0.0
114	0x00000000	0.0
115	0x00000000	0.0
116	0x00000000	0.0
117	0x00000000	0.0
118	0x00000000	0.0
119	0x00000000	0.0
120	0x00000000	0.0
121	0x00000000	0.0
122	0x00000000	0.0
123	0x00000000	0.0
124	0x00000000	0.0
125	0x00000000	0.0
126	0x00000000	0.0
127	0x00000000	0.0

network_body._body_endoder.seq_layers.0.weight f4 [128, 6]
0	0x3e3ab249	0.18232073
1	0xbe1b2706	-0.15151605
2	0x3e8004a0	0.2500353
3	0xbe9a1372	-0.3009296
4	0xbe2766e1	-0.16347839
5	0x3d7e82af	0.06213635
6	0x3e9df246	0.30848902
7	0x3ecff7cc	0.40618742
8	0x3e80ad42	0.25132185
9	0x3f237b51	0.6386004
10	0xbe1f62cf	-0.15565036
11	0x3e75d309	0.24006285
12	0x3e3968ff	0.18106459
13	0x3d17f1fa	0.037096
14	0x3e972b97	0.29525444
15	0x3e5baecf	0.21453403
16	0x3f43a72b	0.76426953
17	0x3d9711b6	0.07376425
18	0xbf0bca5d	-0.54605657
19	0xbf17aa4f	-0.59244245
20	0xbf8ec07a	-1.1152489
21	0xbf8402c0	-1.0313339
22	0xbf1a42c7	-0.60258144
23	0xbe6935a0	-0.22774363
24	0x3e3dc77c	0.18533128
25	0x3e03d72b	0.12875049
26	0xbe919244	-0.28431904
27	0x3f00502f	0.5012235
28	0xbd8f71c9	-0.07004125
29	0xbdb73cc5	-0.08947138
30	0x3dcedd74	0.101008326
31	0xbd77d02b	-0.06050126
32	0x3f6d6724	0.92735505
33	0xbb90930f	-0.004412062
34	0xbf5aa274	-0.85404134
35	0xbe5c5775	-0.21517737
36	0xbdf3effd	-0.119110085
37	0xbe9f1e16	-0.3107764
38	0x3e44a7dc	0.19204658
39	0xbf8503ba	-1.0391762
40	0xbe8573b1	-0.26064828
41	0xbe70764b	-0.23482625
42	0xbdfb7e33	-0.1227993
43	0xbf4d2d48	-0.8014722
44	0xbebf6abc	-0.3738612
45	0x3ecc973a	0.39959127
46	0x3d7bda58	0.061487526
47	0x3e78b083	0.24286084
48	0xbd9d6e0e	-0.07687007
49	0xbec9ea1b	-0.3943642
50	0xbde56f82	-0.11202909
51	0x3f5b8150	0.8574419
52	0x3e0b51fe	0.13605496
53	0xbeb0d01f	-0.34533784
54	0x3eeed79b	0.4664887
55	0x3f276296	0.65384805
56	0xbda7837e	-0.08179377
57	0xbfb076e9	-1.3786288
58	0xbe7f1bf9	-0.24913014
59	0xbef0636b	-0.4695085
60	0x3dfeddce	0.1244465
61	0xbe4f2471	-0.20228745
62	0x3e0a014b	0.13477056
63	0x3e984715	0.2974173
64	0xbda328c0	-0.07966757
65	0x3e62e0e8	0.22156107
66	0x3ec52f9b	0.38512883
67	0x3ddad7a1	0.10685659
68	0xbe657e5b	-0.22411482
69	0x3ea5d6e0	0.323905
70	0xbe74367d	-0.2384891
71	0xbe96e255	-0.29469553
72	0xbe5c56d8	-0.21517503
73	0x3dd30f4d	0.10305653
74	0xbdcc3c64	-0.09972456
75	0x3e95e626	0.29277152
76	0xbd0a63fe	-0.033786766
77	0x3d5fdbba	0.054652907
78	0xbeaffddb	-0.34373364
79	0x3cc4efe7	0.024040176
80	0xbe94e37f	-0.29079816
81	0x3ddb5eaa	0.10711415
82	0xbd01c101	-0.031678203
83	0x3caf8248	0.021424428
84	0xbea7efbd	-0.32800093
85	0xbe5f5565	-0.21809919
86	0xbe5745f8	-0.21022785
87	0x3eb76042	0.35815626
88	0x3e23332e	0.15937492
89	0x3d954659	0.072888084
90	0xbdd43713	-0.10362067
91	0xbe8a3135	-0.26990667
92	0x3e964e98	0.29356837
93	0x3f0da157	0.5532431
94	0x3e982e8e	0.29723018
95	0xbedb09b5	-0.42780843
96	0x3eb4af60	0.3529005
97	0xbe1456de	-0.14486262
98	0xbecc049e	-0.39847273
99	0xbdf71fff	-0.1206665
100	0xbee77b04	-0.4521104
101	0xbde4326b	-0.11142429
102	0x3d624301	0.05523968
103	0x3e0a30a6	0.1349512
104	0xbd553996	-0.05205687
105	0xbf754546	-0.9580883
106	0xbf2dbddd	-0.67867833
107	0xbe567c40	-0.20945835
108	0xbe4794cd	-0.19490357
109	0xbee30bb4	-0.44344866
110	0xbe15ae54	-0.14617282
111	0x3b5765d5	0.0032867093
112	0xbe9ac638	-0.30229354
113	0xbe743782	-0.238493
114	0xbee203cb	-0.4414352
115	0x3e9b4ca9	0.30331925
116	0xbf2cd51f	-0.67512697
117	0x3e64ccd7	0.22343765
118	0xbec07e80	-0.37596512
119	0xbe977ecb	-0.29588923
120	0xbc832e84	-0.016013391
121	0x3d6a7d07	0.05724814
122	0x3f192282	0.5981828
123	0xbc914ff9	-0.01773833
124	0x3f47d0ae	0.78052795
125	0x3eb57c72	0.35446507
126	0xbf03ba34	-0.51456
127	0x3d894157	0.06701916
128	0xbf2e69ec	-0.68130374
129	0x3f01cb13	0.5070049
130	0xbbe9b742	-0.0071324417
131	0x3f346bd3	0.70477027
132	0xbf437ca0	-0.7636204
133	0xbe2a1453	-0.16609316
134	0xbe913573	-0.2836109
135	0x3ef4a73b	0.47783837
136	0xbe3afaf5	-0.18259795
137	0x3e03c065	0.12866361
138	0xbec6b27f	-0.38808057
139	0xbe6c469e	-0.23073813
140	0xbe8d7c49	-0.27633885
141	0x3d59debe	0.05319094
142	0xbe8b5577	-0.27213642
143	0xbe18522f	-0.148751
144	0x3e529653	0.20565157
145	0xbee508e5	-0.44733348
146	0x3f016f7b	0.5056073
147	0x3e76cf74	0.24102575
148	0x3f2cfa7a	0.67569697
149	0x3fa6cd26	1.3031356
150	0xbecce9ba	-0.4002207
151	0x3ce64de0	0.028113306
152	0xbe450c29	-0.1924292
153	0x3ed646ae	0.418508
154	0xbd7a3f3e	-0.06109547
155	0x3e6917eb	0.2276303
156	0x3e702ec1	0.23455335
157	0xbe66c4de	-0.22536036
158	0x3e8e4e82	0.27794272
159	0x3f20af26	0.62767255
160	0xbe54457e	-0.20729634
161	0x3c553bb1	0.01301472
162	0x3e9dbfdb	0.30810437
163	0xbf3a6d51	-0.72823054
164	0x3dbfd810	0.093673825
165	0xbefddcb9	-0.4958246
166	0x3e899fc3	0.268797
167	0xbed813a6	-0.4220249
168	0xbe357aaa	-0.17722574
169	0xbe125552	-0.1429036
170	0x3d68bf85	0.056823272
171	0x3f42b304	0.76054406
172	0x3e70c3fa	0.23512259
173	0xbe48f15e	-0.19623324
174	0xbec81b96	-0.39083546
175	0x3df4a09a	0.11944695
176	0x3e5d1a9b	0.2159218
177	0xbf26a120	-0.6508961
178	0xbeaa946e	-0.33316368
179	0x3f97c119	1.1855804
180	0x3dacd5d0	0.08439219
181	0x3e412d74	0.18864995
182	0x3f29e197	0.6635985
183	0x3d6dc1e1	0.058046225
184	0xbe06297e	-0.13101766
185	0xbe6ad9f8	-0.22934711
186	0x3c723e6e	0.014785392
187	0x3e1560b7	0.14587675
188	0x3f2af89d	0.66785604
189	0x3f0e09ce	0.5548371
190	0x3da3823d	0.07983825
191	0xbe9072b3	-0.2821251
192	0x3e9ea703	0.30986795
193	0x3df71fa5	0.120665826
194	0xbf175e35	-0.59128124
195	0x3e69efce	0.22845384
196	0xbd37c80a	-0.044868506
197	0xbec8e809	-0.3923953
198	0xbe88466f	-0.26616237
199	0x3eb0f363	0.3456069
200	0xbf14b506	-0.5808872
201	0xbf03f69f	-0.5154819
202	0xbe4979c6	-0.19675359
203	0x3e8f797f	0.28022382
204	0x3f26a7a9	0.6509958
205	0xbf0f78ec	-0.5604389
206	0xbe55cf53	-0.20879869
207	0xbdc36db9	-0.09542412
208	0x3da6bc01	0.08141328
209	0x3e8f2402	0.2795716
210	0x3e5096cd	0.20370026
211	0x3f70734f	0.93925947
212	0xbe818d89	-0.25303295
213	0x3f1d0c06	0.6134647
214	0x3e349645	0.17635448
215	0xbeee505d	-0.46545687
216	0xbd8ef005	-0.06979374
217	0xbdc16f92	-0.094451085
218	0xbecb377b	-0.39690766
219	0xbde97363	-0.113989614
220	0x3ef9c0ab	0.48779806
221	0xbebfc766	-0.37456816
222	0xbef3ae0f	-0.47593734
223	0x3c875c3a	0.01652347
224	0xbe8876b1	-0.26653054
225	0x3ea2b545	0.31778923
226	0xbe0ffc87	-0.14061175
227	0x3e54d142	0.2078295
228	0xbe808d9e	-0.25108045
229	0xbebb2c44	-0.3655721
230	0x3f487009	0.7829595
231	0xbe8a7d85	-0.2704889
232	0x3f54130b	0.8284156
233	0x3f06d721	0.5267201
234	0x3f4a633a	0.7905766
235	0xbe5f2044	-0.21789652
236	0x3eb99171	0.36243775
237	0x3e79bd2d	0.24388571
238	0xbeb3cd8d	-0.3511776
239	0xbef8a82e	-0.4856581
240	0xbecc924c	-0.39955366
241	0xbf2e159f	-0.6800174
242	0xbd52e183	-0.051484596
243	0xbece7590	-0.40324068
244	0x3d73e64d	0.059545804
245	0xbce96080	-0.028488398
246	0xbef52c89	-0.4788554
247	0xbee0d0f7	-0.43909428
248	0xbea4238e	-0.32058376
249	0xbe92a400	-0.28640747
250	0x3d450031	0.048095886
251	0xbee97b97	-0.45602104
252	0x3d0d7054	0.034530953
253	0xbf237038	-0.6384311
254	0x3e645361	0.22297432
255	0x3ec13456	0.37735242

network_body._body_endoder.seq_layers.2.bias f4 [128]
0	0x00000000	0.0
1	0x00000000	0.0
2	0x00000000	0.0
3	0x00000000	0.0
4	0x00000000	0.0
5	0x00000000	0.0
6	0x00000000	0.0
7	0x00000000	0.0
8	0x00000000	0.0
9	0x00000000	0.0
10	0x00000000	0.0
11	0x00000000	0.0
12	0x00000000	0.0
13	0x00000000	0.0
14	0x00000000	0.0
15	0x00000000	0.0
16	0x00000000	0.0
17	0x00000000	0.0
18	0x00000000	0.0
19	0x00000000	0.0
20	0x00000000	0.0
21	0x00000000	0.0
22	0x00000000	0.0
23	0x00000000	0.0
24	0x00000000	0.0
25	0x00000000	0.0
26	0x00000000	0.0
27	0x00000000	0.0
28	0x00000000	0.0
29	0x00000000	0.0
30	0x00000000	0.0
31	0x00000000	0.0
32	0x00000000	0.0
33	0x00000000	0.0
34	0x00000000	0.0
35	0x00000000	0.0
36	0x00000000	0.0
37	0x00000000	0.0
38	0x00000000	0.0
39	0x00000000	0.0
40	0x00000000	0.0
41	0x00000000	0.0
42	0x00000000	0.0
43	0x00000000	0.0
44	0x00000000	0.0
45	0x00000000	0.0
46	0x00000000	0.0
47	0x00000000	0.0
48	0x00000000	0.0
49	0x00000000	0.0
50	0x00000000	0.0
51	0x00000000	0.0
52	0x00000000	0.0
53	0x00000000	0.0
54	0x00000000	0.0
55	0x00000000	0.0
56	0x00000000	0.0
57	0x00000000	0.0
58	0x00000000	0.0
59	0x00000000	0.0
60	0x00000000	0.0
61	0x00000000	0.0
62	0x00000000	0.0
63	0x00000000	0.0
64	0x00000000	0.0
65	0x00000000	0.0
66	0x00000000	0.0
67	0x00000000	0.0
68	0x00000000	0.0
69	0x00000000	0.0
70	0x00000000	0.0
71	0x00000000	0.0
72	0x00000000	0.0
73	0x00000000	0.0
74	0x00000000	0.0
75	0x00000000	0.0
76	0x00000000	0.0
77	0x00000000	0.0
78	0x00000000	0.0
79	0x00000000	0.0
80	0x00000000	0.0
81	0x00000000	0.0
82	0x00000000	0.0
83	0x00000000	0.0
84	0x00000000	0.0
85	0x00000000	0.0
86	0x00000000	0.0
87	0x00000000	0.0
88	0x00000000	0.0
89	0x00000000	0.0
90	0x00000000	0.0
91	0x00000000	0.0
92	0x00000000	0.0
93	0x00000000	0.0
94	0x00000000	0.0
95	0x00000000	0.0
96	0x00000000	0.0
97	0x00000000	0.0
98	0x00000000	0.0
99	0x00000000	0.0
100	0x00000000	0.0
101	0x00000000	0.0
102	0x00000000	0.0
103	0x00000000	0.0
104	0x00000000	0.0
105	0x00000000	0.0
106	0x00000000	0.0
107	0x00000000	0.0
108	0x00000000	0.0
109	0x00000000	0.0
110	0x00000000	0.0
111	0x00000000	0.0
112	0x00000000	0.0
113	0x00000000	0.0
114	0x00000000	0.0
115	0x00000000	0.0
116	0x00000000	0.0
117	0x00000000	0.0
118	0x00000000	0.0
119	0x00000000	0.0
120	0x00000000	0.0
121	0x00000000	0.0
122	0x00000000	0.0
123	0x00000000	0.0
124	0x00000000	0.0
125	0x00000000	0.0
126	0x00000000	0.0
127	0x00000000	0.0

network_body._body_endoder.seq_layers.2.weight f4 [128, 128]
0	0x3d100278	0.035158604
1	0x3d97e706	0.07417111
2	0xbcd02c5c	-0.025411777
3	0x3c951644	0.018199094
4	0x3d8b4108	0.06799513
5	0x3e5d721d	0.21625562
6	0x3d923038	0.07138103
7	0x3c149fe4	0.009071324
8	0xbd8915e6	-0.0669363
9	0x3be97f5d	0.0071257786
10	0xbcd4b185	-0.025963554
11	0x3d536588	0.0516105
12	0xbd8d8c7d	-0.06911562
13	0xbd63da59	-0.055628154
14	0xbd835700	-0.06413078
15	0x3e33def3	0.17565517
16	0x3df3536f	0.11881148
17	0xbd014c6b	-0.03156702
18	0x3e17a117	0.14807545
19	0x3ded70d2	0.115937844
20	0xbda0b0ea	-0.07846244
21	0xbe2cc76b	-0.16872947
22	0x3db7931b	0.08963605
23	0x3c00434a	0.007828543
24	0x3d999977	0.07499974
25	0x3d951857	0.07280033
26	0xbcdc51be	-0.026894446
27	0xbd0574ae	-0.032581978
28	0x3e1f4e88	0.15557301
29	0xbd1f0e57	-0.038832035
30	0xbdd1a5ec	-0.10236725
31	0x3d6101d0	0.05493337
32	0xbc90df16	-0.0176845
33	0x3dcd81c8	0.100345194
34	0xbd1cb7ff	-0.03826141
35	0xbd205f64	-0.03915347
36	0x3e53d75f	0.20687626
37	0xbe0febee	-0.14054844
38	0x3da0a1d0	0.07843363
39	0x3c66fbad	0.01409809
40	0xbd53d435	-0.05171605
41	0xbb65324d	-0.0034972609
42	0xbdbf6084	-0.09344581
43	0x3d994676	0.074841425
44	0x3e1a3d47	0.15062438
45	0xbe2b2163	-0.16711955
46	0xbe0d7eb1	-0.1381786
47	0xbe47f21b	-0.1952595
48	0xbc3301de	-0.010925738
49	0xbdd3961e	-0.10331367
50	0xbb823bc6	-0.0039744107
51	0xbcdd3cd5	-0.027006546
52	0xbd0e52ee	-0.034747057
53	0x3cf1dd10	0.029524356
54	0x3db92f57	0.090422325
55	0xbd75b018	-0.05998239
56	0x3df830c6	0.12118678
57	0xbd26c2d7	-0.040713158
58	0xbca50fdc	-0.020149164
59	0x3d225eca	0.03964118
60	0xbcbe7a2c	-0.023251615
61	0x3ccf0ca8	0.02527459
62	0xbd491321	-0.04909051
63	0xbd35866c	-0.044317648
64	0x3d331ae1	0.043726806
65	0x3b0f8d5e	0.002190433
66	0xbdf606a8	-0.12012988
67	0xbc0cc1a6	-0.008591091
68	0x3de35af0	0.11101329
69	0xbd1970c8	-0.037461072
70	0xbd2e3a93	-0.04253633
71	0x3cc4cafa	0.024022568
72	0xbdb9f25b	-0.09079429
73	0xbe15598d	-0.14584942
74	0x3e028d55	0.12749226
75	0xbc0b70d3	-0.008510786
76	0xbda7d90b	-0.081956945
77	0x3d5dcae1	0.05414856
78	0xbd627ad0	-0.055292904
79	0xbc95fdb1	-0.018309446
80	0x3d34b180	0.04411459
81	0x3db317c9	0.08744771
82	0x3df70abf	0.120625965
83	0xbd26b0ef	-0.04069608
84	0x3baeda00	0.005336046
85	0xbab752ed	-0.0013986506
86	0xbe42a05e	-0.19006488
87	0xbde7d2d2	-0.11319508
88	0xbd275007	-0.040847804
89	0xbd54c3fb	-0.051944714
90	0x3c98206d	0.01857015
91	0x3d8aa904	0.067705184
92	0x3e1504f6	0.14552674
93	0x3e3d6ac4	0.18497759
94	0x3c9e6c22	0.019338671
95	0x3d5cef07	0.05393889
96	0x3cd2ec4f	0.025747446
97	0x3dec22e4	0.11530092
98	0xbe55b563	-0.20869975
99	0x3d989beb	0.07451614
100	0xbd69c53e	-0.05707287
101	0xbe6f644e	-0.23378107
102	0xbaa3e969	-0.0012505475
103	0xbd02134f	-0.031756695
104	0xbdca9a70	-0.09892738
105	0x3dbbd2c8	0.09171063
106	0x3c544890	0.012956753
107	0x3d898a26	0.06715803
108	0xbccae3ce	-0.024766829
109	0xbd8f71a0	-0.07004094
110	0x3c01b794	0.007917304
111	0xbd999361	-0.074988134
112	0xbd20f015	-0.03929146
113	0x3da28ce7	0.07937031
114	0xbc95cc0e	-0.018285777
115	0xbd879c1f	-0.066215746
116	0xbe03b516	-0.12862048
117	0x3d5bdda3	0.053678166
118	0xbd52ba41	-0.051447157
119	0x3d05e1ed	0.032686163
120	0xbc81679c	-0.015796475
121	0xbd52e489	-0.05148748
122	0xbdaa19ef	-0.08305728
123	0xbbf38a57	-0.007432263
124	0xbe417884	-0.1889363
125	0x3cde936e	0.02716991
126	0x3d1b9b48	0.037989885
127	0xbe2d990d	-0.16952915
128	0x3b1d0bc2	0.0023963307
129	0xbdc4ea09	-0.09614951
130	0x3e1ce08a	0.1532003
131	0x3daae841	0.0834508
132	0x3d94d17f	0.07266521
133	0x3e510114	0.20410568
134	0x3d2b39e9	0.041803274
135	0xbdad2b4a	-0.08455522
136	0xbd517bc4	-0.051143423
137	0xbda18998	-0.07887572
138	0x3d10de8c	0.035368487
139	0xbd12644d	-0.035740186
140	0x3b798d72	0.0038078693
141	0xbdf25f7f	-0.11834621
142	0xbe115427	-0.14192258
143	0x3d2c0d2a	0.04200474
144	0x3e43fb63	0.19138865
145	0xbd4114a4	-0.047138825
146	0x3c85b9d7	0.016323967
147	0x3bdd8d6f	0.006761245
148	0x3da593ff	0.08084869
149	0x3d96fcb9	0.07372422
150	0x3cfbeda9	0.030752974
151	0x3cfefff4	0.031127907
152	0xbe5200d7	-0.20508133
153	0xbd7ed41b	-0.062214
154	0xbe14351b	-0.14473383
155	0xbd1dfb64	-0.038569823
156	0x3da92f1f	0.08260941
157	0x3dd89ad8	0.10576409
158	0xbd481fd6	-0.048858486
159	0x3dbf3a62	0.093373075
160	0xbd9537c8	-0.0728603
161	0x3e07daf0	0.13267112
162	0xbc6e4b76	-0.0145443585
163	0xbce1315b	-0.027489355
164	0x3d35da08	0.044397384
165	0xbdab8f81	-0.083769806
166	0xbc6b1f4e	-0.014350725
167	0x3d939f7f	0.07208156
168	0xbd70ad34	-0.05875893
169	0xbc947628	-0.018122748
170	0xbda606ad	-0.08106742
171	0xbcdbf4ab	-0.026850065
172	0xbcb68ad9	-0.022283005
173	0xbdd52c93	-0.104088925
174	0xbe38d38c	-0.18049449
175	0xbde6735b	-0.11252471
176	0xbdb02066	-0.085999295
177	0xbd4fbf4c	-0.050719544
178	0xbd561532	-0.052266307
179	0x3ccf4605	0.025301943
180	0x3e09d899	0.13461532
181	0xbc747646	-0.014920777
182	0x3dba5ae7	0.090993695
183	0xbd5360a6	-0.051605843
184	0xbe12df2c	-0.14342946
185	0xbb350fd2	-0.0027627838
186	0x3df7d826	0.12101774
187	0x3d91b7f9	0.07115168
188	0xbd162a67	-0.03666153
189	0x3d0d737d	0.034533966
190	0xbe0ddd02	-0.13853839
191	0x3c50d56a	0.012746194
192	0x3d176642	0.036962755
193	0x3cb0eba3	0.021596735
194	0xbe043ce2	-0.1291385
195	0x3e79de6b	0.24401252
196	0xbc1a4fa7	-0.009418405
197	0x3c9c0fec	0.01905056
198	0xbcb100e8	-0.021606877
199	0x3e270a95	0.1631263
200	0xbd4a3506	-0.049366973
201	0xbd388643	-0.045049917
202	0x3e5362c7	0.2064315
203	0xbe4ad601	-0.19808199
204	0x3d174fbe	0.036941282
205	0xbd5e2e11	-0.05424315
206	0x39ce5c2b	0.00039360052
207	0xbdda79e3	-0.10667779
208	0xbb5ee8df	-0.0034013314
209	0xbd6f18e7	-0.058373358
210	0x3d0b0cca	0.033947743
211	0xbd7aef20	-0.061263204
212	0xbdf4cae7	-0.11952763
213	0xbb9e37dd	-0.0048284368
214	0xbd6e7bea	-0.058223642
215	0xbd3127f4	-0.043250993
216	0xbd753a26	-0.059869908
217	0x3c8ed6e9	0.017436462
218	0x3ca53e20	0.020171225
219	0x3d9535d2	0.07285656
220	0xbe3afe5c	-0.18261093
221	0xbdb87382	-0.09006406
222	0xbde52849	-0.111893244
223	0xbb9257fe	-0.004466056
224	0xbd307e3f	-0.043089148
225	0x3dcb88e0	0.09938216
226	0x3c5b859f	0.013398557
227	0x3e823838	0.25433517
228	0x3dc1099f	0.09425663
229	0xbe251c71	-0.16124131
230	0x3e085b2f	0.13316034
231	0x3d897f3b	0.067137204
232	0x3e1d9fc4	0.15392977
233	0x3ccaf839	0.024776565
234	0xbc5a6f04	-0.013332132
235	0x3cbe1741	0.023204448
236	0x3d1df7ed	0.03856652
237	0x3d826632	0.063671485
238	0xbd3d25a3	-0.04617847
239	0xbd301568	-0.042989165
240	0x3dae92b9	0.08524079
241	0xbc368f5e	-0.01114258
242	0x3cd51dc9	0.02601518
243	0x3d704643	0.058660757
244	0xbd855283	-0.065098785
245	0xbcf5b360	-0.02999276
246	0xbd019126	-0.031632565
247	0xbdaf508d	-0.08560286
248	0xbe1a3bf0	-0.15061927
249	0x3d962978	0.07332128
250	0xbd1ddede	-0.03854262
251	0x39ad084c	0.00033003313
252	0xbd8250c4	-0.06363061
253	0xbe3bdfe6	-0.18347129
254	0xbd17d854	-0.03707154
255	0x3d91bfb6	0.07116644
