results/1/MoveThePlayer/MoveThePlayer-4894.pt (torch, 149007 bytes, 10 tensors)

network_body._body_endoder.seq_layers.0.weight f4 [128, 6]
0	0x3f496415	0.7866834
1	0xbf683ddd	-0.90719396
2	0x3e9268eb	0.2859567
3	0x3e842409	0.25808743
4	0x3e823008	0.2542727
5	0xbf86fa18	-1.0545073
6	0xbc0e52c0	-0.008686721
7	0x3e87f66d	0.26555195
8	0xbdbb1e85	-0.091366805
9	0xbe4f8e91	-0.20269229
10	0xbed9f4c7	-0.42569563
11	0xbe92dbfb	-0.28683457
12	0x3f17adc6	0.5924953
13	0xbe80292e	-0.25031418
14	0x3e674597	0.2258514
15	0x3dc8fc0f	0.09813701
16	0xbe8b3f4d	-0.27196732
17	0xbf2bf56c	-0.6717136
18	0xbee5fcd8	-0.44919467
19	0x3f071361	0.52763945
20	0x3ebe830b	0.37209353
21	0x3e300a51	0.17191435
22	0xbe2a01ba	-0.16602221
23	0x3f6fd33a	0.9368168
24	0x3ecdb2cf	0.40175483
25	0x3c3f437a	0.0116738025
26	0x3f124a3e	0.57144535
27	0x3c8a6d3b	0.016897788
28	0x3df26787	0.118361525
29	0xbe9cee39	-0.306505
30	0x3f31e6ef	0.69493
31	0x3ca9626b	0.020676812
32	0xbe5f6a39	-0.21817864
33	0x3db9655b	0.09052535
34	0xbe85b8f2	-0.26117665
35	0xbcae8e2e	-0.021308031
36	0x3f1900f9	0.5976711
37	0x3e188ddf	0.1489787
38	0x3f113010	0.5671396
39	0x3eb9d854	0.36297858
40	0x3eaf258f	0.34208342
41	0x3e94454f	0.28959128
42	0xbf8570f4	-1.0425096
43	0x3f16e40f	0.5894174
44	0x3e319726	0.17342815
45	0xbf15f162	-0.58571446
46	0xbf6054c4	-0.8762934
47	0xbe9c1bda	-0.3049
48	0xbea30f4d	-0.3184761
49	0x3e81ef6d	0.2537798
50	0x3e0a4c69	0.1350571
51	0x3e97dda1	0.29661277
52	0xbe76badd	-0.2409472
53	0xbe7bee80	-0.246027
54	0xbdc4838a	-0.095954016
55	0x3eadae4c	0.3392204
56	0x3e7ced8c	0.24699992
57	0xbd199b52	-0.03750164
58	0xbc5641d3	-0.013077217
59	0xbe038286	-0.1284276
60	0xbea81179	-0.3282583
61	0xbe985dca	-0.29759055
62	0x3d8742c8	0.066045344
63	0xbef0e07e	-0.47046274
64	0x3ef516a1	0.47868827
65	0x3d4cfe6a	0.050047316
66	0x3dd76356	0.10516994
67	0x3f70c53f	0.94050974
68	0x3e81a911	0.253243
69	0xbdf4ee5f	-0.11959528
70	0xbebb51fa	-0.3658598
71	0xbe1319db	-0.14365332
72	0xbe4d1f1a	-0.20031396
73	0xbf0dfb13	-0.55461234
74	0x3ec90bfd	0.3926696
75	0x3d04d46f	0.032429155
76	0xbf395cc2	-0.7240716
77	0x3ea08309	0.31349972
78	0xbf2e4595	-0.68074924
79	0xbc781b06	-0.015143162
80	0xbe82d804	-0.25555432
81	0x3d97d66c	0.074139446
82	0xbd9b4aa5	-0.07582597
83	0x3f1bdf01	0.6088715
84	0x3f26767d	0.6502455
85	0xbd961fb0	-0.07330263
86	0x3f3ac8a8	0.7296243
87	0x3f0c6356	0.54839075
88	0x3e52f26e	0.20600292
89	0xbe6e9d27	-0.23302136
90	0x3da95db1	0.08269823
91	0x3f334988	0.70034075
92	0x3ed7e0a0	0.42163563
93	0x3f042336	0.5161623
94	0xbf1ff760	-0.6248684
95	0x3d41a2c2	0.04727436
96	0xbeac900e	-0.33703655
97	0xbe762d0b	-0.2404062
98	0xbec68b52	-0.38778168
99	0xbe3a97b1	-0.18221928
100	0xbf069dad	-0.52584344
101	0xbe837294	-0.25673354
102	0xbf42d3f5	-0.7610467
103	0xbedf81ef	-0.4365382
104	0x3d82035d	0.06348298
105	0x3c60dbd9	0.013724291
106	0x3eb0db27	0.345422
107	0xbea0b6ed	-0.3138956
108	0x3bcc1ab4	0.006228769
109	0xbeb6d68c	-0.3571056
110	0x3f172fdd	0.5905741
111	0xbf2a9ef6	-0.66648805
112	0x3f256c9b	0.64618844
113	0xbf51badd	-0.81925756
114	0xbc80858b	-0.015688678
115	0x3f010094	0.5039151
116	0x3ecbdaa1	0.39815238
117	0x3c7fb6fe	0.015607594
118	0x3f0a7ef2	0.54099953
119	0x3ee3ab07	0.4446642
120	0x3f2afce8	0.66792154
121	0xbf18465a	-0.5948235
122	0xbe5a6695	-0.21328194
123	0xbeb0bcb8	-0.3451898
124	0x3f2f501d	0.6848162
125	0x3f076ce6	0.5290054
126	0xbf1b3933	-0.60634154
127	0x3d5af708	0.053458244
128	0x3e9dc14d	0.3081154
129	0x3e8196c8	0.2531035
130	0x3db1e842	0.08686878
131	0xbe46878e	-0.19387648
132	0x3eb9bd8f	0.36277434
133	0xbe65b639	-0.22432794
134	0xbf812f4e	-1.0092561
135	0x3eaa82fd	0.3330306
136	0xbd313070	-0.043259084
137	0xbe92ab90	-0.28646517
138	0xbe5548a7	-0.20828496
139	0x3e85e48f	0.2615094
140	0xbeb50121	-0.35352424
141	0xbc9e1451	-0.019296797
142	0xbe15999b	-0.14609377
143	0x3f5ceefd	0.8630217
144	0xbec846dd	-0.39116564
145	0x3f10132a	0.5627924
146	0x3f368ee4	0.71311784
147	0xbf444f21	-0.7668324
148	0xbf2d0db4	-0.67599034
149	0x3e9ae1fa	0.3025053
150	0xbe06f93a	-0.1318101
151	0xbc2e5224	-0.010639701
152	0xbf3ac574	-0.7295754
153	0x3e77518d	0.24152203
154	0x3de62842	0.11238147
155	0x3efd570a	0.49480468
156	0xbe10fadb	-0.14158194
157	0x3d866869	0.065628834
158	0xbcca9acd	-0.024732018
159	0x3f142fcb	0.57885426
160	0x3d87a44e	0.066231355
161	0x3ecd7900	0.40131378
162	0x3f301044	0.6877482
163	0xbe8e4e65	-0.27794185
164	0xbedaac6b	-0.4270967
165	0x3e5e6533	0.21718292
166	0xbeb05b9f	-0.344449
167	0x3f2d089f	0.6759128
168	0xbefceaab	-0.49397787
169	0x3d003ace	0.03130608
170	0x3eeb62e6	0.4597389
171	0xbf369a1a	-0.7132889
172	0xbdc8a704	-0.09797481
173	0x3edb6e30	0.42857504
174	0x3ccd77f0	0.025081605
175	0x3de7ee48	0.113247454
176	0xbe787c89	-0.24266256
177	0xbf0f9e35	-0.5610078
178	0x3f5d727d	0.8650282
179	0x3e17a11f	0.14807557
180	0xbee39424	-0.4444896
181	0xbd8695a4	-0.065715104
182	0x3e92f7fb	0.2870482
183	0xbe44ea74	-0.19230062
184	0x3f8215b7	1.0162877
185	0x3e598574	0.21242315
186	0xbe0c88e7	-0.13724099
187	0x3f1518db	0.5824105
188	0x3b3cd78c	0.0028815
189	0xbf1b46b1	-0.6065474
190	0xbd497253	-0.049181294
191	0xbf7a548e	-0.9778527
192	0xbead3768	-0.33831334
193	0xbedefbbc	-0.43551433
194	0xbdd85f52	-0.10565056
195	0xbe20f1aa	-0.15717188
196	0xbe6c3a2f	-0.2306907
197	0x3dc1a1fa	0.09454723
198	0xbd5beae2	-0.0536908
199	0xbeb2cb86	-0.349209
200	0x3aff123b	0.0019460389
201	0x3f4836b3	0.78208464
202	0xbde0e399	-0.10980911
203	0x3e759744	0.23983485
204	0x3f3593f9	0.70928913
205	0xbe1c24e5	-0.15248449
206	0x3e82e61c	0.25566185
207	0xbf642b36	-0.89128435
208	0x3e99c062	0.3002959
209	0x3ebe09d7	0.37116882
210	0x3f5c410d	0.8603676
211	0xbe9bdbe9	-0.30441216
212	0x3e604ee9	0.21905102
213	0xbdc7ef95	-0.097624935
214	0xbf1e0563	-0.6172697
215	0x3e73fcc4	0.23826891
216	0xbf01a4a8	-0.5064187
217	0x3ee6ded4	0.4509188
218	0xbed89acb	-0.42305598
219	0xbf63627e	-0.8882216
220	0x3e5fd8e9	0.21860088
221	0xbd89e07c	-0.0673227
222	0xbd8f3434	-0.06992379
223	0x3ef25ec8	0.47337937
224	0xbd9d1c5b	-0.07671424
225	0xbf0e2ccd	-0.5553711
226	0x3f56ea44	0.8395121
227	0x3e68e205	0.2274247
228	0x3f71e926	0.9449638
229	0x3eb4b7f7	0.35296604
230	0xbd14c89b	-0.036324125
231	0x3e11a8de	0.14224574
232	0xbf3d0746	-0.73839223
233	0x3ebf0d69	0.3731492
234	0xbef09b98	-0.4699371
235	0xbefad769	-0.4899247
236	0x3e06fabf	0.1318159
237	0x3e691ac2	0.22764114
238	0xbcbc0dc0	-0.022955775
239	0x3a90af22	0.0011038522
240	0x3f26343e	0.64923465
241	0xbd1d5988	-0.03841546
242	0xbe5e369f	-0.21700524
243	0x3f18b695	0.596536
244	0xbd29b42e	-0.0414316
245	0xbe9f6022	-0.3112803
246	0xbebf47f0	-0.3735957
247	0xbe26c7ae	-0.1628711
248	0xbef70323	-0.4824458
249	0x3d323f8e	0.04351764
250	0x3e7bf998	0.24606931
251	0x3e564f97	0.20928799
252	0xbe0e3358	-0.13886774
253	0x3ed342f0	0.41262007
254	0x3f244702	0.6417085
255	0xbf16dd26	-0.58931196

network_body._body_endoder.seq_layers.0.bias f4 [128]
0	0x00000000	0.0
1	0x00000000	0.0
2	0x00000000	0.0
3	0x00000000	0.0
4	0x00000000	0.0
5	0x00000000	0.0
6	0x00000000	0.0
7	0x00000000	0.0
8	0x00000000	0.0
9	0x00000000	0.0
10	0x00000000	0.0
11	0x00000000	0.0
12	0x00000000	0.0
13	0x00000000	0.0
14	0x00000000	0.0
15	0x00000000	0.0
16	0x00000000	0.0
17	0x00000000	0.0
18	0x00000000	0.0
19	0x00000000	0.0
20	0x00000000	0.0
21	0x00000000	0.0
22	0x00000000	0.0
23	0x00000000	0.0
24	0x00000000	0.0
25	0x00000000	0.0
26	0x00000000	0.0
27	0x00000000	0.0
28	0x00000000	0.0
29	0x00000000	0.0
30	0x00000000	0.0
31	0x00000000	0.0
32	0x00000000	0.0
33	0x00000000	0.0
34	0x00000000	0.0
35	0x00000000	0.0
36	0x00000000	0.0
37	0x00000000	0.0
38	0x00000000	0.0
39	0x00000000	0.0
40	0x00000000	0.0
41	0x00000000	0.0
42	0x00000000	0.0
43	0x00000000	0.0
44	0x00000000	0.0
45	0x00000000	0.0
46	0x00000000	0.0
47	0x00000000	0.0
48	0x00000000	0.0
49	0x00000000	0.0
50	0x00000000	0.0
51	0x00000000	0.0
52	0x00000000	0.0
53	0x00000000	0.0
54	0x00000000	0.0
55	0x00000000	0.0
56	0x00000000	0.0
57	0x00000000	0.0
58	0x00000000	0.0
59	0x00000000	0.0
60	0x00000000	0.0
61	0x00000000	0.0
62	0x00000000	0.0
63	0x00000000	0.0
64	0x00000000	0.0
65	0x00000000	0.0
66	0x00000000	0.0
67	0x00000000	0.0
68	0x00000000	0.0
69	0x00000000	0.0
70	0x00000000	0.0
71	0x00000000	0.0
72	0x00000000	0.0
73	0x00000000	0.0
74	0x00000000	0.0
75	0x00000000	0.0
76	0x00000000	0.0
77	0x00000000	0.0
78	0x00000000	0.0
79	0x00000000	0.0
80	0x00000000	0.0
81	0x00000000	0.0
82	0x00000000	0.0
83	0x00000000	0.0
84	0x00000000	0.0
85	0x00000000	0.0
86	0x00000000	0.0
87	0x00000000	0.0
88	0x00000000	0.0
89	0x00000000	0.0
90	0x00000000	0.0
91	0x00000000	0.0
92	0x00000000	0.0
93	0x00000000	0.0
94	0x00000000	0.0
95	0x00000000	0.0
96	0x00000000	0.0
97	0x00000000	0.0
98	0x00000000	0.0
99	0x00000000	0.0
100	0x00000000	0.0
101	0x00000000	0.0
102	0x00000000	0.0
103	0x00000000	0.0
104	0x00000000	0.0
105	0x00000000	0.0
106	0x00000000	0.0
107	0x00000000	0.0
108	0x00000000	0.0
109	0x00000000	0.0
110	0x00000000	0.0
111	0x00000000	0.0
112	0x00000000	0.0
113	0x00000000	0.0
114	0x00000000	0.0
115	0x00000000	0.0
116	0x00000000	0.0
117	0x00000000	0.0
118	0x00000000	0.0
119	0x00000000	0.0
120	0x00000000	0.0
121	0x00000000	0.0
122	0x00000000	0.0
123	0x00000000	0.0
124	0x00000000	0.0
125	0x00000000	0.0
126	0x00000000	0.0
127	0x00000000	0.0

network_body._body_endoder.seq_layers.2.weight f4 [128, 128]
0	0xbd2717d2	-0.0407942
1	0xbd1420f8	-0.036164254
2	0x3d069b90	0.0328632
3	0x3e25ea18	0.16202581
4	0xbe2d8b68	-0.1694771
5	0x3d000443	0.031254064
6	0x3d43e5d3	0.0478266
7	0x3c36f13d	0.011165914
8	0x3e50f96d	0.20407648
9	0x3b9ae47a	0.0047269436
10	0xbd1f11c7	-0.038835313
11	0x3d80e07a	0.062928155
12	0xbd4d5081	-0.050125603
13	0x3e2d92c2	0.16950515
14	0x3de1d00b	0.11026009
15	0x3e336c5a	0.17521802
16	0xbdb39081	-0.08767796
17	0xbcc8ae03	-0.024497038
18	0xbd652a8b	-0.055948775
19	0x3d772b8c	0.060344264
20	0xbc9c9d97	-0.019118113
21	0xbd3d2048	-0.046173364
22	0x3e0798f2	0.13241938
23	0x3e4e54c2	0.2014952
24	0x3cca3086	0.02468134
25	0xbdac4559	-0.084116645
26	0x3dfe044d	0.12403164
27	0xbde641e4	-0.112430364
28	0xbddd4b36	-0.10805361
29	0x3cc6d350	0.024270684
30	0xbd5b650f	-0.053563174
31	0x3d0e66e4	0.034766093
32	0xbe214f34	-0.1575287
33	0x3c00f944	0.00787193
34	0xbbf2ecb8	-0.007413473
35	0x3d39ed45	0.045392293
36	0xbc992105	-0.018692503
37	0x3b7e4b88	0.0038802344
38	0xbe016166	-0.12634811
39	0xbdefa86f	-0.11702048
40	0x3dfd0ff6	0.1235656
41	0xbdc42e89	-0.095791884
42	0x3cc7a49b	0.024370482
43	0x3d951d3a	0.07280965
44	0xbd0fdcc2	-0.03512264
45	0x3ccc0200	0.024903297
46	0x3e0b7463	0.13618617
47	0x3c99d2d3	0.018777287
48	0x3c47fb2c	0.01220588
49	0xbe16b6f2	-0.14718226
50	0xbd7a1a38	-0.06106016
51	0xbda1af85	-0.07894806
52	0x3b874544	0.00412813
53	0x3cf0f129	0.02941187
54	0x3dae7eb5	0.08520261
55	0x3e504bab	0.20341365
56	0x3e25ff6c	0.16210717
57	0x3dc11d3d	0.09429405
58	0x3d801161	0.06253315
59	0xbdda550e	-0.10660754
60	0xbda6bc6f	-0.081414096
61	0xbd56f435	-0.052478988
62	0xbdc74156	-0.09729259
63	0x3dee1d0a	0.116266325
64	0x3b5c88d7	0.00336509
65	0x3c38e2c0	0.01128453
66	0x3cb2d29f	0.021828948
67	0xbdb0a150	-0.08624518
68	0xbd7f1b53	-0.062281918
69	0xbd2c250c	-0.04202752
70	0xbd89dc3e	-0.06731461
71	0xbdaef32e	-0.085424766
72	0x3d8491c2	0.064731136
73	0x3da73c4c	0.081657976
74	0x3dfe2e94	0.12411228
75	0xbcd4d38d	-0.025979782
76	0x3e070ef7	0.13189302
77	0xbdc82328	-0.097723305
78	0x3d9ead98	0.07747954
79	0xbd870bbe	-0.065940365
80	0x3e17c6f6	0.14821991
81	0xbd9cf464	-0.07663801
82	0xbde33dce	-0.11095773
83	0xbd25dcb4	-0.040493682
84	0x3d926e69	0.07149965
85	0x3e0556bd	0.1302137
86	0x3cfe9216	0.031075519
87	0x3b31fa1b	0.002715713
88	0xbe294111	-0.16528727
89	0xbdbc3a60	-0.09190822
90	0xbd8a1ef3	-0.06744184
91	0xbc8db2f3	-0.017297244
92	0x3df0d956	0.117602035
93	0x3d8fb17d	0.07016275
94	0x3db93078	0.09042448
95	0xbe24c209	-0.16089644
96	0x3e1780ea	0.1479527
97	0x3d0f984f	0.035057362
98	0xbd9b54c2	-0.07584526
99	0x3db5ca7a	0.0887651
100	0xbc3d31f5	-0.011547555
101	0x3e13df57	0.14440666
102	0x3daa880f	0.08326732
103	0xbd5339c8	-0.051568776
104	0x3e076c2f	0.13224863
105	0xbe5c18b8	-0.21493804
106	0xbd77ba19	-0.06048021
107	0xbd47e903	-0.0488062
108	0x3e07e541	0.13271047
109	0x3d3d4b7f	0.046214577
110	0xbde10039	-0.109863706
111	0xbd706c94	-0.0586973
112	0xbe28b073	-0.1647356
113	0xbba92834	-0.0051622633
114	0x3df29a85	0.118458785
115	0xbdd81496	-0.105508015
116	0x3da999b6	0.08281271
117	0xbe137ef8	-0.14403903
118	0xbb568704	-0.0032734284
119	0xbcf21692	-0.029551778
120	0xbdf81414	-0.121132046
121	0xbdd9c34e	-0.106329545
122	0x3dc0355f	0.0938518
123	0x3ccc8c3d	0.024969215
124	0xbdbabe86	-0.09118371
125	0x3d6a3bb0	0.05718583
126	0xbd4ab46c	-0.04948847
127	0xbd761524	-0.060078755
128	0xbcfc9a08	-0.030835167
129	0xbdabb594	-0.08384243
130	0x3d5fc922	0.054635175
131	0x3d801056	0.06253116
132	0x3ba0fa88	0.004912678
133	0xbe455bd0	-0.19273305
134	0x3df148e6	0.117814824
135	0xbe0b4c5a	-0.13603345
136	0x3de4e156	0.11175792
137	0x3c969386	0.018380892
138	0xbc74e09f	-0.014946132
139	0xbc045ce3	-0.008078787
140	0xbddcf62b	-0.1078914
141	0xbe0d8f34	-0.13824159
142	0xbd9444bd	-0.07239673
143	0xbd486b8c	-0.04893069
144	0xbcd3767d	-0.025813336
145	0xbd8a0acd	-0.06740341
146	0xb9b0c22e	-0.0003371401
147	0xbdb2fc6e	-0.087395534
148	0x3dd6fd2a	0.10497506
149	0x3def7eea	0.11694129
150	0xbc1c4372	-0.009537565
151	0x3d87e755	0.0663592
152	0xbc9581e4	-0.018250413
153	0xbd2d53f5	-0.042316396
154	0x3d38d87f	0.04512834
155	0xbdb35310	-0.08756077
156	0x3d94dc94	0.072686344
157	0xbc2dbca7	-0.01060406
158	0x3e35eb39	0.17765512
159	0xbd103f70	-0.03521675
160	0x3cfd1c82	0.030897383
161	0xbbadf9ec	-0.005309334
162	0xbd8e6fa5	-0.06954888
163	0xbe2272e1	-0.15864135
164	0x3d80aa6e	0.06282507
165	0x3c1c8e17	0.009555361
166	0xbcb83006	-0.022483837
167	0xbd9a1cdd	-0.075250365
168	0xbc45a3cc	-0.012062978
169	0xbd660249	-0.056154523
170	0x3d556030	0.052093685
171	0xbe09d068	-0.13458407
172	0xbe6fc8f2	-0.23416498
173	0xbe127443	-0.14302163
174	0xbd2cdc29	-0.04220215
175	0x3ca60b53	0.020269072
176	0x3b621a7d	0.0034500652
177	0x3b962f20	0.0045832545
178	0x3deae7d4	0.11469999
179	0xbe106637	-0.14101492
180	0x3e6f83e1	0.23390152
181	0xbe312219	-0.17298163
182	0x3e24799b	0.16062014
183	0xbbd3e9e1	-0.0064670895
184	0x3d0cc564	0.034367934
185	0xbe73688b	-0.23770349
186	0x3d4abd22	0.049496777
187	0x3d82fe6f	0.063961856
188	0x3d63209c	0.05545102
189	0x3dbebc3a	0.09313245
190	0x3d8bc1ed	0.06824098
191	0x3e11cc15	0.14238007
192	0xbd3be1d1	-0.045869652
193	0xbc8cf3a8	-0.017206028
194	0x3d2a34f5	0.04155441
195	0x3d3881c8	0.045045644
196	0x3d14af97	0.036300268
197	0xbd836f85	-0.06417755
198	0x3d7e8289	0.062136207
199	0xbdd79620	-0.10526681
200	0x3d16e582	0.03683997
201	0xbd473356	-0.048632942
202	0xba779149	-0.00094439514
203	0xbca04fc5	-0.019569287
204	0xbc21ca76	-0.009874931
205	0xbc05b758	-0.008161388
206	0xbdbe5d35	-0.092951216
207	0xbd1c2eea	-0.03813068
208	0xbde3e9f6	-0.11128609
209	0xbd86b6a4	-0.06577805
210	0x3ccc3771	0.02492878
211	0xbd997cb3	-0.074944876
212	0xbbb13eb6	-0.005409087
213	0xbce45b0b	-0.027875444
214	0x3cc0e585	0.023546943
215	0x3d6614a8	0.056172043
216	0x3db85568	0.09000665
217	0x3c9d4731	0.019198986
218	0xbd00117a	-0.031266667
219	0x3d84d2a3	0.06485488
220	0x3da8bce8	0.08239156
221	0xbcbc4759	-0.02298324
222	0x3de8f600	0.11375046
223	0x3e05659a	0.13027039
224	0xbe661af2	-0.22471216
225	0xbb7fa4b6	-0.0039008087
226	0x3db1e434	0.086861044
227	0xbe5da33e	-0.21644303
228	0xbc0bd2c9	-0.008534142
229	0x3d5a1498	0.053242296
230	0xbdc00542	-0.09376003
231	0xbd7f6ceb	-0.06235973
232	0x3ccb281f	0.024799405
233	0xbd65e84c	-0.05612974
234	0xbdb81f83	-0.089903854
235	0x3ddde94d	0.10835514
236	0x3dda08af	0.106461875
237	0x3e27793b	0.1635484
238	0xbd991552	-0.0747477
239	0xbc5a4cfb	-0.013324018
240	0xbe401f41	-0.18761922
241	0x3e1d1916	0.15341601
242	0xbd6571c8	-0.056016713
243	0x3d270654	0.04077752
244	0x3da9d1e9	0.0829199
245	0xbe130db1	-0.14360692
246	0x3d3a580f	0.045494135
247	0x3d90f9a6	0.07078867
248	0x3d109dee	0.035306863
249	0x3d5efac0	0.054438353
250	0x3d543f63	0.051818263
251	0x3d67094e	0.056405358
252	0x3bb37ccc	0.0054775234
253	0x3def7cb0	0.11693704
254	0x3da73b95	0.08165661
255	0x3d5d0ab9	0.053965304

network_body._body_endoder.seq_layers.2.bias f4 [128]
0	0x00000000	0.0
1	0x00000000	0.0
2	0x00000000	0.0
3	0x00000000	0.0
4	0x00000000	0.0
5	0x00000000	0.0
6	0x00000000	0.0
7	0x00000000	0.0
8	0x00000000	0.0
9	0x00000000	0.0
10	0x00000000	0.0
11	0x00000000	0.0
12	0x00000000	0.0
13	0x00000000	0.0
14	0x00000000	0.0
15	0x00000000	0.0
16	0x00000000	0.0
17	0x00000000	0.0
18	0x00000000	0.0
19	0x00000000	0.0
20	0x00000000	0.0
21	0x00000000	0.0
22	0x00000000	0.0
23	0x00000000	0.0
24	0x00000000	0.0
25	0x00000000	0.0
26	0x00000000	0.0
27	0x00000000	0.0
28	0x00000000	0.0
29	0x00000000	0.0
30	0x00000000	0.0
31	0x00000000	0.0
32	0x00000000	0.0
33	0x00000000	0.0
34	0x00000000	0.0
35	0x00000000	0.0
36	0x00000000	0.0
37	0x00000000	0.0
38	0x00000000	0.0
39	0x00000000	0.0
40	0x00000000	0.0
41	0x00000000	0.0
42	0x00000000	0.0
43	0x00000000	0.0
44	0x00000000	0.0
45	0x00000000	0.0
46	0x00000000	0.0
47	0x00000000	0.0
48	0x00000000	0.0
49	0x00000000	0.0
50	0x00000000	0.0
51	0x00000000	0.0
52	0x00000000	0.0
53	0x00000000	0.0
54	0x00000000	0.0
55	0x00000000	0.0
56	0x00000000	0.0
57	0x00000000	0.0
58	0x00000000	0.0
59	0x00000000	0.0
60	0x00000000	0.0
61	0x00000000	0.0
62	0x00000000	0.0
63	0x00000000	0.0
64	0x00000000	0.0
65	0x00000000	0.0
66	0x00000000	0.0
67	0x00000000	0.0
68	0x00000000	0.0
69	0x00000000	0.0
70	0x00000000	0.0
71	0x00000000	0.0
72	0x00000000	0.0
73	0x00000000	0.0
74	0x00000000	0.0
75	0x00000000	0.0
76	0x00000000	0.0
77	0x00000000	0.0
78	0x00000000	0.0
79	0x00000000	0.0
80	0x00000000	0.0
81	0x00000000	0.0
82	0x00000000	0.0
83	0x00000000	0.0
84	0x00000000	0.0
85	0x00000000	0.0
86	0x00000000	0.0
87	0x00000000	0.0
88	0x00000000	0.0
89	0x00000000	0.0
90	0x00000000	0.0
91	0x00000000	0.0
92	0x00000000	0.0
93	0x00000000	0.0
94	0x00000000	0.0
95	0x00000000	0.0
96	0x00000000	0.0
97	0x00000000	0.0
98	0x00000000	0.0
99	0x00000000	0.0
100	0x00000000	0.0
101	0x00000000	0.0
102	0x00000000	0.0
103	0x00000000	0.0
104	0x00000000	0.0
105	0x00000000	0.0
106	0x00000000	0.0
107	0x00000000	0.0
108	0x00000000	0.0
109	0x00000000	0.0
110	0x00000000	0.0
111	0x00000000	0.0
112	0x00000000	0.0
113	0x00000000	0.0
114	0x00000000	0.0
115	0x00000000	0.0
116	0x00000000	0.0
117	0x00000000	0.0
118	0x00000000	0.0
119	0x00000000	0.0
120	0x00000000	0.0
121	0x00000000	0.0
122	0x00000000	0.0
123	0x00000000	0.0
124	0x00000000	0.0
125	0x00000000	0.0
126	0x00000000	0.0
127	0x00000000	0.0

action_model._continuous_distribution.mu.weight f4 [1, 128]
0	0xbc027487	-0.007962353
1	0x3a9f63ff	0.0012160538
2	0x3b13f3fd	0.0022575848
3	0xbd4632ca	-0.04838828
4	0xbd2b3697	-0.041800108
5	0xbcb3cdb5	-0.021948675
6	0xbbba96e0	-0.005694255
7	0x3cf5ea0d	0.03001883
8	0x3b296af7	0.002585111
9	0xbccc006f	-0.02490255
10	0xbce7c3ca	-0.028291602
11	0x3c0a1b1b	0.008429314
12	0x3b0322d9	0.0020009784
13	0xbb2a55f4	-0.0025991173
14	0xbc2a4dd0	-0.0103945285
15	0x3b65a783	0.0035042472
16	0xbd47c6ff	-0.04877376
17	0xbb39b613	-0.0028337284
18	0x3d1078a9	0.03527132
19	0x3b703582	0.0036652987
20	0x3c04302d	0.008068127
21	0x3d2bd1cf	0.041948136
22	0x3c16b16f	0.009197577
23	0xbbcd6ca7	-0.006269056
24	0xbc382152	-0.011238413
25	0xbbe45738	-0.006968405
26	0x3c3c99f7	0.011511317
27	0xbcaa161c	-0.020762496
28	0xbbb8d7fd	-0.005640982
29	0xbbb8fd6d	-0.005645445
30	0xbc9827a8	-0.018573597
31	0x3d073313	0.033007693
32	0xbc882c5b	-0.016622713
33	0x3cf9acbb	0.030477872
34	0xbc4a26dc	-0.012338366
35	0x3cd189c3	0.025578385
36	0x3c943a3a	0.01809417
37	0x3c4e0fba	0.012576992
38	0x3cb7e20d	0.022446657
39	0x3b21c0b7	0.0024681517
40	0xbc99833e	-0.018739339
41	0x3c7b9365	0.015354966
42	0x3d2e0cd8	0.042492718
43	0x3c1c7744	0.0095499195
44	0x3d00a433	0.031406593
45	0xbbf9bcb2	-0.007621371
46	0xbc544d43	-0.012957874
47	0x3bd6709b	0.0065441853
48	0xbb0a070a	-0.0021061325
49	0x3b0c282f	0.0021386256
50	0x3ad7c562	0.0016462023
51	0x3c79fc1d	0.015257862
52	0x3c401db7	0.011725835
53	0x3b5379f2	0.003226873
54	0x3c3efde0	0.011657208
55	0xbc519303	-0.012791398
56	0x3c1f8aee	0.009737713
57	0x3c3c1bc2	0.011481227
58	0x3b0b03c8	0.002121197
59	0x3abcb61d	0.0014397536
60	0x3c5317cb	0.012884091
61	0x3c420b92	0.011843579
62	0x3c8d4cc7	0.017248524
63	0xbc4cc167	-0.012497283
64	0xbb4ae54d	-0.0030959428
65	0x3d19678b	0.037452262
66	0xbb731372	-0.0037090448
67	0x3c775fa3	0.015098485
68	0x3c186b47	0.009302921
69	0xbc4ca2aa	-0.012489954
70	0x3bc45197	0.0059911716
71	0x3c29c8bf	0.010362803
72	0x3bca83ee	0.006180278
73	0xbbbfbe12	-0.0058515156
74	0x3c57b497	0.013165615
75	0x3cc0bc91	0.023527415
76	0xbc8f76ee	-0.017512765
77	0x3cb4e197	0.022080226
78	0x3c362b0b	0.011118661
79	0xb8a2bdef	-7.76014e-05
80	0x3bdcd932	0.006739759
81	0xbc68f0f5	-0.014217605
82	0xbbc44d94	-0.0059906933
83	0xbc3f24ed	-0.011666519
84	0xbc08bb7a	-0.008345479
85	0xbc859713	-0.01630739
86	0xbc24f347	-0.010067767
87	0xbd086c0f	-0.033306178
88	0x3d0bb9ca	0.03411273
89	0x3c49f3df	0.01232621
90	0xbccc8c62	-0.024969283
91	0xbc953f43	-0.018218642
92	0x3a8aa1c5	0.0010576776
93	0x3c24d32b	0.010060112
94	0xbb4a3d34	-0.0030859234
95	0x3bfa1840	0.0076322854
96	0xbc05f5a8	-0.008176245
97	0x3ae15b67	0.0017193378
98	0xbbd51e9f	-0.0065038945
99	0xbcef96dd	-0.029246742
100	0xbc9c5273	-0.019082284
101	0xbab19862	-0.0013549442
102	0x3c29ddfb	0.010367866
103	0x3b20bef4	0.002452788
104	0x3c90e6ff	0.017688273
105	0x3c9a5e4c	0.018843792
106	0xbd37d2e9	-0.044878874
107	0x3cc9e403	0.024644857
108	0x3af2314a	0.0018477824
109	0xbce89d83	-0.02839542
110	0xbd2b9314	-0.04188831
111	0xbbffe182	-0.007808865
112	0x3ad46425	0.0016204162
113	0x3c78395f	0.015150397
114	0xbbe672a7	-0.0070327106
115	0xbb00099a	-0.0019536973
116	0x3cbcc8a0	0.023044884
117	0xbce766cd	-0.028247261
118	0x3b27d88b	0.0025611247
119	0xbb941125	-0.0045186453
120	0xbcbe3469	-0.02321835
121	0x3c85f344	0.01635135
122	0xbc93dd19	-0.018049764
123	0xbc4c91dc	-0.012485947
124	0x3b983a9e	0.0046456596
125	0xbb3245a6	-0.0027202158
126	0x3ca98d02	0.02069712
127	0x3d8af4c8	0.067849696

network_body._body_endoder.seq_layers.0.weight f4 [128, 6]
0	0xbdb966ed	-0.09052835
1	0xbe13dcaf	-0.14439653
2	0x3f2b63a5	0.6694892
3	0xbee23d26	-0.44187278
4	0x3d11d09e	0.035599343
5	0x3d8cde09	0.06878287
6	0xbd7c1d69	-0.061551485
7	0xbeb91783	-0.3615075
8	0xbdd20e08	-0.102565825
9	0xbe4dc640	-0.20095158
10	0x3e923beb	0.2856134
11	0xbec9fd78	-0.39451194
12	0xbe987fa8	-0.29784894
13	0x3e9d8c80	0.30771255
14	0xbed47b3a	-0.41500264
15	0x3e22ab15	0.15885575
16	0xbd8e782d	-0.069565155
17	0x3ead86c6	0.33891886
18	0xbe0ec5aa	-0.1394259
19	0x3c5bbcae	0.013411684
20	0xbda7195c	-0.08159134
21	0xbed524d8	-0.41629672
22	0x3e83494c	0.2564186
23	0xbe8e158c	-0.27750814
24	0x3e2f544e	0.17122003
25	0x3edd141b	0.43179402
26	0x3ed1189e	0.40839094
27	0xbf27a1a8	-0.6548104
28	0x3e5b340c	0.21406573
29	0x3f78ab48	0.97136354
30	0xbec95d09	-0.39328793
31	0x3e3d1540	0.18465137
32	0xbe3acc5d	-0.18242021
33	0x3effe42b	0.49978766
34	0x3d5290b4	0.05140753
35	0xbed56b3c	-0.41683376
36	0xbf485ce8	-0.78266764
37	0xbf47bedc	-0.78025603
38	0x3e1d2463	0.15345912
39	0xbf59e358	-0.85112524
40	0xbf2400b9	-0.640636
41	0x3e5de5f4	0.21669751
42	0xbd1da5e6	-0.03848829
43	0x3bfd3705	0.007727506
44	0xbd5f4ee4	-0.054518595
45	0x3e1b0107	0.1513711
46	0x3eed5a31	0.46357873
47	0x3d206818	0.03916177
48	0xbebd2d95	-0.3694884
49	0x3cd22b84	0.025655515
50	0x3e2b0132	0.16699675
51	0x3db49978	0.08818334
52	0x3ebfdffe	0.3747558
53	0xbd81809b	-0.06323358
54	0x3ede074f	0.4336495
55	0x3f645316	0.8918928
56	0x3ecac472	0.39603
57	0x3ee2d819	0.44305494
58	0xbf1246c7	-0.5713925
59	0xbf0d2319	-0.5513168
60	0x3eb6b23d	0.3568286
61	0xbe57d80a	-0.21078506
62	0xbd04afe6	-0.032394312
63	0xbdd0d7df	-0.10197424
64	0xbf23aa58	-0.639318
65	0x3e903e78	0.2817266
66	0x3ef67ac3	0.48140535
67	0xbeedfb11	-0.4648061
68	0xbee9620c	-0.45582616
69	0xbef47e2e	-0.47752517
70	0xbd7bf87c	-0.06151627
71	0x3e949c79	0.2902563
72	0xbf4fe833	-0.8121368
73	0x3e084e83	0.133112
74	0x3e519ceb	0.20470016
75	0x3f027bc2	0.5097009
76	0x3f072e16	0.52804697
77	0xbcb329e8	-0.021870568
78	0x3f5b6a47	0.8570904
79	0xbd941caa	-0.0723203
80	0xbecd3d74	-0.40085948
81	0x3ec9447e	0.39310068
82	0xbe039dcb	-0.12853162
83	0x3e853361	0.26015761
84	0xbedae6c7	-0.42754194
85	0xbf15595a	-0.58339465
86	0x3d7e1c4a	0.062038697
87	0x3db96c15	0.09053818
88	0xbeb76a7b	-0.35823426
89	0xbebedcd4	-0.37277853
90	0x3f026dce	0.509488
91	0xbb2152b0	-0.0024615936
92	0xbe50bebd	-0.20385261
93	0x3ea17a9d	0.3153886
94	0xbeeecb01	-0.46639255
95	0x3ef116fc	0.47087848
96	0xbf3dc1b2	-0.7412368
97	0xbe53626b	-0.20643012
98	0xbf71c625	-0.9444297
99	0x3dfe057d	0.124033906
100	0x3d608da4	0.05482258
101	0xbba993ec	-0.0051751044
102	0xbc82575d	-0.015910799
103	0xbf2b1245	-0.6682475
104	0x3e96cd3c	0.29453456
105	0xbeeb62e4	-0.45973885
106	0xbecb9a13	-0.39765987
107	0x3de72931	0.112871535
108	0x3d8ee10c	0.06976518
109	0x3f18864e	0.5957993
110	0xbea08e13	-0.31358394
111	0xbde6fdb2	-0.11278857
112	0x3ec26fd5	0.37975946
113	0x3e8786d6	0.2647006
114	0xbe2c0589	-0.16798986
115	0xbf713e56	-0.9423574
116	0x3e773d17	0.24144398
117	0xbec7464a	-0.38920814
118	0xbf323ee5	-0.6962722
119	0x3f1d2485	0.6138385
120	0x3f7df184	0.9919665
121	0xbe6f26c7	-0.23354636
122	0xbea0ff07	-0.3144457
123	0x3e78d4c8	0.2429992
124	0x3f0e7e14	0.5566113
125	0x3f2e1cb8	0.6801257
126	0xbd4d4614	-0.05011566
127	0x3ea1148a	0.31460983
128	0x3e2476b4	0.16060907
129	0xbce4c7a4	-0.027927227
130	0x3dd5153f	0.10404443
131	0xbf3fff69	-0.749991
132	0x3e58e314	0.21180373
133	0xbef2d498	-0.4742782
134	0xbf2a2ffe	-0.6647948
135	0x3dfefdc1	0.124507435
136	0xbe829dd4	-0.25511038
137	0xbf57e1e0	-0.8432903
138	0xbede9194	-0.43470442
139	0x3c15c4f2	0.009141194
140	0x3d37c4b1	0.044865314
141	0x3f145db2	0.5795547
142	0xbe75c13a	-0.23999491
143	0xbe549bc4	-0.20762545
144	0x3e8f51f4	0.27992213
145	0xbe9dccc5	-0.3082029
146	0x3badbdf4	0.005302185
147	0x3e1fa4b7	0.15590177
148	0xbde73742	-0.112898365
149	0x3de8eea8	0.11373645
150	0xbf7ce011	-0.987794
151	0xbe67e6e7	-0.22646676
152	0xbda771f0	-0.08176029
153	0xbf1fc0c2	-0.624035
154	0x3da2551b	0.07926389
155	0x3e241980	0.16025352
156	0xbf3249cb	-0.6964385
157	0xbf023426	-0.5086082
158	0x3ec9467b	0.39311585
159	0x3f133afc	0.5751188
160	0xbf04119b	-0.51589364
161	0xbdefd155	-0.11709849
162	0xbea61cb9	-0.3244379
163	0xbedf4660	-0.4360838
164	0xbe08bbbf	-0.1335287
165	0xbd1cf8f7	-0.03832337
166	0x3e8d26b6	0.27568597
167	0xbde56c5e	-0.1120231
168	0x3ee0b86e	0.4389071
169	0xbe4e7b45	-0.20164211
170	0xbed614bf	-0.41812703
171	0xbf133110	-0.5749674
172	0xbd879150	-0.06619513
173	0xbf1e3858	-0.61804724
174	0x3e777b66	0.24168167
175	0xbe47f7e4	-0.19528157
176	0xbe31bc74	-0.17357045
177	0xbe9efe46	-0.3105337
178	0xbe22d6f0	-0.15902305
179	0xbd4ad6dc	-0.049521312
180	0x3e967f16	0.29393834
181	0x3f1e9e02	0.6195985
182	0xbf217b02	-0.6307832
183	0xbf521404	-0.8206179
184	0xbd88535e	-0.06656526
185	0x3f56b4e8	0.8386979
186	0x3e83f0bb	0.257696
187	0xbef51c2b	-0.47873053
188	0xbe2c6ee3	-0.16839175
189	0x3f4dd870	0.8040838
190	0x3eaafe2b	0.3339704
191	0x3be8e032	0.0071068043
192	0x3ddea74e	0.108717546
193	0xbf646a30	-0.8922453
194	0xbe8d1a5e	-0.2755918
195	0x3cc0edfe	0.023550984
196	0x3dacfbab	0.08446439
197	0xbf12c4e2	-0.5733167
198	0x3f7ad584	0.9798205
199	0xbd0b067d	-0.033941735
200	0x3eafc7db	0.34332165
201	0x3e21001c	0.15722698
202	0xbe0b2457	-0.13588081
203	0xbf5dffac	-0.8671825
204	0xbe3ea126	-0.18616161
205	0x3ed95f74	0.42455637
206	0xbdf87a3f	-0.121326916
207	0xbe8600da	-0.26172525
208	0xbe15cf86	-0.14629945
209	0xbd0aeb9c	-0.0339161
210	0x3ef8363f	0.48478886
211	0xbeaa170c	-0.33220708
212	0xbf339cde	-0.70161235
213	0xbccd4cd5	-0.02506105
214	0xbebdfe54	-0.371081
215	0xbc6fc4e4	-0.014634345
216	0xbeacaa07	-0.3372347
217	0x3e7841fe	0.24243924
218	0x3ecb51bf	0.39710805
219	0x3d9d1c4f	0.07671415
220	0xbf6354ed	-0.8880146
221	0xbda5d61c	-0.08097479
222	0x3d92b01f	0.07162499
223	0xbf087d92	-0.53316605
224	0xbdfb4ae7	-0.12270146
225	0x3f1e8dfe	0.6193541
226	0xbe8478d2	-0.2587343
227	0x3b2ec338	0.0026666652
228	0xbf4c8bb2	-0.7990066
229	0x3e1249b2	0.14285925
230	0xbe8cfcc1	-0.27536586
231	0x3dc772fb	0.09738728
232	0xbd8aeed7	-0.06783836
233	0x3ea54e56	0.32286328
234	0x3e466e91	0.19378115
235	0xbfbcb4eb	-1.4742712
236	0xbe6da96b	-0.23209159
237	0x3e954904	0.2915727
238	0xbe1b45e0	-0.15163374
239	0x3ea1f927	0.316354
240	0xbeb7e3a2	-0.35915858
241	0xbdc36424	-0.09540585
242	0xbd822cdc	-0.063562125
243	0x3dc35cd1	0.09539188
244	0xbe11af5a	-0.14227048
245	0xbdb76672	-0.08955087
246	0xbe7a2713	-0.24428968
247	0x3e9e3968	0.30903172
248	0xbd4181f0	-0.04724306
249	0x3e74e1f1	0.23914315
250	0x3d41ce43	0.047315847
251	0x3e04a0b3	0.12951927
252	0x3f787ab8	0.97062254
253	0xbc76e0e2	-0.015068265
254	0x3e4181ef	0.18897222
255	0xbe140298	-0.14454114

network_body._body_endoder.seq_layers.0.bias f4 [128]
0	0x00000000	0.0
1	0x00000000	0.0
2	0x00000000	0.0
3	0x00000000	0.0
4	0x00000000	0.0
5	0x00000000	0.0
6	0x00000000	0.0
7	0x00000000	0.0
8	0x00000000	0.0
9	0x00000000	0.0
10	0x00000000	0.0
11	0x00000000	0.0
12	0x00000000	0.0
13	0x00000000	0.0
14	0x00000000	0.0
15	0x00000000	0.0
16	0x00000000	0.0
17	0x00000000	0.0
18	0x00000000	0.0
19	0x00000000	0.0
20	0x00000000	0.0
21	0x00000000	0.0
22	0x00000000	0.0
23	0x00000000	0.0
24	0x00000000	0.0
25	0x00000000	0.0
26	0x00000000	0.0
27	0x00000000	0.0
28	0x00000000	0.0
29	0x00000000	0.0
30	0x00000000	0.0
31	0x00000000	0.0
32	0x00000000	0.0
33	0x00000000	0.0
34	0x00000000	0.0
35	0x00000000	0.0
36	0x00000000	0.0
37	0x00000000	0.0
38	0x00000000	0.0
39	0x00000000	0.0
40	0x00000000	0.0
41	0x00000000	0.0
42	0x00000000	0.0
43	0x00000000	0.0
44	0x00000000	0.0
45	0x00000000	0.0
46	0x00000000	0.0
47	0x00000000	0.0
48	0x00000000	0.0
49	0x00000000	0.0
50	0x00000000	0.0
51	0x00000000	0.0
52	0x00000000	0.0
53	0x00000000	0.0
54	0x00000000	0.0
55	0x00000000	0.0
56	0x00000000	0.0
57	0x00000000	0.0
58	0x00000000	0.0
59	0x00000000	0.0
60	0x00000000	0.0
61	0x00000000	0.0
62	0x00000000	0.0
63	0x00000000	0.0
64	0x00000000	0.0
65	0x00000000	0.0
66	0x00000000	0.0
67	0x00000000	0.0
68	0x00000000	0.0
69	0x00000000	0.0
70	0x00000000	0.0
71	0x00000000	0.0
72	0x00000000	0.0
73	0x00000000	0.0
74	0x00000000	0.0
75	0x00000000	0.0
76	0x00000000	0.0
77	0x00000000	0.0
78	0x00000000	0.0
79	0x00000000	0.0
80	0x00000000	0.0
81	0x00000000	0.0
82	0x00000000	0.0
83	0x00000000	0.0
84	0x00000000	0.0
85	0x00000000	0.0
86	0x00000000	0.0
87	0x00000000	0.0
88	0x00000000	0.0
89	0x00000000	0.0
90	0x00000000	0.0
91	0x00000000	0.0
92	0x00000000	0.0
93	0x00000000	0.0
94	0x00000000	0.0
95	0x00000000	0.0
96	0x00000000	0.0
97	0x00000000	0.0
98	0x00000000	0.0
99	0x00000000	0.0
100	0x00000000	0.0
101	0x00000000	0.0
102	0x00000000	0.0
103	0x00000000	0.0
104	0x00000000	0.0
105	0x00000000	0.0
106	0x00000000	0.0
107	0x00000000	0.0
108	0x00000000	0.0
109	0x00000000	0.0
110	0x00000000	0.0
111	0x00000000	0.0
112	0x00000000	0.0
113	0x00000000	0.0
114	0x00000000	0.0
115	0x00000000	0.0
116	0x00000000	0.0
117	0x00000000	0.0
118	0x00000000	0.0
119	0x00000000	0.0
120	0x00000000	0.0
121	0x00000000	0.0
122	0x00000000	0.0
123	0x00000000	0.0
124	0x00000000	0.0
125	0x00000000	0.0
126	0x00000000	0.0
127	0x00000000	0.0

network_body._body_endoder.seq_layers.2.weight f4 [128, 128]
0	0xbe047edc	-0.12939018
1	0x3e185532	0.1487625
2	0xbcbfe07e	-0.023422476
3	0x3d5be0e0	0.053681254
4	0xbd61cbfc	-0.055126175
5	0xbdb14796	-0.08656232
6	0x3d4c3a18	0.04986009
7	0x3dd81b55	0.10552088
8	0xbdf8dfd8	-0.1215207
9	0x3d1c31c4	0.038133398
10	0xbe033ab5	-0.12815364
11	0x3d0c8f67	0.034316447
12	0xbd090e8f	-0.03346115
13	0x3cb92fe3	0.022605842
14	0x3bd1eb6a	0.0064062374
15	0xbc0218fd	-0.007940528
16	0xbb59f355	-0.003325661
17	0x3d8eba53	0.06969132
18	0x3b855691	0.0040691574
19	0x3dff7406	0.124733016
20	0xbe70f1bb	-0.23529713
21	0xb9ae9bc9	-0.00033303935
22	0xbd0a407f	-0.033752915
23	0xbdf7f398	-0.12107009
24	0x3e6787f1	0.22610451
25	0xbe47f48e	-0.19526884
26	0xb9835458	-0.00025049108
27	0x3d93ae7c	0.07211015
28	0x3d97d87d	0.07414339
29	0x3cb86ac7	0.022511853
30	0xbd62a7e8	-0.05533591
31	0x3b14151b	0.0022595588
32	0x3e4182b8	0.18897521
33	0x3c10729b	0.008816387
34	0x3d83d0f1	0.06436337
35	0xbaa7bb65	-0.0012796937
36	0x3e5017c1	0.20321561
37	0x3d9b097d	0.07570169
38	0xbd8fe561	-0.070261724
39	0x3e245434	0.16047746
40	0x3de77f37	0.11303561
41	0x3d48a849	0.048988614
42	0xbd35ed09	-0.044415507
43	0x3d9f6a8a	0.077839926
44	0x3e4cc427	0.19996701
45	0xbcb70fdf	-0.022346435
46	0x3dbbf465	0.09177474
47	0xbdd9e573	-0.10639467
48	0x3d5fc305	0.054629344
49	0x3d0bcb88	0.03412965
50	0xbdd8b9a0	-0.1058228
51	0xbd72c4bc	-0.05926965
52	0xbd83a78d	-0.06428442
53	0xbd306357	-0.043063488
54	0x3cb27e3a	0.021788705
55	0xbe44b57e	-0.19209859
56	0x3c93867b	0.018008461
57	0xbd80c984	-0.06288436
58	0x3ca78a34	0.020451643
59	0x3d48854d	0.04895525
60	0x3dcd6afa	0.1003017
61	0xbbc25134	-0.0059300903
62	0x3cb64c1c	0.022253089
63	0x3d012d93	0.031537604
64	0x3d152409	0.03641132
65	0xbdcba4ec	-0.09943566
66	0xbc1298e6	-0.008947587
67	0x3c4b6ab9	0.012415581
68	0xbd4704ca	-0.04858855
69	0x3e1763ec	0.14784211
70	0x3d72abe9	0.059245978
71	0x3df70951	0.12062324
72	0x3d076d5d	0.03306328
73	0x3d270989	0.040780578
74	0xbd8a4817	-0.06752031
75	0x3dd2ed44	0.10299161
76	0x3ce4fe61	0.027953329
77	0xbd87c44d	-0.06629238
78	0xbe00d7fb	-0.1258239
79	0xbd5bc453	-0.053654026
80	0xbb5ed415	-0.0034000922
81	0x3ca1afbf	0.019737123
82	0xbdcd9200	-0.10037613
83	0xbe37e9bd	-0.17960258
84	0xbd550ebb	-0.052016
85	0xbde8fd31	-0.113764174
86	0xbc8bbed5	-0.01705877
87	0xbbcf1826	-0.0063200174
88	0x3d224ed4	0.039625958
89	0xbbab5285	-0.005228343
90	0xbd8332df	-0.06406187
91	0xbdfaa3f6	-0.12238304
92	0x3d0ae93f	0.033913847
93	0x3e0167d7	0.12637268
94	0x3c8e9a15	0.017407456
95	0xbe0db67a	-0.1383914
96	0x3c73fbe9	0.014891603
97	0xbc8d9978	-0.017285094
98	0xbde655c1	-0.11246825
99	0x3df19575	0.11796085
100	0xbc54f226	-0.012997186
101	0x3de25ad3	0.110524796
102	0x3c9e33ea	0.019311864
103	0x3e0d6a19	0.13810004
104	0xbd4964a8	-0.04916826
105	0x3df8e941	0.12153865
106	0x3d71e743	0.05905844
107	0xbc991b60	-0.018689811
108	0x3d09a92e	0.033608608
109	0xbe02cc17	-0.12773167
110	0x3e3fb780	0.18722343
111	0x3caa3a92	0.020779882
112	0x3da2012c	0.0791038
113	0xbdad48a9	-0.084611244
114	0x3db7f04b	0.08981379
115	0xbd57fbd2	-0.05273039
116	0x3e49e062	0.19714502
117	0xbe1beee1	-0.15227844
118	0x3ce39b81	0.027784111
119	0xbd1dbcc7	-0.03851011
120	0xbe19aa28	-0.15006316
121	0x3db4a460	0.088204145
122	0x3dda52fc	0.10660359
123	0xbd323f85	-0.04351761
124	0xbdbf82bc	-0.093511075
125	0x3cc39753	0.023875868
126	0xbd69d1b8	-0.05708477
127	0xbdf7a761	-0.12092472
128	0x3cd522ab	0.026017508
129	0xbe2b9c1e	-0.16758773
130	0x3d0ac3bb	0.03387807
131	0xbd606b6b	-0.05478994
132	0xbde2c6f5	-0.11073104
133	0xbe0c3efc	-0.13695902
134	0x3cc011e1	0.023446025
135	0x3dbcb73b	0.09214636
136	0x3c0b6df7	0.008510104
137	0x3cdfc2f9	0.02731465
138	0xbd500e6a	-0.050794996
139	0xbe0fc4e0	-0.14039946
140	0xbd760508	-0.060063392
141	0xbc97fafc	-0.018552296
142	0x3deead8a	0.11654194
143	0x3c512e22	0.012767347
144	0xbdc8ab64	-0.09798315
145	0xbcd3872c	-0.02582129
146	0x3d12b5f2	0.035818048
147	0xbd12fcd4	-0.035885647
148	0xbc2213d4	-0.009892423
149	0xbc794449	-0.015214034
150	0x3d9ec5f2	0.07752599
151	0x3de36006	0.111022994
152	0x3d806ccd	0.06270752
153	0xbda8d62b	-0.08243974
154	0x3d88c64b	0.066784464
155	0x3da13dab	0.0787309
156	0x3ce0cea6	0.027442288
157	0x3cb10a64	0.0216114
158	0x3dea9740	0.1145463
159	0x3e1405fd	0.1445541
160	0x3a91bfa0	0.0011119731
161	0xbd899e5a	-0.06719656
162	0x3d45405b	0.048157077
163	0xbd156c11	-0.036480013
164	0x3c128c4a	0.00894458
165	0x3b618623	0.0034412227
166	0x3e0b4661	0.13601066
167	0x3e3ec36f	0.1862924
168	0x3db049d1	0.08607829
169	0x3d278c06	0.04090502
170	0xbdb22a50	-0.08699477
171	0xbc4e79a8	-0.012602247
172	0xbdce46d7	-0.100721054
173	0x3e21f735	0.15816958
174	0xbc803211	-0.015648874
175	0x3c20124f	0.00976999
176	0x3bddb4b6	0.006765927
177	0xbdad4bdb	-0.08461734
178	0xbd1808e1	-0.037117843
179	0x3debe722	0.115186945
180	0xbde196d7	-0.110150985
181	0x3dcab96b	0.09898647
182	0x3c96717e	0.018364664
183	0xbe693101	-0.227726
184	0xbd9d991e	-0.076952204
185	0x3dcc9a4a	0.09990366
186	0x3e2479e6	0.16062126
187	0x3d027be2	0.031856425
188	0x3d4328db	0.047646385
189	0x3e624afa	0.22098914
190	0x3e1df874	0.15426809
191	0x3d2208a3	0.039559018
192	0x3e095902	0.1341286
193	0x3d9901b9	0.07471032
194	0x3d9f57a2	0.077803865
195	0xbb37dafa	-0.0028054104
196	0xbd7182d5	-0.05896266
197	0x3d338240	0.043825388
198	0xbd92f9f7	-0.07176583
199	0x3dfb97cf	0.122848146
200	0x3ddb0ae9	0.1069544
201	0xbc27777c	-0.010221358
202	0xbdb8dcd8	-0.090264976
203	0x3e051573	0.12996463
204	0xbd0cea7f	-0.03440332
205	0xbd9a0d42	-0.0752206
206	0xbc1e63ac	-0.009667318
207	0x3d91be1e	0.0711634
208	0x3a894297	0.0010472116
209	0x3d915fd6	0.070983574
210	0xbd3967a7	-0.045264866
211	0x3c126910	0.008936182
212	0x3cea682a	0.028614122
213	0x3de0f729	0.10984642
214	0xbccf74cc	-0.025324248
215	0x3cd06552	0.025438938
216	0xbd4497fe	-0.047996514
217	0x3d854cc3	0.06508782
218	0x3d2b72cb	0.041857522
219	0xbde01fa5	-0.10943536
220	0x3d23ba56	0.039972626
221	0x3e133a0b	0.1437761
222	0xbd27319b	-0.04081879
223	0x3dcce7ee	0.100051746
224	0xbcbc7485	-0.02300478
225	0xbe0cae90	-0.13738465
226	0xbd1e39a4	-0.03862919
227	0x3b57f8ec	0.0032954765
228	0x3db84e8d	0.08999357
229	0xbdef959a	-0.11698456
230	0xbd604156	-0.05474981
231	0xbcde32d4	-0.027123846
232	0x3c8732e8	0.016503766
233	0xbdfe99e7	-0.12431698
234	0xbe6a4c74	-0.22880727
235	0xbe011d0a	-0.12608734
236	0x3d0603a2	0.03271831
237	0x3e232f26	0.15935954
238	0xbcb46b0f	-0.022023706
239	0x3cb9d5b4	0.02268491
240	0x3bc54666	0.006020355
241	0x3c873242	0.016503457
242	0xbd8f3d20	-0.069940805
243	0xbd8defe5	-0.06930522
244	0xbd3163e6	-0.04330816
245	0xbd0b025e	-0.033937804
246	0xbd54fd91	-0.051999632
247	0xbd920ed3	-0.07131734
248	0xbc825fba	-0.015914787
249	0xbd03552c	-0.032063648
250	0x3d90c305	0.07068447
251	0xbd7c41d0	-0.0615862
252	0x3cf8651e	0.030321654
253	0xbdaccff7	-0.08438104
254	0xbd448fd3	-0.047988724
255	0xbc70f7f6	-0.014707556

network_body._body_endoder.seq_layers.2.bias f4 [128]
0	0x00000000	0.0
1	0x00000000	0.0
2	0x00000000	0.0
3	0x00000000	0.0
4	0x00000000	0.0
5	0x00000000	0.0
6	0x00000000	0.0
7	0x00000000	0.0
8	0x00000000	0.0
9	0x00000000	0.0
10	0x00000000	0.0
11	0x00000000	0.0
12	0x00000000	0.0
13	0x00000000	0.0
14	0x00000000	0.0
15	0x00000000	0.0
16	0x00000000	0.0
17	0x00000000	0.0
18	0x00000000	0.0
19	0x00000000	0.0
20	0x00000000	0.0
21	0x00000000	0.0
22	0x00000000	0.0
23	0x00000000	0.0
24	0x00000000	0.0
25	0x00000000	0.0
26	0x00000000	0.0
27	0x00000000	0.0
28	0x00000000	0.0
29	0x00000000	0.0
30	0x00000000	0.0
31	0x00000000	0.0
32	0x00000000	0.0
33	0x00000000	0.0
34	0x00000000	0.0
35	0x00000000	0.0
36	0x00000000	0.0
37	0x00000000	0.0
38	0x00000000	0.0
39	0x00000000	0.0
40	0x00000000	0.0
41	0x00000000	0.0
42	0x00000000	0.0
43	0x00000000	0.0
44	0x00000000	0.0
45	0x00000000	0.0
46	0x00000000	0.0
47	0x00000000	0.0
48	0x00000000	0.0
49	0x00000000	0.0
50	0x00000000	0.0
51	0x00000000	0.0
52	0x00000000	0.0
53	0x00000000	0.0
54	0x00000000	0.0
55	0x00000000	0.0
56	0x00000000	0.0
57	0x00000000	0.0
58	0x00000000	0.0
59	0x00000000	0.0
60	0x00000000	0.0
61	0x00000000	0.0
62	0x00000000	0.0
63	0x00000000	0.0
64	0x00000000	0.0
65	0x00000000	0.0
66	0x00000000	0.0
67	0x00000000	0.0
68	0x00000000	0.0
69	0x00000000	0.0
70	0x00000000	0.0
71	0x00000000	0.0
72	0x00000000	0.0
73	0x00000000	0.0
74	0x00000000	0.0
75	0x00000000	0.0
76	0x00000000	0.0
77	0x00000000	0.0
78	0x00000000	0.0
79	0x00000000	0.0
80	0x00000000	0.0
81	0x00000000	0.0
82	0x00000000	0.0
83	0x00000000	0.0
84	0x00000000	0.0
85	0x00000000	0.0
86	0x00000000	0.0
87	0x00000000	0.0
88	0x00000000	0.0
89	0x00000000	0.0
90	0x00000000	0.0
91	0x00000000	0.0
92	0x00000000	0.0
93	0x00000000	0.0
94	0x00000000	0.0
95	0x00000000	0.0
96	0x00000000	0.0
97	0x00000000	0.0
98	0x00000000	0.0
99	0x00000000	0.0
100	0x00000000	0.0
101	0x00000000	0.0
102	0x00000000	0.0
103	0x00000000	0.0
104	0x00000000	0.0
105	0x00000000	0.0
106	0x00000000	0.0
107	0x00000000	0.0
108	0x00000000	0.0
109	0x00000000	0.0
110	0x00000000	0.0
111	0x00000000	0.0
112	0x00000000	0.0
113	0x00000000	0.0
114	0x00000000	0.0
115	0x00000000	0.0
116	0x00000000	0.0
117	0x00000000	0.0
118	0x00000000	0.0
119	0x00000000	0.0
120	0x00000000	0.0
121	0x00000000	0.0
122	0x00000000	0.0
123	0x00000000	0.0
124	0x00000000	0.0
125	0x00000000	0.0
126	0x00000000	0.0
127	0x00000000	0.0

value_heads.value_heads.extrinsic.weight f4 [1, 128]
0	0x3e4643e7	0.1936184
1	0x3bb73310	0.005590804
2	0xbe24a0e6	-0.16077003
3	0xbdd11ace	-0.10210191
4	0x3dea279b	0.114333354
5	0xbe0d42c7	-0.13795005
6	0xbe48d9ae	-0.19614288
7	0x3c432be2	0.011912318
8	0x3dbee2f5	0.09320632
9	0xbdd05713	-0.10172858
10	0x3e341e17	0.17589603
11	0xbd57aa27	-0.052652504
12	0x3e4df8c0	0.20114422
13	0x3e4424fa	0.1915473
14	0xbe33f517	-0.17573963
15	0x3d939f9a	0.07208176
16	0x3e1283b7	0.14308058
17	0x3c29f122	0.010372432
18	0xbe1dffcf	-0.15429614
19	0xbe34622e	-0.17615578
20	0xbd89fa24	-0.06737164
21	0xbe4b831e	-0.19874236
22	0x3d44e8fe	0.04807376
23	0xbd779fc6	-0.060455106
24	0x3e0309af	0.12796663
25	0xbe2bd539	-0.16780557
26	0xbd500854	-0.050789192
27	0x3d550afd	0.052012432
28	0x3e07b4a6	0.13252506
29	0x3da6eaf9	0.08150286
30	0x3e3868af	0.18008684
31	0xbc820938	-0.015873536
32	0xbe0379c9	-0.12839426
33	0xbdfc32bc	-0.12314364
34	0xbc96a481	-0.018388988
35	0x3e09dd3b	0.13463299
36	0xbdfea965	-0.12434653
37	0x3e4fab5b	0.2028021
38	0x3e19d124	0.15021187
39	0xbc807d26	-0.015684675
40	0xbded9ee1	-0.11602569
41	0xbd448745	-0.047980566
42	0xbe252281	-0.16126443
43	0xbd36c780	-0.04462385
44	0xbe564d6d	-0.20927973
45	0x3d97916d	0.07400785
46	0x3e59a34f	0.21253704
47	0x3e31bee9	0.17357983
48	0x3e022327	0.12708722
49	0xbe323911	-0.17404582
50	0x3d9154ca	0.0709625
51	0xbd1d0dae	-0.038343124
52	0xbdf83d4e	-0.12121068
53	0x3e486003	0.19567876
54	0xbbd76b31	-0.0065740575
55	0x3e553e77	0.2082461
56	0x3de22ca9	0.110436745
57	0x3e572a96	0.21012339
58	0xbe14797e	-0.1449947
59	0xbd89021f	-0.06689858
60	0xbd1817bc	-0.03713201
61	0xbd325438	-0.04353735
62	0x3e3d1e0a	0.1846849
63	0x3d80cdc4	0.06289247
64	0xbd10bd67	-0.03533688
65	0x3db4ef5a	0.08834715
66	0x3e08f9af	0.13376497
67	0xbd16c0e4	-0.03680505
68	0xbdf14eeb	-0.117826305
69	0x3b126d43	0.0022342957
70	0xbe594bfc	-0.21220392
71	0x3dad7d01	0.08471108
72	0x3d04ee91	0.032454077
73	0xbd7b78ef	-0.061394628
74	0x3ce9ee7f	0.028556107
75	0xbd4c8b87	-0.04993775
76	0xbd8c0491	-0.068368085
77	0xbdbec9f4	-0.09315863
78	0x3c54003c	0.012939509
79	0x3cb3d75d	0.02195328
80	0xbe59d4a6	-0.21272525
81	0x3e44de66	0.19225463
82	0xbe268be5	-0.16264303
83	0xbda3e801	-0.080032356
84	0xbdc1bb52	-0.09459557
85	0xbe1270ea	-0.14300886
86	0xbde69cd1	-0.11260379
87	0x3d31c741	0.043402914
88	0x3de1a860	0.11018443
89	0x3d9fd1a8	0.07803661
90	0xbca291e6	-0.01984496
91	0x3d71b577	0.05901095
92	0x3da049dd	0.07826588
93	0x3e22a36c	0.15882653
94	0x3e352d00	0.17692947
95	0x3e02fb01	0.12791063
96	0xbe416db4	-0.18889505
97	0x3e392056	0.18078741
98	0xbd2d16a5	-0.042257924
99	0x3d5211b7	0.051286425
100	0xbe5bef18	-0.21477926
101	0x3dd06c10	0.10176861
102	0x3e32b23c	0.17450804
103	0xbcbba856	-0.022907417
104	0x3dff241b	0.124580584
105	0xbd933f57	-0.071898155
106	0x3e25b238	0.16181266
107	0xbe475c4a	-0.19468799
108	0x3e4da421	0.20082141
109	0xbe30d4ad	-0.1726863
110	0x3c995711	0.018718274
111	0xbc2c027c	-0.010498639
112	0x3c084ae9	0.008318641
113	0x3e2bc0d0	0.16772771
114	0xbe35cd1a	-0.17754021
115	0xbe11954f	-0.14217113
116	0x3e3ac4ae	0.1823909
117	0x3e0ed244	0.13947397
118	0x3e5157f5	0.20443709
119	0x3ddcaf32	0.10775603
120	0x3e274457	0.16334663
121	0xbd045a3e	-0.032312624
122	0x3e3cdc0f	0.1844332
123	0xbcea2996	-0.028584283
124	0xbe40da21	-0.1883321
125	0x3de1a0f6	0.11017029
126	0x3db3c928	0.08778602
127	0xbe02007b	-0.12695496
