results/1/MoveThePlayer/MoveThePlayer-51682.onnx (onnx, 72119 bytes, 5 tensors)

action_model._continuous_distribution.mu.weight f4 [1, 128]
0.015474603 0.031902164 0.012213933 0.013927211 0.017084826 0.006238321 -0.016106045 -0.01077354
-0.009447309 -0.018832335 0.017407598 0.011366583 -0.012008791 -0.0031063294 -0.014635145 -0.008095342
-0.02780817 0.0038259674 -0.004636597 -0.010057089 0.024107173 0.013184505 -0.0011826584 -0.0049652476
0.010088734 -0.013854148 0.008989777 0.036680594 0.0005982736 -0.013828839 0.0049986546 -0.009706258
0.0036698868 0.00044248186 -0.014285425 0.026224075 0.015354735 0.012625308 0.028497528 0.005011211
0.030750439 -0.011815987 0.0009456049 -0.0065098475 -0.002794266 0.0072007654 0.027528338 0.027693365
0.018065087 -0.0130521245 -0.040921155 -0.04153608 0.020729896 0.008922689 0.015052186 -6.3018e-05
0.021098884 -0.02436823 0.017175041 0.020724552 0.0021488597 0.004738667 -0.00020131622 -0.0147415735
0.0052384348 0.018909698 -0.015096329 0.0047044577 -0.015763232 0.0011050074 0.02088585 -0.0043476103
-0.01849231 -0.03580524 -0.0021521498 -0.03047038 -0.030737594 0.0149627905 -0.014504692 0.02099512
-0.013046057 -0.027349023 -0.004747477 -0.014747978 -0.0039278273 0.013816859 0.002779303 0.0024437765
0.016520921 -0.0037353092 -0.0014366471 0.021968419 -0.062193956 0.010741753 -0.008190525 0.015320273
0.021612983 -0.016992753 -0.0066245166 0.022298722 -0.010990413 0.040228717 0.014619192 -0.016609728
0.006623826 -0.019925969 0.0058462876 -0.024770608 -0.020274632 -0.00048300734 -0.013405269 0.0037020415
-0.001395713 -0.0075707017 0.030269258 0.005665173 0.02577429 -0.043920286 -0.04179576 0.01366781
0.007779143 0.0078091794 -0.0068151187 0.0032698845 -0.029086659 0.03349238 -0.0061655706 0.0018568985
00000000: 3089 7d3c d8ab 023d f31c 483c f52e 643c
00000010: 7af5 8b3c d46a cc3b d3f0 83bc 8083 30bc
00000020: e3c8 1abc 4546 9abc 619a 8e3c e83a 3a3c
00000030: 85c0 44bc 8f93 4bbb 3fc8 6fbc 53a2 04bc
00000040: f6cd e3bc 15bd 7a3b 98ee 97bb 7dc6 24bc
00000050: 687c c53c d203 583c 6e03 9bba 84b3 a2bb
00000060: 384b 253c 82fc 62bc dc49 133c 643e 163d
00000070: 76d5 1c3a 5b92 62bc c1cb a33b ff06 1fbc
00000080: 7c82 703b e9fc e739 6a0d 6abc dfd3 d63c
00000090: 6d92 7b3c 61da 4e3c a673 e93c 1635 a43b
000000a0: 58e8 fb3c d797 41bc 78e2 773a 8f50 d5bb
000000b0: 0120 37bb 66f4 eb3b 1c83 e13c 32dd e23c
000000c0: 3cfd 933c 94d8 55bc f19c 27bd bd21 2abd
000000d0: bed1 a93c 7830 123c 729d 763c 8828 84b8
000000e0: 91d7 ac3c e29f c7bc acb2 8c3c 89c6 a93c
000000f0: e2d3 0c3b d246 9b3b 6918 53b9 a486 71bc
00000100: 2da7 ab3b 83e8 9a3c 9856 77bc da27 9a3b
00000110: e521 81bc e5d5 903a cd18 ab3c 6676 8ebb
00000120: 2f7d 97bc 84a8 12bd 150b 0dbb 059d f9bc
00000130: 68cd fbbc 7e26 753c 16a5 6dbc f5fd ab3c
00000140: 21bf 55bc 0f0b e0bc b990 9bbb 81a1 71bc
00000150: 01b5 80bb 1b60 623c f724 363b c427 203b
00000160: e256 873c 17cc 74bb e14d bcba 1df7 b33c
00000170: 17bf 7ebd 2dfe 2f3c 8d31 06bc e201 7b3c
00000180: b60d b13c 6334 8bbc 7912 d9bb cfab b63c
00000190: 2211 34bc dec6 243d 5685 6f3c 2011 88bc
000001a0: ae0c d93b c93b a3bc 3792 bf3b bbeb cabc
000001b0: fc16 a6bc 263c fdb9 c6a1 5bbc f39d 723b
000001c0: 5bf0 b6ba a613 f8bb 3cf7 f73c eaa2 b93b
000001d0: 9b24 d33c c2e5 33bd 0832 2bbd f3ee 5f3c
000001e0: 2ee8 fe3b 25e4 ff3b 5c51 dfbb 8f4b 563b
000001f0: 2547 eebc 4e2f 093d 8e08 cabb 2d63 f33a

network_body._body_endoder.seq_layers.0.bias f4 [128]
-0.0006380017 0.0008939992 0.0016610549 -0.004280584 -0.0026032461 0.00024052017 0.001404453 0.0031937056
0.003599196 0.0033486115 -0.0005022139 -0.00093836477 -0.0018562682 -8.114737e-05 -0.004002661 0.00042272377
-0.00040290895 0.00036022364 2.0388736e-05 0.0001453861 -0.0012488143 0.0027250578 -0.0017320007 0.0028958553
-0.0042840787 -0.0008334674 0.00029551913 -0.0026427694 0.0018205843 -0.0024799113 0.004782995 0.0053698905
-0.008263863 -0.0051347176 0.0026341917 0.0017174818 -0.00026027614 -0.0023330764 -0.0015234561 0.0010543893
-0.002140208 0.00033488582 -0.0015994856 -0.001893546 2.1857835e-05 0.004033626 -0.001240243 0.0040691006
0.0020896473 -0.0015185827 0.0034682332 -0.0009612946 -0.0010874065 0.0042007426 0.00050614146 -0.0007800872
-0.004173241 -0.0007101202 0.0011521757 -0.0007577553 -0.0024782466 -0.005583422 0.0022915269 -0.0078014266
-0.00063991133 0.0019029243 0.00048034714 -0.0010228661 -0.0005006704 -0.0055671697 -0.000829365 -0.0017899949
-0.0018296742 -0.00032828483 -0.0020404928 0.005833992 -0.004772111 0.00046800115 -0.00016153205 -0.0024830517
-0.000795215 -0.00648408 2.5636725e-06 -0.003344205 -0.003706073 -0.00255088 0.009693744 -0.0020551865
-0.000927335 0.0015036641 -0.0018434647 -0.0018076345 0.00029004904 0.0026147894 -0.005136516 0.0002235571
0.0034698916 -0.0062425607 0.0024811362 -0.0022241645 -0.0011175029 -0.002698215 -0.0010316408 0.0010024164
0.003939575 0.0012276971 -0.00070577674 0.0033280943 0.0019671419 0.0018262509 -0.0005871921 -0.000814176
-0.0028661927 0.00057024753 -0.0020275512 -0.00036167284 -0.000991999 0.0002557385 0.0023347465 -0.0028309836
1.3699158e-05 -0.009450351 0.00033655556 0.001455137 0.0031827956 0.001176828 -8.0019796e-05 0.0003568211
00000000: 923f 27ba 455b 6a3a c1b7 d93a 2444 8cbb
00000010: 399b 2abb 2434 7c39 9f15 b83a 7d4d 513b
00000020: 7de0 6b3b 6174 5b3b 01a7 03ba 98fc 75ba
00000030: 064e f3ba aa2d aab8 c128 83bb 06a1 dd39
00000040: 863d d3b9 66dc bc39 7a08 ab37 c972 1839
00000050: 41af a3ba e296 323b 4d04 e3ba 64c8 3d3b
00000060: 7561 8cbb 0d7d 5aba e8ef 9a39 5032 2dbb
00000070: aca0 ee3a 0286 22bb acba 9c3b e8f5 af3b
00000080: 2765 07bc 2241 a8bb 67a2 2c3b 201d e13a
00000090: ac75 88b9 87e6 18bb b4ae c7ba 6f33 8a3a
000000a0: bb42 0cbb 9d93 af39 d5a5 d1ba dc30 f8ba
000000b0: 585b b737 822c 843b a68f a2ba 1756 853b
000000c0: 77f2 083b 2e0b c7ba 4c4b 633b 63ff 7bba
000000d0: 4f87 8eba 62a6 893b 94ae 043a c47e 4cba
000000e0: afbf 88bb 5c27 3aba 9a04 973a 19a4 46ba
000000f0: 146a 22bb 23f5 b6bb 712d 163b 1ca3 ffbb
00000100: b9bf 27ba 8b6b f93a 1ad7 fb39 b111 86ba
00000110: 6c3f 03ba ce6c b6bb be69 59ba 439e eaba
00000120: aed1 efba a51d acb9 cab9 05bb 122b bf3b
00000130: 5e5f 9cbb 0d5e f539 ee60 29b9 b2ba 22bb
00000140: fa75 50ba 6878 d4bb 8f0b 2c36 732a 5bbb
00000150: 96e1 72bb aa2c 27bb 82d2 1e3c 4fb0 06bb
00000160: 6618 73ba 9816 c53a 69a0 f1ba 26ee ecba
00000170: b911 9839 e35c 2b3b 3850 a8bb a76a 6a39
00000180: 1f67 633b 658e ccbb 8f9a 223b 4ac3 11bb
00000190: 2d79 92ba 89d4 30bb 1f38 87ba 8363 833a
000001a0: 8d17 813b aeea a03a e003 39ba 281c 5a3b
000001b0: 2aeb 003b d05e ef3a cbed 19ba 6d6e 55ba
000001c0: bcd6 3bbb aa7c 153a aae0 04bb e89e bdb9
000001d0: f705 82ba a414 8639 8c02 193b 0688 39bb
000001e0: 70d5 6537 a5d5 1abc b973 b039 4cba be3a
000001f0: 7396 503b cc3f 9a3a 4dd0 a7b8 b813 bb39

network_body._body_endoder.seq_layers.0.weight f4 [128, 6]
0.69276994 0.11806594 0.6865056 0.5298678 0.101518035 -0.5555584 -0.35933083 -0.36038178
-0.41981125 -0.26349005 -0.19889924 -0.24295072 -0.6031873 0.15268648 -0.20246589 0.7565516
0.25514182 0.2331411 0.20990442 0.1616621 -0.5381209 0.9377564 -0.1917216 -0.73190445
0.52923316 0.037232384 0.35776064 0.4130342 0.6229851 -0.16132645 0.26435 -0.071109116
0.1478282 0.2998913 0.14982232 -0.3437312 -0.097473264 0.24158481 0.58919835 -0.025839528
0.32039976 0.31389284 0.291257 -0.022631442 0.14991398 -0.68507105 -0.3288083 -0.023893723
-0.3604631 0.7197635 -0.12656045 -0.09210324 0.18825363 0.3595257 0.21380451 -0.22574587
-0.44876269 -0.44294375 0.6671919 0.16509779 -0.21205796 0.19238107 0.22769846 0.42416704
-0.0008953883 -0.1222773 -1.1046848 0.21159665 0.3808772 -0.58590627 0.26937795 -0.5706052
0.47391933 0.118864425 0.0046784636 0.3851324 -0.3568742 0.69108814 0.14240007 0.13282074
0.6244977 -0.4491028 0.16120577 -0.25209308 0.18837225 0.7862934 -0.19849487 0.3302201
0.10585035 -0.92714393 -0.13361824 0.48936945 -0.51122963 -0.015124958 0.7421104 -0.4133454
-0.6507763 0.10571077 0.33390015 -0.9771695 0.075646974 -0.39439327 0.34373933 -0.24757858
0.16868351 -0.4157015 0.07009552 -0.93929255 -0.4460079 -0.11189009 -0.18376197 0.12854429
0.037896223 0.23921004 -0.4509115 -0.14418586 -0.052833974 -0.041646115 0.39057258 -0.11381934
1.0509964 0.2399097 -0.106507756 0.027913898 0.654619 -0.107198656 -0.4332738 -0.1890923
0.019634666 -0.684215 0.03880272 0.453947 -0.06329953 -0.6480767 -0.09399185 -1.0899758
0.5054045 -0.7397483 0.48544878 0.5476453 -0.76668996 0.4377998 -1.1313821 -0.35319588
0.1538759 -0.13143414 -0.12463278 0.22227195 -0.6897547 0.5051758 -0.33627507 0.6063853
-0.22511408 0.2536893 -0.27498618 0.08124875 0.059550732 -0.30706125 0.72209007 0.0963543
0.055906266 -0.6895564 -0.6279991 0.025843617 -0.2726519 0.06686296 -0.9203767 -0.27824512
-0.4450372 1.5121222 0.27655035 0.10046445 0.11356075 0.10541077 0.57222617 -0.045538988
0.09564543 0.45325756 0.42474124 0.15135014 0.45845053 0.13010429 -0.04748185 0.19391616
0.19478114 0.34221458 -0.272625 -0.27785763 -0.36372432 -0.32771626 -0.09307443 0.39583534
-0.23423125 -0.29595307 -0.08374025 0.5656 -0.39356774 -0.16586077 -0.5837256 0.6549748
-0.013550998 -0.65356934 -0.15481387 -0.012869193 0.82966834 0.08293447 0.18048228 -0.4355853
0.65904635 -0.27888188 -0.34351808 -0.5937117 -0.16608791 0.59932256 0.46963304 -0.08782785
0.29875952 -0.06667598 -0.5293288 0.17146665 0.2623176 0.30884817 0.12967527 0.3511346
-0.011989176 0.4413954 0.5384492 0.20247255 -0.13089135 -0.39579618 -0.026117232 -0.07525791
0.54792696 -0.0787876 -0.80526406 0.22272201 -0.17044683 -0.031358935 0.9427896 0.23565398
0.37483764 0.41721636 0.07010313 0.092254885 -0.778361 0.24734063 0.37043864 0.5698368
-0.31193143 0.4549338 0.3372849 -0.2112722 0.09600903 0.563857 -0.670482 -0.60034925
00000000: 5f59 313f 8ecc f13d d5be 2f3f 6ba5 073f
00000010: b0e8 cf3d 1339 0ebf 36fa b7be f683 b8be
00000020: 80f1 d6be 2be8 86be 3eac 4bbe 13c8 78be
00000030: 7c6a 1abf d859 1c3e 3853 4fbe 5ead 413f
00000040: f3a1 823e 8abc 6e3e 2ff1 563e c08a 253e
00000050: 4bc2 09bf ce10 703f ab52 44be 175e 3bbf
00000060: d37b 073f fc80 183d 672c b73e 3879 d33e
00000070: f47b 1f3f c332 25be e258 873e a8a1 91bd
00000080: 4760 173e 5a8b 993e 066b 193e 89fd afbe
00000090: 10a0 c7bd 0262 773e b4d5 163f 6bad d3bc
000000a0: 700b a43e 90b6 a03e a31f 953e 9365 b9bc
000000b0: 0d83 193e d160 2fbf 9059 a8be c5bc c3bc
000000c0: 9f8e b8be 6c42 383f 1099 01be a0a0 bcbd
000000d0: 8fc5 403e c113 b83e 92ef 5a3e ed29 67be
000000e0: 39c4 e5be 86c9 e2be 17cd 2a3f 650f 293e
000000f0: b925 59be 8bff 443e c929 693e 6c2c d93e
00000100: 7eb8 6aba 856c fabd 5066 8dbf cbac 583e
00000110: 5602 c33e f4fd 15bf e8eb 893e 2f13 12bf
00000120: 8ea5 f23e 316f f33d cc4d 993b 1330 c53e
00000130: 37b8 b6be 27eb 303f 53d1 113e 2902 083e
00000140: 15df 1f3f cdf0 e5be 2013 253e 5812 81be
00000150: a8e4 403e 864a 493f 3d42 4bbe 9c12 a93e
00000160: 11c8 d83d 4e59 6dbf 38d3 08be a28e fa3e
00000170: f2df 02bf acce 77bc f2fa 3d3f 02a2 d3be
00000180: 4799 26bf e37e d83d f6f4 aa3e c827 7abf
00000190: cdec 9a3d eaed c9be 9afe af3e 3d85 7dbe
000001a0: 5fbb 2c3e d4d6 d4be 3d8e 8f3d 7a75 70bf
000001b0: 265b e4be a226 e5bd 192c 3cbe 1da1 033e
000001c0: 1239 1b3d 7af3 743e dfdd e6be 75a5 13be
000001d0: 7068 58bd 1e95 2abd 21f9 c73e 1d1a e9bd
000001e0: 0d87 863f e3aa 753e bd20 dabd b0ab e43c
000001f0: 1c95 273f f88a dbbd 10d6 ddbe 69a1 41be
00000200: e1d8 a03c b728 2fbf 9aef 1e3d be6b e83e
00000210: 2fa3 81bd 5be8 25bf cd7e c0bd 5484 8bbf
00000220: 3062 013f 2560 3dbf be8c f83e 7b32 0c3f
00000230: cb45 44bf 4c27 e03e 21d1 90bf 17d6 b4be
00000240: a591 1d3e ac96 06be 793f ffbd 429b 633e
00000250: c493 30bf 3453 013f 3f2c acbe 113c 1b3f
00000260: 4e84 66be 90e3 813e fdca 8cbe bf65 a63d
00000270: 78eb 733d 2237 9dbe e5da 383f 6755 c53d
00000280: f8fd 643d c586 30bf 8dc4 20bf feb5 d33c
00000290: 0899 8bbe 73ef 883d cf9d 6bbf 2576 8ebe
000002a0: eadb e3be 388d c13f 0298 8d3e 4ec0 cd3d
000002b0: 8a92 e83d 9ae1 d73d 6a7d 123f 1787 3abd
000002c0: c0e1 c33d 6011 e83e af77 d93e 88fb 1a3e
000002d0: 07ba ea3e 0f3a 053e 547c 42bd f591 463e
000002e0: b574 473e c036 af3e 8195 8bbe 5b43 8ebe
000002f0: 133a babe 6dca a7be cf9d bebd eeaa ca3e
00000300: 51da 6fbe 2987 97be 0280 abbd 29cb 103f
00000310: b681 c9be 68d7 29be 0a6f 15bf 6eac 273f
00000320: 0105 5ebc 5250 27bf 8787 1ebe 4fd9 52bc
00000330: 2565 543f 8cd9 a93d 59d0 383e 0905 dfbe
00000340: 43b7 283f 9bc9 8ebe 9ae1 afbe 7dfd 17bf
00000350: f312 2abe 346d 193f be73 f03e 16df b3bd
00000360: 02f7 983e 6b8d 88bd 1882 07bf f494 2f3e
00000370: 7e4e 863e 5921 9e3e 98c9 043e eac7 b33e
00000380: 406e 44bc 94fe e13e cfd7 093f f754 4f3e
00000390: 6208 06be cca5 cabe cef3 d5bc d220 9abd
000003a0: f144 0c3f 655b a1bd c925 4ebf 3d11 643e
000003b0: 9d89 2ebe 3a72 00bd a95a 713f 474f 713e
000003c0: b8ea bf3e 629d d53e 3b92 8f3d 21f0 bc3d
000003d0: ab42 47bf dd46 7d3e 22aa bd3e d3e0 113f
000003e0: 7ab5 9fbe 15ed e83e 9bb0 ac3e bd57 58be
000003f0: 62a0 c43d ef58 103f b5a4 2bbf 7db0 19bf

network_body._body_endoder.seq_layers.2.bias f4 [128]
0.0007504347 -0.0012368426 -0.005089929 -0.0006893143 -0.000807112 -0.0010316919 0.0010634621 0.00030360188
-0.0007742071 -0.0012675755 0.000117246695 0.0027221988 -0.0027530517 -0.0022359076 0.0004917947 -0.0010308662
0.00012957658 -0.0013029829 -0.00096378056 -0.0009037981 -0.0022984892 0.00031584737 -0.0028691194 -0.0028227693
-0.0003197014 0.0002447139 0.0006893456 0.00034178534 -0.0016076877 -0.0011881102 -0.0013438368 -0.00025726118
-0.0016822242 -0.0018170229 -0.0021231058 -0.001028472 0.00064736546 -0.0017541886 0.00044577252 -0.00036468045
0.0002601537 0.00046991045 -0.005826003 -0.0014152543 -0.0054211062 0.0034921465 0.00060797314 -0.00059722195
0.0041907486 0.0007025738 -0.00054979033 0.003555917 -0.0005211932 -0.00012018492 -0.0014443209 -0.0025869852
4.1666008e-05 -0.00029562542 -0.0007176181 -0.0020398549 -0.0022802963 0.00096907193 -0.003635181 0.0020744312
-0.002128675 -0.0007435732 -0.0003391133 0.0001250046 -0.0005613269 -0.00433862 -0.0020440456 -0.00022792912
0.0018836118 0.0020709876 -0.0006761987 0.0034941954 0.003105439 -0.00029817788 -0.0046117143 -0.00022402043
0.0016675087 0.0010027423 -0.0019698911 -0.00015285517 -0.0023098262 -0.00299011 -0.001962628 -0.00569321
0.0028629065 -0.002191868 -0.0013361744 -0.00019203417 0.00065009 -0.0010720999 0.00013770377 -0.000801818
0.0017816446 0.0013475795 -0.0021393637 0.00040187567 -0.00072653196 -0.0009013063 0.005191349 0.0012353238
0.0014027996 -0.0019620694 -0.00023530504 -0.0032803377 0.00025355926 -0.004717667 -0.00067759166 -0.0016536347
0.0021942789 0.0008793038 0.0014974552 -0.0025879347 -0.00019475176 0.00802506 0.0011838537 0.00027511036
-0.000847243 0.0010992499 -0.00016804517 0.00016734574 0.00056700123 -0.0018259948 -0.0009481562 -0.0038832726
00000000: d2b8 443a 8d1d a2ba 6bc9 a6bb 1ab3 34ba
00000010: 5f94 53ba d639 87ba de63 8b3a c12c 9f39
00000020: 29f4 4aba c724 a6ba 57e2 f538 eb66 323b
00000030: 8b6c 34bb 4e88 12bb c9eb 003a 211e 87ba
00000040: f3de 0739 dac8 aaba 38a6 7cba ddec 6cba
00000050: 40a2 16bb 5198 a539 d607 3cbb 36fe 38bb
00000060: 989d a7b9 f24c 8039 33b5 343a a731 b339
00000070: 0cb9 d2ba 5dba 9bba ae23 b0ba 03e1 86b9
00000080: 147e dcba 2c29 eeba ce23 0bbb cbcd 86ba
00000090: f6b3 293a cdec e5ba 93b6 e939 9532 bfb9
000000a0: 3d65 8839 505e f639 0ee8 bebb 0e80 b9ba
000000b0: 89a3 b1bb 7fdc 643b 6360 1f3a e38e 1cba
000000c0: 8c52 893b ee2c 383a ce1f 10ba 630a 693b
000000d0: afa0 08ba ca0b fcb8 5e4f bdba 698a 29bb
000000e0: 89c2 2e38 2cfe 9ab9 891e 3cba 16af 05bb
000000f0: 0671 15bb 5109 7e3a 383c 6ebb 2ef3 073b
00000100: 3e81 0bbb 5aec 42ba 04cb b1b9 ab13 0339
00000110: 0326 13ba fc2a 8ebb 65f5 05bb 4200 6fb9
00000120: 86e3 f63a 68b9 073b ed42 31ba dffe 643b
00000130: 9f84 4b3b c254 9cb9 dd1d 97bb 07e7 6ab9
00000140: 4f90 da3a 736e 833a 4a19 01bb bf47 20b9
00000150: 7460 17bb b9f5 43bb 6f9f 00bb 1b8e babb
00000160: 9a9f 3b3b 71a5 0fbb 9322 afba c85c 49b9
00000170: cd6a 2a3a b485 8cba 9364 1039 1831 52ba
00000180: 1386 e93a 44a1 b03a 9134 0cbb d7b2 d239
00000190: bc74 3eba a445 6cba 311c aa3b 97ea a13a
000001a0: 25de b73a 1096 00bb 37bc 76b9 effa 56bb
000001b0: 26f0 8439 a996 9abb 68a0 31ba c6be d8ba
000001c0: e4cd 0f3b 1481 663a 4246 c43a 579a 29bb
000001d0: 4736 4cb9 8b7b 033c 8a2b 9b3a b03c 9039
000001e0: 8419 5eba b514 903a 4835 30b9 8879 2f39
000001f0: cfa2 143a 3856 efba af8d 78ba 817e 7ebb

network_body._body_endoder.seq_layers.2.weight f4 [128, 128]
0.017996356 0.08709428 0.12824395 0.014205381 0.09545712 -0.09067373 -0.018052861 -0.013178854
-0.059273586 0.05609477 0.048038393 -0.08853668 0.18628065 0.012190166 -0.20747401 -0.016054215
-0.09129235 0.09956297 -0.049962133 0.023736292 0.027965123 -0.19285758 0.0750986 -0.20887673
-0.061481457 0.12547071 -0.044401094 -0.17286469 -0.03839349 0.06978581 0.19114317 -0.1129383
0.06278383 -0.10185941 0.19989416 0.1384186 0.010835076 0.12569295 -0.1487372 0.036192432
0.03785316 0.057541702 -0.10494191 -0.05142307 -0.063799866 0.114645444 0.13245046 -0.006053736
-0.10756495 0.03756469 -0.037918787 -0.068535805 -0.07692968 -0.12266523 0.16918212 -0.27055642
0.1369003 -0.045240346 -0.005813731 0.035762854 -0.002441043 -0.0278882 0.09616837 0.017874075
0.011939975 -0.12163673 -0.031499702 -0.0008980035 0.13941315 0.017255727 -0.0050245635 0.11696346
0.0002526508 0.123650156 0.10249504 0.067965634 -0.055296935 -0.09411805 0.11142001 -0.0480599
-0.20924254 0.032474227 0.25644046 -0.066266775 0.012980002 0.046368822 -0.043141056 0.19467992
-0.06913958 0.0391967 -0.017623596 -0.022987196 -0.04270534 0.05468314 -0.025087137 0.03744303
0.0028397 0.04010712 0.031793695 0.08644961 -0.06517053 -0.10561595 0.046145815 0.050002974
0.06893411 -0.068629 -0.06718512 -0.04172683 0.107320055 0.12749407 -0.060078185 0.056040857
-0.036353186 0.03958305 -0.105596595 0.08204025 -0.06471702 0.050019555 0.1261379 -0.009053793
0.051094916 -0.052586522 0.11746339 -0.13487808 -0.13852692 -0.047296975 -0.07438363 0.010315982
-0.04767957 -0.0061039124 -0.015035524 -0.05759174 -0.11032202 -0.07691701 -0.03559158 -0.04617464
-0.033980444 -0.023572478 0.04691601 0.032855365 -0.06716112 0.097191095 0.07134095 0.11906441
2.8341481e-05 -0.028614955 0.09604971 0.017813403 -0.03539802 -0.0049313214 0.091175966 0.053350076
0.077951565 -0.09469751 0.026888259 -0.016476592 -0.0514148 0.064688414 -0.07367279 -0.10733774
0.05550433 0.15889148 0.041761193 0.012794163 -0.068411805 0.013732682 0.0010513746 -0.12318823
0.19699767 -0.19812387 -0.22161339 -0.08296822 -0.057758022 -0.123983406 -0.049938884 -0.105974615
0.15848513 -0.14198515 0.08667468 0.044898484 -0.03734418 0.14825267 -0.066584796 0.08219805
0.086281925 0.016064279 -0.14556313 -0.1627197 -0.13613787 0.18843572 -0.032865483 -0.08099081
0.00063527835 -0.1194159 -0.060897272 0.045171406 -0.043207735 -0.03867224 -0.056022875 0.056720138
0.05091234 -0.064537406 0.24373946 -0.07032342 0.048288982 -0.042406645 0.106974 0.08312223
0.06990595 0.05038202 0.10039174 -0.14312033 -0.06798781 -0.009615938 0.0011050856 0.10072407
0.01758936 0.002809927 0.07540611 0.25227425 -0.04154493 -0.06280895 0.015684817 -0.046536874
0.1062274 0.035308074 0.095607415 0.06905905 -0.0417903 -0.037761174 -0.015018802 0.038797595
0.030119674 0.16100754 0.12281016 0.07368907 -0.09565045 -0.08974484 -0.1132264 -0.053637695
-0.068194926 0.06815865 0.008715293 -0.1596876 0.15362464 -0.03601654 -0.08657717 -0.0044984138
-0.069248416 0.09016392 0.13427636 0.0052447384 0.012484464 0.023296317 -0.013333674 -0.052515216
00000000: 186d 933c 7c5e b23d 6252 033e b0bd 683c
00000010: 067f c33d 26b3 b9bd 98e3 93bc 1fec 57bc
00000020: dcc8 72bd a1c3 653d e8c3 443d b852 b5bd
00000030: 5bc0 3e3e 43b9 473c 1174 54be 2184 83bc
00000040: 7cf7 babd ace7 cb3d 18a5 4cbd 9d72 c23c
00000050: 1d17 e53c 757c 45be 4bcd 993d c8e3 55be
00000060: fbd3 7bbd 657b 003e ecdd 35bd 7103 31be
00000070: 7e42 1dbd ddeb 8e3d 09bb 433e 324c e7bd
00000080: cf94 803d ab9b d0bd 0eb1 4c3e 9bbd 0d3e
00000090: 9a85 313c a7b5 003e 914e 18be 843e 143d
000000a0: ea0b 1b3d d9b0 6b3d c9eb d6bd ffa0 52bd
000000b0: 81a9 82bd 3bcb ea3d 18a1 073e 6b5e c6bb
000000c0: 034b dcbd 6fdd 193d bb50 1bbd 805c 8cbd
000000d0: 4f8d 9dbd e837 fbbd 143e 2d3e 5f86 8abe
000000e0: 982f 0c3e f14d 39bd 1c81 bebb 127c 123d
000000f0: e8f9 1fbb cb75 e4bc ecf3 c43d a76c 923c
00000100: e39f 433c ae1c f9bd d505 01bd ff67 6bba
00000110: 52c2 0e3e e25b 8d3c 18a5 a4bb 8a8a ef3d
00000120: 3776 8439 4b3c fd3d ebe8 d13d 9131 8b3d
00000130: 0a7f 62bd f7c0 c0bd 2d30 e43d 75da 44bd
00000140: ad43 56be b203 053d 2a4c 833e e0b6 87bd
00000150: 13aa 543c 3ced 3d3d adb4 30bd 2c5a 473e
00000160: 0d99 8dbd b88c 203d 5c5f 90bc a54f bcbc
00000170: cbeb 2ebd 6efb 5f3d 8a83 cdbc dd5d 193d
00000180: 431a 3a3b 5d47 243d 1b3a 023d 7e0c b13d
00000190: 2078 85bd 2d4d d8bd 6503 3d3d ebcf 4c3d
000001a0: 542d 8d3d 5c8d 8cbd 5a98 89bd c1e9 2abd
000001b0: 9eca db3d ce8d 023e 8b14 76bd 198b 653d
000001c0: 14e7 14bd d621 223d 0743 d8bd b804 a83d
000001d0: 5b8a 84bd 4ee1 4c3d 4b2a 013e 5c56 14bc
000001e0: e748 513d f764 57bd a590 f03d 7b1d 0abe
000001f0: 00da 0dbe 79ba 41bd 7256 98bd 5d04 293c
00000200: a74b 43bd 5403 c8bb 8f57 76bc 51e5 6bbd
00000210: 83f0 e1bd aa86 9dbd 7ac8 11bd 9f21 3dbd
00000220: 142f 0bbd 121b c1bc 012b 403d 5993 063d
00000230: c58b 89bd 200c c73d 341b 923d 0bd8 f33d
00000240: debe ed37 e969 eabc b6b5 c43d 6aed 913c
00000250: 84fd 10bd ec96 a1bb 77ba ba3d 9c85 5a3d
00000260: 12a5 9f3d c5f0 c1bd c444 dc3c ebf9 86bc
00000270: 5398 52bd 5c7b 843d c2e1 96bd e4d3 dbbd
00000280: 8258 633d 73b4 223e c90d 2b3d 9c9e 513c
00000290: 7d1b 8cbd 0bff 603c 47ce 893a 1c4a fcbd
000002a0: c2b9 493e fce0 4abe 9fee 62be 3eeb a9bd
000002b0: ad93 6cbd 03eb fdbd b78c 4cbd 3809 d9bd
000002c0: ed49 223e 8e64 11be 7f82 b13d 79e7 373d
000002d0: 36f6 18bd 8ccf 173e 9c5d 88bd 7457 a83d
000002e0: 94b4 b03d 3c99 833c 800e 15be fe9f 26be
000002f0: ba67 0bbe 4bf5 403e f59d 06bd 83de a5bd
00000300: cf88 263a 5390 f4bd 6b6f 79bd a705 393d
00000310: 98fa 30bd c866 1ebd 3e78 65bd 6053 683d
00000320: 7589 503d 302c 84bd d696 793e ba05 90bd
00000330: abca 453d 97b2 2dbd 2f15 db3d fd3b aa3d
00000340: da2a 8f3d 615d 4e3d 2f9a cd3d 238e 12be
00000350: 313d 8bbd 2b8c 1dbc 85d8 903a 6c48 ce3d
00000360: 9017 903c c126 383b 856e 9a3d 172a 813e
00000370: 042b 2abd fba1 80bd 727d 803c 739d 3ebd
00000380: c08d d93d 339f 103d d2cd c33d d56e 8d3d
00000390: 4e2c 2bbd 76ab 1abd 6c11 76bc 3aea 1e3d
000003a0: 89bd f63c 29df 243e e583 fb3d 4cea 963d
000003b0: 62e4 c3bd 25cc b7bd 3ee3 e7bd 33b3 5bbd
000003c0: c8a9 8bbd c396 8b3d 97ca 0e3c 2585 23be
000003d0: c74f 1d3e 1486 13bd 5f4f b1bd 6e67 93bb
000003e0: 1dd2 8dbd dca7 b83d be7f 093e 0edc ab3b
000003f0: a38b 4c3c ebd7 be3c 7b75 5abc 321a 57bd
