results/1/MoveThePlayer/MoveThePlayer-51682.pt (torch, 437599 bytes, 30 tensors)

network_body._body_endoder.seq_layers.0.weight f4 [128, 6]
000000 5f 59 31 3f 8e cc f1 3d d5 be 2f 3f 6b a5 07 3f
       0.69276994 0.11806594 0.6865056 0.5298678
000010 b0 e8 cf 3d 13 39 0e bf 36 fa b7 be f6 83 b8 be
       0.101518035 -0.5555584 -0.35933083 -0.36038178
000020 80 f1 d6 be 2b e8 86 be 3e ac 4b be 13 c8 78 be
       -0.41981125 -0.26349005 -0.19889924 -0.24295072
000030 7c 6a 1a bf d8 59 1c 3e 38 53 4f be 5e ad 41 3f
       -0.6031873 0.15268648 -0.20246589 0.7565516
000040 f3 a1 82 3e 8a bc 6e 3e 2f f1 56 3e c0 8a 25 3e
       0.25514182 0.2331411 0.20990442 0.1616621
000050 4b c2 09 bf ce 10 70 3f ab 52 44 be 17 5e 3b bf
       -0.5381209 0.9377564 -0.1917216 -0.73190445
000060 d3 7b 07 3f fc 80 18 3d 67 2c b7 3e 38 79 d3 3e
       0.52923316 0.037232384 0.35776064 0.4130342
000070 f4 7b 1f 3f c3 32 25 be e2 58 87 3e a8 a1 91 bd
       0.6229851 -0.16132645 0.26435 -0.071109116
000080 47 60 17 3e 5a 8b 99 3e 06 6b 19 3e 89 fd af be
       0.1478282 0.2998913 0.14982232 -0.3437312
000090 10 a0 c7 bd 02 62 77 3e b4 d5 16 3f 6b ad d3 bc
       -0.097473264 0.24158481 0.58919835 -0.025839528
0000a0 70 0b a4 3e 90 b6 a0 3e a3 1f 95 3e 93 65 b9 bc
       0.32039976 0.31389284 0.291257 -0.022631442
0000b0 0d 83 19 3e d1 60 2f bf 90 59 a8 be c5 bc c3 bc
       0.14991398 -0.68507105 -0.3288083 -0.023893723
0000c0 9f 8e b8 be 6c 42 38 3f 10 99 01 be a0 a0 bc bd
       -0.3604631 0.7197635 -0.12656045 -0.09210324
0000d0 8f c5 40 3e c1 13 b8 3e 92 ef 5a 3e ed 29 67 be
       0.18825363 0.3595257 0.21380451 -0.22574587
0000e0 39 c4 e5 be 86 c9 e2 be 17 cd 2a 3f 65 0f 29 3e
       -0.44876269 -0.44294375 0.6671919 0.16509779
0000f0 b9 25 59 be 8b ff 44 3e c9 29 69 3e 6c 2c d9 3e
       -0.21205796 0.19238107 0.22769846 0.42416704
000100 7e b8 6a ba 85 6c fa bd 50 66 8d bf cb ac 58 3e
       -0.0008953883 -0.1222773 -1.1046848 0.21159665
000110 56 02 c3 3e f4 fd 15 bf e8 eb 89 3e 2f 13 12 bf
       0.3808772 -0.58590627 0.26937795 -0.5706052
000120 8e a5 f2 3e 31 6f f3 3d cc 4d 99 3b 13 30 c5 3e
       0.47391933 0.118864425 0.0046784636 0.3851324
000130 37 b8 b6 be 27 eb 30 3f 53 d1 11 3e 29 02 08 3e
       -0.3568742 0.69108814 0.14240007 0.13282074
000140 15 df 1f 3f cd f0 e5 be 20 13 25 3e 58 12 81 be
       0.6244977 -0.4491028 0.16120577 -0.25209308
000150 a8 e4 40 3e 86 4a 49 3f 3d 42 4b be 9c 12 a9 3e
       0.18837225 0.7862934 -0.19849487 0.3302201
000160 11 c8 d8 3d 4e 59 6d bf 38 d3 08 be a2 8e fa 3e
       0.10585035 -0.92714393 -0.13361824 0.48936945
000170 f2 df 02 bf ac ce 77 bc f2 fa 3d 3f 02 a2 d3 be
       -0.51122963 -0.015124958 0.7421104 -0.4133454
000180 47 99 26 bf e3 7e d8 3d f6 f4 aa 3e c8 27 7a bf
       -0.6507763 0.10571077 0.33390015 -0.9771695
000190 cd ec 9a 3d ea ed c9 be 9a fe af 3e 3d 85 7d be
       0.075646974 -0.39439327 0.34373933 -0.24757858
0001a0 5f bb 2c 3e d4 d6 d4 be 3d 8e 8f 3d 7a 75 70 bf
       0.16868351 -0.4157015 0.07009552 -0.93929255
0001b0 26 5b e4 be a2 26 e5 bd 19 2c 3c be 1d a1 03 3e
       -0.4460079 -0.11189009 -0.18376197 0.12854429
0001c0 12 39 1b 3d 7a f3 74 3e df dd e6 be 75 a5 13 be
       0.037896223 0.23921004 -0.4509115 -0.14418586
0001d0 70 68 58 bd 1e 95 2a bd 21 f9 c7 3e 1d 1a e9 bd
       -0.052833974 -0.041646115 0.39057258 -0.11381934
0001e0 0d 87 86 3f e3 aa 75 3e bd 20 da bd b0 ab e4 3c
       1.0509964 0.2399097 -0.106507756 0.027913898
0001f0 1c 95 27 3f f8 8a db bd 10 d6 dd be 69 a1 41 be
       0.654619 -0.107198656 -0.4332738 -0.1890923
000200 e1 d8 a0 3c b7 28 2f bf 9a ef 1e 3d be 6b e8 3e
       0.019634666 -0.684215 0.03880272 0.453947
000210 2f a3 81 bd 5b e8 25 bf cd 7e c0 bd 54 84 8b bf
       -0.06329953 -0.6480767 -0.09399185 -1.0899758
000220 30 62 01 3f 25 60 3d bf be 8c f8 3e 7b 32 0c 3f
       0.5054045 -0.7397483 0.48544878 0.5476453
000230 cb 45 44 bf 4c 27 e0 3e 21 d1 90 bf 17 d6 b4 be
       -0.76668996 0.4377998 -1.1313821 -0.35319588
000240 a5 91 1d 3e ac 96 06 be 79 3f ff bd 42 9b 63 3e
       0.1538759 -0.13143414 -0.12463278 0.22227195
000250 c4 93 30 bf 34 53 01 3f 3f 2c ac be 11 3c 1b 3f
       -0.6897547 0.5051758 -0.33627507 0.6063853
000260 4e 84 66 be 90 e3 81 3e fd ca 8c be bf 65 a6 3d
       -0.22511408 0.2536893 -0.27498618 0.08124875
000270 78 eb 73 3d 22 37 9d be e5 da 38 3f 67 55 c5 3d
       0.059550732 -0.30706125 0.72209007 0.0963543
000280 f8 fd 64 3d c5 86 30 bf 8d c4 20 bf fe b5 d3 3c
       0.055906266 -0.6895564 -0.6279991 0.025843617
000290 08 99 8b be 73 ef 88 3d cf 9d 6b bf 25 76 8e be
       -0.2726519 0.06686296 -0.9203767 -0.27824512
0002a0 ea db e3 be 38 8d c1 3f 02 98 8d 3e 4e c0 cd 3d
       -0.4450372 1.5121222 0.27655035 0.10046445
0002b0 8a 92 e8 3d 9a e1 d7 3d 6a 7d 12 3f 17 87 3a bd
       0.11356075 0.10541077 0.57222617 -0.045538988
0002c0 c0 e1 c3 3d 60 11 e8 3e af 77 d9 3e 88 fb 1a 3e
       0.09564543 0.45325756 0.42474124 0.15135014
0002d0 07 ba ea 3e 0f 3a 05 3e 54 7c 42 bd f5 91 46 3e
       0.45845053 0.13010429 -0.04748185 0.19391616
0002e0 b5 74 47 3e c0 36 af 3e 81 95 8b be 5b 43 8e be
       0.19478114 0.34221458 -0.272625 -0.27785763
0002f0 13 3a ba be 6d ca a7 be cf 9d be bd ee aa ca 3e
       -0.36372432 -0.32771626 -0.09307443 0.39583534
000300 51 da 6f be 29 87 97 be 02 80 ab bd 29 cb 10 3f
       -0.23423125 -0.29595307 -0.08374025 0.5656
000310 b6 81 c9 be 68 d7 29 be 0a 6f 15 bf 6e ac 27 3f
       -0.39356774 -0.16586077 -0.5837256 0.6549748
000320 01 05 5e bc 52 50 27 bf 87 87 1e be 4f d9 52 bc
       -0.013550998 -0.65356934 -0.15481387 -0.012869193
000330 25 65 54 3f 8c d9 a9 3d 59 d0 38 3e 09 05 df be
       0.82966834 0.08293447 0.18048228 -0.4355853
000340 43 b7 28 3f 9b c9 8e be 9a e1 af be 7d fd 17 bf
       0.65904635 -0.27888188 -0.34351808 -0.5937117
000350 f3 12 2a be 34 6d 19 3f be 73 f0 3e 16 df b3 bd
       -0.16608791 0.59932256 0.46963304 -0.08782785
000360 02 f7 98 3e 6b 8d 88 bd 18 82 07 bf f4 94 2f 3e
       0.29875952 -0.06667598 -0.5293288 0.17146665
000370 7e 4e 86 3e 59 21 9e 3e 98 c9 04 3e ea c7 b3 3e
       0.2623176 0.30884817 0.12967527 0.3511346
000380 40 6e 44 bc 94 fe e1 3e cf d7 09 3f f7 54 4f 3e
       -0.011989176 0.4413954 0.5384492 0.20247255
000390 62 08 06 be cc a5 ca be ce f3 d5 bc d2 20 9a bd
       -0.13089135 -0.39579618 -0.026117232 -0.07525791
0003a0 f1 44 0c 3f 65 5b a1 bd c9 25 4e bf 3d 11 64 3e
       0.54792696 -0.0787876 -0.80526406 0.22272201
0003b0 9d 89 2e be 3a 72 00 bd a9 5a 71 3f 47 4f 71 3e
       -0.17044683 -0.031358935 0.9427896 0.23565398
0003c0 b8 ea bf 3e 62 9d d5 3e 3b 92 8f 3d 21 f0 bc 3d
       0.37483764 0.41721636 0.07010313 0.092254885
0003d0 ab 42 47 bf dd 46 7d 3e 22 aa bd 3e d3 e0 11 3f
       -0.778361 0.24734063 0.37043864 0.5698368
0003e0 7a b5 9f be 15 ed e8 3e 9b b0 ac 3e bd 57 58 be
       -0.31193143 0.4549338 0.3372849 -0.2112722
0003f0 62 a0 c4 3d ef 58 10 3f b5 a4 2b bf 7d b0 19 bf
       0.09600903 0.563857 -0.670482 -0.60034925

network_body._body_endoder.seq_layers.0.bias f4 [128]
000000 92 3f 27 ba 45 5b 6a 3a c1 b7 d9 3a 24 44 8c bb
       -0.0006380017 0.0008939992 0.0016610549 -0.004280584
000010 39 9b 2a bb 24 34 7c 39 9f 15 b8 3a 7d 4d 51 3b
       -0.0026032461 0.00024052017 0.001404453 0.0031937056
000020 7d e0 6b 3b 61 74 5b 3b 01 a7 03 ba 98 fc 75 ba
       0.003599196 0.0033486115 -0.0005022139 -0.00093836477
000030 06 4e f3 ba aa 2d aa b8 c1 28 83 bb 06 a1 dd 39
       -0.0018562682 -8.114737e-05 -0.004002661 0.00042272377
000040 86 3d d3 b9 66 dc bc 39 7a 08 ab 37 c9 72 18 39
       -0.00040290895 0.00036022364 2.0388736e-05 0.0001453861
000050 41 af a3 ba e2 96 32 3b 4d 04 e3 ba 64 c8 3d 3b
       -0.0012488143 0.0027250578 -0.0017320007 0.0028958553
000060 75 61 8c bb 0d 7d 5a ba e8 ef 9a 39 50 32 2d bb
       -0.0042840787 -0.0008334674 0.00029551913 -0.0026427694
000070 ac a0 ee 3a 02 86 22 bb ac ba 9c 3b e8 f5 af 3b
       0.0018205843 -0.0024799113 0.004782995 0.0053698905
000080 27 65 07 bc 22 41 a8 bb 67 a2 2c 3b 20 1d e1 3a
       -0.008263863 -0.0051347176 0.0026341917 0.0017174818
000090 ac 75 88 b9 87 e6 18 bb b4 ae c7 ba 6f 33 8a 3a
       -0.00026027614 -0.0023330764 -0.0015234561 0.0010543893
0000a0 bb 42 0c bb 9d 93 af 39 d5 a5 d1 ba dc 30 f8 ba
       -0.002140208 0.00033488582 -0.0015994856 -0.001893546
0000b0 58 5b b7 37 82 2c 84 3b a6 8f a2 ba 17 56 85 3b
       2.1857835e-05 0.004033626 -0.001240243 0.0040691006
0000c0 77 f2 08 3b 2e 0b c7 ba 4c 4b 63 3b 63 ff 7b ba
       0.0020896473 -0.0015185827 0.0034682332 -0.0009612946
0000d0 4f 87 8e ba 62 a6 89 3b 94 ae 04 3a c4 7e 4c ba
       -0.0010874065 0.0042007426 0.00050614146 -0.0007800872
0000e0 af bf 88 bb 5c 27 3a ba 9a 04 97 3a 19 a4 46 ba
       -0.004173241 -0.0007101202 0.0011521757 -0.0007577553
0000f0 14 6a 22 bb 23 f5 b6 bb 71 2d 16 3b 1c a3 ff bb
       -0.0024782466 -0.005583422 0.0022915269 -0.0078014266
000100 b9 bf 27 ba 8b 6b f9 3a 1a d7 fb 39 b1 11 86 ba
       -0.00063991133 0.0019029243 0.00048034714 -0.0010228661
000110 6c 3f 03 ba ce 6c b6 bb be 69 59 ba 43 9e ea ba
       -0.0005006704 -0.0055671697 -0.000829365 -0.0017899949
000120 ae d1 ef ba a5 1d ac b9 ca b9 05 bb 12 2b bf 3b
       -0.0018296742 -0.00032828483 -0.0020404928 0.005833992
000130 5e 5f 9c bb 0d 5e f5 39 ee 60 29 b9 b2 ba 22 bb
       -0.004772111 0.00046800115 -0.00016153205 -0.0024830517
000140 fa 75 50 ba 68 78 d4 bb 8f 0b 2c 36 73 2a 5b bb
       -0.000795215 -0.00648408 2.5636725e-06 -0.003344205
000150 96 e1 72 bb aa 2c 27 bb 82 d2 1e 3c 4f b0 06 bb
       -0.003706073 -0.00255088 0.009693744 -0.0020551865
000160 66 18 73 ba 98 16 c5 3a 69 a0 f1 ba 26 ee ec ba
       -0.000927335 0.0015036641 -0.0018434647 -0.0018076345
000170 b9 11 98 39 e3 5c 2b 3b 38 50 a8 bb a7 6a 6a 39
       0.00029004904 0.0026147894 -0.005136516 0.0002235571
000180 1f 67 63 3b 65 8e cc bb 8f 9a 22 3b 4a c3 11 bb
       0.0034698916 -0.0062425607 0.0024811362 -0.0022241645
000190 2d 79 92 ba 89 d4 30 bb 1f 38 87 ba 83 63 83 3a
       -0.0011175029 -0.002698215 -0.0010316408 0.0010024164
0001a0 8d 17 81 3b ae ea a0 3a e0 03 39 ba 28 1c 5a 3b
       0.003939575 0.0012276971 -0.00070577674 0.0033280943
0001b0 2a eb 00 3b d0 5e ef 3a cb ed 19 ba 6d 6e 55 ba
       0.0019671419 0.0018262509 -0.0005871921 -0.000814176
0001c0 bc d6 3b bb aa 7c 15 3a aa e0 04 bb e8 9e bd b9
       -0.0028661927 0.00057024753 -0.0020275512 -0.00036167284
0001d0 f7 05 82 ba a4 14 86 39 8c 02 19 3b 06 88 39 bb
       -0.000991999 0.0002557385 0.0023347465 -0.0028309836
0001e0 70 d5 65 37 a5 d5 1a bc b9 73 b0 39 4c ba be 3a
       1.3699158e-05 -0.009450351 0.00033655556 0.001455137
0001f0 73 96 50 3b cc 3f 9a 3a 4d d0 a7 b8 b8 13 bb 39
       0.0031827956 0.001176828 -8.0019796e-05 0.0003568211

network_body._body_endoder.seq_layers.2.weight f4 [128, 128]
000000 18 6d 93 3c 7c 5e b2 3d 62 52 03 3e b0 bd 68 3c
       0.017996356 0.08709428 0.12824395 0.014205381
000010 06 7f c3 3d 26 b3 b9 bd 98 e3 93 bc 1f ec 57 bc
       0.09545712 -0.09067373 -0.018052861 -0.013178854
000020 dc c8 72 bd a1 c3 65 3d e8 c3 44 3d b8 52 b5 bd
       -0.059273586 0.05609477 0.048038393 -0.08853668
000030 5b c0 3e 3e 43 b9 47 3c 11 74 54 be 21 84 83 bc
       0.18628065 0.012190166 -0.20747401 -0.016054215
000040 7c f7 ba bd ac e7 cb 3d 18 a5 4c bd 9d 72 c2 3c
       -0.09129235 0.09956297 -0.049962133 0.023736292
000050 1d 17 e5 3c 75 7c 45 be 4b cd 99 3d c8 e3 55 be
       0.027965123 -0.19285758 0.0750986 -0.20887673
000060 fb d3 7b bd 65 7b 00 3e ec dd 35 bd 71 03 31 be
       -0.061481457 0.12547071 -0.044401094 -0.17286469
000070 7e 42 1d bd dd eb 8e 3d 09 bb 43 3e 32 4c e7 bd
       -0.03839349 0.06978581 0.19114317 -0.1129383
000080 cf 94 80 3d ab 9b d0 bd 0e b1 4c 3e 9b bd 0d 3e
       0.06278383 -0.10185941 0.19989416 0.1384186
000090 9a 85 31 3c a7 b5 00 3e 91 4e 18 be 84 3e 14 3d
       0.010835076 0.12569295 -0.1487372 0.036192432
0000a0 ea 0b 1b 3d d9 b0 6b 3d c9 eb d6 bd ff a0 52 bd
       0.03785316 0.057541702 -0.10494191 -0.05142307
0000b0 81 a9 82 bd 3b cb ea 3d 18 a1 07 3e 6b 5e c6 bb
       -0.063799866 0.114645444 0.13245046 -0.006053736
0000c0 03 4b dc bd 6f dd 19 3d bb 50 1b bd 80 5c 8c bd
       -0.10756495 0.03756469 -0.037918787 -0.068535805
0000d0 4f 8d 9d bd e8 37 fb bd 14 3e 2d 3e 5f 86 8a be
       -0.07692968 -0.12266523 0.16918212 -0.27055642
0000e0 98 2f 0c 3e f1 4d 39 bd 1c 81 be bb 12 7c 12 3d
       0.1369003 -0.045240346 -0.005813731 0.035762854
0000f0 e8 f9 1f bb cb 75 e4 bc ec f3 c4 3d a7 6c 92 3c
       -0.002441043 -0.0278882 0.09616837 0.017874075
000100 e3 9f 43 3c ae 1c f9 bd d5 05 01 bd ff 67 6b ba
       0.011939975 -0.12163673 -0.031499702 -0.0008980035
000110 52 c2 0e 3e e2 5b 8d 3c 18 a5 a4 bb 8a 8a ef 3d
       0.13941315 0.017255727 -0.0050245635 0.11696346
000120 37 76 84 39 4b 3c fd 3d eb e8 d1 3d 91 31 8b 3d
       0.0002526508 0.123650156 0.10249504 0.067965634
000130 0a 7f 62 bd f7 c0 c0 bd 2d 30 e4 3d 75 da 44 bd
       -0.055296935 -0.09411805 0.11142001 -0.0480599
000140 ad 43 56 be b2 03 05 3d 2a 4c 83 3e e0 b6 87 bd
       -0.20924254 0.032474227 0.25644046 -0.066266775
000150 13 aa 54 3c 3c ed 3d 3d ad b4 30 bd 2c 5a 47 3e
       0.012980002 0.046368822 -0.043141056 0.19467992
000160 0d 99 8d bd b8 8c 20 3d 5c 5f 90 bc a5 4f bc bc
       -0.06913958 0.0391967 -0.017623596 -0.022987196
000170 cb eb 2e bd 6e fb 5f 3d 8a 83 cd bc dd 5d 19 3d
       -0.04270534 0.05468314 -0.025087137 0.03744303
000180 43 1a 3a 3b 5d 47 24 3d 1b 3a 02 3d 7e 0c b1 3d
       0.0028397 0.04010712 0.031793695 0.08644961
000190 20 78 85 bd 2d 4d d8 bd 65 03 3d 3d eb cf 4c 3d
       -0.06517053 -0.10561595 0.046145815 0.050002974
0001a0 54 2d 8d 3d 5c 8d 8c bd 5a 98 89 bd c1 e9 2a bd
       0.06893411 -0.068629 -0.06718512 -0.04172683
0001b0 9e ca db 3d ce 8d 02 3e 8b 14 76 bd 19 8b 65 3d
       0.107320055 0.12749407 -0.060078185 0.056040857
0001c0 14 e7 14 bd d6 21 22 3d 07 43 d8 bd b8 04 a8 3d
       -0.036353186 0.03958305 -0.105596595 0.08204025
0001d0 5b 8a 84 bd 4e e1 4c 3d 4b 2a 01 3e 5c 56 14 bc
       -0.06471702 0.050019555 0.1261379 -0.009053793
0001e0 e7 48 51 3d f7 64 57 bd a5 90 f0 3d 7b 1d 0a be
       0.051094916 -0.052586522 0.11746339 -0.13487808
0001f0 00 da 0d be 79 ba 41 bd 72 56 98 bd 5d 04 29 3c
       -0.13852692 -0.047296975 -0.07438363 0.010315982
000200 a7 4b 43 bd 54 03 c8 bb 8f 57 76 bc 51 e5 6b bd
       -0.04767957 -0.0061039124 -0.015035524 -0.05759174
000210 83 f0 e1 bd aa 86 9d bd 7a c8 11 bd 9f 21 3d bd
       -0.11032202 -0.07691701 -0.03559158 -0.04617464
000220 14 2f 0b bd 12 1b c1 bc 01 2b 40 3d 59 93 06 3d
       -0.033980444 -0.023572478 0.04691601 0.032855365
000230 c5 8b 89 bd 20 0c c7 3d 34 1b 92 3d 0b d8 f3 3d
       -0.06716112 0.097191095 0.07134095 0.11906441
000240 de be ed 37 e9 69 ea bc b6 b5 c4 3d 6a ed 91 3c
       2.8341481e-05 -0.028614955 0.09604971 0.017813403
000250 84 fd 10 bd ec 96 a1 bb 77 ba ba 3d 9c 85 5a 3d
       -0.03539802 -0.0049313214 0.091175966 0.053350076
000260 12 a5 9f 3d c5 f0 c1 bd c4 44 dc 3c eb f9 86 bc
       0.077951565 -0.09469751 0.026888259 -0.016476592
000270 53 98 52 bd 5c 7b 84 3d c2 e1 96 bd e4 d3 db bd
       -0.0514148 0.064688414 -0.07367279 -0.10733774
000280 82 58 63 3d 73 b4 22 3e c9 0d 2b 3d 9c 9e 51 3c
       0.05550433 0.15889148 0.041761193 0.012794163
000290 7d 1b 8c bd 0b ff 60 3c 47 ce 89 3a 1c 4a fc bd
       -0.068411805 0.013732682 0.0010513746 -0.12318823
0002a0 c2 b9 49 3e fc e0 4a be 9f ee 62 be 3e eb a9 bd
       0.19699767 -0.19812387 -0.22161339 -0.08296822
0002b0 ad 93 6c bd 03 eb fd bd b7 8c 4c bd 38 09 d9 bd
       -0.057758022 -0.123983406 -0.049938884 -0.105974615
0002c0 ed 49 22 3e 8e 64 11 be 7f 82 b1 3d 79 e7 37 3d
       0.15848513 -0.14198515 0.08667468 0.044898484
0002d0 36 f6 18 bd 8c cf 17 3e 9c 5d 88 bd 74 57 a8 3d
       -0.03734418 0.14825267 -0.066584796 0.08219805
0002e0 94 b4 b0 3d 3c 99 83 3c 80 0e 15 be fe 9f 26 be
       0.086281925 0.016064279 -0.14556313 -0.1627197
0002f0 ba 67 0b be 4b f5 40 3e f5 9d 06 bd 83 de a5 bd
       -0.13613787 0.18843572 -0.032865483 -0.08099081
000300 cf 88 26 3a 53 90 f4 bd 6b 6f 79 bd a7 05 39 3d
       0.00063527835 -0.1194159 -0.060897272 0.045171406
000310 98 fa 30 bd c8 66 1e bd 3e 78 65 bd 60 53 68 3d
       -0.043207735 -0.03867224 -0.056022875 0.056720138
000320 75 89 50 3d 30 2c 84 bd d6 96 79 3e ba 05 90 bd
       0.05091234 -0.064537406 0.24373946 -0.07032342
000330 ab ca 45 3d 97 b2 2d bd 2f 15 db 3d fd 3b aa 3d
       0.048288982 -0.042406645 0.106974 0.08312223
000340 da 2a 8f 3d 61 5d 4e 3d 2f 9a cd 3d 23 8e 12 be
       0.06990595 0.05038202 0.10039174 -0.14312033
000350 31 3d 8b bd 2b 8c 1d bc 85 d8 90 3a 6c 48 ce 3d
       -0.06798781 -0.009615938 0.0011050856 0.10072407
000360 90 17 90 3c c1 26 38 3b 85 6e 9a 3d 17 2a 81 3e
       0.01758936 0.002809927 0.07540611 0.25227425
000370 04 2b 2a bd fb a1 80 bd 72 7d 80 3c 73 9d 3e bd
       -0.04154493 -0.06280895 0.015684817 -0.046536874
000380 c0 8d d9 3d 33 9f 10 3d d2 cd c3 3d d5 6e 8d 3d
       0.1062274 0.035308074 0.095607415 0.06905905
000390 4e 2c 2b bd 76 ab 1a bd 6c 11 76 bc 3a ea 1e 3d
       -0.0417903 -0.037761174 -0.015018802 0.038797595
0003a0 89 bd f6 3c 29 df 24 3e e5 83 fb 3d 4c ea 96 3d
       0.030119674 0.16100754 0.12281016 0.07368907
0003b0 62 e4 c3 bd 25 cc b7 bd 3e e3 e7 bd 33 b3 5b bd
       -0.09565045 -0.08974484 -0.1132264 -0.053637695
0003c0 c8 a9 8b bd c3 96 8b 3d 97 ca 0e 3c 25 85 23 be
       -0.068194926 0.06815865 0.008715293 -0.1596876
0003d0 c7 4f 1d 3e 14 86 13 bd 5f 4f b1 bd 6e 67 93 bb
       0.15362464 -0.03601654 -0.08657717 -0.0044984138
0003e0 1d d2 8d bd dc a7 b8 3d be 7f 09 3e 0e dc ab 3b
       -0.069248416 0.09016392 0.13427636 0.0052447384
0003f0 a3 8b 4c 3c eb d7 be 3c 7b 75 5a bc 32 1a 57 bd
       0.012484464 0.023296317 -0.013333674 -0.052515216

network_body._body_endoder.seq_layers.2.bias f4 [128]
000000 d2 b8 44 3a 8d 1d a2 ba 6b c9 a6 bb 1a b3 34 ba
       0.0007504347 -0.0012368426 -0.005089929 -0.0006893143
000010 5f 94 53 ba d6 39 87 ba de 63 8b 3a c1 2c 9f 39
       -0.000807112 -0.0010316919 0.0010634621 0.00030360188
000020 29 f4 4a ba c7 24 a6 ba 57 e2 f5 38 eb 66 32 3b
       -0.0007742071 -0.0012675755 0.000117246695 0.0027221988
000030 8b 6c 34 bb 4e 88 12 bb c9 eb 00 3a 21 1e 87 ba
       -0.0027530517 -0.0022359076 0.0004917947 -0.0010308662
000040 f3 de 07 39 da c8 aa ba 38 a6 7c ba dd ec 6c ba
       0.00012957658 -0.0013029829 -0.00096378056 -0.0009037981
000050 40 a2 16 bb 51 98 a5 39 d6 07 3c bb 36 fe 38 bb
       -0.0022984892 0.00031584737 -0.0028691194 -0.0028227693
000060 98 9d a7 b9 f2 4c 80 39 33 b5 34 3a a7 31 b3 39
       -0.0003197014 0.0002447139 0.0006893456 0.00034178534
000070 0c b9 d2 ba 5d ba 9b ba ae 23 b0 ba 03 e1 86 b9
       -0.0016076877 -0.0011881102 -0.0013438368 -0.00025726118
000080 14 7e dc ba 2c 29 ee ba ce 23 0b bb cb cd 86 ba
       -0.0016822242 -0.0018170229 -0.0021231058 -0.001028472
000090 f6 b3 29 3a cd ec e5 ba 93 b6 e9 39 95 32 bf b9
       0.00064736546 -0.0017541886 0.00044577252 -0.00036468045
0000a0 3d 65 88 39 50 5e f6 39 0e e8 be bb 0e 80 b9 ba
       0.0002601537 0.00046991045 -0.005826003 -0.0014152543
0000b0 89 a3 b1 bb 7f dc 64 3b 63 60 1f 3a e3 8e 1c ba
       -0.0054211062 0.0034921465 0.00060797314 -0.00059722195
0000c0 8c 52 89 3b ee 2c 38 3a ce 1f 10 ba 63 0a 69 3b
       0.0041907486 0.0007025738 -0.00054979033 0.003555917
0000d0 af a0 08 ba ca 0b fc b8 5e 4f bd ba 69 8a 29 bb
       -0.0005211932 -0.00012018492 -0.0014443209 -0.0025869852
0000e0 89 c2 2e 38 2c fe 9a b9 89 1e 3c ba 16 af 05 bb
       4.1666008e-05 -0.00029562542 -0.0007176181 -0.0020398549
0000f0 06 71 15 bb 51 09 7e 3a 38 3c 6e bb 2e f3 07 3b
       -0.0022802963 0.00096907193 -0.003635181 0.0020744312
000100 3e 81 0b bb 5a ec 42 ba 04 cb b1 b9 ab 13 03 39
       -0.002128675 -0.0007435732 -0.0003391133 0.0001250046
000110 03 26 13 ba fc 2a 8e bb 65 f5 05 bb 42 00 6f b9
       -0.0005613269 -0.00433862 -0.0020440456 -0.00022792912
000120 86 e3 f6 3a 68 b9 07 3b ed 42 31 ba df fe 64 3b
       0.0018836118 0.0020709876 -0.0006761987 0.0034941954
000130 9f 84 4b 3b c2 54 9c b9 dd 1d 97 bb 07 e7 6a b9
       0.003105439 -0.00029817788 -0.0046117143 -0.00022402043
000140 4f 90 da 3a 73 6e 83 3a 4a 19 01 bb bf 47 20 b9
       0.0016675087 0.0010027423 -0.0019698911 -0.00015285517
000150 74 60 17 bb b9 f5 43 bb 6f 9f 00 bb 1b 8e ba bb
       -0.0023098262 -0.00299011 -0.001962628 -0.00569321
000160 9a 9f 3b 3b 71 a5 0f bb 93 22 af ba c8 5c 49 b9
       0.0028629065 -0.002191868 -0.0013361744 -0.00019203417
000170 cd 6a 2a 3a b4 85 8c ba 93 64 10 39 18 31 52 ba
       0.00065009 -0.0010720999 0.00013770377 -0.000801818
000180 13 86 e9 3a 44 a1 b0 3a 91 34 0c bb d7 b2 d2 39
       0.0017816446 0.0013475795 -0.0021393637 0.00040187567
000190 bc 74 3e ba a4 45 6c ba 31 1c aa 3b 97 ea a1 3a
       -0.00072653196 -0.0009013063 0.005191349 0.0012353238
0001a0 25 de b7 3a 10 96 00 bb 37 bc 76 b9 ef fa 56 bb
       0.0014027996 -0.0019620694 -0.00023530504 -0.0032803377
0001b0 26 f0 84 39 a9 96 9a bb 68 a0 31 ba c6 be d8 ba
       0.00025355926 -0.004717667 -0.00067759166 -0.0016536347
0001c0 e4 cd 0f 3b 14 81 66 3a 42 46 c4 3a 57 9a 29 bb
       0.0021942789 0.0008793038 0.0014974552 -0.0025879347
0001d0 47 36 4c b9 8b 7b 03 3c 8a 2b 9b 3a b0 3c 90 39
       -0.00019475176 0.00802506 0.0011838537 0.00027511036
0001e0 84 19 5e ba b5 14 90 3a 48 35 30 b9 88 79 2f 39
       -0.000847243 0.0010992499 -0.00016804517 0.00016734574
0001f0 cf a2 14 3a 38 56 ef ba af 8d 78 ba 81 7e 7e bb
       0.00056700123 -0.0018259948 -0.0009481562 -0.0038832726

action_model._continuous_distribution.mu.weight f4 [1, 128]
000000 30 89 7d 3c d8 ab 02 3d f3 1c 48 3c f5 2e 64 3c
       0.015474603 0.031902164 0.012213933 0.013927211
000010 7a f5 8b 3c d4 6a cc 3b d3 f0 83 bc 80 83 30 bc
       0.017084826 0.006238321 -0.016106045 -0.01077354
000020 e3 c8 1a bc 45 46 9a bc 61 9a 8e 3c e8 3a 3a 3c
       -0.009447309 -0.018832335 0.017407598 0.011366583
000030 85 c0 44 bc 8f 93 4b bb 3f c8 6f bc 53 a2 04 bc
       -0.012008791 -0.0031063294 -0.014635145 -0.008095342
000040 f6 cd e3 bc 15 bd 7a 3b 98 ee 97 bb 7d c6 24 bc
       -0.02780817 0.0038259674 -0.004636597 -0.010057089
000050 68 7c c5 3c d2 03 58 3c 6e 03 9b ba 84 b3 a2 bb
       0.024107173 0.013184505 -0.0011826584 -0.0049652476
000060 38 4b 25 3c 82 fc 62 bc dc 49 13 3c 64 3e 16 3d
       0.010088734 -0.013854148 0.008989777 0.036680594
000070 76 d5 1c 3a 5b 92 62 bc c1 cb a3 3b ff 06 1f bc
       0.0005982736 -0.013828839 0.0049986546 -0.009706258
000080 7c 82 70 3b e9 fc e7 39 6a 0d 6a bc df d3 d6 3c
       0.0036698868 0.00044248186 -0.014285425 0.026224075
000090 6d 92 7b 3c 61 da 4e 3c a6 73 e9 3c 16 35 a4 3b
       0.015354735 0.012625308 0.028497528 0.005011211
0000a0 58 e8 fb 3c d7 97 41 bc 78 e2 77 3a 8f 50 d5 bb
       0.030750439 -0.011815987 0.0009456049 -0.0065098475
0000b0 01 20 37 bb 66 f4 eb 3b 1c 83 e1 3c 32 dd e2 3c
       -0.002794266 0.0072007654 0.027528338 0.027693365
0000c0 3c fd 93 3c 94 d8 55 bc f1 9c 27 bd bd 21 2a bd
       0.018065087 -0.0130521245 -0.040921155 -0.04153608
0000d0 be d1 a9 3c 78 30 12 3c 72 9d 76 3c 88 28 84 b8
       0.020729896 0.008922689 0.015052186 -6.3018e-05
0000e0 91 d7 ac 3c e2 9f c7 bc ac b2 8c 3c 89 c6 a9 3c
       0.021098884 -0.02436823 0.017175041 0.020724552
0000f0 e2 d3 0c 3b d2 46 9b 3b 69 18 53 b9 a4 86 71 bc
       0.0021488597 0.004738667 -0.00020131622 -0.0147415735
000100 2d a7 ab 3b 83 e8 9a 3c 98 56 77 bc da 27 9a 3b
       0.0052384348 0.018909698 -0.015096329 0.0047044577
000110 e5 21 81 bc e5 d5 90 3a cd 18 ab 3c 66 76 8e bb
       -0.015763232 0.0011050074 0.02088585 -0.0043476103
000120 2f 7d 97 bc 84 a8 12 bd 15 0b 0d bb 05 9d f9 bc
       -0.01849231 -0.03580524 -0.0021521498 -0.03047038
000130 68 cd fb bc 7e 26 75 3c 16 a5 6d bc f5 fd ab 3c
       -0.030737594 0.0149627905 -0.014504692 0.02099512
000140 21 bf 55 bc 0f 0b e0 bc b9 90 9b bb 81 a1 71 bc
       -0.013046057 -0.027349023 -0.004747477 -0.014747978
000150 01 b5 80 bb 1b 60 62 3c f7 24 36 3b c4 27 20 3b
       -0.0039278273 0.013816859 0.002779303 0.0024437765
000160 e2 56 87 3c 17 cc 74 bb e1 4d bc ba 1d f7 b3 3c
       0.016520921 -0.0037353092 -0.0014366471 0.021968419
000170 17 bf 7e bd 2d fe 2f 3c 8d 31 06 bc e2 01 7b 3c
       -0.062193956 0.010741753 -0.008190525 0.015320273
000180 b6 0d b1 3c 63 34 8b bc 79 12 d9 bb cf ab b6 3c
       0.021612983 -0.016992753 -0.0066245166 0.022298722
000190 22 11 34 bc de c6 24 3d 56 85 6f 3c 20 11 88 bc
       -0.010990413 0.040228717 0.014619192 -0.016609728
0001a0 ae 0c d9 3b c9 3b a3 bc 37 92 bf 3b bb eb ca bc
       0.006623826 -0.019925969 0.0058462876 -0.024770608
0001b0 fc 16 a6 bc 26 3c fd b9 c6 a1 5b bc f3 9d 72 3b
       -0.020274632 -0.00048300734 -0.013405269 0.0037020415
0001c0 5b f0 b6 ba a6 13 f8 bb 3c f7 f7 3c ea a2 b9 3b
       -0.001395713 -0.0075707017 0.030269258 0.005665173
0001d0 9b 24 d3 3c c2 e5 33 bd 08 32 2b bd f3 ee 5f 3c
       0.02577429 -0.043920286 -0.04179576 0.01366781
0001e0 2e e8 fe 3b 25 e4 ff 3b 5c 51 df bb 8f 4b 56 3b
       0.007779143 0.0078091794 -0.0068151187 0.0032698845
0001f0 25 47 ee bc 4e 2f 09 3d 8e 08 ca bb 2d 63 f3 3a
       -0.029086659 0.03349238 -0.0061655706 0.0018568985

exp_avg f4 [128, 6]
000000 30 0a a6 37 a6 87 1b 38 00 00 00 00 d8 77 1b b9
       1.9793486e-05 3.7081212e-05 0.0 -0.00014826597
000010 e3 1a cc b7 00 00 00 00 7a fc 69 ba 32 22 9d 38
       -2.4331215e-05 0.0 -0.00089258666 7.492713e-05
000020 00 00 00 00 e4 77 34 ba b2 1d e3 38 00 00 00 00
       0.0 -0.000688432 0.00010829735 0.0
000030 e3 da 83 b7 8b c4 99 b8 00 00 00 00 a0 35 3f b8
       -1.5718344e-05 -7.3322175e-05 0.0 -4.558789e-05
000040 4f 39 48 b9 00 00 00 00 3b 17 5e 39 fe 0e a4 b9
       -0.00019094835 0.0 0.00021180224 -0.00031291688
000050 00 00 00 00 04 60 bf b8 00 df b3 39 00 00 00 00
       0.0 -9.125474e-05 0.00034307688 0.0
000060 8c e8 1e b9 39 2f 80 b7 00 00 00 00 0c e1 10 39
       -0.00015154685 -1.5280779e-05 0.0 0.00013816747
000070 a8 f5 e6 38 00 00 00 00 fd 72 cb 39 ae a4 31 b7
       0.00011013012 0.0 0.0003880485 -1.0588365e-05
000080 00 00 00 00 fb 09 7b b9 1f 0f 3c b9 00 00 00 00
       0.0 -0.00023940943 -0.0001793471 0.0
000090 41 d2 c2 b9 98 70 90 b7 00 00 00 00 d4 4c 0e b8
       -0.00037159215 -1.7218568e-05 0.0 -3.392699e-05
0000a0 db 3c 1c 39 00 00 00 00 61 b4 1e 38 98 5c 4c 38
       0.0001489999 0.0 3.7838126e-05 4.8723625e-05
0000b0 00 00 00 00 5e 39 44 b9 0d 5e 97 37 00 00 00 00
       0.0 -0.00018713388 1.8044399e-05 0.0
0000c0 e9 15 ac b9 b3 25 04 b9 00 00 00 00 27 26 cc 39
       -0.0003282272 -0.00012602545 0.0 0.00038938338
0000d0 e6 7b 43 b8 00 00 00 00 c5 c4 55 ba dd da 73 39
       -4.6607012e-05 0.0 -0.0008154626 0.00023255819
0000e0 00 00 00 00 bf a9 c3 b8 66 6f c7 39 00 00 00 00
       0.0 -9.329942e-05 0.00038039236 0.0
0000f0 08 f6 f1 b8 1b 6f 21 b8 00 00 00 00 f1 f2 b2 b8
       -0.000115376024 -3.8488866e-05 0.0 -8.532953e-05
000100 1d e1 19 39 00 00 00 00 27 f0 f8 b9 b0 42 a6 38
       0.00014675078 0.0 -0.00047481174 7.927918e-05
000110 00 00 00 00 66 d5 8c b9 bb e7 07 b8 00 00 00 00
       0.0 -0.00026861875 -3.2402324e-05 0.0
000120 81 a8 26 39 e6 33 a5 b7 00 00 00 00 04 15 58 b9
       0.00015893766 -1.96937e-05 0.0 -0.00020607194
000130 80 50 1c b9 00 00 00 00 01 cf ee 39 43 0a 68 b8
       -0.00014907308 0.0 0.00045549127 -5.5322667e-05
000140 00 00 00 00 42 01 25 39 2f 88 1e b9 00 00 00 00
       0.0 0.00015736095 -0.00015118787 0.0
000150 12 9c 93 39 50 ef 1a b8 00 00 00 00 56 a7 2f b8
       0.00028154306 -3.693934e-05 0.0 -4.1879095e-05
000160 a8 25 7b 39 00 00 00 00 a7 42 81 38 f8 0d fb b8
       0.00023951253 0.0 6.163614e-05 -0.000119712146
000170 00 00 00 00 e0 05 e4 38 c2 ec 96 b8 00 00 00 00
       0.0 0.000108729815 -7.196657e-05 0.0
000180 a4 76 42 3a 91 47 13 b9 00 00 00 00 2d 31 e5 39
       0.00074181915 -0.00014045673 0.0 0.00043714923
000190 3b 6f 64 b9 00 00 00 00 41 64 ca b9 36 95 17 38
       -0.00021785211 0.0 -0.00038603137 3.614017e-05
0001a0 00 00 00 00 ce d8 ce 38 66 94 36 39 00 00 00 00
       0.0 9.8632285e-05 0.00017412155 0.0
0001b0 49 6d 31 3a 07 45 3f b8 00 00 00 00 aa b2 1e 3a
       0.0006768299 -4.5602235e-05 0.0 0.00060538447
0001c0 9e 1b 39 37 00 00 00 00 16 12 54 3a 05 b6 e5 b8
       1.1033289e-05 0.0 0.0008089853 -0.00010953475
0001d0 00 00 00 00 b1 8d 4c 3a 64 4a c4 b8 00 00 00 00
       0.0 0.0007803096 -9.3598646e-05 0.0
0001e0 98 f9 5d b8 e6 45 0b 37 00 00 00 00 a5 54 92 38
       -5.292296e-05 8.30132e-06 0.0 6.977589e-05
0001f0 2e 5a 90 38 00 00 00 00 db 2c 2d b9 4f a9 eb b7
       6.883252e-05 0.0 -0.00016515276 -2.8093024e-05
000200 00 00 00 00 1b 59 7d b8 23 54 94 38 00 00 00 00
       0.0 -6.0402886e-05 7.0728616e-05 0.0
000210 68 fa b4 ba ee 96 91 39 00 00 00 00 52 d5 2f 39
       -0.0013807537 0.00027769007 0.0 0.00016768769
000220 20 27 38 39 00 00 00 00 8b e7 1b 3a 95 ae eb 37
       0.00017562183 0.0 0.00059472834 2.809548e-05
000230 00 00 00 00 bf 29 c3 b9 ce 14 d7 38 00 00 00 00
       0.0 -0.00037224402 0.00010255874 0.0
000240 7d 01 e9 b8 97 aa e9 b5 00 00 00 00 f7 2c 30 b9
       -0.00011110583 -1.7409501e-06 0.0 -0.00016801419
000250 33 3b e6 b5 00 00 00 00 e6 57 9c 39 98 32 3e b9
       -1.7153565e-06 0.0 0.00029820128 -0.0001813866
000260 00 00 00 00 92 ce a7 39 d8 2e 07 b9 00 00 00 00
       0.0 0.0003200663 -0.00012892054 0.0
000270 af 69 c1 38 d1 70 05 b8 00 00 00 00 0a 96 5c 39
       9.222642e-05 -3.181474e-05 0.0 0.00021036729
000280 6e aa fa 38 00 00 00 00 bc 36 67 39 7d 19 2d b8
       0.00011952674 0.0 0.00022050267 -4.1270152e-05
000290 00 00 00 00 ec 42 27 39 cf b4 c7 b8 00 00 00 00
       0.0 0.00015951291 -9.522738e-05 0.0
0002a0 ba 46 21 b9 50 5a 4d 39 00 00 00 00 14 ab 8f ba
       -0.00015380504 0.00019583968 0.0 -0.001096102
0002b0 c9 3b cb b8 00 00 00 00 cc 8d 9f b9 fd 6c 2c b8
       -9.69093e-05 0.0 -0.0003043249 -4.11095e-05
0002c0 00 00 00 00 d1 47 b0 39 f2 0a 84 39 00 00 00 00
       0.0 0.00033622843 0.00025185157 0.0
0002d0 0f f3 98 39 f0 d0 92 38 00 00 00 00 8b 45 7e b9
       0.00029172792 7.00074e-05 0.0 -0.00024249234
0002e0 2f 0b 4b b9 00 00 00 00 68 6b 23 39 46 a8 26 38
       -0.00019363755 0.0 0.00015584903 3.97342e-05
0002f0 00 00 00 00 51 0e 12 b9 0f c8 4b 39 00 00 00 00
       0.0 -0.00013928978 0.00019434116 0.0
000300 3e 25 f9 b9 b1 40 8d b8 00 00 00 00 3f ac 58 b9
       -0.0004752073 -6.735454e-05 0.0 -0.00020663532
000310 b9 a1 da b8 00 00 00 00 31 7e ee b8 56 21 aa b8
       -0.00010425173 0.0 -0.00011372229 -8.112441e-05
000320 00 00 00 00 fb 91 8c 39 2b 8a cc b8 00 00 00 00
       0.0 0.00026811645 -9.753214e-05 0.0
000330 6a 81 c4 39 54 0c ac b8 00 00 00 00 82 05 e5 b8
       0.00037480454 -8.2038954e-05 0.0 -0.00010920597
000340 39 05 2c b9 00 00 00 00 2c 37 27 39 b1 19 fa b6
       -0.00016405144 0.0 0.00015946914 -7.4535715e-06
000350 00 00 00 00 0d 1a b1 b5 89 f0 e8 37 00 00 00 00
       0.0 -1.319511e-06 2.7768563e-05 0.0
000360 8b b3 7a b8 85 86 c2 b7 00 00 00 00 10 ab b1 37
       -5.9771857e-05 -2.3189243e-05 0.0 2.1179701e-05
000370 94 fb ee 38 00 00 00 00 d1 c1 8a 38 f6 cc d1 b7
       0.000113955844 0.0 6.616454e-05 -2.5010184e-05
000380 00 00 00 00 0f 47 8c b8 19 c2 3f b8 00 00 00 00
       0.0 -6.688956e-05 -4.5718716e-05 0.0
000390 42 06 49 38 14 34 88 38 00 00 00 00 e8 ef 34 b8
       4.7927962e-05 6.494686e-05 0.0 -4.3138774e-05
0003a0 9b a2 97 37 00 00 00 00 83 ba f2 38 12 65 12 38
       1.8076322e-05 0.0 0.000115742 3.490324e-05
0003b0 00 00 00 00 29 98 bc 38 5a 41 2b 39 00 00 00 00
       0.0 8.9928806e-05 0.00016332176 0.0
0003c0 cd 21 09 39 53 d0 9e 37 00 00 00 00 d1 3b 36 b8
       0.0001307793 1.8932076e-05 0.0 -4.344789e-05
0003d0 e9 06 6a 38 00 00 00 00 43 aa 05 39 52 a1 c5 36
       5.5796383e-05 0.0 0.00012747296 5.8898377e-06
0003e0 00 00 00 00 32 d5 af b8 28 7b b9 b4 00 00 00 00
       0.0 -8.384361e-05 -3.4548543e-07 0.0
0003f0 d3 de 69 3a 98 8e 8b 37 00 00 00 00 a7 e8 08 38
       0.0008921448 1.6636492e-05 0.0 3.26416e-05

exp_avg_sq f4 [128, 6]
000000 10 1e 83 34 0e 6f d6 32 00 00 00 00 32 cf 13 34
       2.4422525e-07 2.496338e-08 0.0 1.3765819e-07
000010 be b1 0d 33 00 00 00 00 85 de 65 36 1b 76 af 33
       3.2990776e-08 0.0 3.4253183e-06 8.170556e-08
000020 00 00 00 00 4e e0 46 35 9d 95 80 34 00 00 00 00
       0.0 7.4087154e-07 2.3950716e-07 0.0
000030 86 20 70 35 8a 18 54 33 00 00 00 00 a8 27 92 34
       8.9454295e-07 4.9382415e-08 0.0 2.7223473e-07
000040 e5 10 9c 33 00 00 00 00 0d b4 31 36 ca c3 8c 34
       7.267389e-08 0.0 2.6479859e-06 2.6219487e-07
000050 00 00 00 00 50 9f 07 35 11 b1 8d 34 00 00 00 00
       0.0 5.052325e-07 2.639213e-07 0.0
000060 3d 78 cd 35 53 99 19 34 00 00 00 00 9f b8 3a 35
       1.5308684e-06 1.4305014e-07 0.0 6.955906e-07
000070 ed d1 20 34 00 00 00 00 8a ea d2 35 dd 79 09 34
       1.4977532e-07 0.0 1.5714479e-06 1.2803453e-07
000080 00 00 00 00 3b 98 1e 35 57 64 48 34 00 00 00 00
       0.0 5.908111e-07 1.8662955e-07 0.0
000090 54 44 39 35 9a ce d2 32 00 00 00 00 67 53 52 34
       6.90173e-07 2.4541169e-08 0.0 1.9588116e-07
0000a0 d6 5a 88 33 00 00 00 00 11 8b f8 33 e4 4c 95 31
       6.3495165e-08 0.0 1.1573696e-07 4.345212e-09
0000b0 00 00 00 00 de 41 06 33 92 13 87 32 00 00 00 00
       0.0 3.1259212e-08 1.5724968e-08 0.0
0000c0 18 9c 3f 35 f8 da d0 33 00 00 00 00 ad f7 f7 34
       7.138019e-07 9.725585e-08 0.0 4.6187543e-07
0000d0 65 ab e6 33 00 00 00 00 df f5 4c 36 61 dd 72 34
       1.0741386e-07 0.0 3.0541485e-06 2.2618543e-07
0000e0 00 00 00 00 c8 b5 a7 35 8b c6 a3 34 00 00 00 00
       0.0 1.2495375e-06 3.0505575e-07 0.0
0000f0 dc 2b 8c 35 3d a5 b5 32 00 00 00 00 d1 54 79 34
       1.0443578e-06 2.1146315e-08 0.0 2.3220788e-07
000100 42 30 41 33 00 00 00 00 1a fd b9 34 a9 ed 6c 32
       4.4980204e-08 0.0 3.464309e-07 1.3791046e-08
000110 00 00 00 00 e8 86 e1 33 98 a2 fd 32 00 00 00 00
       0.0 1.0501918e-07 2.9527015e-08 0.0
000120 af 67 c7 34 86 36 17 33 00 00 00 00 c3 0e 30 34
       3.7142078e-07 3.5207016e-08 0.0 1.6396648e-07
000130 73 74 24 33 00 00 00 00 1f eb 90 35 df 62 e3 33
       3.8290136e-08 0.0 1.0797265e-06 1.0588496e-07
000140 00 00 00 00 d0 2f 07 35 26 18 c1 33 00 00 00 00
       0.0 5.0360995e-07 8.9916554e-08 0.0
000150 2f d7 0c 35 5f 22 38 33 00 00 00 00 5b d7 27 34
       5.24672e-07 4.28721e-08 0.0 1.5631433e-07
000160 ae 75 37 33 00 00 00 00 13 f2 dd 34 39 fe 21 33
       4.2715037e-08 0.0 4.134059e-07 3.7716948e-08
000170 00 00 00 00 61 63 50 34 76 c8 38 33 00 00 00 00
       0.0 1.9407663e-07 4.3023157e-08 0.0
000180 20 98 1b 36 c2 21 98 33 00 00 00 00 5f d9 19 35
       2.3185348e-06 7.084192e-08 0.0 5.731326e-07
000190 1a 27 4c 34 00 00 00 00 92 38 64 35 df 43 a4 33
       1.9013206e-07 0.0 8.501894e-07 7.649191e-08
0001a0 00 00 00 00 4a 00 d6 34 47 21 ac 33 00 00 00 00
       0.0 3.9860817e-07 8.015427e-08 0.0
0001b0 fc a0 6a 36 c5 0f ad 33 00 00 00 00 27 49 55 35
       3.4962422e-06 8.058809e-08 0.0 7.9455134e-07
0001c0 7d 60 97 34 00 00 00 00 31 a5 8c 36 be f7 f1 33
       2.8196146e-07 0.0 4.191556e-06 1.1267501e-07
0001d0 00 00 00 00 87 61 9d 35 92 9a c2 34 00 00 00 00
       0.0 1.1725796e-06 3.624778e-07 0.0
0001e0 f4 88 2f 35 b5 52 87 33 00 00 00 00 5b 4b 99 34
       6.5391873e-07 6.301472e-08 0.0 2.85533e-07
0001f0 3f 03 92 33 00 00 00 00 7a 25 2c 34 75 f6 a6 31
       6.799245e-08 0.0 1.6032382e-07 4.8592548e-09
000200 00 00 00 00 3f eb 06 33 94 03 ac 32 00 00 00 00
       0.0 3.141326e-08 2.0025062e-08 0.0
000210 88 cd d1 35 b2 a0 d5 33 00 00 00 00 21 58 46 35
       1.5631531e-06 9.947816e-08 0.0 7.388899e-07
000220 fc e0 39 34 00 00 00 00 4c 33 e2 34 2a 7e 0f 33
       1.7311316e-07 0.0 4.2133104e-07 3.3409528e-08
000230 00 00 00 00 f0 3a f4 33 ba e1 16 33 00 00 00 00
       0.0 1.1372856e-07 3.5129894e-08 0.0
000240 04 cd 1f 34 ad 62 80 32 00 00 00 00 83 dd ee 32
       1.4882613e-07 1.4946034e-08 0.0 2.7807578e-08
000250 5b c4 03 33 00 00 00 00 ed 56 ba 35 28 6a 75 33
       3.06794e-08 0.0 1.3883379e-06 5.7140056e-08
000260 00 00 00 00 50 fe c5 34 27 9f f1 33 00 00 00 00
       0.0 3.6879146e-07 1.1251387e-07 0.0
000270 a9 01 d1 34 70 c1 57 32 00 00 00 00 03 72 17 34
       3.8930492e-07 1.255863e-08 0.0 1.4104448e-07
000280 da 28 52 33 00 00 00 00 0a e6 48 35 da 3c 87 32
       4.893159e-08 0.0 7.4840557e-07 1.574374e-08
000290 00 00 00 00 14 e5 32 34 7a 54 26 33 00 00 00 00
       0.0 1.666088e-07 3.8726718e-08 0.0
0002a0 c3 90 27 36 4c c3 4d 34 00 00 00 00 f7 41 79 35
       2.4969202e-06 1.9163161e-07 0.0 9.285572e-07
0002b0 f0 2a 67 34 00 00 00 00 59 56 76 35 9a 8a 88 33
       2.1529172e-07 0.0 9.1767794e-07 6.358205e-08
0002c0 00 00 00 00 eb 7b 6b 34 0c f7 00 34 00 00 00 00
       0.0 2.1931162e-07 1.2010804e-07 0.0
0002d0 c5 4d af 34 62 a5 c8 32 00 00 00 00 75 de 8b 33
       3.2652875e-07 2.3358272e-08 0.0 6.5131566e-08
0002e0 4f 4d 51 33 00 00 00 00 b0 93 da 33 c1 32 91 31
       4.8731916e-08 0.0 1.017828e-07 4.2258255e-09
0002f0 00 00 00 00 e8 b4 1a 33 f1 99 55 32 00 00 00 00
       0.0 3.6020452e-08 1.2433234e-08 0.0
000300 cc 3c e5 34 28 77 2c 32 00 00 00 00 85 ad 63 33
       4.269881e-07 1.0038811e-08 0.0 5.301037e-08
000310 65 e3 08 33 00 00 00 00 8d 77 56 35 94 f8 cc 32
       3.187178e-08 0.0 7.989518e-07 2.3861766e-08
000320 00 00 00 00 4a f0 4e 34 c3 30 4a 33 00 00 00 00
       0.0 1.9272662e-07 4.707614e-08 0.0
000330 fb a6 c4 34 98 91 f2 32 00 00 00 00 3e 56 e9 33
       3.662934e-07 2.8238716e-08 0.0 1.08655954e-07
000340 d1 ff 35 33 00 00 00 00 1c e3 ea 33 f9 e1 43 31
       4.237501e-08 0.0 1.0937785e-07 2.8504685e-09
000350 00 00 00 00 a2 43 5b 33 2b 2f 44 32 00 00 00 00
       0.0 5.1051423e-08 1.1419426e-08 0.0
000360 d3 9f a8 35 b2 bf 1a 34 00 00 00 00 0a 34 1a 35
       1.256349e-06 1.4412106e-07 0.0 5.74452e-07
000370 5d 75 03 34 00 00 00 00 23 4a b6 33 b6 14 06 32
       1.2243022e-07 0.0 8.488521e-08 7.804536e-09
000380 00 00 00 00 1e e9 14 33 4a 01 cb 31 00 00 00 00
       0.0 3.4670954e-08 5.908224e-09 0.0
000390 92 dd 0b 34 b2 87 54 31 00 00 00 00 f3 ca b2 33
       1.302599e-07 3.0927194e-09 0.0 8.325687e-08
0003a0 08 42 60 32 00 00 00 00 5b 95 46 34 e2 0a 97 31
       1.305353e-08 0.0 1.8494522e-07 4.3959156e-09
0003b0 00 00 00 00 bf b1 b2 33 a3 ed d7 32 00 00 00 00
       0.0 8.321103e-08 2.5137359e-08 0.0
0003c0 bd a0 19 34 d4 75 68 32 00 00 00 00 ec 92 61 33
       1.4307712e-07 1.3530968e-08 0.0 5.252052e-08
0003d0 30 45 05 33 00 00 00 00 0a 59 2a 34 d3 e4 9c 32
       3.10294e-08 0.0 1.5864876e-07 1.8264847e-08
0003e0 00 00 00 00 d5 4c a9 33 95 de 78 32 00 00 00 00
       0.0 7.8836514e-08 1.4486109e-08 0.0
0003f0 b2 06 4c 35 74 58 70 33 00 00 00 00 c6 57 9d 34
       7.6005665e-07 5.5959802e-08 0.0 2.9307392e-07

exp_avg f4 [128]
000000 81 04 2c 36 6e b1 c7 38 72 37 5b b8 73 25 ac b6
       2.563262e-06 9.522108e-05 -5.2265306e-05 -5.130359e-06
000010 25 ad 15 b7 20 86 44 38 1a 17 c5 37 44 0f 3e b7
       -8.921405e-06 4.6854955e-05 2.3494988e-05 -1.1328437e-05
000020 66 7c e1 b7 85 56 e7 b7 6e b5 ac 37 f2 6d 82 38
       -2.6880018e-05 -2.7577635e-05 2.0588483e-05 6.219362e-05
000030 bd 95 f0 36 a8 22 13 37 70 24 03 b8 c4 ea 65 b8
       7.169989e-06 8.769952e-06 -3.126677e-05 -5.4816497e-05
000040 7a 9d d9 b8 88 d8 b8 b7 ea d0 aa b8 55 63 cb b8
       -0.000103766986 -2.203534e-05 -8.145145e-05 -9.698296e-05
000050 22 89 df b6 b3 f5 d2 36 96 a3 c5 b3 6d 3a 96 37
       -6.6618823e-06 6.287091e-06 -9.2032835e-08 1.79086e-05
000060 16 b6 18 b6 5f 63 8b b8 10 bc 90 b7 44 2a d1 b7
       -2.2755753e-06 -6.646546e-05 -1.7253711e-05 -2.4934423e-05
000070 c1 c4 05 39 90 77 28 b8 0a a3 17 38 06 07 a4 37
       0.00012757165 -4.0165673e-05 3.6153047e-05 1.9553594e-05
000080 0c 13 b9 35 dd 6e ad b7 63 9b 41 38 79 fb 15 b4
       1.3789117e-06 -2.0674832e-05 4.61595e-05 -1.3968192e-07
000090 10 a8 41 b7 1e 22 e4 b5 44 0f cb b6 0e 0e 62 b7
       -1.15428265e-05 -1.6997253e-06 -6.0516486e-06 -1.3473922e-05
0000a0 2d 12 89 b7 60 2c 2a 36 a9 06 80 38 cb 7e 50 37
       -1.6340136e-05 2.5357804e-06 6.104756e-05 1.2427287e-05
0000b0 f1 21 8c b7 b2 30 dd 36 a9 b9 ec b6 7c 43 4c b8
       -1.6705106e-05 6.591982e-06 -7.0549618e-06 -4.870024e-05
0000c0 b3 5e 07 38 b9 43 e9 37 c2 1c c8 b7 6b 31 8b b7
       3.2274704e-05 2.78073e-05 -2.385525e-05 -1.6593103e-05
0000d0 7c 82 f6 36 da c8 d5 37 03 85 01 b8 52 77 e3 35
       7.3465617e-06 2.5485107e-05 -3.0879874e-05 1.6947545e-06
0000e0 45 bd 01 38 bc c4 76 38 04 2f 85 b8 93 4f d5 b8
       3.0932268e-05 5.8834194e-05 -6.3506915e-05 -0.00010171453
0000f0 d1 65 60 b8 3c d6 b0 37 3f 68 0b b6 8e 5c a7 38
       -5.3500586e-05 2.1080596e-05 -2.0773293e-06 7.98042e-05
000100 47 1e 83 b6 70 f7 c2 36 61 2b 49 b8 f1 6b ba b6
       -3.907629e-06 5.810456e-06 -4.7962534e-05 -5.555798e-06
000110 7c 0c bb 36 28 32 40 38 a3 86 0a 31 a2 46 d0 37
       5.5744877e-06 4.582308e-05 2.0158175e-09 2.4828423e-05
000120 dd 25 02 38 ee d2 11 b8 0b bb 36 b7 5a ca e8 b7
       3.102968e-05 -3.4767138e-05 -1.0891595e-05 -2.7750782e-05
000130 d5 fe f0 37 56 a3 33 38 76 1b 17 38 a3 49 67 37
       2.8728895e-05 4.2829044e-05 3.602678e-05 1.3785818e-05
000140 5c e3 82 37 b7 1a 10 38 6a 44 ce 38 b2 8a 21 38
       1.560308e-05 3.4357156e-05 9.8355886e-05 3.851456e-05
000150 fe 5b e1 37 0c 10 5d b8 e6 7c bc b7 21 e1 dc b7
       2.6864927e-05 -5.270545e-05 -2.2469507e-05 -2.6330878e-05
000160 77 93 3a 38 0c 6b 8c 37 d7 ff a8 38 04 0c 39 b8
       4.4483193e-05 1.6739148e-05 8.058518e-05 -4.4118628e-05
000170 bf 5d 82 38 ee 64 e2 37 a4 07 8d 38 59 a4 1a 39
       6.2163446e-05 2.6988298e-05 6.724827e-05 0.00014747809
000180 7c 60 1d b7 1e be bb 38 73 0b 48 b6 b5 a2 2c b7
       -9.380394e-06 8.952267e-05 -2.9808987e-06 -1.0289882e-05
000190 ab 18 b1 38 8f 2f d7 b7 d3 08 af 37 99 d5 be 37
       8.4446125e-05 -2.5652143e-05 2.0865735e-05 2.274923e-05
0001a0 9d f6 9c 38 86 e5 34 37 ef 54 70 b7 02 fc 48 b8
       7.484595e-05 1.0782276e-05 -1.432489e-05 -4.7918416e-05
0001b0 94 17 00 b6 19 d1 b1 b7 23 d7 3d 38 8c d5 84 b8
       -1.908721e-06 -2.1197413e-05 4.5261473e-05 -6.334027e-05
0001c0 97 0e 08 38 cf a2 95 38 72 e5 85 38 2b 8e 13 b8
       3.2438515e-05 7.135199e-05 6.384672e-05 -3.5179935e-05
0001d0 c4 05 2a 38 ec 92 ed b7 59 a0 89 38 70 ce 2c b7
       4.0536528e-05 -2.8321017e-05 6.562536e-05 -1.0300064e-05
0001e0 b6 5c 08 38 5c 71 83 37 fb 2a 5f b8 64 9b 0b 38
       3.251127e-05 1.5669204e-05 -5.3207372e-05 3.32849e-05
0001f0 d9 b1 8c b8 bb cf 9a b7 eb e1 5c b7 63 e3 23 b8
       -6.708847e-05 -1.8454963e-05 -1.31656225e-05 -3.9074e-05

exp_avg_sq f4 [128]
000000 64 82 73 31 84 b2 56 33 c0 c9 60 32 49 b3 39 33
       3.5435272e-09 4.9988117e-08 1.3084389e-08 4.3236728e-08
000010 f8 a2 c4 32 e5 a8 d3 32 11 6f 3d 32 a5 5f 04 31
       2.2891513e-08 2.4640437e-08 1.10265015e-08 1.9262896e-09
000020 d6 3d 29 32 a8 a9 34 33 91 4e 81 32 8d ba ad 31
       9.851155e-09 4.2063817e-08 1.5053304e-08 5.056171e-09
000030 ec 62 af 31 98 20 89 32 03 2a 19 32 ed 6d e0 31
       5.1044164e-09 1.5963721e-08 8.9153245e-09 6.531755e-09
000040 66 50 0b 33 b0 4e 55 32 50 a5 5a 33 37 ac 81 33
       3.243658e-08 1.2416123e-08 5.090743e-08 6.038356e-08
000050 ed 92 23 32 9e 2c 1b 31 0b 3c de 32 e9 c9 c6 31
       9.521256e-09 2.258083e-09 2.5871506e-08 5.785513e-09
000060 4d f4 42 31 94 80 ac 32 5b 43 c0 31 65 22 39 32
       2.8369584e-09 2.0081906e-08 5.595593e-09 1.0776238e-08
000070 26 ed 15 33 b3 85 6a 32 2a 06 a8 31 81 bf b3 30
       3.490745e-08 1.3650992e-08 4.8901443e-09 1.3078393e-09
000080 70 86 cd 31 9e c9 48 32 ef 63 b5 31 ed 54 d4 30
       5.981569e-09 1.1687375e-08 5.2791544e-09 1.5449168e-09
000090 22 6e 9a 32 39 4f b1 30 32 31 f4 30 ff 42 35 31
       1.7978042e-08 1.2900961e-09 1.7767319e-09 2.637705e-09
0000a0 5f 53 43 31 be 63 1b 31 f3 9a 53 32 e8 60 31 32
       2.8423626e-09 2.2612165e-09 1.2317048e-08 1.032479e-08
0000b0 ef 26 14 31 66 73 04 31 14 60 e2 33 e4 4f 78 31
       2.1558966e-09 1.9274125e-09 1.05414216e-07 3.6134162e-09
0000c0 7c 90 a0 31 0b 65 5b 31 19 c7 33 31 65 57 e8 30
       4.673039e-09 3.192613e-09 2.6161102e-09 1.6905061e-09
0000d0 23 22 3c 31 b9 14 05 32 a6 b5 98 32 70 6c e6 31
       2.7377005e-09 7.746331e-09 1.7777733e-08 6.706209e-09
0000e0 a3 06 6b 32 b0 d8 68 31 b8 95 40 33 19 81 0a 33
       1.3680309e-08 3.3883616e-09 4.4839652e-08 3.2248042e-08
0000f0 9b be 40 32 c1 91 90 31 85 c7 53 32 3c 23 a7 31
       1.121921e-08 4.207522e-09 1.2327182e-08 4.8643454e-09
000100 16 20 c6 31 f8 28 a5 31 fe d1 e2 31 ab 08 25 32
       5.766206e-09 4.8067896e-09 6.601339e-09 9.606235e-09
000110 08 ab d6 30 45 be 9e 31 c3 02 6d 31 a3 12 00 33
       1.5619159e-09 4.6200364e-09 3.448961e-09 2.9819272e-08
000120 41 f9 99 32 45 f3 86 32 9b 18 a0 32 66 d4 14 32
       1.7924892e-08 1.571028e-08 1.863764e-08 8.663028e-09
000130 c3 1c 27 32 3c b6 5f 32 f9 9b fe 31 ec a5 b7 33
       9.727219e-09 1.3021744e-08 7.410105e-09 8.5517826e-08
000140 8e 0d 3f 31 be db 62 31 f6 75 0e 33 99 fb 59 31
       2.7801863e-09 3.3012237e-09 3.3169236e-08 3.1720673e-09
000150 5e 7f 47 31 98 ed a4 32 f8 85 d0 30 a7 9b 08 32
       2.9030711e-09 1.9200158e-08 1.5172068e-09 7.951633e-09
000160 92 e7 42 31 6f 6b 78 32 27 ea 9f 32 37 86 46 32
       2.8362348e-09 1.44599275e-08 1.8616516e-08 1.1555634e-08
000170 03 24 1b 33 00 b7 ea 32 8f aa 69 32 2e 52 91 33
       3.6121502e-08 2.7324404e-08 1.36011655e-08 6.767037e-08
000180 99 98 c9 30 f3 94 fc 31 01 0e b3 30 bb bb 17 31
       1.4668046e-09 7.351099e-09 1.3027944e-09 2.2080104e-09
000190 b2 30 59 32 30 3d ce 31 96 34 93 32 94 5f dc 32
       1.26421345e-08 6.0023453e-09 1.7136966e-08 2.5654835e-08
0001a0 ad a1 85 32 b1 4c 02 32 21 21 07 33 56 db bf 31
       1.555676e-08 7.5844335e-09 3.1462267e-08 5.5837672e-09
0001b0 72 6a 64 30 f2 2a 2f 32 45 fc 58 32 8f 0a 95 33
       8.3097185e-10 1.0196105e-08 1.2630214e-08 6.940274e-08
0001c0 b8 1f 2a 30 35 7a 82 32 53 66 73 32 60 ff 4e 33
       6.1890715e-10 1.5189565e-08 1.4167727e-08 4.8195375e-08
0001d0 ca 74 9b 32 4a 1a 83 30 a8 79 f2 32 b1 5b 9c 32
       1.8097484e-08 9.538976e-10 2.822783e-08 1.8202487e-08
0001e0 01 94 ae 33 a1 4d d5 2f 92 96 74 32 f2 92 91 32
       8.129428e-08 3.8799633e-10 1.4236905e-08 1.6947045e-08
0001f0 77 4d 81 32 83 75 29 31 a1 d7 c8 31 86 ed ca 31
       1.5052803e-08 2.4659534e-09 5.8452803e-09 5.905977e-09
