results/1/MoveThePlayer/MoveThePlayer-4894.onnx (onnx, 72119 bytes, 5 tensors)

action_model._continuous_distribution.mu.weight f4 [1, 128]
0	0xbc027487	-0.007962353
1	0x3a9f63ff	0.0012160538
2	0x3b13f3fd	0.0022575848
3	0xbd4632ca	-0.04838828
4	0xbd2b3697	-0.041800108
5	0xbcb3cdb5	-0.021948675
6	0xbbba96e0	-0.005694255
7	0x3cf5ea0d	0.03001883
8	0x3b296af7	0.002585111
9	0xbccc006f	-0.02490255
10	0xbce7c3ca	-0.028291602
11	0x3c0a1b1b	0.008429314
12	0x3b0322d9	0.0020009784
13	0xbb2a55f4	-0.0025991173
14	0xbc2a4dd0	-0.0103945285
15	0x3b65a783	0.0035042472
16	0xbd47c6ff	-0.04877376
17	0xbb39b613	-0.0028337284
18	0x3d1078a9	0.03527132
19	0x3b703582	0.0036652987
20	0x3c04302d	0.008068127
21	0x3d2bd1cf	0.041948136
22	0x3c16b16f	0.009197577
23	0xbbcd6ca7	-0.006269056
24	0xbc382152	-0.011238413
25	0xbbe45738	-0.006968405
26	0x3c3c99f7	0.011511317
27	0xbcaa161c	-0.020762496
28	0xbbb8d7fd	-0.005640982
29	0xbbb8fd6d	-0.005645445
30	0xbc9827a8	-0.018573597
31	0x3d073313	0.033007693
32	0xbc882c5b	-0.016622713
33	0x3cf9acbb	0.030477872
34	0xbc4a26dc	-0.012338366
35	0x3cd189c3	0.025578385
36	0x3c943a3a	0.01809417
37	0x3c4e0fba	0.012576992
38	0x3cb7e20d	0.022446657
39	0x3b21c0b7	0.0024681517
40	0xbc99833e	-0.018739339
41	0x3c7b9365	0.015354966
42	0x3d2e0cd8	0.042492718
43	0x3c1c7744	0.0095499195
44	0x3d00a433	0.031406593
45	0xbbf9bcb2	-0.007621371
46	0xbc544d43	-0.012957874
47	0x3bd6709b	0.0065441853
48	0xbb0a070a	-0.0021061325
49	0x3b0c282f	0.0021386256
50	0x3ad7c562	0.0016462023
51	0x3c79fc1d	0.015257862
52	0x3c401db7	0.011725835
53	0x3b5379f2	0.003226873
54	0x3c3efde0	0.011657208
55	0xbc519303	-0.012791398
56	0x3c1f8aee	0.009737713
57	0x3c3c1bc2	0.011481227
58	0x3b0b03c8	0.002121197
59	0x3abcb61d	0.0014397536
60	0x3c5317cb	0.012884091
61	0x3c420b92	0.011843579
62	0x3c8d4cc7	0.017248524
63	0xbc4cc167	-0.012497283
64	0xbb4ae54d	-0.0030959428
65	0x3d19678b	0.037452262
66	0xbb731372	-0.0037090448
67	0x3c775fa3	0.015098485
68	0x3c186b47	0.009302921
69	0xbc4ca2aa	-0.012489954
70	0x3bc45197	0.0059911716
71	0x3c29c8bf	0.010362803
72	0x3bca83ee	0.006180278
73	0xbbbfbe12	-0.0058515156
74	0x3c57b497	0.013165615
75	0x3cc0bc91	0.023527415
76	0xbc8f76ee	-0.017512765
77	0x3cb4e197	0.022080226
78	0x3c362b0b	0.011118661
79	0xb8a2bdef	-7.76014e-05
80	0x3bdcd932	0.006739759
81	0xbc68f0f5	-0.014217605
82	0xbbc44d94	-0.0059906933
83	0xbc3f24ed	-0.011666519
84	0xbc08bb7a	-0.008345479
85	0xbc859713	-0.01630739
86	0xbc24f347	-0.010067767
87	0xbd086c0f	-0.033306178
88	0x3d0bb9ca	0.03411273
89	0x3c49f3df	0.01232621
90	0xbccc8c62	-0.024969283
91	0xbc953f43	-0.018218642
92	0x3a8aa1c5	0.0010576776
93	0x3c24d32b	0.010060112
94	0xbb4a3d34	-0.0030859234
95	0x3bfa1840	0.0076322854
96	0xbc05f5a8	-0.008176245
97	0x3ae15b67	0.0017193378
98	0xbbd51e9f	-0.0065038945
99	0xbcef96dd	-0.029246742
100	0xbc9c5273	-0.019082284
101	0xbab19862	-0.0013549442
102	0x3c29ddfb	0.010367866
103	0x3b20bef4	0.002452788
104	0x3c90e6ff	0.017688273
105	0x3c9a5e4c	0.018843792
106	0xbd37d2e9	-0.044878874
107	0x3cc9e403	0.024644857
108	0x3af2314a	0.0018477824
109	0xbce89d83	-0.02839542
110	0xbd2b9314	-0.04188831
111	0xbbffe182	-0.007808865
112	0x3ad46425	0.0016204162
113	0x3c78395f	0.015150397
114	0xbbe672a7	-0.0070327106
115	0xbb00099a	-0.0019536973
116	0x3cbcc8a0	0.023044884
117	0xbce766cd	-0.028247261
118	0x3b27d88b	0.0025611247
119	0xbb941125	-0.0045186453
120	0xbcbe3469	-0.02321835
121	0x3c85f344	0.01635135
122	0xbc93dd19	-0.018049764
123	0xbc4c91dc	-0.012485947
124	0x3b983a9e	0.0046456596
125	0xbb3245a6	-0.0027202158
126	0x3ca98d02	0.02069712
127	0x3d8af4c8	0.067849696

network_body._body_endoder.seq_layers.0.bias f4 [128]
0	0x00000000	0.0
1	0x00000000	0.0
2	0x00000000	0.0
3	0x00000000	0.0
4	0x00000000	0.0
5	0x00000000	0.0
6	0x00000000	0.0
7	0x00000000	0.0
8	0x00000000	0.0
9	0x00000000	0.0
10	0x00000000	0.0
11	0x00000000	0.0
12	0x00000000	0.0
13	0x00000000	0.0
14	0x00000000	0.0
15	0x00000000	0.0
16	0x00000000	0.0
17	0x00000000	0.0
18	0x00000000	0.0
19	0x00000000	0.0
20	0x00000000	0.0
21	0x00000000	0.0
22	0x00000000	0.0
23	0x00000000	0.0
24	0x00000000	0.0
25	0x00000000	0.0
26	0x00000000	0.0
27	0x00000000	0.0
28	0x00000000	0.0
29	0x00000000	0.0
30	0x00000000	0.0
31	0x00000000	0.0
32	0x00000000	0.0
33	0x00000000	0.0
34	0x00000000	0.0
35	0x00000000	0.0
36	0x00000000	0.0
37	0x00000000	0.0
38	0x00000000	0.0
39	0x00000000	0.0
40	0x00000000	0.0
41	0x00000000	0.0
42	0x00000000	0.0
43	0x00000000	0.0
44	0x00000000	0.0
45	0x00000000	0.0
46	0x00000000	0.0
47	0x00000000	0.0
48	0x00000000	0.0
49	0x00000000	0.0
50	0x00000000	0.0
51	0x00000000	0.0
52	0x00000000	0.0
53	0x00000000	0.0
54	0x00000000	0.0
55	0x00000000	0.0
56	0x00000000	0.0
57	0x00000000	0.0
58	0x00000000	0.0
59	0x00000000	0.0
60	0x00000000	0.0
61	0x00000000	0.0
62	0x00000000	0.0
63	0x00000000	0.0
64	0x00000000	0.0
65	0x00000000	0.0
66	0x00000000	0.0
67	0x00000000	0.0
68	0x00000000	0.0
69	0x00000000	0.0
70	0x00000000	0.0
71	0x00000000	0.0
72	0x00000000	0.0
73	0x00000000	0.0
74	0x00000000	0.0
75	0x00000000	0.0
76	0x00000000	0.0
77	0x00000000	0.0
78	0x00000000	0.0
79	0x00000000	0.0
80	0x00000000	0.0
81	0x00000000	0.0
82	0x00000000	0.0
83	0x00000000	0.0
84	0x00000000	0.0
85	0x00000000	0.0
86	0x00000000	0.0
87	0x00000000	0.0
88	0x00000000	0.0
89	0x00000000	0.0
90	0x00000000	0.0
91	0x00000000	0.0
92	0x00000000	0.0
93	0x00000000	0.0
94	0x00000000	0.0
95	0x00000000	0.0
96	0x00000000	0.0
97	0x00000000	0.0
98	0x00000000	0.0
99	0x00000000	0.0
100	0x00000000	0.0
101	0x00000000	0.0
102	0x00000000	0.0
103	0x00000000	0.0
104	0x00000000	0.0
105	0x00000000	0.0
106	0x00000000	0.0
107	0x00000000	0.0
108	0x00000000	0.0
109	0x00000000	0.0
110	0x00000000	0.0
111	0x00000000	0.0
112	0x00000000	0.0
113	0x00000000	0.0
114	0x00000000	0.0
115	0x00000000	0.0
116	0x00000000	0.0
117	0x00000000	0.0
118	0x00000000	0.0
119	0x00000000	0.0
120	0x00000000	0.0
121	0x00000000	0.0
122	0x00000000	0.0
123	0x00000000	0.0
124	0x00000000	0.0
125	0x00000000	0.0
126	0x00000000	0.0
127	0x00000000	0.0

network_body._body_endoder.seq_layers.0.weight f4 [128, 6]
0	0x3f496415	0.7866834
1	0xbf683ddd	-0.90719396
2	0x3e9268eb	0.2859567
3	0x3e842409	0.25808743
4	0x3e823008	0.2542727
5	0xbf86fa18	-1.0545073
6	0xbc0e52c0	-0.008686721
7	0x3e87f66d	0.26555195
8	0xbdbb1e85	-0.091366805
9	0xbe4f8e91	-0.20269229
10	0xbed9f4c7	-0.42569563
11	0xbe92dbfb	-0.28683457
12	0x3f17adc6	0.5924953
13	0xbe80292e	-0.25031418
14	0x3e674597	0.2258514
15	0x3dc8fc0f	0.09813701
16	0xbe8b3f4d	-0.27196732
17	0xbf2bf56c	-0.6717136
18	0xbee5fcd8	-0.44919467
19	0x3f071361	0.52763945
20	0x3ebe830b	0.37209353
21	0x3e300a51	0.17191435
22	0xbe2a01ba	-0.16602221
23	0x3f6fd33a	0.9368168
24	0x3ecdb2cf	0.40175483
25	0x3c3f437a	0.0116738025
26	0x3f124a3e	0.57144535
27	0x3c8a6d3b	0.016897788
28	0x3df26787	0.118361525
29	0xbe9cee39	-0.306505
30	0x3f31e6ef	0.69493
31	0x3ca9626b	0.020676812
32	0xbe5f6a39	-0.21817864
33	0x3db9655b	0.09052535
34	0xbe85b8f2	-0.26117665
35	0xbcae8e2e	-0.021308031
36	0x3f1900f9	0.5976711
37	0x3e188ddf	0.1489787
38	0x3f113010	0.5671396
39	0x3eb9d854	0.36297858
40	0x3eaf258f	0.34208342
41	0x3e94454f	0.28959128
42	0xbf8570f4	-1.0425096
43	0x3f16e40f	0.5894174
44	0x3e319726	0.17342815
45	0xbf15f162	-0.58571446
46	0xbf6054c4	-0.8762934
47	0xbe9c1bda	-0.3049
48	0xbea30f4d	-0.3184761
49	0x3e81ef6d	0.2537798
50	0x3e0a4c69	0.1350571
51	0x3e97dda1	0.29661277
52	0xbe76badd	-0.2409472
53	0xbe7bee80	-0.246027
54	0xbdc4838a	-0.095954016
55	0x3eadae4c	0.3392204
56	0x3e7ced8c	0.24699992
57	0xbd199b52	-0.03750164
58	0xbc5641d3	-0.013077217
59	0xbe038286	-0.1284276
60	0xbea81179	-0.3282583
61	0xbe985dca	-0.29759055
62	0x3d8742c8	0.066045344
63	0xbef0e07e	-0.47046274
64	0x3ef516a1	0.47868827
65	0x3d4cfe6a	0.050047316
66	0x3dd76356	0.10516994
67	0x3f70c53f	0.94050974
68	0x3e81a911	0.253243
69	0xbdf4ee5f	-0.11959528
70	0xbebb51fa	-0.3658598
71	0xbe1319db	-0.14365332
72	0xbe4d1f1a	-0.20031396
73	0xbf0dfb13	-0.55461234
74	0x3ec90bfd	0.3926696
75	0x3d04d46f	0.032429155
76	0xbf395cc2	-0.7240716
77	0x3ea08309	0.31349972
78	0xbf2e4595	-0.68074924
79	0xbc781b06	-0.015143162
80	0xbe82d804	-0.25555432
81	0x3d97d66c	0.074139446
82	0xbd9b4aa5	-0.07582597
83	0x3f1bdf01	0.6088715
84	0x3f26767d	0.6502455
85	0xbd961fb0	-0.07330263
86	0x3f3ac8a8	0.7296243
87	0x3f0c6356	0.54839075
88	0x3e52f26e	0.20600292
89	0xbe6e9d27	-0.23302136
90	0x3da95db1	0.08269823
91	0x3f334988	0.70034075
92	0x3ed7e0a0	0.42163563
93	0x3f042336	0.5161623
94	0xbf1ff760	-0.6248684
95	0x3d41a2c2	0.04727436
96	0xbeac900e	-0.33703655
97	0xbe762d0b	-0.2404062
98	0xbec68b52	-0.38778168
99	0xbe3a97b1	-0.18221928
100	0xbf069dad	-0.52584344
101	0xbe837294	-0.25673354
102	0xbf42d3f5	-0.7610467
103	0xbedf81ef	-0.4365382
104	0x3d82035d	0.06348298
105	0x3c60dbd9	0.013724291
106	0x3eb0db27	0.345422
107	0xbea0b6ed	-0.3138956
108	0x3bcc1ab4	0.006228769
109	0xbeb6d68c	-0.3571056
110	0x3f172fdd	0.5905741
111	0xbf2a9ef6	-0.66648805
112	0x3f256c9b	0.64618844
113	0xbf51badd	-0.81925756
114	0xbc80858b	-0.015688678
115	0x3f010094	0.5039151
116	0x3ecbdaa1	0.39815238
117	0x3c7fb6fe	0.015607594
118	0x3f0a7ef2	0.54099953
119	0x3ee3ab07	0.4446642
120	0x3f2afce8	0.66792154
121	0xbf18465a	-0.5948235
122	0xbe5a6695	-0.21328194
123	0xbeb0bcb8	-0.3451898
124	0x3f2f501d	0.6848162
125	0x3f076ce6	0.5290054
126	0xbf1b3933	-0.60634154
127	0x3d5af708	0.053458244
128	0x3e9dc14d	0.3081154
129	0x3e8196c8	0.2531035
130	0x3db1e842	0.08686878
131	0xbe46878e	-0.19387648
132	0x3eb9bd8f	0.36277434
133	0xbe65b639	-0.22432794
134	0xbf812f4e	-1.0092561
135	0x3eaa82fd	0.3330306
136	0xbd313070	-0.043259084
137	0xbe92ab90	-0.28646517
138	0xbe5548a7	-0.20828496
139	0x3e85e48f	0.2615094
140	0xbeb50121	-0.35352424
141	0xbc9e1451	-0.019296797
142	0xbe15999b	-0.14609377
143	0x3f5ceefd	0.8630217
144	0xbec846dd	-0.39116564
145	0x3f10132a	0.5627924
146	0x3f368ee4	0.71311784
147	0xbf444f21	-0.7668324
148	0xbf2d0db4	-0.67599034
149	0x3e9ae1fa	0.3025053
150	0xbe06f93a	-0.1318101
151	0xbc2e5224	-0.010639701
152	0xbf3ac574	-0.7295754
153	0x3e77518d	0.24152203
154	0x3de62842	0.11238147
155	0x3efd570a	0.49480468
156	0xbe10fadb	-0.14158194
157	0x3d866869	0.065628834
158	0xbcca9acd	-0.024732018
159	0x3f142fcb	0.57885426
160	0x3d87a44e	0.066231355
161	0x3ecd7900	0.40131378
162	0x3f301044	0.6877482
163	0xbe8e4e65	-0.27794185
164	0xbedaac6b	-0.4270967
165	0x3e5e6533	0.21718292
166	0xbeb05b9f	-0.344449
167	0x3f2d089f	0.6759128
168	0xbefceaab	-0.49397787
169	0x3d003ace	0.03130608
170	0x3eeb62e6	0.4597389
171	0xbf369a1a	-0.7132889
172	0xbdc8a704	-0.09797481
173	0x3edb6e30	0.42857504
174	0x3ccd77f0	0.025081605
175	0x3de7ee48	0.113247454
176	0xbe787c89	-0.24266256
177	0xbf0f9e35	-0.5610078
178	0x3f5d727d	0.8650282
179	0x3e17a11f	0.14807557
180	0xbee39424	-0.4444896
181	0xbd8695a4	-0.065715104
182	0x3e92f7fb	0.2870482
183	0xbe44ea74	-0.19230062
184	0x3f8215b7	1.0162877
185	0x3e598574	0.21242315
186	0xbe0c88e7	-0.13724099
187	0x3f1518db	0.5824105
188	0x3b3cd78c	0.0028815
189	0xbf1b46b1	-0.6065474
190	0xbd497253	-0.049181294
191	0xbf7a548e	-0.9778527
192	0xbead3768	-0.33831334
193	0xbedefbbc	-0.43551433
194	0xbdd85f52	-0.10565056
195	0xbe20f1aa	-0.15717188
196	0xbe6c3a2f	-0.2306907
197	0x3dc1a1fa	0.09454723
198	0xbd5beae2	-0.0536908
199	0xbeb2cb86	-0.349209
200	0x3aff123b	0.0019460389
201	0x3f4836b3	0.78208464
202	0xbde0e399	-0.10980911
203	0x3e759744	0.23983485
204	0x3f3593f9	0.70928913
205	0xbe1c24e5	-0.15248449
206	0x3e82e61c	0.25566185
207	0xbf642b36	-0.89128435
208	0x3e99c062	0.3002959
209	0x3ebe09d7	0.37116882
210	0x3f5c410d	0.8603676
211	0xbe9bdbe9	-0.30441216
212	0x3e604ee9	0.21905102
213	0xbdc7ef95	-0.097624935
214	0xbf1e0563	-0.6172697
215	0x3e73fcc4	0.23826891
216	0xbf01a4a8	-0.5064187
217	0x3ee6ded4	0.4509188
218	0xbed89acb	-0.42305598
219	0xbf63627e	-0.8882216
220	0x3e5fd8e9	0.21860088
221	0xbd89e07c	-0.0673227
222	0xbd8f3434	-0.06992379
223	0x3ef25ec8	0.47337937
224	0xbd9d1c5b	-0.07671424
225	0xbf0e2ccd	-0.5553711
226	0x3f56ea44	0.8395121
227	0x3e68e205	0.2274247
228	0x3f71e926	0.9449638
229	0x3eb4b7f7	0.35296604
230	0xbd14c89b	-0.036324125
231	0x3e11a8de	0.14224574
232	0xbf3d0746	-0.73839223
233	0x3ebf0d69	0.3731492
234	0xbef09b98	-0.4699371
235	0xbefad769	-0.4899247
236	0x3e06fabf	0.1318159
237	0x3e691ac2	0.22764114
238	0xbcbc0dc0	-0.022955775
239	0x3a90af22	0.0011038522
240	0x3f26343e	0.64923465
241	0xbd1d5988	-0.03841546
242	0xbe5e369f	-0.21700524
243	0x3f18b695	0.596536
244	0xbd29b42e	-0.0414316
245	0xbe9f6022	-0.3112803
246	0xbebf47f0	-0.3735957
247	0xbe26c7ae	-0.1628711
248	0xbef70323	-0.4824458
249	0x3d323f8e	0.04351764
250	0x3e7bf998	0.24606931
251	0x3e564f97	0.20928799
252	0xbe0e3358	-0.13886774
253	0x3ed342f0	0.41262007
254	0x3f244702	0.6417085
255	0xbf16dd26	-0.58931196

network_body._body_endoder.seq_layers.2.bias f4 [128]
0	0x00000000	0.0
1	0x00000000	0.0
2	0x00000000	0.0
3	0x00000000	0.0
4	0x00000000	0.0
5	0x00000000	0.0
6	0x00000000	0.0
7	0x00000000	0.0
8	0x00000000	0.0
9	0x00000000	0.0
10	0x00000000	0.0
11	0x00000000	0.0
12	0x00000000	0.0
13	0x00000000	0.0
14	0x00000000	0.0
15	0x00000000	0.0
16	0x00000000	0.0
17	0x00000000	0.0
18	0x00000000	0.0
19	0x00000000	0.0
20	0x00000000	0.0
21	0x00000000	0.0
22	0x00000000	0.0
23	0x00000000	0.0
24	0x00000000	0.0
25	0x00000000	0.0
26	0x00000000	0.0
27	0x00000000	0.0
28	0x00000000	0.0
29	0x00000000	0.0
30	0x00000000	0.0
31	0x00000000	0.0
32	0x00000000	0.0
33	0x00000000	0.0
34	0x00000000	0.0
35	0x00000000	0.0
36	0x00000000	0.0
37	0x00000000	0.0
38	0x00000000	0.0
39	0x00000000	0.0
40	0x00000000	0.0
41	0x00000000	0.0
42	0x00000000	0.0
43	0x00000000	0.0
44	0x00000000	0.0
45	0x00000000	0.0
46	0x00000000	0.0
47	0x00000000	0.0
48	0x00000000	0.0
49	0x00000000	0.0
50	0x00000000	0.0
51	0x00000000	0.0
52	0x00000000	0.0
53	0x00000000	0.0
54	0x00000000	0.0
55	0x00000000	0.0
56	0x00000000	0.0
57	0x00000000	0.0
58	0x00000000	0.0
59	0x00000000	0.0
60	0x00000000	0.0
61	0x00000000	0.0
62	0x00000000	0.0
63	0x00000000	0.0
64	0x00000000	0.0
65	0x00000000	0.0
66	0x00000000	0.0
67	0x00000000	0.0
68	0x00000000	0.0
69	0x00000000	0.0
70	0x00000000	0.0
71	0x00000000	0.0
72	0x00000000	0.0
73	0x00000000	0.0
74	0x00000000	0.0
75	0x00000000	0.0
76	0x00000000	0.0
77	0x00000000	0.0
78	0x00000000	0.0
79	0x00000000	0.0
80	0x00000000	0.0
81	0x00000000	0.0
82	0x00000000	0.0
83	0x00000000	0.0
84	0x00000000	0.0
85	0x00000000	0.0
86	0x00000000	0.0
87	0x00000000	0.0
88	0x00000000	0.0
89	0x00000000	0.0
90	0x00000000	0.0
91	0x00000000	0.0
92	0x00000000	0.0
93	0x00000000	0.0
94	0x00000000	0.0
95	0x00000000	0.0
96	0x00000000	0.0
97	0x00000000	0.0
98	0x00000000	0.0
99	0x00000000	0.0
100	0x00000000	0.0
101	0x00000000	0.0
102	0x00000000	0.0
103	0x00000000	0.0
104	0x00000000	0.0
105	0x00000000	0.0
106	0x00000000	0.0
107	0x00000000	0.0
108	0x00000000	0.0
109	0x00000000	0.0
110	0x00000000	0.0
111	0x00000000	0.0
112	0x00000000	0.0
113	0x00000000	0.0
114	0x00000000	0.0
115	0x00000000	0.0
116	0x00000000	0.0
117	0x00000000	0.0
118	0x00000000	0.0
119	0x00000000	0.0
120	0x00000000	0.0
121	0x00000000	0.0
122	0x00000000	0.0
123	0x00000000	0.0
124	0x00000000	0.0
125	0x00000000	0.0
126	0x00000000	0.0
127	0x00000000	0.0

network_body._body_endoder.seq_layers.2.weight f4 [128, 128]
0	0xbd2717d2	-0.0407942
1	0xbd1420f8	-0.036164254
2	0x3d069b90	0.0328632
3	0x3e25ea18	0.16202581
4	0xbe2d8b68	-0.1694771
5	0x3d000443	0.031254064
6	0x3d43e5d3	0.0478266
7	0x3c36f13d	0.011165914
8	0x3e50f96d	0.20407648
9	0x3b9ae47a	0.0047269436
10	0xbd1f11c7	-0.038835313
11	0x3d80e07a	0.062928155
12	0xbd4d5081	-0.050125603
13	0x3e2d92c2	0.16950515
14	0x3de1d00b	0.11026009
15	0x3e336c5a	0.17521802
16	0xbdb39081	-0.08767796
17	0xbcc8ae03	-0.024497038
18	0xbd652a8b	-0.055948775
19	0x3d772b8c	0.060344264
20	0xbc9c9d97	-0.019118113
21	0xbd3d2048	-0.046173364
22	0x3e0798f2	0.13241938
23	0x3e4e54c2	0.2014952
24	0x3cca3086	0.02468134
25	0xbdac4559	-0.084116645
26	0x3dfe044d	0.12403164
27	0xbde641e4	-0.112430364
28	0xbddd4b36	-0.10805361
29	0x3cc6d350	0.024270684
30	0xbd5b650f	-0.053563174
31	0x3d0e66e4	0.034766093
32	0xbe214f34	-0.1575287
33	0x3c00f944	0.00787193
34	0xbbf2ecb8	-0.007413473
35	0x3d39ed45	0.045392293
36	0xbc992105	-0.018692503
37	0x3b7e4b88	0.0038802344
38	0xbe016166	-0.12634811
39	0xbdefa86f	-0.11702048
40	0x3dfd0ff6	0.1235656
41	0xbdc42e89	-0.095791884
42	0x3cc7a49b	0.024370482
43	0x3d951d3a	0.07280965
44	0xbd0fdcc2	-0.03512264
45	0x3ccc0200	0.024903297
46	0x3e0b7463	0.13618617
47	0x3c99d2d3	0.018777287
48	0x3c47fb2c	0.01220588
49	0xbe16b6f2	-0.14718226
50	0xbd7a1a38	-0.06106016
51	0xbda1af85	-0.07894806
52	0x3b874544	0.00412813
53	0x3cf0f129	0.02941187
54	0x3dae7eb5	0.08520261
55	0x3e504bab	0.20341365
56	0x3e25ff6c	0.16210717
57	0x3dc11d3d	0.09429405
58	0x3d801161	0.06253315
59	0xbdda550e	-0.10660754
60	0xbda6bc6f	-0.081414096
61	0xbd56f435	-0.052478988
62	0xbdc74156	-0.09729259
63	0x3dee1d0a	0.116266325
64	0x3b5c88d7	0.00336509
65	0x3c38e2c0	0.01128453
66	0x3cb2d29f	0.021828948
67	0xbdb0a150	-0.08624518
68	0xbd7f1b53	-0.062281918
69	0xbd2c250c	-0.04202752
70	0xbd89dc3e	-0.06731461
71	0xbdaef32e	-0.085424766
72	0x3d8491c2	0.064731136
73	0x3da73c4c	0.081657976
74	0x3dfe2e94	0.12411228
75	0xbcd4d38d	-0.025979782
76	0x3e070ef7	0.13189302
77	0xbdc82328	-0.097723305
78	0x3d9ead98	0.07747954
79	0xbd870bbe	-0.065940365
80	0x3e17c6f6	0.14821991
81	0xbd9cf464	-0.07663801
82	0xbde33dce	-0.11095773
83	0xbd25dcb4	-0.040493682
84	0x3d926e69	0.07149965
85	0x3e0556bd	0.1302137
86	0x3cfe9216	0.031075519
87	0x3b31fa1b	0.002715713
88	0xbe294111	-0.16528727
89	0xbdbc3a60	-0.09190822
90	0xbd8a1ef3	-0.06744184
91	0xbc8db2f3	-0.017297244
92	0x3df0d956	0.117602035
93	0x3d8fb17d	0.07016275
94	0x3db93078	0.09042448
95	0xbe24c209	-0.16089644
96	0x3e1780ea	0.1479527
97	0x3d0f984f	0.035057362
98	0xbd9b54c2	-0.07584526
99	0x3db5ca7a	0.0887651
100	0xbc3d31f5	-0.011547555
101	0x3e13df57	0.14440666
102	0x3daa880f	0.08326732
103	0xbd5339c8	-0.051568776
104	0x3e076c2f	0.13224863
105	0xbe5c18b8	-0.21493804
106	0xbd77ba19	-0.06048021
107	0xbd47e903	-0.0488062
108	0x3e07e541	0.13271047
109	0x3d3d4b7f	0.046214577
110	0xbde10039	-0.109863706
111	0xbd706c94	-0.0586973
112	0xbe28b073	-0.1647356
113	0xbba92834	-0.0051622633
114	0x3df29a85	0.118458785
115	0xbdd81496	-0.105508015
116	0x3da999b6	0.08281271
117	0xbe137ef8	-0.14403903
118	0xbb568704	-0.0032734284
119	0xbcf21692	-0.029551778
120	0xbdf81414	-0.121132046
121	0xbdd9c34e	-0.106329545
122	0x3dc0355f	0.0938518
123	0x3ccc8c3d	0.024969215
124	0xbdbabe86	-0.09118371
125	0x3d6a3bb0	0.05718583
126	0xbd4ab46c	-0.04948847
127	0xbd761524	-0.060078755
128	0xbcfc9a08	-0.030835167
129	0xbdabb594	-0.08384243
130	0x3d5fc922	0.054635175
131	0x3d801056	0.06253116
132	0x3ba0fa88	0.004912678
133	0xbe455bd0	-0.19273305
134	0x3df148e6	0.117814824
135	0xbe0b4c5a	-0.13603345
136	0x3de4e156	0.11175792
137	0x3c969386	0.018380892
138	0xbc74e09f	-0.014946132
139	0xbc045ce3	-0.008078787
140	0xbddcf62b	-0.1078914
141	0xbe0d8f34	-0.13824159
142	0xbd9444bd	-0.07239673
143	0xbd486b8c	-0.04893069
144	0xbcd3767d	-0.025813336
145	0xbd8a0acd	-0.06740341
146	0xb9b0c22e	-0.0003371401
147	0xbdb2fc6e	-0.087395534
148	0x3dd6fd2a	0.10497506
149	0x3def7eea	0.11694129
150	0xbc1c4372	-0.009537565
151	0x3d87e755	0.0663592
152	0xbc9581e4	-0.018250413
153	0xbd2d53f5	-0.042316396
154	0x3d38d87f	0.04512834
155	0xbdb35310	-0.08756077
156	0x3d94dc94	0.072686344
157	0xbc2dbca7	-0.01060406
158	0x3e35eb39	0.17765512
159	0xbd103f70	-0.03521675
160	0x3cfd1c82	0.030897383
161	0xbbadf9ec	-0.005309334
162	0xbd8e6fa5	-0.06954888
163	0xbe2272e1	-0.15864135
164	0x3d80aa6e	0.06282507
165	0x3c1c8e17	0.009555361
166	0xbcb83006	-0.022483837
167	0xbd9a1cdd	-0.075250365
168	0xbc45a3cc	-0.012062978
169	0xbd660249	-0.056154523
170	0x3d556030	0.052093685
171	0xbe09d068	-0.13458407
172	0xbe6fc8f2	-0.23416498
173	0xbe127443	-0.14302163
174	0xbd2cdc29	-0.04220215
175	0x3ca60b53	0.020269072
176	0x3b621a7d	0.0034500652
177	0x3b962f20	0.0045832545
178	0x3deae7d4	0.11469999
179	0xbe106637	-0.14101492
180	0x3e6f83e1	0.23390152
181	0xbe312219	-0.17298163
182	0x3e24799b	0.16062014
183	0xbbd3e9e1	-0.0064670895
184	0x3d0cc564	0.034367934
185	0xbe73688b	-0.23770349
186	0x3d4abd22	0.049496777
187	0x3d82fe6f	0.063961856
188	0x3d63209c	0.05545102
189	0x3dbebc3a	0.09313245
190	0x3d8bc1ed	0.06824098
191	0x3e11cc15	0.14238007
192	0xbd3be1d1	-0.045869652
193	0xbc8cf3a8	-0.017206028
194	0x3d2a34f5	0.04155441
195	0x3d3881c8	0.045045644
196	0x3d14af97	0.036300268
197	0xbd836f85	-0.06417755
198	0x3d7e8289	0.062136207
199	0xbdd79620	-0.10526681
200	0x3d16e582	0.03683997
201	0xbd473356	-0.048632942
202	0xba779149	-0.00094439514
203	0xbca04fc5	-0.019569287
204	0xbc21ca76	-0.009874931
205	0xbc05b758	-0.008161388
206	0xbdbe5d35	-0.092951216
207	0xbd1c2eea	-0.03813068
208	0xbde3e9f6	-0.11128609
209	0xbd86b6a4	-0.06577805
210	0x3ccc3771	0.02492878
211	0xbd997cb3	-0.074944876
212	0xbbb13eb6	-0.005409087
213	0xbce45b0b	-0.027875444
214	0x3cc0e585	0.023546943
215	0x3d6614a8	0.056172043
216	0x3db85568	0.09000665
217	0x3c9d4731	0.019198986
218	0xbd00117a	-0.031266667
219	0x3d84d2a3	0.06485488
220	0x3da8bce8	0.08239156
221	0xbcbc4759	-0.02298324
222	0x3de8f600	0.11375046
223	0x3e05659a	0.13027039
224	0xbe661af2	-0.22471216
225	0xbb7fa4b6	-0.0039008087
226	0x3db1e434	0.086861044
227	0xbe5da33e	-0.21644303
228	0xbc0bd2c9	-0.008534142
229	0x3d5a1498	0.053242296
230	0xbdc00542	-0.09376003
231	0xbd7f6ceb	-0.06235973
232	0x3ccb281f	0.024799405
233	0xbd65e84c	-0.05612974
234	0xbdb81f83	-0.089903854
235	0x3ddde94d	0.10835514
236	0x3dda08af	0.106461875
237	0x3e27793b	0.1635484
238	0xbd991552	-0.0747477
239	0xbc5a4cfb	-0.013324018
240	0xbe401f41	-0.18761922
241	0x3e1d1916	0.15341601
242	0xbd6571c8	-0.056016713
243	0x3d270654	0.04077752
244	0x3da9d1e9	0.0829199
245	0xbe130db1	-0.14360692
246	0x3d3a580f	0.045494135
247	0x3d90f9a6	0.07078867
248	0x3d109dee	0.035306863
249	0x3d5efac0	0.054438353
250	0x3d543f63	0.051818263
251	0x3d67094e	0.056405358
252	0x3bb37ccc	0.0054775234
253	0x3def7cb0	0.11693704
254	0x3da73b95	0.08165661
255	0x3d5d0ab9	0.053965304
