results/Run1/MoveThePlayer.onnx (onnx, 72119 bytes, 5 tensors)

action_model._continuous_distribution.mu.weight f4 [1, 128]
00000000: a8a6 893c e47c 443d e01a 1c3d 8881 7abd
00000010: 8e86 043d fbd8 56bd 0c4c b9bb 8b43 fa3c
00000020: 0394 5abb e121 183c 8791 03bd 87cf 61bc
00000030: be79 81bc 795f aabc 08e9 963c 9822 5ebd
00000040: 0c7b a6bc b8de 8f3c f313 fa3c bb85 c4bc
00000050: 06a8 033d 849c 323d bf84 6fbc fe8a 91bc
00000060: 5e1a 06bd ecd5 b3bc 4f81 cd3c 741d 3cbd
00000070: 3308 74bc d1ca 1b3d 1874 12bd 83f2 f8bc
00000080: 22b5 c2ba 4118 f43c 4bcd 3fbd e9d3 fabc
00000090: 2bcf 573d ee45 093d 70e6 583d 29d8 af3c
000000a0: 698d 85bc ff6f 86bd b7e3 d33c 73e8 883d
000000b0: b6f4 0a3d 18eb 7abd 4b97 2fbd ca40 b2bc
000000c0: fc13 c23c 18ab 20bd c19b d7ba 29d2 b63c
000000d0: 642b 1bbc 4c56 093d 2ca7 37bc a63b cd3c
000000e0: 53d4 ed3c ca12 09bc caf6 3f3c 1745 d13c
000000f0: 5e06 24bd 3d75 363d 206c 9dbc bcae 16bd
00000100: 12c2 d23c 2e0c bd3d 00ad 943b 36f0 31bd
00000110: 0c9a f9bb 5c33 0cbd 2d0e d7bc 2f4b 8a3c
00000120: eafa 113d d754 85bb 1397 8abd bb40 be3c
00000130: 9ba7 453d 61d3 70bc 0c9b f43c cf23 d9bc
00000140: 45ea 493d 107d c2bb d91b 46bd fdca f13a
00000150: 9d53 cebd 0077 21bd 5acc 823c 5921 983c
00000160: 8afe 85bc ca9b ee3c 4778 753b f7e6 86bd
00000170: 5648 c1bb 7039 323d 8aca 48bd 081b 45bd
00000180: b290 3ebd 3454 ca39 df03 0ebd b0ff a53d
00000190: f481 e8bc dcbb 873b dd98 83bd 3160 d3bc
000001a0: cabb 98bc 956b 96bc 8f58 1dbd ec23 873c
000001b0: 2cdb 85bc a430 c63c 6827 91bc 53ec d8bc
000001c0: faaf acbd 94b9 2bbd ecfe 013d 9ea9 aa3c
000001d0: 6533 a4bd e98a dabc bb19 36bd abf1 52bd
000001e0: 9715 093d 5e84 703c 2fe6 80bd 5e58 85bc
000001f0: 65c3 a53d 571d 07bc 31e6 47bd 03f9 d0bc
0.0168031 0.047970667 0.038111567 -0.061158687 0.032354884 -0.052453022 -0.0056548174 0.030549785
-0.0033352382 0.009285421 -0.032121208 -0.0137823885 -0.015805122 -0.020797478 0.018421665 -0.05423221
-0.020322345 0.017562255 0.03052709 -0.023989549 0.03214266 0.043606296 -0.0146190515 -0.017766472
-0.03273999 -0.021952592 0.025086073 -0.045926526 -0.014894533 0.038035218 -0.035755247 -0.030389076
-0.0014855007 0.029796721 -0.046826642 -0.030618625 0.052687805 0.033513956 0.052954137 0.021465378
-0.016302781 -0.0656433 0.025865419 0.06684961 0.03392478 -0.06125936 -0.042868894 -0.02175941
0.02369117 -0.039225668 -0.0016449617 0.022317009 -0.009470794 0.033529565 -0.0112092905 0.025052857
0.029031908 -0.008366296 0.011716554 0.02554564 -0.040045135 0.0445454 -0.019216597 -0.036787733
0.025727306 0.09230839 0.004537225 -0.043441974 -0.007617241 -0.034228668 -0.026251877 0.016881553
0.03563968 -0.0040689516 -0.06767096 0.023224225 0.048255544 -0.014698834 0.029859088 -0.026506333
0.049295682 -0.005935319 -0.0483664 0.0018447336 -0.10074542 -0.039420128 0.015966583 0.018570589
-0.016356725 0.02912702 0.0037455724 -0.06587022 -0.0058985157 0.043511808 -0.04902128 -0.048121482
-0.04652471 0.0003859118 -0.03467166 0.08105409 -0.028382279 0.0041422676 -0.06425641 -0.025802704
-0.018644232 -0.018361846 -0.038414534 0.016496621 -0.01633986 0.024193116 -0.017718986 -0.026479876
-0.08432002 -0.041925028 0.031737253 0.020832833 -0.08017615 -0.026677566 -0.044458132 -0.051500004
0.033467855 0.014679996 -0.06293904 -0.016277488 0.08093909 -0.008246741 -0.048803512 -0.025509363

network_body._body_endoder.seq_layers.0.bias f4 [128]
00000000: 6d3d 163c 28a6 cbba 0bdc 03bc cedb 13bd
00000010: 61ec 143d 9421 03bc 2b2b 9f39 115b d7bb
00000020: bf59 69bc 65e5 c9bc c81c b83c bf73 bc3c
00000030: d23e 913b a665 323d abb2 6c3d 27a1 a5bb
00000040: c807 a23c 914c c1bb 33c2 163b 9275 093a
00000050: 81be f63b 1e3a dd3b 8ce0 89bc df52 8a3c
00000060: ee22 ebbb ef02 b2bb 5e61 74bc 460a 8bbc
00000070: 6368 e13b c78b c6bc f345 30bb b2c6 8a3c
00000080: 188b 3a3c 8f12 ebbc 7f06 06bb fa60 27bb
00000090: 38f5 d83c 457a 1dbc 9c12 f33c 6d5c 543c
000000a0: 8c58 4b3c f2ba 1f3b e04d 2ebc d656 d7bb
000000b0: 977c 6d3b 90bf 70bc 7da5 25bc 4f07 c63b
000000c0: fc59 1ebc d97e 193b e2c2 373b 6177 003d
000000d0: 71cd 143b a0e4 b9bc c8cd b7bc 2f15 053d
000000e0: b0f4 1e3c ee72 3dbc 1e43 3c3d 8240 c03b
000000f0: ffbc 0bbc ed07 793b 59be 293d 0543 993c
00000100: 3d27 173b 1b83 063d 890b 34bb d4b1 efbb
00000110: 8f99 8d3c 44b6 92bc c353 033c 56a1 f7bb
00000120: 8005 0c3d fda4 f53c e576 9e3c bdcd aabc
00000130: 90fe babb 2bc7 a1bc 8c9a 843c b96b 1bbc
00000140: a804 ce3b a143 b23c 2348 5dbd 6135 61bc
00000150: 264f 51bc 136c e3bb f728 c23d 07c7 62bc
00000160: 39e0 44bc 0002 4bbb da63 baba 5d17 bdbc
00000170: 2a77 87bc 6da8 1d3d 0958 c43c 39de 0d3c
00000180: 82ea 50bc 69fd 483d 43f6 523b 895e 93bc
00000190: dbca b5bc 9dc3 11bb 07be 513d 9138 a2bb
000001a0: 80b8 e6bc b455 a93b 312d ae3c 47c6 913b
000001b0: 7635 b93c 892e b43b d858 253d ab97 943c
000001c0: e872 b33c b955 4fb8 0a40 343b 2fd7 8e3c
000001d0: 2139 96bc cd0e 883c b9b3 ba3c 4d85 273d
000001e0: 064d 1c3d 6a08 9c39 59b7 2a3a 4e2e 91bc
000001f0: c6e5 bebb cadf 62bb 4db0 26bc f981 44bb
0.0091699185 -0.0015537189 -0.008048068 -0.036098294 0.03635824 -0.008003611 0.00030359006 -0.0065721353
-0.014242589 -0.024645517 0.022474661 0.02300441 0.0044325376 0.04355397 0.05778758 -0.0050546112
0.019779101 -0.00589902 0.0023003935 0.00052436546 0.007530034 0.006751313 -0.016830705 0.01688522
-0.007175795 -0.0054324786 -0.014915792 -0.016972672 0.006878899 -0.024236573 -0.0026897162 0.016940448
0.011385702 -0.028695373 -0.002045065 -0.002553998 0.026484117 -0.009611671 0.02967196 0.012961489
0.012411248 0.0024372903 -0.010638684 -0.006571631 0.0036237591 -0.01469411 -0.010110256 0.0060433517
-0.009665009 0.0023421554 0.0028039743 0.03136385 0.002270546 -0.022692025 -0.022436991 0.032490905
0.009701893 -0.011563046 0.045962445 0.005867065 -0.008528947 0.003799911 0.041441295 0.018708715
0.002306416 0.032839876 -0.0027472696 -0.0073149 0.017285137 -0.017909177 0.008015576 -0.0075570745
0.034184933 0.0299859 0.019343803 -0.020850057 -0.0057066157 -0.019748291 0.016186975 -0.009486132
0.006287176 0.021760764 -0.054023873 -0.013745637 -0.012775218 -0.0069403737 0.0948047 -0.013841397
-0.0120163495 -0.0030976534 -0.0014220432 -0.02308243 -0.016536314 0.0384907 0.02396776 0.008658939
-0.0127512235 0.049069796 0.003219024 -0.017989414 -0.022191456 -0.0022241839 0.051206615 -0.004950591
-0.028164148 0.0051676873 0.021261783 0.0044486853 0.0226085 0.0054987115 0.04036793 0.018138727
0.021905378 -4.943248e-05 0.002750399 0.017436592 -0.018337788 0.01660862 0.022790777 0.04089861
0.038159393 0.00029760908 0.0006512306 -0.017722275 -0.005825731 -0.0034618252 -0.010173869 -0.0029984696

network_body._body_endoder.seq_layers.0.weight f4 [128, 6]
00000000: 6266 f0be 4490 87be 3167 61bf 0717 b73e
00000010: aeac 363e 303a 5b3f 465f 0c3e c092 78bf
00000020: 2393 683e b973 ebbe 8801 c3bd 010f 06bf
00000030: 9f74 4fbd a147 c5be 6851 57be fe84 d73e
00000040: 3006 e93e fe8b b0bd 2c23 20be 87b8 ce3e
00000050: bb82 99be c9a6 0c3f f929 773f a1dc 5f3f
00000060: 7a56 b1be 94d2 84bf 0abf f23e 64cd 273d
00000070: cbfc 833e c08a b0be ee4d 26be fbad 853e
00000080: 6c28 793e 8d28 30bf c644 5dbd 63ef c8be
00000090: 1019 0dbe e5a3 b9be 6b7a 393e cfc4 183e
000000a0: b2c0 b5bd 92b4 073e 8c31 a23e 2167 ce3e
000000b0: aed6 2b3e 085e 30bf 9461 c33c 04de 8f3d
000000c0: ffac 27bf f3fe b23e 5fb9 05bf 0fac 49be
000000d0: 37e4 563e bc9f 66be d9d5 7e3e 5f2e 6dbf
000000e0: 1261 9abe c4d7 5b3e 75f0 75bd 6c1c aabc
000000f0: d856 02bd 4516 23bf ca54 a7be af3a 4cbe
00000100: cf0c 213e 8412 113f 9b08 5d3e 8ccb 263f
00000110: 2e54 873e f818 983d 3011 d03e 8800 97be
00000120: 1f63 353f 7d4b e03e e211 e7be 0285 833d
00000130: e200 bcbe 0d9a e43d 3dcd 0cbe 377d 80be
00000140: 74d8 083a ed9d 053f 32d1 0a3f 7a3e 7a3e
00000150: a81a 13bf 2b4c 20be 8e70 5ebe e42c 073f
00000160: 0577 103f e9dc 4ebe 1c8f 933e d089 12bd
00000170: 07d4 9e3d f76f 95be 2131 1a3e 48b6 07bf
00000180: f8fb cebc 25ca b3bc 4546 92be 2f61 de3d
00000190: 8563 2bbf 0bbe 7c3e afc5 6ebe fc77 cebd
000001a0: 345e 69be 7c87 babd e317 8cbe a954 7fbe
000001b0: 0116 2bbe 3bfb ecbd 1b84 1f3f cfea 3cbe
000001c0: 6332 113f d118 a63e b3bd 763e 6d45 4d3e
000001d0: 5fd7 d2bd b0cc e53a 29b2 a23e 563e 01bc
000001e0: 6419 f23e 294a 413e 3a8c 093e ebdd 76be
000001f0: e1b0 e13d 65f2 ecbe e529 3c3f 05cc 79be
00000200: 9197 993e 8208 0bbe 42c5 c4bc 00bc 393f
00000210: 42e7 433f 8ed2 8b3e 28fe 85be 21fa b4be
00000220: b0d9 6ebc e464 babd 6aff 7bbe 51ca 1bbf
00000230: d500 103e dc23 c93e a53b 873e e6f3 61be
00000240: 0e0e 75be 8864 793f bbaf 24bf d02b 1a3e
00000250: e225 68bd 430b b9be 21d9 683f 8963 bfbd
00000260: b6a7 93be c7b9 123e 6f74 193f ee9c 5abf
00000270: 43de aa3d 07d4 973e c3e6 b13e d7a1 45bf
00000280: acee c5be f99e cf3d 6291 85bd ff84 04be
00000290: 7936 af3e fcda a1be ac60 57be 28b5 50be
000002a0: d7bb 70bd c192 ba3d 2fb7 5a3d 9a64 d33e
000002b0: 28c1 8d3d 6fb4 eabd c6af 8ebe 8d69 bd3d
000002c0: 953f 23be 9a32 0bbd 4d70 d3be 49bb 98be
000002d0: 7629 853e ba3b 0cbf 133b bd3e 08a7 f2bd
000002e0: 47f8 88be b73e 6e3e f6c2 bf3e 9681 763e
000002f0: 3645 cb3e d4ae 083f 08e3 1e3f 9804 663e
00000300: 6303 28be 0522 d73e 6d8f 013e 9d40 ea3e
00000310: 2d8b 953e a024 193f 28e7 303f 38c1 f13d
00000320: 2d01 7e3e 3bdd 56be 9f7a 053e 5863 a4be
00000330: fc2e 1fbf c789 d1be a16b 26be fd8d 1c3e
00000340: 88a2 a4bd ad28 d53c 7082 193f 9c6c 1dbf
00000350: c853 edbd 4a67 bf3e ccc5 bb3d dac6 e7bd
00000360: dcfb 873e 2553 8bbe 2179 f63e 5497 77bd
00000370: e4b5 dcbe 98d8 eebe 23d6 f0be 321d 153f
00000380: a1e5 cfbe e551 dc3e 61c8 673e 2a1b 343f
00000390: b2c4 a43e edb9 3bbe d94c 513e 1b7c 873e
000003a0: fa69 adbd aeeb 5dbd 8379 e23d d742 b43e
000003b0: 0706 a63e d623 90bc 9c4c 23bf e728 be3e
000003c0: 2dfa 993e cb2a af3d 220f ae3e ce49 5f3e
000003d0: ce58 1ebf 5f28 cd3d de4c 17be eeb1 243f
000003e0: 0222 48be 0259 a93e 2d1c 6dbe c7e9 fb3e
000003f0: 9889 13bf fbfb 373e bd3f 323e e84f eb3d
-0.46953112 -0.26477253 -0.8804808 0.35759756 0.1783931 0.8563566 0.13708219 -0.9709892
0.22712378 -0.45986727 -0.095217764 -0.52366644 -0.050648328 -0.3853121 -0.21027148 0.42093652
0.45512533 -0.086204514 -0.15638417 0.40375158 -0.29982552 0.54941994 0.9654842 0.8744603
-0.3463629 -1.0376763 0.47411376 0.04096736 0.25778803 -0.34480858 -0.16240665 0.261093
0.24331826 -0.68811876 -0.054020666 -0.39245138 -0.13779092 -0.36257854 0.18113105 0.14918827
-0.08874644 0.13252476 0.31678426 0.40313056 0.16781113 -0.6889348 0.02385024 0.07024768
-0.65498346 0.34960136 -0.5223598 -0.19694541 0.20985495 -0.22521871 0.24886264 -0.9264888
-0.30152184 0.21469027 -0.06004377 -0.020765506 -0.031821102 -0.63705856 -0.32681876 -0.19944261
0.15727542 0.5666888 0.21585314 0.6515434 0.26431412 0.074266374 0.40638113 -0.29492593
0.7085437 0.43807593 -0.4513083 0.064218536 -0.36719424 0.11162195 -0.13750167 -0.2509553
0.00052202423 0.521941 0.54225457 0.24437895 -0.5746255 -0.15654056 -0.21722624 0.5280287
0.5643161 -0.20201458 0.2882012 -0.03577596 0.07755285 -0.29186985 0.15057804 -0.53012514
-0.025266632 -0.021946976 -0.28569236 0.1085838 -0.6694873 0.2468187 -0.23317598 -0.10081479
-0.22789842 -0.09107873 -0.27361974 -0.24934639 -0.16707613 -0.11571356 0.6231095 -0.18448947
0.5671751 0.32440808 0.24095802 0.20046015 -0.10294985 0.0017532315 0.3177655 -0.007888397
0.47284997 0.18875946 0.13432398 -0.24108092 0.11020065 -0.46278682 0.73501426 -0.24394234
0.29998448 -0.13577464 -0.024019841 0.7255249 0.76524746 0.27309078 -0.26170468 -0.35347083
-0.014578268 -0.091012746 -0.24609151 -0.60855585 0.14062817 0.3928517 0.26412693 -0.22065696
-0.23931143 0.97419024 -0.64330643 0.15055776 -0.056676753 -0.36141405 0.9095631 -0.09345157
-0.2883889 0.14328681 0.5994329 -0.85395706 0.08343174 0.29653952 0.3474637 -0.77200073
-0.38658655 0.101377435 -0.0652187 -0.12941359 0.34221247 -0.31612384 -0.21032971 -0.20381606
-0.058772888 0.09110022 0.053397354 0.4128769 0.06921607 -0.11460196 -0.2786848 0.09248648
-0.15942223 -0.033983804 -0.41296616 -0.29830387 0.26008195 -0.54778636 0.36959133 -0.11848265
-0.2675192 0.23266111 0.3745343 0.2407287 0.3970124 0.53391767 0.6206517 0.2246269
-0.16407542 0.42018142 0.12652369 0.4575242 0.29207745 0.5982151 0.69102716 0.11804432
0.24805136 -0.2098283 0.13035057 -0.32107043 -0.6218107 -0.40925428 -0.16251995 0.15288539
-0.08038813 0.026020372 0.59964657 -0.6149385 -0.11588246 0.3738349 0.09168586 -0.11317225
0.2655934 -0.27211872 0.4813929 -0.060447052 -0.43107522 -0.46649623 -0.47038373 0.58247674
-0.4060488 0.4303123 0.22635032 0.7035395 0.32181317 -0.18332644 0.20439471 0.26461872
-0.08467479 -0.05417984 0.11058333 0.35207245 0.32426473 -0.017595213 -0.6378877 0.3714058
0.3007368 0.08553084 0.3399592 0.21805498 -0.61854255 0.10017466 -0.14775416 0.64334
-0.19544223 0.3307572 -0.2315528 0.49201795 -0.57631826 0.17967217 0.17407127 0.1148985

network_body._body_endoder.seq_layers.2.bias f4 [128]
00000000: 1b26 c9bb 8085 bd3c b783 253c ccfe 4c3c
00000010: 079a 873b 228c 3a3c dc03 41bc ec9f 303c
00000020: c865 a9bc a9de 81b9 2c5f 0fbc 6924 efbb
00000030: da3f ce39 c7ac 89bb 0bf0 013b e62f 003b
00000040: 2a87 86bb 9820 9ebb c632 033c aae2 04bc
00000050: a23e 623b 5e50 b63b 697d f2ba 9af3 e1bb
00000060: 9a14 88bb a1b1 a2bc 69d2 11bb de0c 68ba
00000070: c70e fb3b 7f18 1ebc 0e71 843c 69a0 623a
00000080: 6a8f 9dbc 73b2 96b9 78a5 623b 455e b039
00000090: ded6 433b 80bc 0e3c dd0b 113c db89 fa3a
000000a0: f6f3 4cbb a21d 513b 2614 c4b8 23d5 753c
000000b0: 4919 1b3b 13f1 043c ef96 6cbb 6586 46bc
000000c0: fe78 84ba 80f9 d53b bc08 06bc 40a3 e43b
000000d0: 2790 15bc 03ba 423c 7040 77bc 2997 143c
000000e0: 0c2d c1bb 7c43 30bc 9b8c 75bb f342 0abc
000000f0: 3f7f 8cbb 43be 52b9 6e8b 3ebc 9407 d73a
00000100: d15e 7b3b 0356 1f3c 1971 80bc e032 a4bb
00000110: df09 53ba 6cce 33bb 39b8 ba3b d2c2 903b
00000120: e40a 5b3b fdf2 42bc e0d3 9bbc 89c1 50bb
00000130: 1ef1 913b e939 3bbc cadd 01bc c49b a1bb
00000140: e3f8 e53b a764 8bbc 0827 d63b 89aa d3bc
00000150: 0c21 24bb c700 8ebb 3da0 4b3a ab40 8d3b
00000160: 0f51 10bc c586 4f3c c5cd 15bc cab6 4a3c
00000170: 654e cabc 55a5 12bb f6bc 6cba 7194 173b
00000180: 5e62 7d3c 9a3f 13bb 54ed c93b 71a1 963c
00000190: 5ecf e8ba bbd3 0fbc d449 cbbb b3ba fbbb
000001a0: 604c 25bb 7346 6fba 95ec 2ebc 2789 d93a
000001b0: 7189 2bbc ca6b 0e3b ee17 95bb 6899 d6bb
000001c0: d638 843b 3b66 8abb 86f3 c8bb 114d 523c
000001d0: 0794 763b 58f9 b7bb 9f34 6e3c e53b 063c
000001e0: b1ab 80bc e8da 8aba 1c7b 81bc 1c28 a2bb
000001f0: 3279 7f3c b503 1dbc 9e08 eb38 2eaf 1bbc
-0.0061385757 0.023134947 0.010102204 0.01251192 0.0041382345 0.011385949 -0.011780705 0.010780316
-0.020678416 -0.00024770692 -0.008750718 -0.0072980416 0.00039338955 -0.004201505 0.0019826915 0.00195598
-0.0041054683 -0.004825663 0.008007711 -0.008110682 0.0034522195 0.0055637797 -0.001850051 -0.0068954946
-0.0041528465 -0.01986009 -0.0022250658 -0.0008852015 0.0076616737 -0.009649395 0.01616719 0.0008645119
-0.019233424 -0.00028743185 0.003458349 0.00033639572 0.002988271 0.008711934 0.008852926 0.001911457
-0.0031273342 0.0031908532 -9.349761e-05 0.015004429 0.0023666194 0.008114117 -0.0036100706 -0.012117003
-0.0010106859 0.006529987 -0.008180793 0.0069774687 -0.009128607 0.011885169 -0.015091047 0.0090692425
-0.0058952626 -0.010758277 -0.003746784 -0.0084388135 -0.00428763 -0.00020098039 -0.011629922 0.0016405457
0.0038356076 0.009725097 -0.01567893 -0.0050109476 -0.0008050482 -0.002743627 0.0056982306 0.0044177556
0.003342324 -0.011898753 -0.019021928 -0.0031853637 0.0044537922 -0.011427381 -0.007926414 -0.004931899
0.007018195 -0.017015768 0.0065354146 -0.025838153 -0.0025044112 -0.0043335888 0.0007767713 0.0043106875
-0.008808388 0.012666409 -0.009143298 0.012372682 -0.024695585 -0.0022376378 -0.0009030843 0.002312925
0.015465347 -0.002246833 0.006162325 0.018387528 -0.0017761996 -0.008778508 -0.0062038694 -0.0076821684
-0.0025222525 -0.0009127624 -0.010676523 0.0016596661 -0.01046978 0.0021731728 -0.004549972 -0.006549049
0.0040350957 -0.0042236126 -0.006132546 0.012835757 0.0037624852 -0.005614441 0.014538913 0.008192991
-0.015706869 -0.0010593804 -0.015805773 -0.004948629 0.01559286 -0.009583403 0.00011207278 -0.009502215

network_body._body_endoder.seq_layers.2.weight f4 [128, 128]
00000000: d290 8ebd bd0e 23bd f0a1 68bd 90a0 993d
00000010: 9f12 1abd bee4 333d d770 bbbc 2fad e3bc
00000020: 79d5 ebbb d8cd 8d3d 4e3b a9bd f318 b7bd
00000030: cb15 f23c 7763 b03c 0a03 413d ebae 0d3d
00000040: 8058 b73c cd24 3f3e 8c87 073d ea2e d63d
00000050: be64 f6bd 924c dfbc de70 8cbd 0175 833c
00000060: 568e 103e d4c7 d23d 113f b5bd 4fa8 4b3c
00000070: 72a6 f73a 18d5 1dbe ff80 593c 21d2 f13d
00000080: c768 013e 961b 83bc 9bb6 e53d 2e28 293d
00000090: 5a18 913d 7ba2 973d cead c4bd f2f4 863d
000000a0: 8ccc d33d 47dc 2ebe 5a2a 16be bf6f 19be
000000b0: d34d d43d fbb8 3dbc c3bf ce3c 027d bf3d
000000c0: 3068 003d 4c56 45bc 0f48 be3d b95d edbd
000000d0: 9801 07be 2f24 913d f988 69bd b10f 92bd
000000e0: 40df a53b 5900 58bd 9170 e73c e19d 88bd
000000f0: 48b9 853c 81fa 4abd e320 453d 7121 093c
00000100: bf0d ecbd 5b87 b43c 554c a8bd c827 3cbc
00000110: 8230 683d 19f1 ca3d 0037 bc3c 5601 82bd
00000120: da65 fc3d d23e fd3d 9ceb 6e3d 46c7 acbd
00000130: dcc3 9e3d 2663 d5bc fd44 05bc 4f6e 88bd
00000140: 7194 303d f465 303d 030d 973d 44fb 8fbd
00000150: 875b 9e3c 9cf2 8b3d ff49 c93d 4c09 ee3d
00000160: 1375 893d eb09 f13d c14b 11be 2ab2 c3bc
00000170: 1704 2b3d 15ba 9abd deb4 33bd ff9d 603e
00000180: 495b 913c b87e 5e3d 7848 153e 9f25 c6bb
00000190: 3bf3 24be 0643 b3bd 1663 eebc adce c93d
000001a0: 15e4 fa3d 6cc9 c33d 9e24 0a3c 2e36 dd3d
000001b0: ad2e 363d 1e33 583d 0ba9 14be fae2 543d
000001c0: 922f b8bd 0e5f d6bd ab86 d6bc 2e14 433d
000001d0: c25d b93b be4c 103e ce0a b23c 4ce7 e93b
000001e0: 2517 0c3e ebf5 0b3e 6a7b 313d 982b 26be
000001f0: d05c bdbd 2bfa 143e feef 733c 54ad bbbc
00000200: 74f4 f13a 05cc eabc abd9 e4bc ba55 0d3d
00000210: 7d86 9b3d eae9 843d 5de4 e4bd 1590 bb3c
00000220: e95a c3bd 92c6 b53c e4e1 2c3b 5388 b43c
00000230: 9c14 563d 0a0a e23d a83a 983d 5cc3 ee3a
00000240: bbd6 89be 90eb adbd 6b64 843d 2a0a 12bc
00000250: 980e 793b ae59 b6bd f736 0abe f5b3 9a3d
00000260: ca5b 5b3d 26d1 7abb afbe e83d 2247 6f3c
00000270: c727 1c3b 3178 493d b724 51bd 2fcd d13d
00000280: b0b5 c1bc fb29 893d 1947 2dbd 1610 bdbd
00000290: 9400 5a3d 1d1d 6bbd 6ab1 033e acaa 57be
000002a0: b0f5 453e e5ea 83bd c521 993d 02a9 973d
000002b0: 04ca 2a3d 0080 babd c69c 983d 1aba 493d
000002c0: fd68 9fbd e7aa b5bd 348b 513d c076 4bbe
000002d0: 42e1 4abe 082c 8ebd 56b0 b63d b142 c23c
000002e0: 243c fb3d b756 2a3d b16f 3bbe 7290 86bd
000002f0: 91ea b13d ad09 183e ffd6 13be 43c8 23bd
00000300: 2379 113d cc72 cdbc 6a1e 59bd a6b1 96ba
00000310: 7742 393c 1705 a7bd fec1 d1bb d033 0f3e
00000320: 7de0 f13c 82f3 cc3c c64c f03d 89b5 35bd
00000330: fc49 f43c 90f3 3b3d 53f9 383d c3e2 02be
00000340: 7f83 a1bd 4454 273c 0323 e23d e1cd a33c
00000350: a072 34be d17b cdbd 0946 32bd 0551 843c
00000360: 9fc3 3e3d f652 a83d 6030 63bd e01e af3d
00000370: 9b32 81bb 0d5c 45bd fb47 91bd fda9 b3bc
00000380: b799 64bd 193e 77bd 1048 c0bd 74cd c33d
00000390: 2350 e73d ab72 9fbd 7768 e63c 34c1 7f3a
000003a0: 0edb eabd 542a a5bd 84c7 cfbc 9c60 9abd
000003b0: eef0 bfbd bd3f d13d e452 633e c961 08bd
000003c0: 5c03 e6bd 3521 5cbd 8ca5 a5bd ab5f f43d
000003d0: 50be 1bbd 4d62 b53d f608 7d3d a6b6 fc3d
000003e0: 1587 18be 2d07 233c 646b 84bc 502b bf3c
000003f0: aa03 de3d 124d 893d f3f3 843d 5063 ebbc
-0.06961216 -0.039808977 -0.05679506 0.07501328 -0.037615415 0.043919317 -0.022880955 -0.027792541
-0.007197079 0.06924027 -0.082632646 -0.089403056 0.029551407 0.021531804 0.04712204 0.034590643
0.022381067 0.18666382 0.033088252 0.10458167 -0.12030934 -0.027258191 -0.06857465 0.016047003
0.14116797 0.102920204 -0.088499196 0.012430265 0.0018894209 -0.1541332 0.013275384 0.11807657
0.12637626 -0.016004365 0.1121647 0.041298084 0.07084723 0.074040376 -0.09603463 0.06589688
0.103417486 -0.17076217 -0.14664593 -0.14984034 0.10366406 -0.011579747 0.025237923 0.09350015
0.03134936 -0.012044501 0.09291088 -0.11590142 -0.13184202 0.070869796 -0.057015393 -0.07131899
0.005062014 -0.052734707 0.028251918 -0.06670738 0.0163237 -0.049555305 0.048127066 0.008369789
-0.11526059 0.022037199 -0.08217684 -0.011484094 0.056686886 0.09909267 0.022975445 -0.06347911
0.12324114 0.12365498 0.058330163 -0.08436446 0.07752201 -0.026048254 -0.008134124 -0.06661665
0.043110315 0.04306598 0.07375529 -0.07030347 0.019330753 0.068333834 0.09828567 0.11622867
0.06711783 0.1176947 -0.14189054 -0.023888666 0.041751947 -0.075550236 -0.04387366 0.2193527
0.017743723 0.054320067 0.14578426 -0.0060469653 -0.1610841 -0.08753018 -0.029099982 0.098538734
0.122505344 0.095599025 0.008431582 0.108013496 0.044478107 0.052783124 -0.1451761 0.051974274
-0.08993448 -0.10467349 -0.026187262 0.047626667 0.0056569288 0.14091775 0.021733668 0.0071381684
0.13680704 0.13668029 0.043330587 -0.16227567 -0.09246218 0.14548557 0.014888762 -0.022909798
0.0018459694 -0.028661737 -0.027935823 0.034505583 0.07594011 0.06489928 -0.11176369 0.022895852
-0.09538824 0.022189412 0.0026379758 0.02203766 0.05226575 0.11037071 0.07433063 0.0018216181
-0.2692164 -0.084921956 0.06464466 -0.008913556 0.0038003083 -0.08903824 -0.1349753 0.07553855
0.053554334 -0.0038271635 0.11364495 0.014604362 0.002382742 0.04918689 -0.051060405 0.10244214
-0.023646206 0.0669746 -0.042304132 -0.09231584 0.053223208 -0.05740081 0.12860647 -0.210612
0.19332004 -0.06441287 0.07477144 0.074052826 0.041696563 -0.09106445 0.07451777 0.049249746
-0.07783697 -0.08870488 0.051158145 -0.19869518 -0.19812492 -0.06941992 0.08920352 0.023713442
0.1226733 0.041586604 -0.18304326 -0.065705195 0.08687318 0.14847441 -0.14437483 -0.039985906
0.035515916 -0.025079153 -0.05300752 -0.0011497035 0.01130735 -0.08155268 -0.0064012995 0.13984609
0.02952599 0.025018457 0.11733393 -0.04436258 0.029820435 0.045886576 0.04515965 -0.12781815
-0.07886409 0.010212962 0.11041834 0.019995632 -0.17621851 -0.10033382 -0.043523822 0.016151914
0.046573278 0.082189485 -0.055466056 0.08550811 -0.0039428 -0.04818349 -0.07093807 -0.021931643
-0.055810656 -0.060361955 -0.09388745 0.095606714 0.11294582 -0.07785543 0.028125985 0.00097562675
-0.114675626 -0.08064714 -0.025363691 -0.07537958 -0.093721256 0.10217235 0.22199589 -0.03329638
-0.112311095 -0.053742606 -0.08088216 0.1193231 -0.038023293 0.0885664 0.061776124 0.12339525
-0.1489528 0.009950441 -0.01616449 0.023336083 0.108405426 0.06704153 0.06491842 -0.02873388
