results/ppo/Easy/checkpoint.pt (torch, 437599 bytes, 30 tensors)

network_body._body_endoder.seq_layers.0.weight f4 [128, 6]
-0.21656804 0.37796646 0.3122516 0.35082063 0.91519994 -0.4161691 0.39833787 -0.26614743
-0.3516532 0.63673896 -0.15609053 -0.13751663 -0.103280745 -0.23691699 -0.27227086 -0.19752814
0.1458057 0.05403328 -0.03518395 -0.21681653 -0.031026188 0.10633608 0.16762541 0.045232337
-0.6231608 0.6658066 0.8612635 0.947715 -0.38919267 -0.93023914 -0.44089153 -0.30971768
0.079162225 -0.075056694 -0.16841325 0.7043046 0.3345762 0.23682332 -0.16112952 0.15915681
-0.14939557 0.7446753 0.4366129 -0.43047968 0.23797463 -0.5008622 -0.63035065 -0.08592831
-0.19917223 0.469473 0.2436562 0.46312904 -0.15163837 -0.37936962 0.57466716 -0.5470042
0.015961662 -0.01943468 -0.014003 0.7615851 0.053641967 -0.16882358 0.3741907 0.4609025
0.15588889 -0.5442038 -0.14011064 0.40748742 0.1275884 0.04297881 0.39412576 -0.022707136
0.5293716 -0.16478653 0.20312156 0.28414115 -0.13019358 -0.2339219 -0.21978931 -0.08054398
-0.026078243 -0.12780133 -0.46416545 0.11620642 0.4011821 0.173924 0.13951619 0.8832023
0.07282714 0.40727612 0.57015705 -0.18127964 0.097687 -0.10773732 -0.679321 -0.21309212
-0.07953511 -0.12323278 0.38457894 -0.7999576 -0.1492079 -0.093895696 0.051024366 0.14897814
0.374884 -0.14793679 -0.7400808 -0.11715954 0.14419535 -0.12135702 -0.014290051 0.40146995
0.60704887 -0.29183343 0.3737997 0.15819955 0.14120506 -0.15025386 -0.0059216977 0.01911376
-0.22256702 0.5534201 0.4506689 0.010039291 0.004077854 -0.3880049 0.2976373 0.06466017
0.0913273 0.8814406 -0.62925255 -0.7673296 -0.57547903 -0.044350367 0.22859865 0.7702196
0.9420148 -0.610954 0.56136495 -0.45539755 -1.0653563 0.25358656 -0.19670704 -0.31314993
-0.013365199 -0.6501763 -0.5038736 0.21186677 -0.2852792 -0.69224465 0.050806995 -0.052487522
0.37016323 0.38816637 0.11438665 0.055274952 0.6078269 0.08452176 -0.011785148 -0.17552531
-0.62555015 0.45612678 0.16832787 0.040119376 0.18856384 -0.5846486 -0.30309772 0.17423514
-0.5638959 0.20003735 -0.13718326 0.5912712 -0.36446038 -0.22830276 0.02875472 -0.02954961
0.13314895 -0.22160693 0.11641958 0.23695655 0.07640802 -0.08072434 -0.04208905 0.24178292
-0.5938397 -0.40470907 0.34576574 0.032250665 0.19751488 0.3071703 0.47012058 -0.35954052
0.14771684 -0.26139086 -0.3082142 -0.4629572 0.4630014 -0.102349795 0.021951275 -0.29081342
0.5049494 0.5950445 -0.44312432 0.22610219 -0.15817265 0.36439508 0.5227763 0.33766374
-0.035112567 0.0839947 0.21265343 0.031183142 0.57255733 -0.2494683 0.740041 0.22724321
0.21756746 0.6210196 0.41422203 -0.05347856 0.4892006 -0.16864206 -0.10171356 -0.20149916
0.43424588 -0.660663 -0.1291061 0.14196388 -0.6028035 0.19667023 -0.3219126 -0.49366453
0.5799497 0.5224273 -0.57475954 0.3781797 -0.16382371 -0.3386522 0.14258666 -0.34565932
0.30767596 1.2041647 0.41880998 -0.084489174 0.73613036 0.58230066 0.501707 0.35660526
-0.2945083 0.4099134 -0.29326552 -0.3391456 -0.38108832 0.4820928 -0.14516729 -0.17099592
00000000: 03c4 5dbe d284 c13e 71df 9f3e c39e b33e
00000010: 8b4a 6a3f 1e14 d5be f1f2 cb3e 7a44 88be
00000020: e30b b4be 5301 233f 32d6 1fbe 29d1 0cbe
00000030: db84 d3bd 5e9a 72be 1667 8bbe d144 4abe
00000040: 174e 153e 0052 5d3d 0c1d 10bd 2705 5ebe
00000050: a22a febc bbc6 d93d ffa5 2b3e 8b45 393d
00000060: 7787 1fbf 4d72 2a3f c47b 5c3f 739d 723f
00000070: 4344 c7be 2724 6ebf 89bc e1be 5193 9ebe
00000080: ce1f a23d 53b7 99bd 8674 2cbe 4e4d 343f
00000090: 924d ab3e d081 723e 23ff 24be 01fa 223e
000000a0: 27fb 18be 0aa3 3e3f ba8b df3e d567 dcbe
000000b0: 9faf 733e 8138 00bf a95e 21bf 2ffb afbd
000000c0: cef3 4bbe c45e f03e 0381 793e 401f ed3e
000000d0: 1747 1bbe bc3c c2be 631d 133f 7808 0cbf
000000e0: 08c2 823c 7a35 9fbc d76c 65bc 3ef7 423f
000000f0: aeb7 5b3d 17e0 2cbe ec95 bf3e 6afb eb3e
00000100: 56a1 1f3e f150 0bbf 2a79 0fbe 31a2 d03e
00000110: 89a6 023e 8c0a 303d daca c93e 5104 babc
00000120: e684 073f cdbd 28be 19ff 4f3e f37a 913e
00000130: 7751 05be 3989 6fbe 7310 61be 3ef4 a4bd
00000140: 0aa2 d5bc 5ade 02be 18a7 edbe a2fd ed3d
00000150: bd67 cd3e 2219 323e 55dd 0e3e 8c19 623f
00000160: 6526 953d 7f86 d03e d0f5 113f 5fa1 39be
00000170: 1f10 c83d 62a5 dcbd fbe7 2dbf d234 5abe
00000180: 4ee3 a2bd 7861 fcbd 88e7 c43e 05ca 4cbf
00000190: f5c9 18be 634c c0bd edfe 503d ba8d 183e
000001a0: ccf0 bf3e be7c 17be ef75 3dbf 57f1 efbd
000001b0: f2a7 133e 088a f8bd d120 6abc 788d cd3e
000001c0: 8e67 1b3f 316b 95be ad62 bf3e 10ff 213e
000001d0: 0f98 103e 26dc 19be cd0a c2bb 7694 9c3c
000001e0: 9ce8 63be f1ac 0d3f 13be e63e d77b 243c
000001f0: 859f 853b 94a8 c6be eb63 983e 8d6c 843d
00000200: cf09 bb3d 17a6 613f b216 21bf b66f 44bf
00000210: 9852 13bf bba8 35bd c415 6a3e 1d2d 453f
00000220: e227 713f 7b67 1cbf 9db5 0f3f de29 e9be
00000230: 985d 88bf 19d6 813e 926d 49be 3055 a0be
00000240: b5f9 5abc f471 26bf dcfd 00bf 9af3 583e
00000250: 1e10 92be f236 31bf ff1a 503d 28fd 56bd
00000260: 0986 bd3e bebd c63e 8c43 ea3d fd67 623d
00000270: 8b9a 1b3f bf19 ad3d 7e16 41bc e8bc 33be
00000280: 0e24 20bf 7389 e93e 245e 2c3e 3754 243d
00000290: e116 413e 88ab 15bf a02f 9bbe b26a 323e
000002a0: 7b5b 10bf 97d6 4c3e c579 0cbe 8d5d 173f
000002b0: 8d9a babe 33c8 69be 058f eb3c 0612 f2bc
000002c0: 3358 083e edec 62be 646d ee3d bda4 723e
000002d0: cf7b 9c3d ce52 a5bd 9165 2cbd f195 773e
000002e0: e105 18bf 0736 cfbe 3508 b13e 4619 043d
000002f0: 5741 4a3e 6d45 9d3e a5b3 f03e b215 b8be
00000300: 1543 173e 06d5 85be 40ce 9dbe ba08 edbe
00000310: 850e ed3e c59c d1bd 29d3 b33c 7fe5 94be
00000320: 5d44 013f d654 183f 31e1 e2be 5587 673e
00000330: 03f8 21be fe91 ba3e abd4 053f 43e2 ac3e
00000340: 32d2 0fbd 6a05 ac3d d2c1 593e ca73 ff3c
00000350: 1e93 123f 9e74 7fbe 5473 3d3f 72b2 683e
00000360: 01ca 5e3e 24fb 1e3f e914 d43e 560c 5bbd
00000370: 8078 fa3e 81b0 2cbe 334f d0bd cc55 4ebe
00000380: 7a55 de3e 3621 29bf 6434 04be fb5e 113e
00000390: 5551 1abf ec63 493e bad1 a4be 99c1 fcbe
000003a0: 9577 143f ccbd 053f 7123 13bf c5a0 c13e
000003b0: 67c1 27be d263 adbe 3d02 123e 42fa b0be
000003c0: b487 9d3e 1222 9a3f 436e d63e a908 adbd
000003d0: 0a73 3c3f a811 153f df6f 003f f794 b63e
000003e0: cbc9 96be 2be0 d13e e626 96be 7ea4 adbe
000003f0: 021e c3be ded4 f63e bca6 14be 8e19 2fbe

network_body._body_endoder.seq_layers.0.bias f4 [128]
-0.0032257615 0.004316248 -0.00057990267 -0.002753678 -0.0035806822 0.0030646801 0.00054125144 -0.0013410832
0.0018688996 -0.003948436 -0.0058555845 0.002811393 -0.0010346546 -0.0011889071 0.0005765881 -0.00209378
-7.361912e-05 0.0018619562 -0.0021592372 -0.0028736969 -0.0004434387 0.0020869453 0.0008338194 -0.004988258
0.0031271318 -0.0029931783 -0.004209174 -0.0014922902 -0.004557871 -0.007686106 0.00055545504 0.00039527853
-0.0017492258 0.0022918575 0.002122961 -0.00012090564 0.0035017186 0.0012238028 -0.0021800883 0.00048759513
0.00089900906 -0.0014213682 -0.0013345493 0.00071153993 0.0019979575 0.0027047666 0.0018927723 -0.0039346246
0.0024389422 0.0020371876 -0.004650123 0.0010863498 -0.004300385 0.0034836463 0.0014042184 0.0023225748
-0.0007812758 0.010926143 0.0044901213 -0.0011888735 -0.00097509864 -0.0020010027 0.0009492628 -0.0033969968
0.00031117315 -0.0015304625 0.00035106207 -0.00051523093 0.0012977357 0.0018158865 0.0028476962 -0.00048264276
0.0020425005 -4.2635525e-05 -0.0011479014 0.003712652 0.0012971835 -0.0033447638 0.00086229824 -0.00011092964
-0.0011229817 -0.00080533745 -0.00041407108 0.0008382822 0.00035497508 0.0053383466 -0.0031751695 -0.002050053
-0.00027916054 -0.0009992 -0.0028383806 0.0012231353 -0.0004156221 -0.0011667372 -0.00057670916 -0.0024951058
-0.002872031 0.00027652655 -0.0009453684 0.0014340574 0.006861836 0.0024871838 -0.005140755 -0.0013242008
0.0005705449 0.00022043563 0.00044775923 0.0006923944 -0.0010110991 0.0059186034 -0.0056050094 -0.0037092275
-0.0025781947 -0.0019404741 0.00044398435 -0.0014340642 0.0004164158 -0.00046610963 -0.0005396748 -0.004230361
0.0018829419 0.00047004744 -0.0012262759 0.00036732352 2.5839654e-05 -0.00501566 -0.0021751758 -0.0019921712
00000000: 4c67 53bb 506f 8d3b 9c04 18ba 0d77 34bb
00000010: e1a9 6abb cdd8 483b c5e2 0d3a 49c7 afba
00000020: ddf5 f43a e261 81bb 34e0 bfbb 593f 383b
00000030: 3f9d 87ba 1ad5 9bba 2c26 173a cd37 09bb
00000040: f763 9ab8 e20c f43a fd81 0dbb a254 3cbb
00000050: 567d e8b9 22c5 083b ac94 5a3a 8a74 a3bb
00000060: 91f0 4c3b 3329 44bb 1ced 89bb f398 c3ba
00000070: 315a 95bb bbdb fbbb f59b 113a 633d cf39
00000080: 4746 e5ba fd32 163b 6021 0b3b b98e fdb8
00000090: 177d 653b 0268 a03a d0df 0ebb e9a3 ff39
000000a0: 7aab 6b3a 344d baba 0bec aeba a386 3a3a
000000b0: 2af0 023b 7442 313b e616 f83a 06ee 80bb
000000c0: a9d6 1f3b 5682 053b 0f60 98bb da63 8e3a
000000d0: 3eea 8cbb e34d 643b c00d b83a 5736 183b
000000e0: 88ce 4cba 9103 333c de21 933b fad3 9bba
000000f0: c39d 7fba 4123 03bb f3d7 783a 26a0 5ebb
00000100: f424 a339 cd99 c8ba c10e b839 9010 07ba
00000110: c918 aa3a 0a03 ee3a 6aa0 3a3b 370b fdb9
00000120: 79db 053b 8cd3 32b8 2e75 96ba f74f 733b
00000130: 4106 aa3a d333 5bbb db0b 623a e6a2 e8b8
00000140: 0331 93ba 481d 53ba ae17 d9b9 2bc0 5b3a
00000150: f31b ba39 4ced ae3b 8116 50bb 2f5a 06bb
00000160: 4b5c 92b9 97f7 82ba 2004 3abb 9c51 a03a
00000170: dbe7 d9b9 34ed 98ba 4c2e 17ba ee84 23bb
00000180: af38 3cbb c4fa 9039 99d2 77ba fbf6 bb3a
00000190: 41d9 e03b 0500 233b c773 a8bb ce90 adba
000001a0: 9f90 153a bd24 6739 3ac1 ea39 cd81 353a
000001b0: db86 84ba d8f0 c13b 3aaa b7bb 8316 73bb
000001c0: eef6 28bb 8257 feba 92c6 e839 36f7 bbba
000001d0: 6252 da39 2d60 f4b9 f678 0dba d79e 8abb
000001e0: 0ccd f63a b370 f639 feba a0ba 5495 c039
000001f0: 3cc2 d837 685a a4bb 658d 0ebb 168f 02bb

network_body._body_endoder.seq_layers.2.weight f4 [128, 128]
-0.13741839 -0.13388424 0.055247348 0.02573144 -0.04988535 0.031089447 0.14464864 0.11573833
-0.008703537 0.036504656 0.057091244 -0.14926851 0.03489038 -0.11223079 -0.04991543 -0.1183781
-0.13734663 -0.10606606 -0.060672596 -0.07082464 0.09825043 0.11938316 -0.0508895 -0.039023444
0.077456236 -0.08729889 0.23397774 -0.01772055 -0.04633814 0.07170556 -0.01902671 0.08202174
-0.053743687 -0.12781516 0.056555126 0.07477146 0.044704534 0.048511125 -0.12586999 0.049945973
-0.030738432 -0.030310381 0.060644995 -0.016024578 0.03851758 0.029533567 -0.03442217 -0.1280781
-0.04568229 -0.026736064 -0.052652277 0.07089643 -0.012723181 -0.030095158 0.018622724 -0.057160858
0.0154408645 0.068052895 -0.094936945 0.030295935 0.091082424 -0.020984966 0.027714657 -0.050292373
0.015861046 0.17471844 -0.03451918 -0.10328494 -0.019816196 -0.057866428 -0.070613004 -0.12214976
0.2055829 0.036114734 -0.16489579 -0.023722492 0.039913967 0.008868505 -0.05143302 0.033499993
0.093234785 0.24711654 0.021081733 0.02356962 0.07341768 0.06342741 -0.040663127 0.052574147
-0.045674764 -0.012353996 -0.013142622 0.0075289356 0.051205654 -0.1008172 -0.14260493 -0.07715319
-0.11840415 -0.061802346 0.020317348 -0.0140133705 0.029830625 -0.009973257 0.04833771 0.02094188
0.013115958 0.070878476 -0.18070038 -0.043115817 -0.10372518 0.053428896 0.06685831 0.09047121
0.027676316 0.14607686 -0.26908395 -0.11619373 0.09145943 -0.0013073948 0.07064905 -0.09852722
0.15701792 -0.008325492 -0.0018335944 0.0040219505 -0.017480876 0.03771371 0.011598773 0.003703486
0.13318059 -0.08872905 0.011257181 0.045368474 0.04112252 -0.04402552 0.027634643 0.08208531
0.13713396 0.0056953216 0.03750932 -0.24992307 0.034805592 0.08183861 0.01342254 -0.013373481
0.059755616 0.060638458 0.053701337 -0.043503534 0.1651508 -0.045303036 0.09475596 -0.077312216
0.074742764 -0.024548344 0.06584776 0.06925065 0.033596072 0.09668502 0.03196598 0.119391836
-0.09905982 -0.08757602 -0.010264104 -0.09406978 0.056428347 0.109886944 -0.08561401 0.062222023
0.04989417 -0.101117514 0.038777173 -0.07564503 0.09310991 0.032075275 -0.0002599224 0.10108437
0.024879377 0.03616341 0.008844086 0.15816495 -0.09636988 0.07297766 -0.09685066 0.052377287
0.009785363 0.13739464 0.033698987 0.02792521 0.071621045 -0.15105866 0.104114726 -0.041835543
-0.057386644 -0.023295445 -0.019047813 0.14509155 0.033519108 -0.113886066 -0.025681883 0.023661558
0.15855344 0.047739632 -0.010411881 0.022665704 -0.014569721 -0.11940694 0.09774113 0.12018531
0.0059172176 -0.039836194 -0.05642247 -0.056849536 0.054997705 -0.008041116 0.017533261 0.21075426
0.19523062 0.06418388 0.0672774 0.11290742 0.113541245 -0.24865018 0.06947234 0.004000034
-0.08860343 -0.06880116 0.09673488 0.0910128 -0.001037125 0.041891627 0.07700131 0.05292269
-0.09127957 -0.05842124 -0.15308776 -0.07212817 -0.006514285 0.02076341 0.20330183 0.011206335
0.18707696 -0.1375488 0.012493248 0.013431172 -0.16459212 -0.12048991 0.028627573 0.032261338
0.07436656 0.1056516 0.050446305 -0.07561821 -0.061713822 -0.09920085 -0.027048077 0.051086675
00000000: 68b7 0cbe f318 09be 0b4b 623d beca d23c
00000010: 9554 4cbd 4caf fe3c c61e 143e 3808 ed3d
00000020: 4899 0ebc e885 153d 82d8 693d d8d9 18be
00000030: 37e9 0e3d 42d9 e5bd 1f74 4cbd 3870 f2bd
00000040: 98a4 0cbe 2a39 d9bd d483 78bd 820c 91bd
00000050: 8537 c93d 287f f43d 8271 50bd 0cd7 1fbd
00000060: 60a1 9e3d c3c9 b2bd dc97 6f3e b02a 91bc
00000070: 10cd 3dbd 5dda 923d e7dd 9bbc 04fb a73d
00000080: 5722 5cbd fae1 02be 59a6 673d c721 993d
00000090: 1a1c 373d 9ab3 463d 10e4 00be 2694 4c3d
000000a0: 2acf fbbc 7a4d f8bc e366 783d fa45 83bc
000000b0: 9cc4 1d3d 61f0 f13c 43fe 0cbd e826 03be
000000c0: 5a1d 3bbd 9705 dbbc eaa9 57bd 2632 913d
000000d0: e474 50bc 1f8a f6bc af8e 983c 8121 6abd
000000e0: aefb 7c3c 515f 8b3d 4d6e c2bd 2e2f f83c
000000f0: 6c89 ba3d aae8 abbc d909 e33c 60ff 4dbd
00000100: 06ef 813c 64e9 323e fc63 0dbd 0e87 d3bd
00000110: 9355 a2bc 5905 6dbd 8d9d 90bd a729 fabd
00000120: 5384 523e 0bed 133d 71da 28be ac55 c2bc
00000130: d47c 233d 354d 113c 6eab 52bd 4a37 093d
00000140: e1f1 be3d 1e0c 7d3e 99b3 ac3c 1315 c13c
00000150: 025c 963d 3be6 813d 618e 26bd fd57 573d
00000160: 7615 3bbd 6a68 4abc 2754 57bc 4ab5 f63b
00000170: 05bd 513d 4079 cebd 0707 12be 7e02 9ebd
00000180: e07d f2bd 7524 7dbd 9170 a63c 5698 65bc
00000190: 5b5f f43c df66 23bc c3fd 453d 4e8e ab3c
000001a0: 51e4 563c bc28 913d 8509 39be 369a 30bd
000001b0: de6d d4bd 42d8 5a3d 02ed 883d f848 b93d
000001c0: 71b9 e23c 2c95 153e 5fc5 89be faf6 edbd
000001d0: 154f bb3d e45c abba 73b0 903d a4c8 c9bd
000001e0: 4ec9 203e a567 08bc 3855 f0ba 91ca 833b
000001f0: 0e34 8fbc b179 1a3d c808 3e3c 2fb6 723b
00000200: 7e60 083e 93b7 b5bd 0a70 383c 4bd4 393d
00000210: 1670 283d 1b54 34bd 0c62 e23c 581c a83d
00000220: d86c 0c3e d29f ba3b 5fa3 193d d5eb 7fbe
00000230: 4f90 0e3d 009b a73d 37ea 5b3c 721c 5bbc
00000240: 4ec2 743d 0860 783d eff5 5b3d c330 32bd
00000250: 4b1d 293e ad8f 39bd 6a0f c23d de55 9ebd
00000260: bc12 993d 9c19 c9bc 31db 863d 49d3 8d3d
00000270: 099c 093d cc02 c63d c2ee 023d b583 f43d
00000280: e0df cabd 0e5b b3bd c62a 28bc a8a7 c0bd
00000290: 6921 673d 680c e13d 6656 afbd 85dc 7e3d
000002a0: d45d 4c3d b316 cfbd d0d4 1e3d c8eb 9abd
000002b0: 69b0 be3d 5d61 033d 3246 88b9 5205 cf3d
000002c0: d6cf cb3c 1520 143d c9e6 103c fef5 213e
000002d0: 925d c5bd 5075 953d a459 c6bd 9189 563d
000002e0: ca52 203c 2eb1 0c3e f307 0a3d 69c3 e43c
000002f0: 0eae 923d 1faf 1abe 1a3a d53d bf5b 2bbd
00000300: 420e 6bbd 17d6 bebc 290a 9cbc e192 143e
00000310: 554b 093d 193d e9bd d062 d2bc e2d5 c13c
00000320: d55b 223e a28a 433d 9896 2abc 6dad b93c
00000330: d7b5 6ebc a08b f4bd 802c c83d b723 f63d
00000340: 38e5 c13b 472b 23bd 3f1b 67bd 0fdb 68bd
00000350: 4645 613d e3be 03bc eaa1 8f3c f7cf 573e
00000360: 89ea 473e d772 833d bcc8 893d 013c e73d
00000370: 5088 e83d 279e 7ebe 8447 8e3d b812 833b
00000380: b775 b5bd 9fe7 8cbd f01c c63d eb64 ba3d
00000390: 24f0 87ba 8e96 2b3d ddb2 9d3d 76c5 583d
000003a0: c8f0 babd 1c4b 6fbd 0ac3 1cbe efb7 93bd
000003b0: c975 d5bb 0718 aa3c 5b2e 503e c79a 373c
000003c0: 1a91 3f3e 98d9 0cbe 7bb0 4c3c 6b0e 5c3c
000003d0: d68a 28be 6ac3 f6bd 5f84 ea3c 7724 043d
000003e0: 7f4d 983d de5f d83d c9a0 4e3d b8dd 9abd
000003f0: a2c7 7cbd d129 cbbd ee93 ddbc 4340 513d

network_body._body_endoder.seq_layers.2.bias f4 [128]
-0.0025449658 -0.0014970303 0.0017878172 5.1591793e-05 0.0031302914 -0.001057766 -0.002861016 -0.00010594973
-0.007882235 0.0012708962 -0.0016406917 -0.0005924551 0.00074731855 -0.0021974612 -0.00031963587 -0.0026268065
-0.001434574 -0.0027921898 -0.0038632215 0.000629843 -0.00081137905 0.00032785413 7.944171e-05 0.00041010522
-0.0005968923 -0.0050648944 -0.0013709525 0.004936385 0.0035229072 0.000992929 -0.0016848334 0.0008369057
0.0055432483 -0.00018798889 -0.00096472015 -0.0008283809 0.0009535831 -0.001823666 0.002417819 -0.0024167767
-0.0017723037 0.0011107513 -0.0016363469 -0.0028646714 0.003283381 -0.0042660143 -0.0019755804 0.0022244325
-0.0036218108 0.0010950915 -0.0017153608 0.0030719768 0.0010191231 0.0028217817 -0.0037110145 -0.0059386822
-0.0005589874 0.0002971355 -0.0029172597 0.00041408715 -0.002057163 0.0035123266 -0.0036723204 0.000723932
0.0007950961 4.1620333e-07 0.0013161266 -0.00042404098 0.0003429952 0.0018269507 -0.0022948256 -0.001105958
-0.0024335408 0.0014601006 0.00061214506 -0.0031183925 -0.00090249674 -0.0024065224 0.0023716788 0.00043594374
-0.0021328025 -0.00040001268 0.0003983422 0.0014174811 -0.00041977304 -0.00049909553 -0.0003973761 0.0040307296
-0.0026434474 -0.003796492 -3.0014742e-06 -0.00083156547 0.00013158988 -4.7599144e-05 -0.0013508975 -0.0018463883
-0.0010105293 -0.0001577226 0.0012072164 -0.003292998 0.0026611318 -0.0022799135 0.00037332575 -0.0013821971
0.0005703093 0.00031166675 -0.0019452681 0.000289116 -0.0040845387 0.002354466 -0.00085864513 0.00140833
-0.0008750177 -0.0008061679 0.000362386 -0.0018044629 0.00282184 0.0018990485 -0.0016121587 -0.002309997
-0.0017820981 0.00088885904 0.00044186838 0.0024178065 -0.0043743136 -0.0011467946 0.0025102145 -0.0014328662
00000000: 71c9 26bb 0038 c4ba 3155 ea3a 4464 5838
00000010: 9325 4d3b bda4 8aba e27f 3bbb 5431 deb8
00000020: 7d24 01bc 3394 a63a 7a0c d7ba fd4e 1bba
00000030: b3e7 433a 4803 10bb cd94 a7b9 8026 2cbb
00000040: 5108 bcba 2cfd 36bb 1a2e 7dbb 0c1c 253a
00000050: bab2 54ba d6e3 ab39 f199 a638 6403 d739
00000060: c478 1cba 6af7 a5bb 88b1 b3ba 66c1 a13b
00000070: 93e0 663b 2b25 823a a1d5 dcba ca63 5b3a
00000080: 23a4 b53b e21e 45b9 46e5 7cba b327 59ba
00000090: e1f9 793a 1408 efba 4674 1e3b c962 1ebb
000000a0: a54c e8ba a196 913a b17a d6ba 36bd 3bbb
000000b0: fe2d 573b ecc9 8bbb bd78 01bb c9c7 113b
000000c0: e75b 6dbb 2c89 8f3a f5d5 e0ba 3853 493b
000000d0: 1994 853a a4ed 383b 7e34 73bb 4799 c2bb
000000e0: 0289 12ba dac8 9b39 7f2f 3fbb d619 d939
000000f0: 78d1 06bb 102f 663b 50ab 70bb 41c6 3d3a
00000100: ff6d 503a 8d72 df34 e181 ac3a d151 deb9
00000110: 09d4 b339 4b76 ef3a c964 16bb cbf5 90ba
00000120: 0a7c 1fbb d960 bf3a 5c78 203a f25d 4cbb
00000130: 8895 6cba bfb6 1dbb 2b6e 1b3b 618f e439
00000140: 7dc6 0bbb cbb8 d1b9 96d8 d039 c6ca b93a
00000150: fc14 dcb9 bcd5 02ba eb56 d0b9 3614 843b
00000160: b03d 2dbb 91ce 78bb ef6c 49b6 6afd 59ba
00000170: 64fb 0939 31a5 47b8 9910 b1ba 8302 f2ba
00000180: bd73 84ba 5762 25b9 763b 9e3a 57cf 57bb
00000190: 6266 2e3b 9a6a 15bb efba c339 d72a b5ba
000001a0: cf80 153a 3467 a339 5ef8 feba 7e94 9739
000001b0: 98d7 85bb 624d 1a3b b316 61ba b797 b83a
000001c0: 7261 65ba 0355 53ba a0fe bd39 ba83 ecba
000001d0: 9fee 383b 7ee9 f83a 124f d3ba 5263 17bb
000001e0: 4a95 e9ba 5202 693a 92aa e739 1074 1e3b
000001f0: 6756 8fbb 0b50 96ba 6982 243b 03cf bbba

action_model._continuous_distribution.mu.weight f4 [1, 128]
-0.0036599957 -0.014986093 -0.0076769316 -0.02336404 -0.012032053 -0.0028672095 -0.003035991 0.010050225
-0.0010979731 0.011432788 0.026843647 -0.012688958 0.021763371 -0.012681775 -0.024815686 -0.0008636268
0.012901401 -0.01677073 -8.822844e-05 -0.013979607 0.017623892 0.01644082 0.020724896 -0.020065388
-0.024339419 -0.0035489518 -0.0045279907 -0.018577648 0.02062276 0.008056861 -0.014370562 0.0084456885
0.018052872 -0.011709436 0.030796928 -0.013789896 0.007640632 -0.002281944 -0.02969962 -0.02076966
-0.017185811 0.02899267 -0.0052996213 0.00043979523 0.029463725 0.015372416 -0.005493639 -0.008179462
-0.025654716 0.0094311545 0.0085667 0.010784787 0.030661836 0.018038275 -0.0025732322 0.0005781794
0.009552772 -0.0088826 -0.018565228 -0.019318113 0.0265335 0.027242523 0.016511729 0.01564556
0.029966857 0.0013694563 -0.0019243436 -0.013199067 0.02801655 0.014507657 -0.023751464 0.0218543
0.018753648 -0.031674456 -0.0125081185 -0.00021514289 0.0043732887 -0.0043456424 0.010217199 0.022902526
-0.003774523 -0.014544308 0.002188059 -0.010710672 -0.008091112 -0.017604718 -0.044856742 0.014961148
-0.0014112827 -0.00018798896 0.0031058276 0.032445375 0.012743056 0.010485881 -0.0085617285 -0.010638431
-0.010370504 -0.013826807 0.019270059 -0.003543587 0.025226023 -0.008191621 -0.011302204 0.020223834
0.0054721343 0.021467196 -0.011970795 0.006757245 -0.04055673 0.0083178505 -0.010814804 0.025828583
-0.0052961083 0.0071059 0.010253357 -0.00063357106 0.011964061 0.012876042 0.0050872765 0.00028104277
-0.013383474 0.019482043 0.014542214 0.023812592 -0.00018174776 -0.017842945 -0.014730212 -0.002871163
00000000: 8adc 6fbb 3b88 75bc c58e fbbb f165 bfbc
00000010: 1722 45bc cbe7 3bbb 7af7 46bb b3a9 243c
00000020: dde9 8fba 9750 3b3c 35e7 db3c 59e5 4fbc
00000030: 1949 b23c 38c7 4fbc 444a cbbc 0365 62ba
00000040: 6660 533c c562 89bc 4807 b9b8 b90a 65bc
00000050: fb5f 903c e6ae 863c 42c7 a93c 2b60 a4bc
00000060: 7663 c7bc 8895 68bb 8a5f 94bb 2730 98bc
00000070: 10f1 a83c ed00 043c 8172 6bbc c95f 0a3c
00000080: 9ee3 933c efd8 3fbc d749 fc3c 04ef 61bc
00000090: 445e fa3b ab8c 15bb 9e4c f3bc 2225 aabc
000000a0: 42c9 8cbc 0982 ed3c 72a8 adbb 5194 e639
000000b0: e95d f13c 96dc 7b3c fc03 b4bb 2603 06bc
000000c0: d729 d2bc 2185 1a3c 585b 0c3c adb2 303c
000000d0: 882e fb3c 01c5 933c aca3 28bb f690 173a
000000e0: 3b83 1c3c 5388 11bc 1b16 98bc 0541 9ebc
000000f0: c85c d93c b62b df3c 9b43 873c 1e2b 803c
00000100: 0e7d f53c 547f b33a 423a fcba e640 58bc
00000110: f782 e53c 86b1 6d3c 6e92 c2bc ca07 b33c
00000120: 40a1 993c 13bd 01bd daee 4cbc fb97 61b9
00000130: ce4d 8f3b e465 8ebb 0a66 273c 149e bb3c
00000140: fd5d 77bb 404b 6ebc 8a65 0f3b d07b 2fbc
00000150: 9590 04bc c537 90bc b4bb 37bd 9a1f 753c
00000160: cafa b8ba e71e 45b9 248b 4b3b 71e5 043d
00000170: 40c8 503c f9cc 2b3c 7e46 0cbc d04c 2ebc
00000180: 0ce9 29bc d589 62bc 3edc 9d3c 863b 68bb
00000190: cea6 ce3c 2636 06bc e12c 39bc 74ac a53c
000001a0: 974f b33b f9db af3c 2721 44bc e16b dd3b
000001b0: d01e 26bd 9847 083c 9330 31bc 7796 d33c
000001c0: fa8a adbb 9cd8 e83b b2fd 273c 3c16 26ba
000001d0: e904 443c 09f6 523c 2bb3 a63b ec58 9339
000001e0: 5c46 5bbc ce98 9f3c 7742 6e3c a012 c33c
000001f0: 8b93 3eb9 5e2b 92bc fd56 71bc 1f2a 3cbb

exp_avg f4 [128, 6]
0.00023297235 7.723923e-06 0.0 -4.3185308e-05 3.876736e-05 0.0 -0.0003418257 -6.0135695e-05
0.0 0.00013219818 -4.7541176e-05 0.0 -4.6877245e-05 4.1012572e-05 0.0 1.741345e-05
2.7126423e-05 0.0 0.00026050428 -3.326985e-06 0.0 1.2914585e-05 6.467534e-06 0.0
0.001125741 -0.00026325867 0.0 0.00036507996 -0.0002030431 0.0 4.9148963e-05 -1.691155e-05
0.0 -4.856942e-06 -1.0763658e-05 0.0 -0.0003921939 -7.7609555e-05 0.0 0.00013597697
-0.00013514864 0.0 -0.00025780915 7.231902e-05 0.0 -7.6183744e-05 3.0640225e-05 0.0
-0.00036072877 3.6527457e-05 0.0 -0.00024917728 -1.676957e-05 0.0 -6.33201e-05 3.5697535e-06
0.0 4.1150342e-05 -9.50538e-06 0.0 -2.4548975e-05 2.9745883e-05 0.0 6.4455395e-05
-2.2953422e-05 0.0 0.00033215436 -0.00025100837 0.0 -0.00017542485 4.3615775e-05 0.0
0.0005610081 4.1216314e-05 0.0 -0.00013374492 -9.195516e-06 0.0 -8.426897e-05 5.30434e-05
0.0 0.00010147349 -2.0844474e-05 0.0 7.046361e-05 -4.5932484e-05 0.0 -7.8146724e-05
-2.5619416e-05 0.0 0.00045554404 8.048018e-05 0.0 -5.1101375e-05 -8.745453e-05 0.0
-0.0002709932 4.2856278e-05 0.0 -2.8107292e-05 3.5368525e-05 0.0 1.6254047e-05 -2.7069293e-05
0.0 -5.436769e-05 4.7775524e-05 0.0 -9.2140945e-05 -6.672834e-06 0.0 -2.1998792e-05
3.299529e-05 0.0 2.6755866e-05 -1.4333647e-05 0.0 0.00020864361 -0.00012142784 0.0
0.00014947445 -6.327785e-05 0.0 -2.891267e-05 8.855765e-06 0.0 7.2636314e-05 -0.000111584086
0.0 -0.000100822785 1.3014637e-06 0.0 -1.0310848e-06 0.000100103665 0.0 0.00023812783
-5.580082e-05 0.0 0.0002395024 1.8089706e-05 0.0 7.194087e-05 5.979019e-05 0.0
-0.00022498466 7.4599455e-05 0.0 1.1792224e-05 9.866485e-05 0.0 -5.9082773e-05 4.5362096e-05
0.0 7.236707e-05 -3.7859474e-05 0.0 0.0005166204 8.904315e-05 0.0 -0.00014757532
2.748162e-05 0.0 0.0004360957 8.8457255e-06 0.0 -7.5470016e-05 -1.4094621e-05 0.0
0.00021881225 2.7275075e-05 0.0 0.00014770811 -0.000100764635 0.0 0.000112185124 2.1754715e-05
0.0 -4.078164e-05 -1.853518e-05 0.0 -8.782186e-05 4.391168e-05 0.0 -4.9783197e-05
-5.1402567e-05 0.0 6.404873e-05 -4.3681626e-05 0.0 -0.00021748283 -9.317009e-05 0.0
-9.229426e-05 2.5887233e-05 0.0 -6.058141e-05 5.814081e-05 0.0 0.00019759142 -9.3963055e-05
0.0 -0.00010358219 -1.1988829e-05 0.0 -0.0006299075 0.00020843084 0.0 -0.000195297
0.00016250063 0.0 0.00014882664 7.877606e-05 0.0 0.0001236582 1.6758702e-05 0.0
-0.00042953997 -0.00014486663 0.0 -9.3886825e-05 -6.775153e-05 0.0 -5.7686495e-05 2.0713476e-05
0.0 -2.5928755e-05 -7.34757e-05 0.0 -0.00026175156 8.467637e-05 0.0 2.315331e-06
-2.1226446e-05 0.0 6.550169e-05 -1.5117486e-05 0.0 -9.7973054e-05 1.7358185e-05 0.0
-0.00041426427 0.00013030508 0.0 -7.499692e-05 -0.00015430951 0.0 7.0392266e-06 -1.6074944e-05
0.0 -1.4388423e-05 8.0424885e-05 0.0 7.681644e-05 -2.4538247e-05 0.0 -6.260362e-05
00000000: 0a4a 7439 ff95 0137 0000 0000 df21 35b8
00000010: 239a 2238 0000 0000 1237 b3b9 363a 7cb8
00000020: 0000 0000 ae9e 0a39 f366 47b8 0000 0000
00000030: 0f9e 44b8 ea04 2c38 0000 0000 1913 9237
00000040: 8d8d e337 0000 0000 4b94 8839 2b45 5fb6
00000050: 0000 0000 b8ab 5837 b203 d936 0000 0000
00000060: 9a8d 933a fb05 8ab9 0000 0000 3468 bf39
00000070: f8e7 54b9 0000 0000 4c25 4e38 47dd 8db7
00000080: 0000 0000 d0f8 a2b6 8f95 34b7 0000 0000
00000090: 609f cdb9 50c2 a2b8 0000 0000 0a95 0e39
000000a0: b0b6 0db9 0000 0000 8f2a 87b9 faa9 9738
000000b0: 0000 0000 d6c4 9fb8 b183 0038 0000 0000
000000c0: 3220 bdb9 0f35 1938 0000 0000 02a4 82b9
000000d0: 61ac 8cb7 0000 0000 b8ca 84b8 e68f 6f36
000000e0: 0000 0000 d898 2c38 4c79 1fb7 0000 0000
000000f0: 86ee cdb7 cc86 f937 0000 0000 3a2c 8738
00000100: 198c c0b7 0000 0000 0125 ae39 c699 83b9
00000110: 0000 0000 40f2 37b9 15f0 3638 0000 0000
00000120: 9e10 133a aedf 2c38 0000 0000 e13d 0cb9
00000130: 7146 1ab7 0000 0000 8fb9 b0b8 eb7a 5e38
00000140: 0000 0000 2ace d438 2bdb aeb7 0000 0000
00000150: ddc5 9338 a1a7 40b8 0000 0000 b4e2 a3b8
00000160: 47e9 d6b7 0000 0000 16d6 ee39 78c7 a838
00000170: 0000 0000 af55 56b8 cb67 b7b8 0000 0000
00000180: 1714 8eb9 94c0 3338 0000 0000 f3c7 ebb7
00000190: aa58 1438 0000 0000 4d59 8837 dd12 e3b7
000001a0: 0000 0000 dd08 64b8 9462 4838 0000 0000
000001b0: cb3b c1b8 35e7 dfb6 0000 0000 0c8a b8b7
000001c0: 6c64 0a38 0000 0000 c971 e037 8c7a 70b7
000001d0: 0000 0000 58c7 5a39 13a7 feb8 0000 0000
000001e0: 3ebc 1c39 09b4 84b8 0000 0000 7c89 f2b7
000001f0: 3993 1437 0000 0000 5354 9838 4002 eab8
00000200: 0000 0000 d270 d3b8 f4ad ae35 0000 0000
00000210: ce63 8ab5 bfee d138 0000 0000 f4b1 7939
00000220: ad0b 6ab8 0000 0000 f022 7b39 59bf 9737
00000230: 0000 0000 f6de 9638 3ac7 7a38 0000 0000
00000240: dce9 6bb9 4772 9c38 0000 0000 37d7 4537
00000250: 4aea ce38 0000 0000 a5cf 77b8 2e43 3e38
00000260: 0000 0000 c6c3 9738 4dcb 1eb8 0000 0000
00000270: cf6d 073a adbc ba38 0000 0000 73be 1ab9
00000280: 5488 e637 0000 0000 c6a3 e439 1a68 1437
00000290: 0000 0000 a845 9eb8 f077 6cb7 0000 0000
000002a0: f770 6539 c7cc e437 0000 0000 18e2 1a39
000002b0: 9a51 d3b8 0000 0000 ee44 eb38 e57d b637
000002c0: 0000 0000 f40c 2bb8 ff7b 9bb7 0000 0000
000002d0: 012d b8b8 cf2d 3838 0000 0000 4dce 50b8
000002e0: 1699 57b8 0000 0000 e651 8638 ca36 37b8
000002f0: 0000 0000 1a0c 64b9 5064 c3b8 0000 0000
00000300: 1b8e c1b8 6928 d937 0000 0000 cb18 7eb8
00000310: 38dc 7338 0000 0000 8b30 4f39 080e c5b8
00000320: 0000 0000 443a d9b8 a123 49b7 0000 0000
00000330: 6020 25ba 3a8e 5a39 0000 0000 a4c8 4cb9
00000340: ee64 2a39 0000 0000 590e 1c39 9334 a538
00000350: 0000 0000 3faa 0139 0a95 8c37 0000 0000
00000360: e133 e1b9 57e7 17b9 0000 0000 1be5 c4b8
00000370: d315 8eb8 0000 0000 67f4 71b8 dac1 ad37
00000380: 0000 0000 9481 d9b7 f716 9ab8 0000 0000
00000390: b33b 89b9 4894 b138 0000 0000 1561 1b36
000003a0: 720f b2b7 0000 0000 f45d 8938 1ca1 7db7
000003b0: 0000 0000 e276 cdb8 6b9c 9137 0000 0000
000003c0: 9c31 d9b9 81a2 0839 0000 0000 aa47 9db8
000003d0: 25ce 21b9 0000 0000 7f32 ec36 aed8 86b7
000003e0: 0000 0000 ce65 71b7 c8a9 a838 0000 0000
000003f0: 8318 a138 7cd7 cdb7 0000 0000 104a 83b8

exp_avg_sq f4 [128, 6]
2.0133723e-07 1.5244956e-08 0.0 9.021705e-08 3.1922827e-08 0.0 7.4652155e-07 1.26166775e-08
0.0 1.7495655e-07 7.681271e-08 0.0 1.9311717e-07 2.3673415e-08 0.0 1.1963292e-07
1.7781371e-08 0.0 2.0523926e-07 6.6441683e-09 0.0 1.07609324e-07 3.5898612e-08 0.0
1.1863353e-06 1.1888942e-07 0.0 3.2856252e-07 1.0103938e-07 0.0 3.0370664e-08 3.5895729e-09
0.0 1.8986587e-08 4.0179966e-09 0.0 8.5834256e-07 1.2165823e-08 0.0 1.4686292e-07
6.3902846e-08 0.0 1.3443281e-07 4.235118e-09 0.0 5.9474896e-08 8.880952e-09 0.0
2.3728012e-07 2.0448693e-08 0.0 7.406235e-08 2.1252754e-08 0.0 1.1512306e-07 2.8051383e-09
0.0 6.72856e-08 1.833789e-08 0.0 4.066195e-08 2.54989e-09 0.0 1.3359518e-08
4.2966835e-09 0.0 9.3321046e-07 8.985278e-08 0.0 3.2735272e-07 1.01183e-07 0.0
1.4557396e-06 2.321987e-08 0.0 2.451259e-07 8.6946905e-08 0.0 5.3518193e-08 5.3418265e-09
0.0 2.0312623e-08 9.283868e-09 0.0 9.5279724e-08 3.4303984e-09 0.0 3.938397e-08
8.583203e-09 0.0 1.8878909e-06 4.5789225e-08 0.0 3.34907e-07 1.5793918e-07 0.0
1.259117e-07 1.407765e-08 0.0 7.015579e-08 1.8797541e-08 0.0 2.0301604e-07 1.0004776e-08
0.0 5.4386255e-08 2.0864965e-08 0.0 3.300792e-08 1.0927534e-09 0.0 8.230771e-09
2.761779e-09 0.0 6.493807e-07 1.4376678e-08 0.0 1.8595256e-07 4.77461e-08 0.0
3.3562554e-08 3.80089e-09 0.0 1.1940799e-08 3.1166933e-09 0.0 5.9714523e-07 1.6233258e-08
0.0 2.1488843e-07 7.788386e-08 0.0 5.891711e-07 5.583163e-08 0.0 1.8583039e-07
5.1196057e-08 0.0 1.203655e-07 1.7396811e-09 0.0 4.6470966e-08 1.1417938e-08 0.0
3.3359805e-07 1.1159914e-08 0.0 1.0385647e-07 2.6080368e-08 0.0 4.18149e-08 3.2115075e-09
0.0 2.1136893e-08 4.3955617e-09 0.0 8.615832e-07 1.0309156e-08 0.0 1.5844289e-07
4.8119254e-08 0.0 3.5774707e-07 6.0753216e-09 0.0 6.805101e-08 2.3354499e-08 0.0
6.2490535e-08 4.9654423e-09 0.0 2.999103e-08 4.0575068e-09 0.0 5.2568407e-08 3.2859786e-09
0.0 1.8452864e-08 5.6808256e-09 0.0 8.5106495e-07 2.9832876e-08 0.0 1.833782e-07
6.9129165e-08 0.0 4.288776e-07 1.0183183e-08 0.0 5.9382224e-08 3.8590546e-08 0.0
2.1726437e-07 2.5210898e-08 0.0 1.2893541e-07 2.9329675e-08 0.0 1.4081928e-07 8.759732e-09
0.0 5.4547062e-08 2.261457e-08 0.0 1.1387302e-06 1.1652202e-07 0.0 3.7623616e-07
1.0179426e-07 0.0 6.416612e-07 4.1730374e-08 0.0 3.3119028e-07 5.5939523e-08 0.0
8.874527e-07 1.672001e-08 0.0 2.7902152e-07 5.974257e-08 0.0 2.4758842e-07 2.686861e-08
0.0 8.670397e-08 2.3427198e-08 0.0 7.863318e-08 9.377531e-09 0.0 2.1950283e-08
5.4701674e-09 0.0 4.3316913e-08 5.0410414e-09 0.0 1.8331077e-08 5.3330007e-09 0.0
1.110792e-06 1.2524663e-07 0.0 4.5547628e-07 8.997415e-08 0.0 1.8388121e-07 4.552522e-09
0.0 2.3090795e-08 2.4447688e-08 0.0 1.3888715e-07 1.5793052e-08 0.0 4.797997e-08
00000000: 282f 5834 03f4 8232 0000 0000 59bd c133
00000010: 851b 0933 0000 0000 9264 4835 bcc0 5832
00000020: 0000 0000 b1db 3b34 3cf4 a433 0000 0000
00000030: a55b 4f34 645a cb32 0000 0000 7274 0034
00000040: a6bd 9832 0000 0000 bd5f 5c34 b94a e431
00000050: 0000 0000 da16 e733 f12e 1a33 0000 0000
00000060: 2c3a 9f35 2650 ff33 0000 0000 4a65 b034
00000070: fdfa d833 0000 0000 e670 0233 6fac 7631
00000080: 0000 0000 f217 a332 ac0e 8a31 0000 0000
00000090: da68 6635 db01 5132 0000 0000 5fb1 1d34
000000a0: f63a 8933 0000 0000 9c58 1034 7e84 9131
000000b0: 0000 0000 5771 7f33 d792 1832 0000 0000
000000c0: 10c7 7e34 27a7 af32 0000 0000 350c 9f33
000000d0: 4d8f b632 0000 0000 9239 f733 84c4 4031
000000e0: 0000 0000 a67e 9033 7285 9d32 0000 0000
000000f0: 49a4 2e33 243a 2f31 0000 0000 c883 6532
00000100: 07a2 9331 0000 0000 bc81 7a35 17f5 c033
00000110: 0000 0000 04bf af34 f149 d933 0000 0000
00000120: d562 c335 0975 c732 0000 0000 d999 8334
00000130: 91b7 ba33 0000 0000 e0db 6533 348b b731
00000140: 0000 0000 ee7b ae32 e27e 1f32 0000 0000
00000150: 959c cc33 35bc 6b31 0000 0000 2227 2933
00000160: 5375 1332 0000 0000 7063 fd35 c9a9 4433
00000170: 0000 0000 45cd b334 fe95 2934 0000 0000
00000180: 5832 0734 29da 7132 0000 0000 8ea8 9633
00000190: 3b78 a132 0000 0000 a0fc 5934 78e1 2b32
000001a0: 0000 0000 5296 6933 8b3a b332 0000 0000
000001b0: 98c4 0d33 d82f 9630 0000 0000 5067 0d32
000001c0: bbc9 3d31 0000 0000 1a51 2e35 4cfd 7632
000001d0: 0000 0000 40aa 4734 6411 4d33 0000 0000
000001e0: 6b26 1033 fb98 8231 0000 0000 3024 4d32
000001f0: 732d 5631 0000 0000 824b 2035 5071 8b32
00000200: 0000 0000 15bc 6634 1b41 a733 0000 0000
00000210: 8827 1e35 87cb 6f33 0000 0000 ab88 4734
00000220: a9e2 5b33 0000 0000 d13d 0134 9619 ef30
00000230: 0000 0000 5e97 4733 9f28 4432 0000 0000
00000240: 5e19 b334 d2b9 3f32 0000 0000 b307 df33
00000250: 5607 e032 0000 0000 f897 3333 70b1 5c31
00000260: 0000 0000 8590 b532 c507 9731 0000 0000
00000270: 8c47 6735 261c 3132 0000 0000 7320 2a34
00000280: aeab 4e33 0000 0000 6210 c034 18bf d031
00000290: 0000 0000 7023 9233 169d c832 0000 0000
000002a0: 8932 8633 7e9c aa31 0000 0000 7ccf 0033
000002b0: 356a 8b31 0000 0000 93c7 6133 8ccf 6131
000002c0: 0000 0000 4782 9e32 1231 c331 0000 0000
000002d0: bd74 6435 9821 0033 0000 0000 9ee6 4434
000002e0: 2974 9433 0000 0000 7d40 e634 1df2 2e32
000002f0: 0000 0000 720b 7f33 c1be 2533 0000 0000
00000300: 2d49 6934 5a8f d832 0000 0000 7f71 0a34
00000310: a3f0 fb32 0000 0000 1c34 1734 b57d 1632
00000320: 0000 0000 2147 6a33 f741 c232 0000 0000
00000330: 79d6 9835 a83a fa33 0000 0000 81fd c934
00000340: fc99 da33 0000 0000 9f3e 2c35 083b 3333
00000350: 0000 0000 72ce b134 2842 7033 0000 0000
00000360: 4939 6e35 b19f 8f32 0000 0000 6dcc 9534
00000370: d34b 8033 0000 0000 4bec 8434 b3cc e632
00000380: 0000 0000 0332 ba33 f43c c932 0000 0000
00000390: 0cdd a833 d11a 2132 0000 0000 2f8d bc32
000003a0: 1af4 bb31 0000 0000 730b 3a33 7835 ad31
000003b0: 0000 0000 7776 9d32 923d b731 0000 0000
000003c0: 8616 9535 887b 0634 0000 0000 2f88 f434
000003d0: d037 c133 0000 0000 e270 4534 686c 9c31
000003e0: 0000 0000 3259 c632 0901 d232 0000 0000
000003f0: 0221 1534 4aa9 8732 0000 0000 8912 4e33

exp_avg f4 [128]
-2.2394584e-06 -4.1432177e-05 1.8822075e-05 -2.3274838e-06 -3.0845265e-05 -7.5704634e-06 -4.6756104e-05 -3.173676e-05
-2.1379139e-05 -7.5435705e-06 2.3036428e-05 -0.00010827477 6.340146e-05 2.087309e-05 1.8030601e-05 5.6070665e-05
-8.4035455e-06 -1.4589237e-05 -6.4094856e-06 1.3367254e-05 -2.2162545e-05 -1.5348807e-05 2.6908696e-05 2.9041748e-05
-3.6227528e-05 1.9932517e-05 6.0383114e-05 3.4277055e-05 3.7680362e-05 1.4230671e-05 -2.6474902e-06 2.6066232e-06
9.929784e-06 -1.1759471e-05 3.6850073e-05 1.2996457e-05 -6.210983e-05 6.2090953e-06 3.4638735e-05 -7.910262e-06
5.9822e-05 1.4517065e-06 -5.6023064e-06 -2.8836585e-05 2.6204272e-05 -8.224759e-05 1.4601505e-05 7.4456293e-06
-8.303013e-06 5.127466e-06 1.2617464e-05 3.814687e-05 9.091838e-05 -4.1735035e-05 -6.631635e-05 4.521003e-06
-1.7053788e-05 -5.157524e-05 -6.116386e-05 5.1637576e-06 -2.8596549e-05 2.2322978e-05 6.7291103e-06 -1.0876637e-05
-2.8880628e-05 7.9531485e-05 -1.5389749e-05 -2.2559467e-05 5.5854867e-05 -4.6653477e-05 4.6837163e-06 -3.0633633e-05
-1.4091719e-05 1.2742106e-05 -1.2777675e-05 -3.939448e-05 -1.264689e-05 4.8375394e-05 -3.7472364e-05 4.504776e-05
-1.1534591e-05 4.323222e-06 -1.0632084e-05 3.5645132e-06 3.8880204e-05 -6.083022e-05 0.00010470808 2.5497147e-06
-1.7174747e-05 1.169525e-05 -3.0642437e-05 -1.7280878e-05 6.184159e-05 -5.220731e-05 -7.218513e-05 2.9726436e-05
6.097087e-05 1.0860547e-05 6.5195236e-05 -3.1830048e-05 -3.0021092e-05 -6.984424e-06 7.09302e-05 -1.8012268e-05
-2.784497e-06 -3.0490693e-05 -2.4779065e-05 1.1724372e-05 1.2792902e-05 -1.5852644e-05 3.4314424e-05 1.6515041e-05
1.3025972e-05 7.401506e-05 -1.516565e-06 -1.3299389e-05 -7.705115e-05 -4.5360008e-05 -3.3151162e-05 3.2541855e-05
1.8108236e-05 1.781432e-05 -1.9045732e-05 3.0510928e-05 2.904009e-06 7.5054745e-06 2.7809589e-05 1.2805469e-05
00000000: 9a49 16b6 76c7 2db8 19e4 9d37 de31 1cb6
00000010: da5f 01b8 c905 feb6 fc1b 44b8 161d 05b8
00000020: 5a57 b3b7 c71e fdb6 5a3e c137 9311 e3b8
00000030: 66f6 8438 9f18 af37 6c40 9737 6b2d 6b38
00000040: f4fc 0cb7 4cc4 74b7 1011 d7b6 eb43 6037
00000050: b4e9 b9b7 50c1 80b7 fcb9 e137 ae9e f337
00000060: 03f3 17b8 c134 a737 e043 7d38 b5c4 0f38
00000070: fb0a 1e38 44c0 6e37 89ab 31b6 72ed 2e36
00000080: 1998 2637 8b4a 45b7 778f 1a38 5c0b 5a37
00000090: f640 82b8 b957 d036 0f49 1138 51b6 04b7
000000a0: 62e9 7a38 41d8 c235 72fb bbb6 18e6 f1b7
000000b0: 3fd1 db37 577c acb8 fdf8 7437 78d5 f936
000000c0: 2b4d 0bb7 990c ac36 98af 5337 e4ff 1f38
000000d0: 6fab be38 a70c 2fb8 5213 8bb8 1fb3 9736
000000e0: bb0e 8fb7 7e52 58b8 1945 80b8 5744 ad36
000000f0: 9fe2 efb7 3b42 bb37 9eca e136 cd7a 36b7
00000100: ad44 f2b7 24ca a638 3c19 81b7 163e bdb7
00000110: b545 6a38 caad 43b8 d128 9d36 9d7c 00b8
00000120: 796b 6cb7 eec6 5537 b25f 56b7 803b 25b8
00000130: fb2d 54b7 afe6 4a38 a52b 1db8 aaf1 3c38
00000140: b184 41b7 3210 9136 7460 32b7 df35 6f36
00000150: 4d13 2338 f423 7fb8 b996 db38 c41b 2b36
00000160: 7d12 90b7 b736 4437 1186 00b8 67f6 90b7
00000170: f3b0 8138 2cf9 5ab8 1962 97b8 095d f937
00000180: f9ba 7f38 b235 3637 6db9 8838 4181 05b8
00000190: ced5 fbb7 bf5b eab6 5cc0 9438 0d19 97b7
000001a0: 4bdd 3ab6 44c6 ffb7 a3dc cfb7 cbb3 4437
000001b0: 19a1 5637 4bfb 84b7 d5ec 0f38 c889 8a37
000001c0: 208a 5a37 8838 9b38 c78c cbb5 7120 5fb7
000001d0: 8596 a1b8 f040 3eb8 ca0b 0bb8 8d7d 0838
000001e0: 24e7 9737 f66f 9537 66c4 9fb7 b8f1 ff37
000001f0: 7fe2 4236 89d7 fb36 a348 e937 12d7 5637

exp_avg_sq f4 [128]
3.5073873e-09 1.0460546e-08 3.1037362e-09 3.3845526e-09 1.732087e-08 4.5811402e-10 1.2094516e-08 1.7825665e-09
2.835456e-09 1.6533968e-09 6.8617867e-10 1.2993567e-08 2.0930546e-08 8.7618784e-10 1.3776545e-09 2.7137125e-08
2.075978e-09 2.584157e-09 4.7908655e-10 8.688014e-09 4.639368e-10 8.553678e-09 7.2886857e-09 1.721191e-09
4.8331286e-09 7.007595e-10 1.23720785e-08 5.572563e-09 6.700176e-10 9.884397e-10 1.1207325e-08 5.736993e-09
3.5975412e-09 1.9616826e-09 1.8573951e-08 1.15113075e-08 1.3418492e-08 3.2621663e-09 1.0934518e-09 6.0520744e-10
1.7429377e-08 2.7262486e-09 1.9300694e-09 1.3703485e-08 2.0865173e-08 2.1811971e-08 9.531884e-10 2.453038e-09
6.201787e-10 8.425713e-10 1.8273926e-09 7.156017e-09 1.9668088e-08 1.4720373e-08 7.8489975e-08 7.534268e-10
6.557878e-09 3.6676493e-09 1.8441312e-08 1.2265654e-09 1.1441373e-08 7.4213813e-09 9.639105e-10 3.040791e-09
6.99076e-09 1.00511395e-08 5.5518985e-09 7.178917e-10 1.4274273e-08 1.3704493e-08 4.310064e-09 1.2221744e-08
6.8378196e-09 2.391636e-09 1.6804506e-09 7.461593e-10 3.8888905e-09 7.458235e-09 3.749052e-09 2.037902e-09
1.3642183e-09 2.9757299e-09 1.559256e-09 9.12299e-10 2.7629405e-08 8.181823e-09 5.2897544e-08 1.1026524e-09
1.6171608e-09 2.91781e-09 3.0968664e-08 1.3185991e-09 1.1274437e-08 6.4056724e-09 2.5285633e-08 1.3914336e-09
1.1912875e-08 2.7359006e-09 9.0438155e-09 4.3103268e-09 3.3517884e-09 4.215188e-09 9.612185e-09 1.7598717e-08
1.3874872e-09 4.037129e-09 2.2590667e-09 1.0812171e-09 7.712676e-09 1.4912115e-09 2.8772498e-10 2.1633464e-09
1.6784181e-09 9.280402e-09 3.9973212e-08 2.4376985e-09 1.8870129e-08 6.4017383e-09 2.3477977e-09 3.0861145e-09
1.5476981e-09 5.573888e-09 3.387519e-09 1.2274634e-08 9.944839e-10 6.512312e-10 1.7642762e-09 6.085553e-09
00000000: 9c06 7131 f8b5 3332 8149 5531 ae95 6831
00000010: ffc8 9432 d1d9 fb2f 3ec8 4f32 7cfe f430
00000020: dfd9 4231 ba3d e330 889d 3c30 503a 5f32
00000030: c2ca b332 3dd8 7030 e957 bd30 2b1b e932
00000040: fea8 0e31 f994 3131 b8b0 0330 4a42 1532
00000050: 4d0d ff2f 79f3 1232 f56f fa31 068f ec30
00000060: a610 a631 919f 4030 fa8c 5432 c878 bf31
00000070: 4c2c 3830 a1d9 8730 568a 4032 201f c531
00000080: 9d38 7731 49ce 0631 8d8c 9f32 44c3 4532
00000090: 2787 6632 a32c 6031 6a48 9630 b05b 2630
000000a0: 9bb7 9532 ac58 3b31 24a2 0431 906c 6b32
000000b0: 003b b332 085d bb32 5601 8330 4d92 2831
000000c0: 3279 2a30 af9a 6730 a927 fb30 fee0 f531
000000d0: 95f2 a832 e3e4 7c32 528e a833 b319 4f30
000000e0: b453 e131 f809 7c31 e068 9e32 ef93 a830
000000f0: b18f 4432 29ff fe31 967a 8430 29f6 5031
00000100: 6033 f031 61ad 2c32 04c3 be31 2355 4530
00000110: eb3a 7532 ff70 6b32 b917 9431 ccf7 5132
00000120: 19f2 ea31 1b5a 2431 99f5 e630 4b1a 4d30
00000130: 0b9f 8531 aa21 0032 03d1 8031 270b 0c31
00000140: 2a7f bb30 987d 4c31 714d d630 56c5 7a30
00000150: b455 ed32 0a90 0c32 7731 6333 228c 9730
00000160: ca42 de30 a882 4831 6802 0533 153a b530
00000170: 80b1 4132 e418 dc31 b233 d932 b83c bf30
00000180: 61a9 4c32 7902 3c31 1f5f 1b32 091a 9431
00000190: 4955 6631 30d5 9031 d622 2532 fd2b 9732
000001a0: deb1 be30 f6b6 8a31 ec3d 1b31 f299 9430
000001b0: b580 0432 57f3 cc30 b12d 9e2f fea9 1431
000001c0: 16ae e630 a46f 1f32 03af 2b33 7284 2731
000001d0: da17 a232 49f6 db31 e556 2131 8013 5431
000001e0: c9b6 d430 7084 bf31 ddc9 6831 69e0 5232
000001f0: 4bae 8830 5202 3330 f37a f230 1719 d131

exp_avg f4 [128, 128]
-9.5061637e-07 2.217799e-05 -1.1881824e-06 -1.141842e-06 -1.4131387e-05 -9.758232e-07 1.9657826e-05 1.4586226e-05
-6.1706037e-06 1.3153897e-05 -1.2787714e-06 -1.0826111e-06 2.3455672e-05 -2.9729158e-06 1.6862085e-05 2.923821e-05
-1.0103905e-05 1.4558122e-05 -4.659449e-06 1.1599478e-05 -2.2823267e-06 3.1636093e-05 -3.7003583e-06 2.19734e-05
2.352126e-06 -8.197456e-07 3.1278494e-05 2.9898317e-06 -9.126006e-06 -2.613473e-06 1.5705693e-05 3.1192315e-06
-8.4620815e-06 1.14484e-05 -4.5825577e-06 -2.47738e-06 6.0092566e-06 -9.908131e-06 3.761436e-06 1.0156882e-06
1.3335095e-05 3.389663e-05 -1.5285123e-06 3.4340096e-06 -5.26643e-06 -1.3408121e-06 -1.7417218e-06 3.0562143e-05
-7.5663243e-06 -3.315097e-07 -9.7163856e-08 2.1256533e-06 1.0940304e-05 -2.7830697e-06 -5.9894132e-06 -5.011047e-06
-1.7982888e-06 8.401716e-06 -1.7887855e-08 -1.0609617e-06 -2.9970959e-06 3.4160035e-05 -3.1495224e-06 2.588917e-05
6.8516295e-07 2.3653008e-06 3.4936802e-05 -3.206512e-06 -3.3237761e-06 8.97106e-06 -3.05827e-06 -2.85718e-06
4.8419074e-06 -9.936402e-07 -1.3910668e-06 -6.455151e-06 1.5761027e-06 -5.614524e-07 -1.6243546e-06 3.1616094e-06
-3.081937e-06 9.2042467e-07 -5.2080923e-06 -4.9963674e-06 -3.494383e-06 2.7277541e-05 1.5997617e-05 -2.317196e-06
-9.9585e-06 5.658287e-07 -1.4350602e-05 6.7768934e-07 3.013589e-05 1.4564588e-06 6.776792e-06 4.4512717e-07
5.2998473e-07 -5.964704e-06 -3.3547232e-07 -9.611514e-07 -7.100305e-07 7.068406e-06 -1.7389942e-06 -7.1292025e-06
-2.5238126e-06 -1.6581378e-06 3.4246585e-07 6.787099e-07 9.397971e-06 -2.9187254e-06 -6.9843904e-06 -1.447847e-07
5.2149785e-06 -3.7156324e-06 -1.48028175e-05 1.9857418e-06 -9.889327e-07 -6.5378554e-06 -2.2572979e-06 3.2887696e-05
2.5816358e-05 -8.343558e-06 -1.1774173e-05 -1.381649e-06 -1.4479979e-06 -1.0534419e-06 -2.528771e-07 1.3586287e-05
8.508775e-05 0.00010341672 -3.112887e-05 -2.4264042e-05 0.00043051192 0.00010869607 0.00014554673 0.00024749123
0.00018635193 0.00022881667 -2.0190395e-05 5.7176938e-05 0.00021161528 6.878932e-05 6.450293e-05 0.00029921843
1.2813772e-05 0.00012177815 -2.9323935e-05 0.00018484541 0.00013771333 0.00018168379 0.00020820311 0.0002149852
-3.7937855e-06 -7.689008e-06 0.00033850214 0.00014807333 0.00031476357 1.1478858e-06 9.753249e-05 7.030458e-05
5.3961936e-05 9.634424e-05 0.00013106821 7.396482e-05 8.4844694e-05 -1.5299405e-05 0.00012368179 0.00019853609
0.00017119385 0.0002230721 0.0001792477 0.00029720378 -4.9771195e-05 -1.3671823e-05 0.00014611403 0.00046997235
0.00019442821 9.1485845e-07 0.00021161721 -1.8224994e-06 0.00014509218 6.657329e-05 0.00012561302 0.00035244384
6.4549345e-06 9.394899e-05 0.00012791851 0.0003250075 0.00015814726 0.00017553427 0.00019984187 0.00038837202
6.364305e-05 0.00015752915 0.00035757947 0.00019694009 -1.6375034e-05 2.360524e-05 6.5559696e-05 0.00036781564
0.0001947937 4.1162803e-05 4.8053327e-05 5.3563213e-05 -1.20114155e-05 0.000153852 0.00017233161 1.1352576e-05
0.00011878159 6.641534e-05 0.00014643541 0.00019888738 5.969948e-06 0.00025110075 0.00020571915 9.329987e-05
0.000111645626 -9.839016e-06 7.697486e-05 2.4251436e-05 0.00034641087 2.2081205e-05 0.0001444354 -1.0834181e-05
2.5067666e-05 0.00016630947 1.7660263e-05 0.00014840087 -1.7280305e-05 0.00013460401 7.115014e-05 0.000359914
6.764774e-05 0.0001223353 0.00015595046 4.1689993e-05 5.562692e-05 7.638974e-05 5.385151e-05 2.1764356e-06
0.00010707964 1.55827e-05 8.8501525e-05 -2.5636573e-05 0.00018182401 9.253794e-05 0.00017272403 0.00036222866
0.00022927712 0.00021480686 0.00020115382 0.00017623953 -4.2849188e-05 -9.1961965e-06 0.00020711642 0.00015153184
00000000: dc2d 7fb5 df0a ba37 a379 9fb5 6441 99b5
00000010: d815 6db7 08f9 82b5 dce6 a437 5db7 7437
00000020: 150d cfb6 8faf 5c37 40a2 abb5 3c4e 91b5
00000030: acc2 c437 4e82 47b6 0d73 8d37 9444 f537
00000040: f183 29b7 a83e 7437 5d58 9cb6 619b 4237
00000050: 132a 19b6 ffb0 0438 ac53 78b6 8453 b837
00000060: 38d9 1d36 7d0c 5cb5 0731 0338 eba4 4836
00000070: e61b 19b7 2063 2fb6 b8bf 8337 fd53 5136
00000080: 5df8 0db7 8112 4037 dfc3 99b6 1041 26b6
00000090: 1fa3 c936 193b 26b7 fa6c 7c36 c852 8835
000000a0: ccb9 5f37 3b2c 0e38 4827 cdb5 d673 6636
000000b0: 4ab6 b0b6 f4f5 b3b5 1bc5 e9b5 da2f 0038
000000c0: 3be2 fdb6 59fa b1b4 65a8 d0b3 72a6 0e36
000000d0: 3f8c 3737 c6c4 3ab6 abf8 c8b6 9124 a8b6
000000e0: bc5c f1b5 18f5 0c37 cfa7 99b2 5e66 8eb5
000000f0: b721 49b6 0f47 0f38 625c 53b6 922c d937
00000100: 0aec 3735 8fbb 1e36 1b89 1238 752f 57b6
00000110: 0a0e 5fb6 6982 1637 ae3c 4db6 fbbd 3fb6
00000120: ab77 a236 385d 85b5 b1b4 bab5 5399 d8b6
00000130: 7a8a d335 b7b6 16b5 6604 dab5 092c 5436
00000140: 46d3 4eb6 1a13 7735 2cc1 aeb6 78a6 a7b6
00000150: 0b81 6ab6 13d2 e437 9f32 8637 2081 1bb6
00000160: 6f13 27b7 74e3 1735 5ec3 70b7 75ea 3535
00000170: 55cc fc37 8b7b c335 3364 e336 d0f9 ee34
00000180: 4644 0e35 6b24 c8b6 f71a b4b4 e900 81b5
00000190: ed98 3eb5 252d ed36 6367 e9b5 6237 efb6
000001a0: c55e 29b6 2e8d deb5 26dc b734 9730 3635
000001b0: faab 1d37 52df 43b6 755b eab6 1e76 1bb4
000001c0: 53fc ae36 145a 79b6 9e59 78b7 c942 0536
000001d0: 78bb 84b5 c05f dbb6 157c 17b6 e5f0 0938
000001e0: 3590 d837 4ffb 0bb7 b089 45b7 1971 b9b5
000001f0: d458 c2b5 fd63 8db5 2ac3 87b4 a9f0 6337
00000200: 2371 b238 6ee1 d838 5f90 02b8 a28a cbb7
00000210: 55b6 e139 c2f3 e338 e79d 1839 b6c1 8139
00000220: 7767 4339 82ee 6f39 8b5e a9b7 45d1 6f38
00000230: 0be5 5d39 fc42 9038 bf45 8738 6be0 9c39
00000240: bbfa 5637 2563 ff38 acfc f5b7 10d3 4139
00000250: 2467 1039 5f82 3e39 1951 5a39 a66d 6139
00000260: bd98 7eb6 0a00 01b7 fd78 b139 2244 1b39
00000270: da06 a539 0e11 9a35 5b8a cc38 7c70 9338
00000280: 3055 6238 6c0c ca38 5b6f 0939 8f1d 9b38
00000290: a6ee b138 3957 80b7 94b0 0139 202e 5039
000002a0: 8082 3339 76e8 6939 70f4 3b39 04d2 9b39
000002b0: 6ac1 50b8 0860 65b7 3036 1939 9f66 f639
000002c0: 6ddf 4b39 9894 7535 90e5 5d39 9a9c f4b5
000002d0: e323 1839 439d 8b38 fdb6 0339 36c8 b839
000002e0: 7797 d836 7b06 c538 dd21 0639 c565 aa39
000002f0: 55d4 2539 9f0f 3839 a58c 5139 699e cb39
00000300: 1a78 8538 692e 2539 8179 bb39 b481 4e39
00000310: 1e5d 89b7 de03 c637 187d 8938 61d7 c039
00000320: 8941 4c39 39a6 2c38 de8c 4938 10a9 6038
00000330: a384 49b7 5553 2139 eab3 3439 f176 3e37
00000340: 611a f938 7748 8b38 758c 1939 6d8c 5039
00000350: 7651 c836 2ca6 8339 50b6 5739 fca9 c338
00000360: 4a23 ea38 4012 25b7 906d a138 906f cb37
00000370: 7b9e b539 073b b937 9573 1739 74c4 35b7
00000380: 6748 d237 5c63 2e39 2025 9437 0e9c 1b39
00000390: 2cf5 90b7 7d24 0d39 7136 9538 d7b2 bc39
000003a0: 1bde 8d38 2247 0039 a286 2339 4adc 2e38
000003b0: f350 6938 6e33 a038 9ede 6138 e10e 1236
000003c0: f28f e038 98b7 8237 e599 b938 1f0e d7b7
000003d0: 03a8 3e39 ee10 c238 411d 3539 82e9 bd39
000003e0: 1c6a 7039 c73d 6139 d1ec 5239 f0cc 3839
000003f0: f7b8 33b8 5d49 1ab7 642d 5939 85e4 1e39
