results/ppo/Easy/Easy-9378.onnx (onnx, 72119 bytes, 5 tensors)

action_model._continuous_distribution.mu.weight f4 [1, 128]
000000 e8 63 28 bb 4d 81 50 3c e0 ce 84 bc e4 cd b6 bc
       -0.0025694314 0.01272614 -0.016211927 -0.022314973
000010 9b 37 48 39 65 d9 15 3b 33 e5 1f 3c ca 9c 7a 3b
       0.00019094201 0.0022865173 0.009759235 0.0038240426
000020 0e 70 0f 3c ab 19 f9 bc e0 7a b3 bc d7 78 be 3c
       0.008754743 -0.030407747 -0.021909177 0.02325098
000030 95 19 b2 3c 8b 81 91 bc 19 32 a7 3b fc 5a 12 bd
       0.021740714 -0.017761966 0.0051024077 -0.0357313
000040 10 42 8f bc 23 ed 2c bb f9 b2 2c 3c ab 3b a3 bc
       -0.017487556 -0.0026386462 0.010540717 -0.019925913
000050 80 c5 95 ba e3 4d a8 3c ec 2e 9f ba 4a 8f 5e 3c
       -0.0011426657 0.020544952 -0.0012144721 0.013583967
000060 f5 56 6c 3b b9 5c 90 3c 9b 97 89 3c 5d e5 96 bc
       0.0036062573 0.017622339 0.016795924 -0.018419916
000070 30 0e ac 3c 7b fc 69 3b 2c 6e 2a 3c ef 68 c3 bc
       0.021002859 0.0035703469 0.010402244 -0.023853747
000080 e4 c8 80 bb 0b e0 56 bc b9 b8 ca bb 6f e8 4c 3c
       -0.003930198 -0.013114939 -0.0061865714 0.012506588
000090 4d 65 05 3c 7b 9a 9d bc d8 9b 43 3c b4 ee c1 bc
       0.008141828 -0.019238701 0.0119390115 -0.023673393
0000a0 9a 6b 06 bb 48 77 f5 bb 63 eb 11 3d 0e d8 9c 3b
       -0.0020510913 -0.007491026 0.035624873 0.004786498
0000b0 de c7 0a bd 4c 67 98 ba 53 9b 8e bb 34 98 8f 3c
       -0.033882014 -0.0011627465 -0.004352012 0.01752863
0000c0 f5 8e ac 3b 3d 09 01 3d f5 a4 f7 bc 26 e1 8e bc
       0.0052660652 0.03150295 -0.030230025 -0.017441344
0000d0 72 7f 3d 3c 6e 6a b9 bc c3 2e 10 3c 88 64 10 3b
       0.01156603 -0.022633757 0.008800211 0.0022032578
0000e0 77 51 72 bc d7 e9 25 3c 17 ff 1d bc c5 1e 56 3c
       -0.014789931 0.010126553 -0.009643338 0.013068859
0000f0 ef 22 c5 bc 66 bb b0 3b 8a 4e 13 bb 30 5c f5 ba
       -0.02406451 0.0053934334 -0.0022477233 -0.0018719491
000100 93 1a 23 bb e8 06 04 bd fb 57 2f 3c 87 dd b2 3c
       -0.0024887666 -0.03223315 0.0107021285 0.021834148
000110 77 00 26 bc 38 ee 5c bb 7d 8f 59 bc b3 a5 41 3c
       -0.010131947 -0.0033711325 -0.013278839 0.011819291
000120 40 e9 b3 3c 0c 1a 1b 3b 43 9d 74 bc 34 2a 93 3c
       0.021961808 0.0023666648 -0.014930072 0.01796446
000130 58 57 a2 bb c7 a1 0c 3d 40 34 5c 3b ff e9 26 3b
       -0.00495426 0.03433397 0.003360048 0.0025469062
000140 ef 5c 8e bc 7a 54 5e 3c b4 92 44 bc e3 6f 08 3d
       -0.017378299 0.0135699455 -0.011997867 0.03330983
000150 52 e4 0a 3d 88 5d 3b b9 29 68 2c 3b 41 a2 a6 3c
       0.03390915 -0.00017868553 0.0026307201 0.02034104
000160 5b c2 04 3c 49 dd 14 3c 57 16 0e 3c f3 ce 37 3b
       0.008102979 0.009085962 0.008672318 0.0028046935
000170 c6 0d 86 bb b8 84 dc bc 05 07 06 bc 2a 78 9a bc
       -0.0040909974 -0.026918754 -0.0081803845 -0.018856127
000180 21 89 a6 3c 5b d5 bd 3c 5f 42 d8 3c e9 17 3f 3d
       0.02032906 0.023173025 0.026398836 0.046653662
000190 35 f9 cf 3b f7 0f b2 ba 32 6e b3 3c a1 33 06 bd
       0.0063468465 -0.001358508 0.021903131 -0.03276408
0001a0 ef df 57 3b 00 16 dd 3c 35 33 ba bc b3 9a ca 3b
       0.0032939871 0.02698803 -0.022729496 0.0061829924
0001b0 2c fe bd 3c cc 21 04 3d df 82 9f bc fc 9e 8d bc
       0.023192488 0.032258794 -0.019471584 -0.017287724
0001c0 fe 1b 97 3c 8d 4d 91 3c 2d 59 d6 bb 83 ec ab 3b
       0.018445965 0.017737174 -0.0065413923 0.0052467003
0001d0 4f bc 62 bc 0f e7 7a 3a bf 73 c0 bb c2 95 1e bd
       -0.013838842 0.00095711736 -0.005873173 -0.03871704
0001e0 3d 64 65 bc ca 77 96 bc a9 91 88 3c f3 78 9d 3a
       -0.014000949 -0.018367667 0.016671019 0.0012014195
0001f0 c9 04 a8 3c ab df f7 3a d1 10 93 bb 0b da 08 3c
       0.020510094 0.0018911263 -0.0044880887 0.008352767

network_body._body_endoder.seq_layers.0.bias f4 [128]
000000 00 00 00 00 00 00 00 00 00 00 00 00 00 00 00 00
       0.0 0.0 0.0 0.0
000010 00 00 00 00 00 00 00 00 00 00 00 00 00 00 00 00
       0.0 0.0 0.0 0.0
000020 00 00 00 00 00 00 00 00 00 00 00 00 00 00 00 00
       0.0 0.0 0.0 0.0
000030 00 00 00 00 00 00 00 00 00 00 00 00 00 00 00 00
       0.0 0.0 0.0 0.0
000040 00 00 00 00 00 00 00 00 00 00 00 00 00 00 00 00
       0.0 0.0 0.0 0.0
000050 00 00 00 00 00 00 00 00 00 00 00 00 00 00 00 00
       0.0 0.0 0.0 0.0
000060 00 00 00 00 00 00 00 00 00 00 00 00 00 00 00 00
       0.0 0.0 0.0 0.0
000070 00 00 00 00 00 00 00 00 00 00 00 00 00 00 00 00
       0.0 0.0 0.0 0.0
000080 00 00 00 00 00 00 00 00 00 00 00 00 00 00 00 00
       0.0 0.0 0.0 0.0
000090 00 00 00 00 00 00 00 00 00 00 00 00 00 00 00 00
       0.0 0.0 0.0 0.0
0000a0 00 00 00 00 00 00 00 00 00 00 00 00 00 00 00 00
       0.0 0.0 0.0 0.0
0000b0 00 00 00 00 00 00 00 00 00 00 00 00 00 00 00 00
       0.0 0.0 0.0 0.0
0000c0 00 00 00 00 00 00 00 00 00 00 00 00 00 00 00 00
       0.0 0.0 0.0 0.0
0000d0 00 00 00 00 00 00 00 00 00 00 00 00 00 00 00 00
       0.0 0.0 0.0 0.0
0000e0 00 00 00 00 00 00 00 00 00 00 00 00 00 00 00 00
       0.0 0.0 0.0 0.0
0000f0 00 00 00 00 00 00 00 00 00 00 00 00 00 00 00 00
       0.0 0.0 0.0 0.0
000100 00 00 00 00 00 00 00 00 00 00 00 00 00 00 00 00
       0.0 0.0 0.0 0.0
000110 00 00 00 00 00 00 00 00 00 00 00 00 00 00 00 00
       0.0 0.0 0.0 0.0
000120 00 00 00 00 00 00 00 00 00 00 00 00 00 00 00 00
       0.0 0.0 0.0 0.0
000130 00 00 00 00 00 00 00 00 00 00 00 00 00 00 00 00
       0.0 0.0 0.0 0.0
000140 00 00 00 00 00 00 00 00 00 00 00 00 00 00 00 00
       0.0 0.0 0.0 0.0
000150 00 00 00 00 00 00 00 00 00 00 00 00 00 00 00 00
       0.0 0.0 0.0 0.0
000160 00 00 00 00 00 00 00 00 00 00 00 00 00 00 00 00
       0.0 0.0 0.0 0.0
000170 00 00 00 00 00 00 00 00 00 00 00 00 00 00 00 00
       0.0 0.0 0.0 0.0
000180 00 00 00 00 00 00 00 00 00 00 00 00 00 00 00 00
       0.0 0.0 0.0 0.0
000190 00 00 00 00 00 00 00 00 00 00 00 00 00 00 00 00
       0.0 0.0 0.0 0.0
0001a0 00 00 00 00 00 00 00 00 00 00 00 00 00 00 00 00
       0.0 0.0 0.0 0.0
0001b0 00 00 00 00 00 00 00 00 00 00 00 00 00 00 00 00
       0.0 0.0 0.0 0.0
0001c0 00 00 00 00 00 00 00 00 00 00 00 00 00 00 00 00
       0.0 0.0 0.0 0.0
0001d0 00 00 00 00 00 00 00 00 00 00 00 00 00 00 00 00
       0.0 0.0 0.0 0.0
0001e0 00 00 00 00 00 00 00 00 00 00 00 00 00 00 00 00
       0.0 0.0 0.0 0.0
0001f0 00 00 00 00 00 00 00 00 00 00 00 00 00 00 00 00
       0.0 0.0 0.0 0.0

network_body._body_endoder.seq_layers.0.weight f4 [128, 6]
000000 3e 15 00 3d 27 93 e0 be 5b a0 65 bf 58 3e f7 bd
       0.031270258 -0.43862268 -0.8969781 -0.12072438
000010 48 af b5 bd 4f b0 91 bd 67 8a d9 3b 2e 07 96 3e
       -0.08871323 -0.07113706 0.0066388133 0.29302353
000020 ec 0a 21 be 7b d9 8d 3e 58 8c 61 bc a6 d2 05 3f
       -0.15726823 0.27704987 -0.013766371 0.5227455
000030 d6 a6 fa be 06 66 99 3d 2b a4 14 3f 7d 2b 70 3e
       -0.4895541 0.074901626 0.58063 0.2345409
000040 59 c0 d0 be 21 d2 44 3f d8 88 a4 bd a4 ce 30 3e
       -0.4077175 0.7688313 -0.080339134 0.17266327
000050 49 23 40 3f ff bc 2f be 0f d7 5f 3e a6 d4 53 be
       0.7505384 -0.1716194 0.21859382 -0.20686588
000060 bc 98 1d 3d 70 2b 72 be 67 05 9d 3e 03 ed a5 be
       0.038475737 -0.23649383 0.30668184 -0.32407388
000070 82 0c d5 3e 7b 28 1e 3f c1 6a 2a 3f 02 a4 10 3d
       0.41611105 0.6178052 0.66569144 0.03531266
000080 15 ae 8a be 92 ad 34 3f 5a 2a 17 3f 28 da bc 3e
       -0.2708594 0.7057735 0.59049 0.3688519
000090 e2 88 2a bd 91 5f 57 3e a1 7c a2 be be 53 3a be
       -0.041634448 0.2103255 -0.3173571 -0.18196008
0000a0 73 f0 98 3d ed 75 ba 3d 50 0f e8 3e 95 9d 09 3e
       0.07467737 0.09104524 0.45324183 0.13439019
0000b0 57 06 a6 3e 30 dd eb be 56 96 7c 3d e7 07 4b be
       0.32426712 -0.4606719 0.06166681 -0.19827233
0000c0 c7 9d 34 bc da c4 06 bf 39 1a 94 3e 44 ea 63 be
       -0.011023945 -0.5264412 0.28926256 -0.22257334
0000d0 e3 22 d9 be 95 b2 03 bf e9 4d 9a 3e 61 25 eb be
       -0.4240943 -0.5144437 0.30137566 -0.45926955
0000e0 65 ed 89 be 85 40 7c be 34 e1 67 be d2 71 4e 3f
       -0.2693893 -0.24633987 -0.22644502 0.80642426
0000f0 69 5e 81 3e 5f 4b a3 bd 3a 74 3a 3f d3 de 8b be
       0.25267342 -0.0797336 0.728336 -0.2731844
000100 fb 7c bd 3c b6 01 0b 3f 91 46 f0 be a5 b5 4d bf
       0.023130884 0.54299486 -0.46928838 -0.8035529
000110 d4 f2 0b bf 9f 50 14 3f fd 92 23 be df db 92 3e
       -0.546674 0.5793552 -0.1597404 0.28683373
000120 c4 15 3b bb f8 a9 18 bf a3 ba 27 be 19 a1 49 be
       -0.002854691 -0.5963435 -0.1637979 -0.1969036
000130 92 5d 1a 3e 0a 20 ea 3e 11 c5 87 3d ab a1 e1 be
       0.15074757 0.4572757 0.06629384 -0.44068655
000140 5f 6e 3c be d5 27 42 be 81 77 d4 bd 66 18 12 bf
       -0.18401478 -0.18960507 -0.10374356 -0.5706848
000150 fe 6d 11 3f df 35 c1 3e c1 2f fd bd 4f 61 ac 3e
       0.5680846 0.37736413 -0.12362624 0.3366799
000160 4b dd 8d be ef b3 99 be 36 78 ea be 0d 3e 2b 3e
       -0.27707896 -0.3002009 -0.4579484 0.16722889
000170 21 e4 63 be 0c 97 e1 bd 1d 5a 1e bf 4c 76 22 bf
       -0.22254993 -0.11015138 -0.6185625 -0.63461757
000180 70 5e c3 be e2 fb 89 bd 95 18 ca 3d d7 bf 1d be
       -0.38157988 -0.06737496 0.0986797 -0.15405212
000190 db d4 57 be 06 61 6d bf 59 46 df be 33 f0 0b 3e
       -0.21077292 -0.9272617 -0.43608359 0.13665847
0001a0 62 3e 89 be 63 a5 3d 3d 10 ac b7 3e d6 cc 4c bf
       -0.26805407 0.046300303 0.3587346 -0.80000055
0001b0 07 69 08 3e 1d b9 8a 3e fb 59 a9 be 07 1f 8b bd
       0.13321315 0.27094355 -0.33076462 -0.06793027
0001c0 99 dd a5 3e 74 ba 35 be 56 b9 05 bf d5 70 ab be
       0.32395628 -0.17746907 -0.52235925 -0.33484522
0001d0 f2 d9 79 be 1b 1b 9b bf 40 7f 73 bc 1c 9f 42 3e
       -0.24399546 -1.2117647 -0.014861882 0.19006008
0001e0 a0 be 02 bf 51 49 09 bd d8 28 cf be 31 64 73 be
       -0.5107212 -0.033517186 -0.4046085 -0.23768689
0001f0 bc cb c7 3e 20 23 57 bf b3 a8 0f bf 1e 09 f8 be
       0.39022624 -0.8403797 -0.5611679 -0.48444456
000200 a0 c5 d1 3e e7 96 ec 3e cc d3 57 3e ba 9f cc 3d
       0.40971088 0.4620888 0.21076888 0.09991403
000210 f9 92 00 bf 68 02 f1 3d 0e da 30 3e 5d 30 1e 3f
       -0.5022426 0.11768037 0.17270681 0.61792547
000220 21 8a 88 3c 0a ec ca 3e 9e e5 ea 3c a1 ed da be
       0.016667427 0.3963321 0.028673943 -0.4275942
000230 4d 11 b1 bd 2d 53 1c 3f 77 ee be be f8 2d 63 3e
       -0.08645878 0.61064416 -0.3729131 0.22185504
000240 be 89 6e bd 03 82 24 3f d3 50 f0 bd d1 b1 98 3e
       -0.05823683 0.6426088 -0.11734166 0.29823163
000250 eb d7 83 be d7 0a 03 bf f2 bf 7b be 93 7a 17 bf
       -0.2575067 -0.51188415 -0.2458494 -0.5917141
000260 f6 f9 ac 3e cb 84 b1 be 7e f0 22 bd 7b 38 9e 3d
       0.33784455 -0.34671625 -0.039780132 0.077256165
000270 17 4a 60 be df cb 82 3e 32 f9 10 3f 16 b7 03 3f
       -0.21903263 0.25546166 0.5663024 0.5145124
000280 88 5c 12 be 8b f3 72 be 45 4b 3f 3f 8c 07 ac 3e
       -0.1429311 -0.23725717 0.7472423 0.33599508
000290 05 f6 2d be e8 81 37 bf 7d af 70 be 02 55 07 be
       -0.1698838 -0.71682596 -0.23504443 -0.13216022
0002a0 ad db 8b bd ee 9d 9a 3d 9d 0e 9d 3e 60 7f d1 bd
       -0.06829009 0.07549654 0.30675212 -0.10229373
0002b0 fa 6c 0a 3d 19 af 8c bd cb 19 75 be 90 b3 e9 bd
       0.033795334 -0.06869335 -0.2393562 -0.11411202
0002c0 53 eb 1f bf 54 77 55 bf f3 de 14 bf 5d 0d 2e bf
       -0.6246845 -0.83385205 -0.58152694 -0.6798914
0002d0 60 19 12 3e 69 07 a1 bd 1d 77 a6 3c 31 42 9d 3e
       0.14267492 -0.078627415 0.02032047 0.30714563
0002e0 5b 3b 19 3f 71 94 03 bf 84 fb 2e bf 93 62 7b 3c
       0.59856194 -0.5139838 -0.6835253 0.015343326
0002f0 2e e7 9d be 7a 7e e6 bd ed 23 26 be 73 d3 03 3f
       -0.3084044 -0.11254592 -0.16224642 0.5149452
000300 a0 52 a1 be 84 76 76 3e 49 82 0d be 12 87 ba 3e
       -0.3150835 0.24068648 -0.13819231 0.36431175
000310 cf 7d c8 3e 5f 22 b6 3e 60 8d ab 3e c2 31 87 bd
       0.39158484 0.35573098 0.33506298 -0.066012874
000320 5d 68 c9 bd bb f0 e3 3e 0b 28 6f 3e 11 fd 60 3e
       -0.09834359 0.445196 0.23355119 0.21971537
000330 d4 7d 86 bf 47 43 0b bf b2 7d 08 3f 6a 4c 51 be
       -1.050715 -0.5439953 0.53316796 -0.20439306
000340 d4 16 14 3e dc 81 24 3f 1d 19 ee be c6 90 19 be
       0.14461833 0.6426065 -0.46503535 -0.14996633
000350 ac 59 70 3f 61 3c cf 3d c7 e6 41 3e 62 c7 da be
       0.9388683 0.10118938 0.18935691 -0.42730242
000360 fe a4 c4 be c1 b2 c5 3e a2 52 51 bf 23 20 2f 3f
       -0.3840713 0.3861294 -0.8176671 0.6840841
000370 90 43 19 3e f0 93 26 bf 28 56 26 bf 0d 1f 41 bc
       0.1496718 -0.65069485 -0.64975214 -0.011787188
000380 2f d6 62 3f 7d 1f d3 be 30 6e 7c be ae 71 ed bd
       0.8860807 -0.4123496 -0.24651408 -0.11593948
000390 c0 5b d5 3c 01 05 31 bf c6 1e 15 bf 3a 04 c5 bd
       0.026044726 -0.6914826 -0.5825008 -0.09619947
0003a0 d6 30 04 3e 78 99 35 3e 4e b8 8c 3e 2e c6 98 3d
       0.12909254 0.17734325 0.27484363 0.07459675
0003b0 cb 83 2f bd 0d 70 cb 3d 80 6a 11 bd 31 25 a1 3d
       -0.042850297 0.09933481 -0.035501957 0.07868422
0003c0 dc 95 2f bf c3 32 99 bc f1 e3 38 be d3 60 a6 3e
       -0.6858804 -0.018700963 -0.18055703 0.32495746
0003d0 46 70 33 be de 62 44 bf 74 06 bc be 13 47 f9 bd
       -0.17523298 -0.7671336 -0.36723673 -0.121717595
0003e0 de 73 9e 3d c3 06 9e be c9 8f 23 bf ea db d6 be
       0.07736944 -0.30864534 -0.63891274 -0.41964656
0003f0 72 65 df 3c 01 96 0a be 39 e7 e3 3e 61 85 6a be
       0.027270053 -0.13533784 0.44512346 -0.22902443

network_body._body_endoder.seq_layers.2.bias f4 [128]
000000 00 00 00 00 00 00 00 00 00 00 00 00 00 00 00 00
       0.0 0.0 0.0 0.0
000010 00 00 00 00 00 00 00 00 00 00 00 00 00 00 00 00
       0.0 0.0 0.0 0.0
000020 00 00 00 00 00 00 00 00 00 00 00 00 00 00 00 00
       0.0 0.0 0.0 0.0
000030 00 00 00 00 00 00 00 00 00 00 00 00 00 00 00 00
       0.0 0.0 0.0 0.0
000040 00 00 00 00 00 00 00 00 00 00 00 00 00 00 00 00
       0.0 0.0 0.0 0.0
000050 00 00 00 00 00 00 00 00 00 00 00 00 00 00 00 00
       0.0 0.0 0.0 0.0
000060 00 00 00 00 00 00 00 00 00 00 00 00 00 00 00 00
       0.0 0.0 0.0 0.0
000070 00 00 00 00 00 00 00 00 00 00 00 00 00 00 00 00
       0.0 0.0 0.0 0.0
000080 00 00 00 00 00 00 00 00 00 00 00 00 00 00 00 00
       0.0 0.0 0.0 0.0
000090 00 00 00 00 00 00 00 00 00 00 00 00 00 00 00 00
       0.0 0.0 0.0 0.0
0000a0 00 00 00 00 00 00 00 00 00 00 00 00 00 00 00 00
       0.0 0.0 0.0 0.0
0000b0 00 00 00 00 00 00 00 00 00 00 00 00 00 00 00 00
       0.0 0.0 0.0 0.0
0000c0 00 00 00 00 00 00 00 00 00 00 00 00 00 00 00 00
       0.0 0.0 0.0 0.0
0000d0 00 00 00 00 00 00 00 00 00 00 00 00 00 00 00 00
       0.0 0.0 0.0 0.0
0000e0 00 00 00 00 00 00 00 00 00 00 00 00 00 00 00 00
       0.0 0.0 0.0 0.0
0000f0 00 00 00 00 00 00 00 00 00 00 00 00 00 00 00 00
       0.0 0.0 0.0 0.0
000100 00 00 00 00 00 00 00 00 00 00 00 00 00 00 00 00
       0.0 0.0 0.0 0.0
000110 00 00 00 00 00 00 00 00 00 00 00 00 00 00 00 00
       0.0 0.0 0.0 0.0
000120 00 00 00 00 00 00 00 00 00 00 00 00 00 00 00 00
       0.0 0.0 0.0 0.0
000130 00 00 00 00 00 00 00 00 00 00 00 00 00 00 00 00
       0.0 0.0 0.0 0.0
000140 00 00 00 00 00 00 00 00 00 00 00 00 00 00 00 00
       0.0 0.0 0.0 0.0
000150 00 00 00 00 00 00 00 00 00 00 00 00 00 00 00 00
       0.0 0.0 0.0 0.0
000160 00 00 00 00 00 00 00 00 00 00 00 00 00 00 00 00
       0.0 0.0 0.0 0.0
000170 00 00 00 00 00 00 00 00 00 00 00 00 00 00 00 00
       0.0 0.0 0.0 0.0
000180 00 00 00 00 00 00 00 00 00 00 00 00 00 00 00 00
       0.0 0.0 0.0 0.0
000190 00 00 00 00 00 00 00 00 00 00 00 00 00 00 00 00
       0.0 0.0 0.0 0.0
0001a0 00 00 00 00 00 00 00 00 00 00 00 00 00 00 00 00
       0.0 0.0 0.0 0.0
0001b0 00 00 00 00 00 00 00 00 00 00 00 00 00 00 00 00
       0.0 0.0 0.0 0.0
0001c0 00 00 00 00 00 00 00 00 00 00 00 00 00 00 00 00
       0.0 0.0 0.0 0.0
0001d0 00 00 00 00 00 00 00 00 00 00 00 00 00 00 00 00
       0.0 0.0 0.0 0.0
0001e0 00 00 00 00 00 00 00 00 00 00 00 00 00 00 00 00
       0.0 0.0 0.0 0.0
0001f0 00 00 00 00 00 00 00 00 00 00 00 00 00 00 00 00
       0.0 0.0 0.0 0.0

network_body._body_endoder.seq_layers.2.weight f4 [128, 128]
000000 57 ff 93 3d 76 af 5e bd ba c9 d9 bd 1a 11 5e be
       0.072264366 -0.05436655 -0.106341794 -0.21686211
000010 cc cf d2 bc 1d a1 7e 3d 03 ce e1 3c 15 90 1c bd
       -0.02573385 0.06216537 0.027564054 -0.038223345
000020 85 95 8a bd 60 3e dc bb 36 61 df 3c 87 ce 4e 3e
       -0.067668 -0.006721303 0.027268033 0.20195971
000030 1f a0 a8 3c d0 a7 51 3d bb 04 37 3d b4 2c 99 3c
       0.020584164 0.05118543 0.044682246 0.018698074
000040 a0 1f 5a bd b5 3e 8f 3d ca 44 62 3c 7d 2d 40 be
       -0.053252816 0.06994382 0.013810346 -0.18767352
000050 12 5e 6a 3d 8a 19 cf 3d 3e 79 78 3d 9f 72 bf bc
       0.05721862 0.10112293 0.0606625 -0.023370085
000060 8a d6 45 3d 8a fc 6f bc 9b bb 14 3d 00 fa 8e bc
       0.048300304 -0.014647612 0.036311727 -0.017453194
000070 c5 a7 8d bd b7 9b c2 bd e5 ce 5a 3d fb 51 f5 bd
       -0.06916765 -0.095023565 0.053419966 -0.11978527
000080 90 87 ff bd 35 af bb 3d c0 27 5c 3d 38 19 b9 bc
       -0.12477028 0.091642775 0.053748846 -0.022595033
000090 6a 58 f0 bc bb d1 13 3b 83 6d 54 be fb 05 ad bd
       -0.029339034 0.002255543 -0.207449 -0.08448406
0000a0 03 ae 9b 3d f2 18 82 3d 76 9e 6d bd 89 19 4d 3a
       0.076015495 0.06352414 -0.05801245 0.00078239344
0000b0 75 47 40 bd 94 bc e3 bd 5f 49 e7 bc 67 db aa bd
       -0.046943147 -0.11119953 -0.028233228 -0.08342629
0000c0 f7 53 4f be fe d5 44 3e 66 69 24 3c 91 26 19 3d
       -0.20246874 0.19222257 0.010034895 0.037390295
0000d0 50 cb e7 bd 27 da 93 bd 75 6d da 3d a3 f7 b9 3d
       -0.11318076 -0.07219344 0.106654085 0.09080436
0000e0 b3 60 8e bd 97 08 cb bd 9e 3d b6 bc 67 7b 3d bc
       -0.06952038 -0.09913748 -0.022246178 -0.011565066
0000f0 c6 91 34 bc d2 76 30 3d c7 50 e5 3b 66 cb 74 bd
       -0.011021083 0.043082066 0.006998155 -0.05976429
000100 1a 2a 5e bd 5b 6b ba bd 10 11 42 bd 6a 66 1b 3d
       -0.05423937 -0.09102508 -0.047379553 0.037939467
000110 ac b8 e0 bd fd 38 08 bc 00 65 d8 3d d2 96 ee bd
       -0.10972723 -0.008314368 0.10566139 -0.116498604
000120 9a 6e 9f bc a3 0b ab bb 8d d1 eb 3b 15 e7 3c bc
       -0.019461919 -0.005219893 0.0071966113 -0.011529704
000130 48 b3 24 3d a3 56 28 3c 5a b3 ba bd 5e d1 c3 bd
       0.04021004 0.010274562 -0.0911624 -0.09561418
000140 37 30 60 3c 9f 3a a6 bd 31 17 14 3e aa 6d 79 be
       0.01368337 -0.0811665 0.14461972 -0.2435824
000150 c0 a7 46 3d 62 a8 88 bd 5c 9f 34 bd 54 36 30 3e
       0.048499823 -0.066727415 -0.04409729 0.17208225
000160 4b 1f 7f 3d 53 2d 0c 3c 19 43 89 3d dd 08 3c 3e
       0.062285703 0.008555728 0.06702251 0.18362756
000170 e9 a1 9b bd bf 3a a2 bd 58 e4 ed 3d b9 62 ab 3d
       -0.07599241 -0.07921361 0.11615819 0.08368439
000180 f2 fe b0 3c f1 48 a3 3d 6e d5 ae bd 83 5c 80 3d
       0.021605942 0.07972897 -0.08536802 0.06267645
000190 69 4f 2d be f6 25 43 be 6a 48 11 bd 9a eb 10 3c
       -0.16924824 -0.1905745 -0.03546945 0.008845234
0001a0 05 39 fe 3a 75 b3 73 bc 17 b7 18 be 30 ff 9d 3d
       0.0019395655 -0.014874329 -0.14913593 0.07714689
0001b0 88 b2 70 bd eb 37 bb bd 9e 1a d4 3d 70 ba 98 3d
       -0.05876401 -0.09141525 0.10356639 0.07457435
0001c0 0c f6 fc bd d7 56 93 3d 7e c5 b7 3d 5f d5 43 bd
       -0.12351617 0.07194298 0.089732155 -0.04781091
0001d0 2a 28 3a bd bb 7b 43 3c 02 b1 e0 bd f8 cc e8 3c
       -0.04544846 0.011931355 -0.109712616 0.02841805
0001e0 96 9c 29 be cb 6d 8b 3d 98 53 1c 3e ea 76 42 3d
       -0.16563639 0.06808051 0.15266263 0.047476687
0001f0 8c 71 15 be 17 0e 7b 3c 4c 1c 6a bd 8b e0 b3 3d
       -0.14594096 0.0153231835 -0.057155892 0.087830625
000200 38 a9 f7 bb 91 63 26 be c4 59 51 be 85 7c b3 bd
       -0.0075580142 -0.16248919 -0.20444399 -0.087639846
000210 71 a5 4a 3d 57 31 33 bd f1 64 2d 3e ff 43 67 3d
       0.049474183 -0.043748226 0.16933037 0.05646133
000220 84 f1 f8 3d 0f b2 e6 3c 96 10 6b bd 68 ce 11 bd
       0.121554404 0.028161077 -0.057388864 -0.035597235
000230 55 3a 99 3d 7d d8 bf bd 56 7b 9f 3c 48 df 37 3d
       0.07481829 -0.09367464 0.01946799 0.044890672
000240 8b 66 0b 3e 35 b4 09 3e 1b e2 21 3d 80 c3 19 3e
       0.13613336 0.1344765 0.03952227 0.15015984
000250 43 91 0b 3e a1 15 6b bd f9 98 87 3d 67 24 fb 3c
       0.13629632 -0.057393674 0.06620974 0.030657006
000260 c5 52 36 3d b1 67 54 bd f8 65 18 bd 10 6d 3a be
       0.04451253 -0.0518567 -0.03720662 -0.18205667
000270 3b f0 b1 bd f6 37 39 3c 16 b1 d2 3b d2 25 ac bd
       -0.086883985 0.011304846 0.0064298017 -0.08405651
000280 e1 03 94 bd 73 36 10 bd 22 21 8d 3d 99 d0 73 bd
       -0.07227302 -0.035208177 0.06891085 -0.059525106
000290 f7 7c 1d be d4 8a 12 3e 03 30 bc 3c 8a 22 b1 3d
       -0.15379702 0.14310771 0.022972113 0.08649166
0002a0 52 88 45 3e 30 18 01 3e 3c 98 97 3a 23 d0 e0 bd
       0.19290283 0.12606883 0.0011565755 -0.10977199
0002b0 8e d7 d1 3d 53 98 54 bd 4f 9f b0 bc 2a 7c 82 bc
       0.10246192 -0.05190308 -0.02156034 -0.015928347
0002c0 a8 66 ec bd 25 43 40 3e e2 1b cc 3d d1 48 39 3c
       -0.115430176 0.18775614 0.09966256 0.011308865
0002d0 70 72 ab 3c 25 30 c9 3d e0 ee e3 bc 51 04 94 3c
       0.020928591 0.09823636 -0.027823865 0.018068464
0002e0 65 22 ca 3d 37 9d b1 3d fc 27 c9 bd 15 23 8b bd
       0.098698415 0.086725645 -0.098220795 -0.06793801
0002f0 3c b8 03 bd a8 6f 5b bd 31 9e 5b 3d 0d 84 e1 bd
       -0.03215812 -0.05357328 0.05361766 -0.11011515
000300 8b 19 17 bd dc fa 10 bd ea 67 9e bd d5 c3 e2 3c
       -0.036889594 -0.03539549 -0.07734664 0.02768127
000310 54 e8 28 bc 2c 15 d8 3d bf a4 13 3d 84 e2 86 3d
       -0.010309298 0.10550913 0.036045786 0.06586173
000320 13 48 f7 3d 88 83 41 bb 00 c5 36 bd bc 31 06 bb
       0.12074294 -0.0029527862 -0.044621468 -0.0020476421
000330 d9 86 cb 3d 29 05 72 bd 9d 0a b9 3d 9a a5 47 3d
       0.099378295 -0.059086952 0.090352274 0.048741914
000340 84 df 5b bd 5a 6a 99 3d ea dc 0e bd 65 c7 c0 bd
       -0.053679958 0.07490988 -0.03487865 -0.094130315
000350 2d eb be bd dd 72 90 3a f1 6a c6 bc 5d 28 dc 3d
       -0.093222 0.001102056 -0.024220916 0.10749886
000360 87 1a f3 3b 27 c4 44 bd 79 d1 02 be d5 83 02 3e
       0.007418934 -0.048038628 -0.1277522 0.12745602
000370 9f 2a 4b bd 9f 17 d9 bd e1 66 07 3d 4b f2 16 3d
       -0.049601194 -0.106002085 0.033057097 0.036852162
000380 4e 86 0c be 9b a1 e8 3c 19 d8 df bd 55 d8 ea bd
       -0.13723108 0.028397372 -0.10929889 -0.11467043
000390 38 fa 89 bd 7e 4d ef ba a7 51 cb 3c 44 ad ea bd
       -0.067371786 -0.0018257347 0.024819208 -0.11458829
0003a0 0f 5f da bd 98 bb bc 3d 6c 7d 46 3d 9f 91 be bd
       -0.10662662 0.09215468 0.048459455 -0.09305119
0003b0 8f db 67 3d 8c 4e 95 bc 88 83 4b 3c d4 ab 61 ba
       0.05660587 -0.01822593 0.012421496 -0.0008608673
0003c0 44 26 c4 bd a9 64 9b bd 78 67 32 3b 95 4a 86 be
       -0.09577611 -0.07587559 0.0027222317 -0.26228777
0003d0 f7 83 5d be a5 36 29 bb 70 b6 bf bd 61 0e b2 bd
       -0.21632372 -0.0025819924 -0.09360969 -0.08694149
0003e0 16 b6 bf 3d cb 4f 3d 3a 45 04 ca 3c f2 3b cd bd
       0.09360902 0.0007221668 0.024660239 -0.10021199
0003f0 8c 29 6c 3e 5d 4b 6b bd 5b 1e cd 3d 96 89 a6 3d
       0.23062724 -0.05744492 0.100155555 0.08131711
