results/ppo/Easy/Easy-31607.onnx (onnx, 72119 bytes, 5 tensors)

action_model._continuous_distribution.mu.weight f4 [1, 128]
000000 8a dc 6f bb 3b 88 75 bc c5 8e fb bb f1 65 bf bc
       -0.0036599957 -0.014986093 -0.0076769316 -0.02336404
000010 17 22 45 bc cb e7 3b bb 7a f7 46 bb b3 a9 24 3c
       -0.012032053 -0.0028672095 -0.003035991 0.010050225
000020 dd e9 8f ba 97 50 3b 3c 35 e7 db 3c 59 e5 4f bc
       -0.0010979731 0.011432788 0.026843647 -0.012688958
000030 19 49 b2 3c 38 c7 4f bc 44 4a cb bc 03 65 62 ba
       0.021763371 -0.012681775 -0.024815686 -0.0008636268
000040 66 60 53 3c c5 62 89 bc 48 07 b9 b8 b9 0a 65 bc
       0.012901401 -0.01677073 -8.822844e-05 -0.013979607
000050 fb 5f 90 3c e6 ae 86 3c 42 c7 a9 3c 2b 60 a4 bc
       0.017623892 0.01644082 0.020724896 -0.020065388
000060 76 63 c7 bc 88 95 68 bb 8a 5f 94 bb 27 30 98 bc
       -0.024339419 -0.0035489518 -0.0045279907 -0.018577648
000070 10 f1 a8 3c ed 00 04 3c 81 72 6b bc c9 5f 0a 3c
       0.02062276 0.008056861 -0.014370562 0.0084456885
000080 9e e3 93 3c ef d8 3f bc d7 49 fc 3c 04 ef 61 bc
       0.018052872 -0.011709436 0.030796928 -0.013789896
000090 44 5e fa 3b ab 8c 15 bb 9e 4c f3 bc 22 25 aa bc
       0.007640632 -0.002281944 -0.02969962 -0.02076966
0000a0 42 c9 8c bc 09 82 ed 3c 72 a8 ad bb 51 94 e6 39
       -0.017185811 0.02899267 -0.0052996213 0.00043979523
0000b0 e9 5d f1 3c 96 dc 7b 3c fc 03 b4 bb 26 03 06 bc
       0.029463725 0.015372416 -0.005493639 -0.008179462
0000c0 d7 29 d2 bc 21 85 1a 3c 58 5b 0c 3c ad b2 30 3c
       -0.025654716 0.0094311545 0.0085667 0.010784787
0000d0 88 2e fb 3c 01 c5 93 3c ac a3 28 bb f6 90 17 3a
       0.030661836 0.018038275 -0.0025732322 0.0005781794
0000e0 3b 83 1c 3c 53 88 11 bc 1b 16 98 bc 05 41 9e bc
       0.009552772 -0.0088826 -0.018565228 -0.019318113
0000f0 c8 5c d9 3c b6 2b df 3c 9b 43 87 3c 1e 2b 80 3c
       0.0265335 0.027242523 0.016511729 0.01564556
000100 0e 7d f5 3c 54 7f b3 3a 42 3a fc ba e6 40 58 bc
       0.029966857 0.0013694563 -0.0019243436 -0.013199067
000110 f7 82 e5 3c 86 b1 6d 3c 6e 92 c2 bc ca 07 b3 3c
       0.02801655 0.014507657 -0.023751464 0.0218543
000120 40 a1 99 3c 13 bd 01 bd da ee 4c bc fb 97 61 b9
       0.018753648 -0.031674456 -0.0125081185 -0.00021514289
000130 ce 4d 8f 3b e4 65 8e bb 0a 66 27 3c 14 9e bb 3c
       0.0043732887 -0.0043456424 0.010217199 0.022902526
000140 fd 5d 77 bb 40 4b 6e bc 8a 65 0f 3b d0 7b 2f bc
       -0.003774523 -0.014544308 0.002188059 -0.010710672
000150 95 90 04 bc c5 37 90 bc b4 bb 37 bd 9a 1f 75 3c
       -0.008091112 -0.017604718 -0.044856742 0.014961148
000160 ca fa b8 ba e7 1e 45 b9 24 8b 4b 3b 71 e5 04 3d
       -0.0014112827 -0.00018798896 0.0031058276 0.032445375
000170 40 c8 50 3c f9 cc 2b 3c 7e 46 0c bc d0 4c 2e bc
       0.012743056 0.010485881 -0.0085617285 -0.010638431
000180 0c e9 29 bc d5 89 62 bc 3e dc 9d 3c 86 3b 68 bb
       -0.010370504 -0.013826807 0.019270059 -0.003543587
000190 ce a6 ce 3c 26 36 06 bc e1 2c 39 bc 74 ac a5 3c
       0.025226023 -0.008191621 -0.011302204 0.020223834
0001a0 97 4f b3 3b f9 db af 3c 27 21 44 bc e1 6b dd 3b
       0.0054721343 0.021467196 -0.011970795 0.006757245
0001b0 d0 1e 26 bd 98 47 08 3c 93 30 31 bc 77 96 d3 3c
       -0.04055673 0.0083178505 -0.010814804 0.025828583
0001c0 fa 8a ad bb 9c d8 e8 3b b2 fd 27 3c 3c 16 26 ba
       -0.0052961083 0.0071059 0.010253357 -0.00063357106
0001d0 e9 04 44 3c 09 f6 52 3c 2b b3 a6 3b ec 58 93 39
       0.011964061 0.012876042 0.0050872765 0.00028104277
0001e0 5c 46 5b bc ce 98 9f 3c 77 42 6e 3c a0 12 c3 3c
       -0.013383474 0.019482043 0.014542214 0.023812592
0001f0 8b 93 3e b9 5e 2b 92 bc fd 56 71 bc 1f 2a 3c bb
       -0.00018174776 -0.017842945 -0.014730212 -0.002871163

network_body._body_endoder.seq_layers.0.bias f4 [128]
000000 4c 67 53 bb 50 6f 8d 3b 9c 04 18 ba 0d 77 34 bb
       -0.0032257615 0.004316248 -0.00057990267 -0.002753678
000010 e1 a9 6a bb cd d8 48 3b c5 e2 0d 3a 49 c7 af ba
       -0.0035806822 0.0030646801 0.00054125144 -0.0013410832
000020 dd f5 f4 3a e2 61 81 bb 34 e0 bf bb 59 3f 38 3b
       0.0018688996 -0.003948436 -0.0058555845 0.002811393
000030 3f 9d 87 ba 1a d5 9b ba 2c 26 17 3a cd 37 09 bb
       -0.0010346546 -0.0011889071 0.0005765881 -0.00209378
000040 f7 63 9a b8 e2 0c f4 3a fd 81 0d bb a2 54 3c bb
       -7.361912e-05 0.0018619562 -0.0021592372 -0.0028736969
000050 56 7d e8 b9 22 c5 08 3b ac 94 5a 3a 8a 74 a3 bb
       -0.0004434387 0.0020869453 0.0008338194 -0.004988258
000060 91 f0 4c 3b 33 29 44 bb 1c ed 89 bb f3 98 c3 ba
       0.0031271318 -0.0029931783 -0.004209174 -0.0014922902
000070 31 5a 95 bb bb db fb bb f5 9b 11 3a 63 3d cf 39
       -0.004557871 -0.007686106 0.00055545504 0.00039527853
000080 47 46 e5 ba fd 32 16 3b 60 21 0b 3b b9 8e fd b8
       -0.0017492258 0.0022918575 0.002122961 -0.00012090564
000090 17 7d 65 3b 02 68 a0 3a d0 df 0e bb e9 a3 ff 39
       0.0035017186 0.0012238028 -0.0021800883 0.00048759513
0000a0 7a ab 6b 3a 34 4d ba ba 0b ec ae ba a3 86 3a 3a
       0.00089900906 -0.0014213682 -0.0013345493 0.00071153993
0000b0 2a f0 02 3b 74 42 31 3b e6 16 f8 3a 06 ee 80 bb
       0.0019979575 0.0027047666 0.0018927723 -0.0039346246
0000c0 a9 d6 1f 3b 56 82 05 3b 0f 60 98 bb da 63 8e 3a
       0.0024389422 0.0020371876 -0.004650123 0.0010863498
0000d0 3e ea 8c bb e3 4d 64 3b c0 0d b8 3a 57 36 18 3b
       -0.004300385 0.0034836463 0.0014042184 0.0023225748
0000e0 88 ce 4c ba 91 03 33 3c de 21 93 3b fa d3 9b ba
       -0.0007812758 0.010926143 0.0044901213 -0.0011888735
0000f0 c3 9d 7f ba 41 23 03 bb f3 d7 78 3a 26 a0 5e bb
       -0.00097509864 -0.0020010027 0.0009492628 -0.0033969968
000100 f4 24 a3 39 cd 99 c8 ba c1 0e b8 39 90 10 07 ba
       0.00031117315 -0.0015304625 0.00035106207 -0.00051523093
000110 c9 18 aa 3a 0a 03 ee 3a 6a a0 3a 3b 37 0b fd b9
       0.0012977357 0.0018158865 0.0028476962 -0.00048264276
000120 79 db 05 3b 8c d3 32 b8 2e 75 96 ba f7 4f 73 3b
       0.0020425005 -4.2635525e-05 -0.0011479014 0.003712652
000130 41 06 aa 3a d3 33 5b bb db 0b 62 3a e6 a2 e8 b8
       0.0012971835 -0.0033447638 0.00086229824 -0.00011092964
000140 03 31 93 ba 48 1d 53 ba ae 17 d9 b9 2b c0 5b 3a
       -0.0011229817 -0.00080533745 -0.00041407108 0.0008382822
000150 f3 1b ba 39 4c ed ae 3b 81 16 50 bb 2f 5a 06 bb
       0.00035497508 0.0053383466 -0.0031751695 -0.002050053
000160 4b 5c 92 b9 97 f7 82 ba 20 04 3a bb 9c 51 a0 3a
       -0.00027916054 -0.0009992 -0.0028383806 0.0012231353
000170 db e7 d9 b9 34 ed 98 ba 4c 2e 17 ba ee 84 23 bb
       -0.0004156221 -0.0011667372 -0.00057670916 -0.0024951058
000180 af 38 3c bb c4 fa 90 39 99 d2 77 ba fb f6 bb 3a
       -0.002872031 0.00027652655 -0.0009453684 0.0014340574
000190 41 d9 e0 3b 05 00 23 3b c7 73 a8 bb ce 90 ad ba
       0.006861836 0.0024871838 -0.005140755 -0.0013242008
0001a0 9f 90 15 3a bd 24 67 39 3a c1 ea 39 cd 81 35 3a
       0.0005705449 0.00022043563 0.00044775923 0.0006923944
0001b0 db 86 84 ba d8 f0 c1 3b 3a aa b7 bb 83 16 73 bb
       -0.0010110991 0.0059186034 -0.0056050094 -0.0037092275
0001c0 ee f6 28 bb 82 57 fe ba 92 c6 e8 39 36 f7 bb ba
       -0.0025781947 -0.0019404741 0.00044398435 -0.0014340642
0001d0 62 52 da 39 2d 60 f4 b9 f6 78 0d ba d7 9e 8a bb
       0.0004164158 -0.00046610963 -0.0005396748 -0.004230361
0001e0 0c cd f6 3a b3 70 f6 39 fe ba a0 ba 54 95 c0 39
       0.0018829419 0.00047004744 -0.0012262759 0.00036732352
0001f0 3c c2 d8 37 68 5a a4 bb 65 8d 0e bb 16 8f 02 bb
       2.5839654e-05 -0.00501566 -0.0021751758 -0.0019921712

network_body._body_endoder.seq_layers.0.weight f4 [128, 6]
000000 03 c4 5d be d2 84 c1 3e 71 df 9f 3e c3 9e b3 3e
       -0.21656804 0.37796646 0.3122516 0.35082063
000010 8b 4a 6a 3f 1e 14 d5 be f1 f2 cb 3e 7a 44 88 be
       0.91519994 -0.4161691 0.39833787 -0.26614743
000020 e3 0b b4 be 53 01 23 3f 32 d6 1f be 29 d1 0c be
       -0.3516532 0.63673896 -0.15609053 -0.13751663
000030 db 84 d3 bd 5e 9a 72 be 16 67 8b be d1 44 4a be
       -0.103280745 -0.23691699 -0.27227086 -0.19752814
000040 17 4e 15 3e 00 52 5d 3d 0c 1d 10 bd 27 05 5e be
       0.1458057 0.05403328 -0.03518395 -0.21681653
000050 a2 2a fe bc bb c6 d9 3d ff a5 2b 3e 8b 45 39 3d
       -0.031026188 0.10633608 0.16762541 0.045232337
000060 77 87 1f bf 4d 72 2a 3f c4 7b 5c 3f 73 9d 72 3f
       -0.6231608 0.6658066 0.8612635 0.947715
000070 43 44 c7 be 27 24 6e bf 89 bc e1 be 51 93 9e be
       -0.38919267 -0.93023914 -0.44089153 -0.30971768
000080 ce 1f a2 3d 53 b7 99 bd 86 74 2c be 4e 4d 34 3f
       0.079162225 -0.075056694 -0.16841325 0.7043046
000090 92 4d ab 3e d0 81 72 3e 23 ff 24 be 01 fa 22 3e
       0.3345762 0.23682332 -0.16112952 0.15915681
0000a0 27 fb 18 be 0a a3 3e 3f ba 8b df 3e d5 67 dc be
       -0.14939557 0.7446753 0.4366129 -0.43047968
0000b0 9f af 73 3e 81 38 00 bf a9 5e 21 bf 2f fb af bd
       0.23797463 -0.5008622 -0.63035065 -0.08592831
0000c0 ce f3 4b be c4 5e f0 3e 03 81 79 3e 40 1f ed 3e
       -0.19917223 0.469473 0.2436562 0.46312904
0000d0 17 47 1b be bc 3c c2 be 63 1d 13 3f 78 08 0c bf
       -0.15163837 -0.37936962 0.57466716 -0.5470042
0000e0 08 c2 82 3c 7a 35 9f bc d7 6c 65 bc 3e f7 42 3f
       0.015961662 -0.01943468 -0.014003 0.7615851
0000f0 ae b7 5b 3d 17 e0 2c be ec 95 bf 3e 6a fb eb 3e
       0.053641967 -0.16882358 0.3741907 0.4609025
000100 56 a1 1f 3e f1 50 0b bf 2a 79 0f be 31 a2 d0 3e
       0.15588889 -0.5442038 -0.14011064 0.40748742
000110 89 a6 02 3e 8c 0a 30 3d da ca c9 3e 51 04 ba bc
       0.1275884 0.04297881 0.39412576 -0.022707136
000120 e6 84 07 3f cd bd 28 be 19 ff 4f 3e f3 7a 91 3e
       0.5293716 -0.16478653 0.20312156 0.28414115
000130 77 51 05 be 39 89 6f be 73 10 61 be 3e f4 a4 bd
       -0.13019358 -0.2339219 -0.21978931 -0.08054398
000140 0a a2 d5 bc 5a de 02 be 18 a7 ed be a2 fd ed 3d
       -0.026078243 -0.12780133 -0.46416545 0.11620642
000150 bd 67 cd 3e 22 19 32 3e 55 dd 0e 3e 8c 19 62 3f
       0.4011821 0.173924 0.13951619 0.8832023
000160 65 26 95 3d 7f 86 d0 3e d0 f5 11 3f 5f a1 39 be
       0.07282714 0.40727612 0.57015705 -0.18127964
000170 1f 10 c8 3d 62 a5 dc bd fb e7 2d bf d2 34 5a be
       0.097687 -0.10773732 -0.679321 -0.21309212
000180 4e e3 a2 bd 78 61 fc bd 88 e7 c4 3e 05 ca 4c bf
       -0.07953511 -0.12323278 0.38457894 -0.7999576
000190 f5 c9 18 be 63 4c c0 bd ed fe 50 3d ba 8d 18 3e
       -0.1492079 -0.093895696 0.051024366 0.14897814
0001a0 cc f0 bf 3e be 7c 17 be ef 75 3d bf 57 f1 ef bd
       0.374884 -0.14793679 -0.7400808 -0.11715954
0001b0 f2 a7 13 3e 08 8a f8 bd d1 20 6a bc 78 8d cd 3e
       0.14419535 -0.12135702 -0.014290051 0.40146995
0001c0 8e 67 1b 3f 31 6b 95 be ad 62 bf 3e 10 ff 21 3e
       0.60704887 -0.29183343 0.3737997 0.15819955
0001d0 0f 98 10 3e 26 dc 19 be cd 0a c2 bb 76 94 9c 3c
       0.14120506 -0.15025386 -0.0059216977 0.01911376
0001e0 9c e8 63 be f1 ac 0d 3f 13 be e6 3e d7 7b 24 3c
       -0.22256702 0.5534201 0.4506689 0.010039291
0001f0 85 9f 85 3b 94 a8 c6 be eb 63 98 3e 8d 6c 84 3d
       0.004077854 -0.3880049 0.2976373 0.06466017
000200 cf 09 bb 3d 17 a6 61 3f b2 16 21 bf b6 6f 44 bf
       0.0913273 0.8814406 -0.62925255 -0.7673296
000210 98 52 13 bf bb a8 35 bd c4 15 6a 3e 1d 2d 45 3f
       -0.57547903 -0.044350367 0.22859865 0.7702196
000220 e2 27 71 3f 7b 67 1c bf 9d b5 0f 3f de 29 e9 be
       0.9420148 -0.610954 0.56136495 -0.45539755
000230 98 5d 88 bf 19 d6 81 3e 92 6d 49 be 30 55 a0 be
       -1.0653563 0.25358656 -0.19670704 -0.31314993
000240 b5 f9 5a bc f4 71 26 bf dc fd 00 bf 9a f3 58 3e
       -0.013365199 -0.6501763 -0.5038736 0.21186677
000250 1e 10 92 be f2 36 31 bf ff 1a 50 3d 28 fd 56 bd
       -0.2852792 -0.69224465 0.050806995 -0.052487522
000260 09 86 bd 3e be bd c6 3e 8c 43 ea 3d fd 67 62 3d
       0.37016323 0.38816637 0.11438665 0.055274952
000270 8b 9a 1b 3f bf 19 ad 3d 7e 16 41 bc e8 bc 33 be
       0.6078269 0.08452176 -0.011785148 -0.17552531
000280 0e 24 20 bf 73 89 e9 3e 24 5e 2c 3e 37 54 24 3d
       -0.62555015 0.45612678 0.16832787 0.040119376
000290 e1 16 41 3e 88 ab 15 bf a0 2f 9b be b2 6a 32 3e
       0.18856384 -0.5846486 -0.30309772 0.17423514
0002a0 7b 5b 10 bf 97 d6 4c 3e c5 79 0c be 8d 5d 17 3f
       -0.5638959 0.20003735 -0.13718326 0.5912712
0002b0 8d 9a ba be 33 c8 69 be 05 8f eb 3c 06 12 f2 bc
       -0.36446038 -0.22830276 0.02875472 -0.02954961
0002c0 33 58 08 3e ed ec 62 be 64 6d ee 3d bd a4 72 3e
       0.13314895 -0.22160693 0.11641958 0.23695655
0002d0 cf 7b 9c 3d ce 52 a5 bd 91 65 2c bd f1 95 77 3e
       0.07640802 -0.08072434 -0.04208905 0.24178292
0002e0 e1 05 18 bf 07 36 cf be 35 08 b1 3e 46 19 04 3d
       -0.5938397 -0.40470907 0.34576574 0.032250665
0002f0 57 41 4a 3e 6d 45 9d 3e a5 b3 f0 3e b2 15 b8 be
       0.19751488 0.3071703 0.47012058 -0.35954052
000300 15 43 17 3e 06 d5 85 be 40 ce 9d be ba 08 ed be
       0.14771684 -0.26139086 -0.3082142 -0.4629572
000310 85 0e ed 3e c5 9c d1 bd 29 d3 b3 3c 7f e5 94 be
       0.4630014 -0.102349795 0.021951275 -0.29081342
000320 5d 44 01 3f d6 54 18 3f 31 e1 e2 be 55 87 67 3e
       0.5049494 0.5950445 -0.44312432 0.22610219
000330 03 f8 21 be fe 91 ba 3e ab d4 05 3f 43 e2 ac 3e
       -0.15817265 0.36439508 0.5227763 0.33766374
000340 32 d2 0f bd 6a 05 ac 3d d2 c1 59 3e ca 73 ff 3c
       -0.035112567 0.0839947 0.21265343 0.031183142
000350 1e 93 12 3f 9e 74 7f be 54 73 3d 3f 72 b2 68 3e
       0.57255733 -0.2494683 0.740041 0.22724321
000360 01 ca 5e 3e 24 fb 1e 3f e9 14 d4 3e 56 0c 5b bd
       0.21756746 0.6210196 0.41422203 -0.05347856
000370 80 78 fa 3e 81 b0 2c be 33 4f d0 bd cc 55 4e be
       0.4892006 -0.16864206 -0.10171356 -0.20149916
000380 7a 55 de 3e 36 21 29 bf 64 34 04 be fb 5e 11 3e
       0.43424588 -0.660663 -0.1291061 0.14196388
000390 55 51 1a bf ec 63 49 3e ba d1 a4 be 99 c1 fc be
       -0.6028035 0.19667023 -0.3219126 -0.49366453
0003a0 95 77 14 3f cc bd 05 3f 71 23 13 bf c5 a0 c1 3e
       0.5799497 0.5224273 -0.57475954 0.3781797
0003b0 67 c1 27 be d2 63 ad be 3d 02 12 3e 42 fa b0 be
       -0.16382371 -0.3386522 0.14258666 -0.34565932
0003c0 b4 87 9d 3e 12 22 9a 3f 43 6e d6 3e a9 08 ad bd
       0.30767596 1.2041647 0.41880998 -0.084489174
0003d0 0a 73 3c 3f a8 11 15 3f df 6f 00 3f f7 94 b6 3e
       0.73613036 0.58230066 0.501707 0.35660526
0003e0 cb c9 96 be 2b e0 d1 3e e6 26 96 be 7e a4 ad be
       -0.2945083 0.4099134 -0.29326552 -0.3391456
0003f0 02 1e c3 be de d4 f6 3e bc a6 14 be 8e 19 2f be
       -0.38108832 0.4820928 -0.14516729 -0.17099592

network_body._body_endoder.seq_layers.2.bias f4 [128]
000000 71 c9 26 bb 00 38 c4 ba 31 55 ea 3a 44 64 58 38
       -0.0025449658 -0.0014970303 0.0017878172 5.1591793e-05
000010 93 25 4d 3b bd a4 8a ba e2 7f 3b bb 54 31 de b8
       0.0031302914 -0.001057766 -0.002861016 -0.00010594973
000020 7d 24 01 bc 33 94 a6 3a 7a 0c d7 ba fd 4e 1b ba
       -0.007882235 0.0012708962 -0.0016406917 -0.0005924551
000030 b3 e7 43 3a 48 03 10 bb cd 94 a7 b9 80 26 2c bb
       0.00074731855 -0.0021974612 -0.00031963587 -0.0026268065
000040 51 08 bc ba 2c fd 36 bb 1a 2e 7d bb 0c 1c 25 3a
       -0.001434574 -0.0027921898 -0.0038632215 0.000629843
000050 ba b2 54 ba d6 e3 ab 39 f1 99 a6 38 64 03 d7 39
       -0.00081137905 0.00032785413 7.944171e-05 0.00041010522
000060 c4 78 1c ba 6a f7 a5 bb 88 b1 b3 ba 66 c1 a1 3b
       -0.0005968923 -0.0050648944 -0.0013709525 0.004936385
000070 93 e0 66 3b 2b 25 82 3a a1 d5 dc ba ca 63 5b 3a
       0.0035229072 0.000992929 -0.0016848334 0.0008369057
000080 23 a4 b5 3b e2 1e 45 b9 46 e5 7c ba b3 27 59 ba
       0.0055432483 -0.00018798889 -0.00096472015 -0.0008283809
000090 e1 f9 79 3a 14 08 ef ba 46 74 1e 3b c9 62 1e bb
       0.0009535831 -0.001823666 0.002417819 -0.0024167767
0000a0 a5 4c e8 ba a1 96 91 3a b1 7a d6 ba 36 bd 3b bb
       -0.0017723037 0.0011107513 -0.0016363469 -0.0028646714
0000b0 fe 2d 57 3b ec c9 8b bb bd 78 01 bb c9 c7 11 3b
       0.003283381 -0.0042660143 -0.0019755804 0.0022244325
0000c0 e7 5b 6d bb 2c 89 8f 3a f5 d5 e0 ba 38 53 49 3b
       -0.0036218108 0.0010950915 -0.0017153608 0.0030719768
0000d0 19 94 85 3a a4 ed 38 3b 7e 34 73 bb 47 99 c2 bb
       0.0010191231 0.0028217817 -0.0037110145 -0.0059386822
0000e0 02 89 12 ba da c8 9b 39 7f 2f 3f bb d6 19 d9 39
       -0.0005589874 0.0002971355 -0.0029172597 0.00041408715
0000f0 78 d1 06 bb 10 2f 66 3b 50 ab 70 bb 41 c6 3d 3a
       -0.002057163 0.0035123266 -0.0036723204 0.000723932
000100 ff 6d 50 3a 8d 72 df 34 e1 81 ac 3a d1 51 de b9
       0.0007950961 4.1620333e-07 0.0013161266 -0.00042404098
000110 09 d4 b3 39 4b 76 ef 3a c9 64 16 bb cb f5 90 ba
       0.0003429952 0.0018269507 -0.0022948256 -0.001105958
000120 0a 7c 1f bb d9 60 bf 3a 5c 78 20 3a f2 5d 4c bb
       -0.0024335408 0.0014601006 0.00061214506 -0.0031183925
000130 88 95 6c ba bf b6 1d bb 2b 6e 1b 3b 61 8f e4 39
       -0.00090249674 -0.0024065224 0.0023716788 0.00043594374
000140 7d c6 0b bb cb b8 d1 b9 96 d8 d0 39 c6 ca b9 3a
       -0.0021328025 -0.00040001268 0.0003983422 0.0014174811
000150 fc 14 dc b9 bc d5 02 ba eb 56 d0 b9 36 14 84 3b
       -0.00041977304 -0.00049909553 -0.0003973761 0.0040307296
000160 b0 3d 2d bb 91 ce 78 bb ef 6c 49 b6 6a fd 59 ba
       -0.0026434474 -0.003796492 -3.0014742e-06 -0.00083156547
000170 64 fb 09 39 31 a5 47 b8 99 10 b1 ba 83 02 f2 ba
       0.00013158988 -4.7599144e-05 -0.0013508975 -0.0018463883
000180 bd 73 84 ba 57 62 25 b9 76 3b 9e 3a 57 cf 57 bb
       -0.0010105293 -0.0001577226 0.0012072164 -0.003292998
000190 62 66 2e 3b 9a 6a 15 bb ef ba c3 39 d7 2a b5 ba
       0.0026611318 -0.0022799135 0.00037332575 -0.0013821971
0001a0 cf 80 15 3a 34 67 a3 39 5e f8 fe ba 7e 94 97 39
       0.0005703093 0.00031166675 -0.0019452681 0.000289116
0001b0 98 d7 85 bb 62 4d 1a 3b b3 16 61 ba b7 97 b8 3a
       -0.0040845387 0.002354466 -0.00085864513 0.00140833
0001c0 72 61 65 ba 03 55 53 ba a0 fe bd 39 ba 83 ec ba
       -0.0008750177 -0.0008061679 0.000362386 -0.0018044629
0001d0 9f ee 38 3b 7e e9 f8 3a 12 4f d3 ba 52 63 17 bb
       0.00282184 0.0018990485 -0.0016121587 -0.002309997
0001e0 4a 95 e9 ba 52 02 69 3a 92 aa e7 39 10 74 1e 3b
       -0.0017820981 0.00088885904 0.00044186838 0.0024178065
0001f0 67 56 8f bb 0b 50 96 ba 69 82 24 3b 03 cf bb ba
       -0.0043743136 -0.0011467946 0.0025102145 -0.0014328662

network_body._body_endoder.seq_layers.2.weight f4 [128, 128]
000000 68 b7 0c be f3 18 09 be 0b 4b 62 3d be ca d2 3c
       -0.13741839 -0.13388424 0.055247348 0.02573144
000010 95 54 4c bd 4c af fe 3c c6 1e 14 3e 38 08 ed 3d
       -0.04988535 0.031089447 0.14464864 0.11573833
000020 48 99 0e bc e8 85 15 3d 82 d8 69 3d d8 d9 18 be
       -0.008703537 0.036504656 0.057091244 -0.14926851
000030 37 e9 0e 3d 42 d9 e5 bd 1f 74 4c bd 38 70 f2 bd
       0.03489038 -0.11223079 -0.04991543 -0.1183781
000040 98 a4 0c be 2a 39 d9 bd d4 83 78 bd 82 0c 91 bd
       -0.13734663 -0.10606606 -0.060672596 -0.07082464
000050 85 37 c9 3d 28 7f f4 3d 82 71 50 bd 0c d7 1f bd
       0.09825043 0.11938316 -0.0508895 -0.039023444
000060 60 a1 9e 3d c3 c9 b2 bd dc 97 6f 3e b0 2a 91 bc
       0.077456236 -0.08729889 0.23397774 -0.01772055
000070 10 cd 3d bd 5d da 92 3d e7 dd 9b bc 04 fb a7 3d
       -0.04633814 0.07170556 -0.01902671 0.08202174
000080 57 22 5c bd fa e1 02 be 59 a6 67 3d c7 21 99 3d
       -0.053743687 -0.12781516 0.056555126 0.07477146
000090 1a 1c 37 3d 9a b3 46 3d 10 e4 00 be 26 94 4c 3d
       0.044704534 0.048511125 -0.12586999 0.049945973
0000a0 2a cf fb bc 7a 4d f8 bc e3 66 78 3d fa 45 83 bc
       -0.030738432 -0.030310381 0.060644995 -0.016024578
0000b0 9c c4 1d 3d 61 f0 f1 3c 43 fe 0c bd e8 26 03 be
       0.03851758 0.029533567 -0.03442217 -0.1280781
0000c0 5a 1d 3b bd 97 05 db bc ea a9 57 bd 26 32 91 3d
       -0.04568229 -0.026736064 -0.052652277 0.07089643
0000d0 e4 74 50 bc 1f 8a f6 bc af 8e 98 3c 81 21 6a bd
       -0.012723181 -0.030095158 0.018622724 -0.057160858
0000e0 ae fb 7c 3c 51 5f 8b 3d 4d 6e c2 bd 2e 2f f8 3c
       0.0154408645 0.068052895 -0.094936945 0.030295935
0000f0 6c 89 ba 3d aa e8 ab bc d9 09 e3 3c 60 ff 4d bd
       0.091082424 -0.020984966 0.027714657 -0.050292373
000100 06 ef 81 3c 64 e9 32 3e fc 63 0d bd 0e 87 d3 bd
       0.015861046 0.17471844 -0.03451918 -0.10328494
000110 93 55 a2 bc 59 05 6d bd 8d 9d 90 bd a7 29 fa bd
       -0.019816196 -0.057866428 -0.070613004 -0.12214976
000120 53 84 52 3e 0b ed 13 3d 71 da 28 be ac 55 c2 bc
       0.2055829 0.036114734 -0.16489579 -0.023722492
000130 d4 7c 23 3d 35 4d 11 3c 6e ab 52 bd 4a 37 09 3d
       0.039913967 0.008868505 -0.05143302 0.033499993
000140 e1 f1 be 3d 1e 0c 7d 3e 99 b3 ac 3c 13 15 c1 3c
       0.093234785 0.24711654 0.021081733 0.02356962
000150 02 5c 96 3d 3b e6 81 3d 61 8e 26 bd fd 57 57 3d
       0.07341768 0.06342741 -0.040663127 0.052574147
000160 76 15 3b bd 6a 68 4a bc 27 54 57 bc 4a b5 f6 3b
       -0.045674764 -0.012353996 -0.013142622 0.0075289356
000170 05 bd 51 3d 40 79 ce bd 07 07 12 be 7e 02 9e bd
       0.051205654 -0.1008172 -0.14260493 -0.07715319
000180 e0 7d f2 bd 75 24 7d bd 91 70 a6 3c 56 98 65 bc
       -0.11840415 -0.061802346 0.020317348 -0.0140133705
000190 5b 5f f4 3c df 66 23 bc c3 fd 45 3d 4e 8e ab 3c
       0.029830625 -0.009973257 0.04833771 0.02094188
0001a0 51 e4 56 3c bc 28 91 3d 85 09 39 be 36 9a 30 bd
       0.013115958 0.070878476 -0.18070038 -0.043115817
0001b0 de 6d d4 bd 42 d8 5a 3d 02 ed 88 3d f8 48 b9 3d
       -0.10372518 0.053428896 0.06685831 0.09047121
0001c0 71 b9 e2 3c 2c 95 15 3e 5f c5 89 be fa f6 ed bd
       0.027676316 0.14607686 -0.26908395 -0.11619373
0001d0 15 4f bb 3d e4 5c ab ba 73 b0 90 3d a4 c8 c9 bd
       0.09145943 -0.0013073948 0.07064905 -0.09852722
0001e0 4e c9 20 3e a5 67 08 bc 38 55 f0 ba 91 ca 83 3b
       0.15701792 -0.008325492 -0.0018335944 0.0040219505
0001f0 0e 34 8f bc b1 79 1a 3d c8 08 3e 3c 2f b6 72 3b
       -0.017480876 0.03771371 0.011598773 0.003703486
000200 7e 60 08 3e 93 b7 b5 bd 0a 70 38 3c 4b d4 39 3d
       0.13318059 -0.08872905 0.011257181 0.045368474
000210 16 70 28 3d 1b 54 34 bd 0c 62 e2 3c 58 1c a8 3d
       0.04112252 -0.04402552 0.027634643 0.08208531
000220 d8 6c 0c 3e d2 9f ba 3b 5f a3 19 3d d5 eb 7f be
       0.13713396 0.0056953216 0.03750932 -0.24992307
000230 4f 90 0e 3d 00 9b a7 3d 37 ea 5b 3c 72 1c 5b bc
       0.034805592 0.08183861 0.01342254 -0.013373481
000240 4e c2 74 3d 08 60 78 3d ef f5 5b 3d c3 30 32 bd
       0.059755616 0.060638458 0.053701337 -0.043503534
000250 4b 1d 29 3e ad 8f 39 bd 6a 0f c2 3d de 55 9e bd
       0.1651508 -0.045303036 0.09475596 -0.077312216
000260 bc 12 99 3d 9c 19 c9 bc 31 db 86 3d 49 d3 8d 3d
       0.074742764 -0.024548344 0.06584776 0.06925065
000270 09 9c 09 3d cc 02 c6 3d c2 ee 02 3d b5 83 f4 3d
       0.033596072 0.09668502 0.03196598 0.119391836
000280 e0 df ca bd 0e 5b b3 bd c6 2a 28 bc a8 a7 c0 bd
       -0.09905982 -0.08757602 -0.010264104 -0.09406978
000290 69 21 67 3d 68 0c e1 3d 66 56 af bd 85 dc 7e 3d
       0.056428347 0.109886944 -0.08561401 0.062222023
0002a0 d4 5d 4c 3d b3 16 cf bd d0 d4 1e 3d c8 eb 9a bd
       0.04989417 -0.101117514 0.038777173 -0.07564503
0002b0 69 b0 be 3d 5d 61 03 3d 32 46 88 b9 52 05 cf 3d
       0.09310991 0.032075275 -0.0002599224 0.10108437
0002c0 d6 cf cb 3c 15 20 14 3d c9 e6 10 3c fe f5 21 3e
       0.024879377 0.03616341 0.008844086 0.15816495
0002d0 92 5d c5 bd 50 75 95 3d a4 59 c6 bd 91 89 56 3d
       -0.09636988 0.07297766 -0.09685066 0.052377287
0002e0 ca 52 20 3c 2e b1 0c 3e f3 07 0a 3d 69 c3 e4 3c
       0.009785363 0.13739464 0.033698987 0.02792521
0002f0 0e ae 92 3d 1f af 1a be 1a 3a d5 3d bf 5b 2b bd
       0.071621045 -0.15105866 0.104114726 -0.041835543
000300 42 0e 6b bd 17 d6 be bc 29 0a 9c bc e1 92 14 3e
       -0.057386644 -0.023295445 -0.019047813 0.14509155
000310 55 4b 09 3d 19 3d e9 bd d0 62 d2 bc e2 d5 c1 3c
       0.033519108 -0.113886066 -0.025681883 0.023661558
000320 d5 5b 22 3e a2 8a 43 3d 98 96 2a bc 6d ad b9 3c
       0.15855344 0.047739632 -0.010411881 0.022665704
000330 d7 b5 6e bc a0 8b f4 bd 80 2c c8 3d b7 23 f6 3d
       -0.014569721 -0.11940694 0.09774113 0.12018531
000340 38 e5 c1 3b 47 2b 23 bd 3f 1b 67 bd 0f db 68 bd
       0.0059172176 -0.039836194 -0.05642247 -0.056849536
000350 46 45 61 3d e3 be 03 bc ea a1 8f 3c f7 cf 57 3e
       0.054997705 -0.008041116 0.017533261 0.21075426
000360 89 ea 47 3e d7 72 83 3d bc c8 89 3d 01 3c e7 3d
       0.19523062 0.06418388 0.0672774 0.11290742
000370 50 88 e8 3d 27 9e 7e be 84 47 8e 3d b8 12 83 3b
       0.113541245 -0.24865018 0.06947234 0.004000034
000380 b7 75 b5 bd 9f e7 8c bd f0 1c c6 3d eb 64 ba 3d
       -0.08860343 -0.06880116 0.09673488 0.0910128
000390 24 f0 87 ba 8e 96 2b 3d dd b2 9d 3d 76 c5 58 3d
       -0.001037125 0.041891627 0.07700131 0.05292269
0003a0 c8 f0 ba bd 1c 4b 6f bd 0a c3 1c be ef b7 93 bd
       -0.09127957 -0.05842124 -0.15308776 -0.07212817
0003b0 c9 75 d5 bb 07 18 aa 3c 5b 2e 50 3e c7 9a 37 3c
       -0.006514285 0.02076341 0.20330183 0.011206335
0003c0 1a 91 3f 3e 98 d9 0c be 7b b0 4c 3c 6b 0e 5c 3c
       0.18707696 -0.1375488 0.012493248 0.013431172
0003d0 d6 8a 28 be 6a c3 f6 bd 5f 84 ea 3c 77 24 04 3d
       -0.16459212 -0.12048991 0.028627573 0.032261338
0003e0 7f 4d 98 3d de 5f d8 3d c9 a0 4e 3d b8 dd 9a bd
       0.07436656 0.1056516 0.050446305 -0.07561821
0003f0 a2 c7 7c bd d1 29 cb bd ee 93 dd bc 43 40 51 3d
       -0.061713822 -0.09920085 -0.027048077 0.051086675
